Saves/3_chan_ep_20.pth (torch, 156476 bytes, 38 tensors)

sage.0.lin_rel.weight f4 [16, 4]
0.009171753 0.11920506 -0.25386062 0.004831549 0.063811764 0.02699369 1.7263627 0.5598156
0.19843432 -0.076743364 1.6596522 0.53543884 0.02507486 -0.026642276 1.1208872 0.32003075
0.067051634 0.025743647 -1.6903622 -1.1994381 -0.039413597 0.112731755 1.5831907 0.526696
-0.01963883 0.057779834 1.3289616 0.3628454 -0.24365582 0.36824533 -0.4185892 -0.14752012
0.3872537 0.29468152 1.5614498 0.48621488 -0.021711066 0.04255241 1.106783 0.31113318
-0.20542584 6.219517e-05 -4.178377 -0.48561257 0.06094766 -0.14128062 -3.447812 -0.14889108
0.02410683 0.06893493 1.1053077 0.31123972 -0.0492413 0.07158113 1.6326325 0.48466927
0.030724654 0.09493033 1.1120323 0.31626642 -0.18660681 -0.38731092 1.2574781 0.44881043
00000000: 1f45 163c c821 f43d 05fa 81be f851 9e3b
00000010: beaf 823d df21 dd3c 74f9 dc3f 1350 0f3f
00000020: 5e32 4b3e a02b 9dbd 7c6f d43f 8512 093f
00000030: cb69 cd3c e740 dabc 3b79 8f3f 12db a33e
00000040: 5e52 893d 57e4 d23c ca5d d8bf 3087 99bf
00000050: 2770 21bd e8df e63d fea5 ca3f 8dd5 063f
00000060: 9de1 a0bc 8caa 6c3d 6a1b aa3f dfc6 b93e
00000070: e980 79be a78a bc3e 5351 d6be 840f 17be
00000080: 1e46 c63e 7fe0 963e 96dd c73f 28f1 f83e
00000090: 68db b1bc 704b 2e3d 11ab 8d3f d94c 9f3e
000000a0: 275b 52be c76e 8238 44b5 85c0 36a2 f8be
000000b0: 41a4 793d deab 10be f4a8 5cc0 e776 18be
000000c0: b07b c53c c22d 8d3d b97a 8d3f d05a 9f3e
000000d0: 3fb1 49bd 2199 923d 1afa d03f 9226 f83e
000000e0: 45b2 fb3c d56a c23d 1357 8e3f aced a13e
000000f0: db15 3fbe 9e4d c6be 0bf5 a03f 7bca e53e

sage.0.lin_root.weight f4 [16, 4]
0.10056116 0.16708465 0.33640727 0.25437003 0.12742953 -0.0076611983 0.5131767 0.66345733
-0.13566993 0.22340186 0.49159926 0.68450063 0.088786796 0.10425928 0.41863936 0.5999944
-0.41254705 -0.33035278 -0.88336015 -1.1922698 0.108039096 0.029363904 0.47029462 0.6492191
0.096668884 0.06469158 0.44763368 0.64624715 0.3483791 -0.034538265 0.23155491 0.14823486
-0.08312093 -0.3770135 0.56372565 0.67349035 0.13836181 0.036394063 0.4239074 0.6075356
-0.028477881 -0.1766205 -1.3614537 -0.8273171 -0.22141264 0.09192048 -0.32044476 -0.23633602
0.09139314 0.009292941 0.42457 0.60920876 0.12067115 0.07460536 0.49292523 0.6808822
0.08392902 -0.01764157 0.42153853 0.60595596 0.54379714 0.31710386 0.3653984 0.5345054
00000000: 02f3 cd3d 3d18 2b3e 933d ac3e ca3c 823e
00000010: e37c 023e ca0a fbbb 8c5f 033f 57d8 293f
00000020: 0fed 0abe 75c3 643e e6b2 fb3e 6f3b 2f3f
00000030: dad5 b53d e485 d53d e657 d63e 3c99 193f
00000040: 5e39 d3be 0024 a9be e423 62bf 4c9c 98bf
00000050: 9a43 dd3d 928c f03c 75ca f03e 3933 263f
00000060: 56fa c53d 057d 843d 3e30 e53e 7470 253f
00000070: bf5e b23e ff77 0dbd bb1c 6d3e e1ca 173e
00000080: 4e3b aabd ea07 c1be 5350 103f dd69 2c3f
00000090: b8ae 0d3e f111 153d 640a d93e 7487 1b3f
000000a0: 724a e9bc 01dc 34be 1d44 aebf 0ecb 53bf
000000b0: ffb9 62be ce40 bc3d 5611 a4be 1202 72be
000000c0: 542c bb3d 6b41 183c 3d61 d93e 1bf5 1b3f
000000d0: 7022 f73d b2ca 983d b260 fc3e 4c4e 2e3f
000000e0: fae2 ab3d 0e85 90bc e6d3 d73e ee1f 1b3f
000000f0: 4a36 0b3f 705b a23e 8015 bb3e 59d5 083f

sage.0.lin_root.bias f4 [16]
-2.282028 0.09259276 0.012382421 3.274878 2.748739 0.18887179 2.4536667 -2.2442198
0.2159504 3.0386858 1.1258945 0.33707744 3.1402369 0.20644288 3.2551653 -1.5334091
00000000: bf0c 12c0 46a1 bd3d a3df 4a3c 9a97 5140
00000010: 57eb 2f40 9b67 413e e008 1d40 4ca1 0fc0
00000020: 1a22 5d3e d479 4240 501d 903f 6a95 ac3e
00000030: a4f9 4840 c365 533e a154 5040 c046 c4bf

sage.1.lin_rel.weight f4 [64, 16]
0.2612297 -0.039475042 -0.28042296 0.28930676 0.06600047 -0.40577158 0.07031575 0.15066105
-0.16796021 0.2534944 -0.1348918 0.02243247 0.19343282 -0.1067543 0.4641215 0.04606516
-0.2940245 -0.1669825 -0.44493964 -0.42512938 -0.007039688 -0.6339925 -0.16928412 -0.025430286
0.13846892 0.00042332307 -0.039870113 0.028550921 0.10855615 -0.50057155 -0.64303005 0.25099853
0.04039983 0.33518296 0.18298033 -0.3756936 -0.071225636 0.31041396 -0.12664245 0.055346843
0.2298567 -0.33511087 -0.0015542693 0.10340934 -0.19409472 0.36218983 -0.3132769 -0.0923943
-0.22069551 -0.2533897 -0.2757832 -0.06666037 0.111685336 -0.32945237 0.06750264 0.1072828
0.0025545454 0.10575605 -0.13579294 0.14644562 0.1710837 -0.6265586 -0.37497166 -0.126943
-0.08229985 0.3309741 0.20325185 0.02231778 0.0885005 0.47325733 0.15355399 0.19457126
0.041741047 -0.088424064 0.01677339 -0.025349256 0.12488169 0.40383896 -0.045666095 0.036239278
0.11373641 0.39217186 0.21548294 -0.08377693 0.059078142 0.14939776 -0.14788634 0.14875124
-0.10706863 -0.023482531 0.14390114 -0.10351597 0.011849958 0.22626874 -0.30841032 0.17116497
-0.0031931705 -0.050752427 -0.69144714 -0.24658516 0.32407072 -0.4786586 0.116350554 -0.1029581
-0.36146185 0.044439606 0.10898213 -0.056845494 0.14215156 -0.40265763 -0.026323741 0.09938942
0.23749591 0.31883076 0.24765462 0.0074783526 -0.14436121 0.26342157 -0.10842266 0.1919238
0.08554191 -0.064643234 0.15507378 0.0978086 -0.14374599 -0.14332648 0.11950387 0.01522028
0.10134105 -0.010072604 -0.44256687 0.2382395 0.32068515 -0.47831392 -0.27843228 -0.19904658
0.15717801 0.30746862 0.39463148 -0.0028599505 0.398386 -0.086172126 0.2893038 0.23879148
-0.08219307 0.16606331 0.055522256 -0.3369812 -0.07834842 0.020271953 0.06218689 0.16758622
-0.071945906 0.03337171 0.25450906 0.067831054 -0.07129021 -0.010624895 -0.58917445 -0.20272358
-0.26522917 -0.2939556 -0.81508833 -0.40085799 0.10268447 -0.8446056 0.307638 -0.08317067
0.1326239 0.20368569 0.37246853 0.091291375 -0.02190461 -0.8312739 -0.19421601 0.081006534
0.104838476 0.06325143 0.080551066 -0.27955294 0.02400275 0.5699 0.14614274 0.26842552
0.20865086 -0.14527568 -0.0009882174 0.13630961 -0.08084037 0.48175347 -0.07984398 0.3152922
-0.37112612 0.20271489 0.10504783 -0.041713797 -0.117620915 0.33998278 0.016798535 -0.57816756
-0.1378312 -0.5714983 0.115137294 0.085441 -0.55882674 0.3597783 -0.09464637 0.13889617
-0.29869914 -0.22905342 -0.3442667 0.08017388 0.1635411 -0.39948097 -0.2729335 0.06593569
0.09560829 -0.01890508 0.33178565 0.10775161 0.13545804 -0.28073248 0.15215638 0.085675895
0.133475 0.26249054 -0.29704478 -0.2624109 0.23947975 -0.2683411 -0.27121484 0.19635904
0.22216657 -0.18428487 -0.012694615 0.043331627 -0.17798392 0.07936531 -0.41567305 -0.3569504
0.14786182 0.15119854 -0.37257266 -0.11930032 -0.07648241 -0.41034696 -0.22203355 -0.05132823
-0.05677914 -0.012822719 -0.10284683 0.20557752 0.105840236 -0.05796644 0.14295545 -0.003538566
00000000: e6bf 853e 95b0 21bd 9993 8fbe 0420 943e
00000010: 412b 873d 4bc1 cfbe b401 903d e446 1a3e
00000020: c3fd 2bbe 05ca 813e 1321 0abe 4dc4 b73c
00000030: 4113 463e 00a2 dabd 55a1 ed3e d2ae 3c3d
00000040: 618a 96be 76fd 2abe 21cf e3be 8faa d9be
00000050: 2fad e6bb 554d 22bf d158 2dbe 2d53 d0bc
00000060: ccca 0d3e 76f1 dd39 d84e 23bd 9fe3 e93c
00000070: b052 de3d 7525 00bf 9e9d 24bf e182 803e
00000080: 4b7a 253d 1a9d ab3e 325f 3b3e e95a c0be
00000090: bfde 91bd 94ee 9e3e 8fae 01be 5fb3 623d
000000a0: 8e5f 6b3e a793 abbe a0b8 cbba 47c8 d33d
000000b0: c4c0 46be f270 b93e d465 a0be 3939 bdbd
000000c0: 01fe 61be 4bbc 81be 7533 8dbe 3b85 88bd
000000d0: 48bb e43d fbad a8be d33e 8a3d 16b7 db3d
000000e0: 296a 273b a196 d83d 4e0d 0bbe d7f5 153e
000000f0: 9130 2f3e 2566 20bf 49fc bfbe 59fd 01be
00000100: d38c a8bd 7075 a93e 4121 503e c7d3 b63c
00000110: c03f b53d c94e f23e 423d 1d3e b03d 473e
00000120: a9f8 2a3d ad17 b5bd 5968 893c 3ea9 cfbc
00000130: f9c1 ff3d fbc3 ce3e 5f0c 3bbd a36f 143d
00000140: a3ee e83d c0ca c83e 8fa7 5c3e 3d93 abbd
00000150: ecfb 713d bafb 183e 846f 17be 3f52 183e
00000160: cc46 dbbd 705e c0bc d25a 133e 2e00 d4bd
00000170: 5426 423c feb2 673e f5e7 9dbe df45 2f3e
00000180: 8344 51bb c7e1 4fbd ae02 31bf d280 7cbe
00000190: 99ec a53e bd12 f5be 3349 ee3d b2db d2bd
000001a0: 8711 b9be 4e06 363d 0632 df3d d2d6 68bd
000001b0: 2e90 113e 2429 cebe e3a4 d7bc ae8c cb3d
000001c0: 2132 733e c93d a33e 2c99 7d3e f80c f53b
000001d0: 6dd3 13be 31df 863e b30c debd ac87 443e
000001e0: 9930 af3d ac63 84bd a9cb 1e3e e04f c83d
000001f0: 2632 13be 2dc4 12be 72be f43d 7b5e 793c
00000200: e58b cf3d 9007 25bc 2098 e2be 0ef5 733e
00000210: d830 a43e 90e5 f4be ad8e 8ebe ded2 4bbe
00000220: 46f3 203e 876c 9d3e 230d ca3e 026e 3bbb
00000230: 40f9 cb3e 037b b0bd a11f 943e c185 743e
00000240: d754 a8bd 800c 2a3e 4e6b 633d cd88 acbe
00000250: 2375 a0bd 5e11 a63c aeb7 7e3d b99b 2b3e
00000260: 6058 93bd c6b0 083d 034f 823e 02eb 8a3d
00000270: 9a00 92bd 0a14 2ebc 23d4 16bf c596 4fbe
00000280: 1ecc 87be 5981 96be a1a9 50bf 423d cdbe
00000290: 3c4c d23d 1338 58bf ba82 9d3e 6255 aabd
000002a0: 8fce 073e fb92 503e 32b4 be3e f9f6 ba3d
000002b0: 4c71 b3bc 5ece 54bf 90e0 46be c1e6 a53d
000002c0: 8eb5 d63d f789 813d f5f7 a43d 9021 8fbe
000002d0: 6aa1 c43c f7e4 113f 71a6 153e 126f 893e
000002e0: 92a8 553e 26c3 14be 1387 81ba bf94 0b3e
000002f0: a38f a5bd 64a8 f63e 3e85 a3bd fb6d a13e
00000300: 3e04 bebe 7e94 4f3e 5123 d73d 16dc 2abd
00000310: 3ce3 f0bd 3912 ae3e 159d 893c ca02 14bf
00000320: 9f23 0dbe b64d 12bf 1acd eb3d b1fb ae3d
00000330: 450f 0fbf dd34 b83e f5d5 c1bd cc3a 0e3e
00000340: 18ef 98be fb8c 6abe ba43 b0be 3432 a43d
00000350: 5177 273e c588 ccbe f1bd 8bbe 4b09 873d
00000360: 47ce c33d d4de 9abc cfdf a93e e0ac dc3d
00000370: 83b5 0a3e 2bbc 8fbe e2ce 1b3e d876 af3d
00000380: acad 083e 2965 863e 4116 98be b95a 86be
00000390: 2e3a 753e 0164 89be acdc 8abe 5812 493e
000003a0: a27f 633e 2cb5 3cbe 13fd 4fbc 817c 313d
000003b0: 6b41 36be 488a a23d 19d3 d4be 34c2 b6be
000003c0: 1769 173e cad3 1a3e d8c1 bebe ba53 f4bd
000003d0: cfa2 9cbd ff18 d2be c35c 63be 8d3d 52bd
000003e0: 3e91 68bd 6216 52bc 5ca1 d2bd ea82 523e
000003f0: c4c2 d83d 386e 6dbd ea62 123e 49e7 67bb

sage.1.lin_root.weight f4 [64, 16]
-0.28954864 -0.5208929 -0.62125176 0.4674893 0.040006995 -0.7647498 -0.027104715 -0.15100351
-0.16240354 0.43222895 -0.10164661 0.063801415 0.383311 -1.024327 0.28872636 0.034073986
0.12120359 -0.25345787 -0.17968184 -0.93668836 0.13995132 -0.046371095 -0.5401649 0.057531588
-0.4325136 -0.5025501 0.37958944 0.14317247 -0.77312964 -0.10932316 -1.6175514 -0.7440172
-0.08824227 0.062414296 0.3721941 -0.6349473 0.011645842 0.22058442 -0.13323471 -0.024773665
0.056976173 -0.5482528 0.02904596 -0.01513753 -0.76929325 0.2931511 -1.0371267 0.009568078
0.08747942 0.12984109 -0.16936678 -1.115721 -0.03565283 -0.21165293 -0.0861847 -0.121763125
-0.20532925 -0.22181061 0.14814828 0.10429358 -1.0385729 -0.2020045 -1.2907305 -0.05139924
0.09340247 -0.15753716 -0.020198872 -0.42227235 0.008940557 0.29995984 0.24478146 -0.019221365
-0.19262724 -0.4002206 0.026428789 0.2988712 -0.44688302 0.15218431 -0.12033666 -0.22678104
-0.021768268 0.21428266 0.110781096 -0.8947894 0.053768422 0.1590129 -0.543666 -0.2170263
-0.12413379 -0.6583924 -0.18739562 0.123639435 -0.84143656 0.39031824 -1.0718157 0.33262777
-0.44074526 0.12691408 -0.34570155 -0.62761617 -0.15186368 0.025021387 -0.15275404 -0.5617745
0.25332353 -0.10531639 -0.09150871 -0.022449767 -0.27982074 -0.13988356 -0.87989575 0.14658466
-0.1227114 0.32470328 0.44799173 0.3058421 -0.010914874 0.27624267 -0.106555104 -0.25625512
0.39843857 0.22842777 0.053650763 -0.09657927 0.3007125 0.18550754 0.36966473 0.081867464
0.08842606 0.110495135 -0.41357663 -0.5860886 -0.28141442 0.10720853 -0.08170922 0.047587194
-0.25231236 -0.40632308 0.16828166 -0.18971822 -0.23885 0.14071919 -0.7481704 -0.32016113
0.0892123 0.032728326 0.2233737 -0.6165623 -0.124537945 -0.16180865 -0.32758853 -0.31155178
-0.30815777 -0.008253804 0.18096603 -0.11616828 -0.24764237 -0.22080973 -0.78333324 0.2638016
0.21814625 -0.16319944 -0.39202854 -0.60676515 -0.13120714 -0.76646996 -0.16367006 0.19139194
-0.033904314 -0.2657618 0.04763081 0.19303003 -0.5195408 -0.5186781 -0.5950191 0.10055021
-0.030379446 0.07792634 0.31873804 -0.61805904 -0.15927108 0.36880997 -0.40427312 -0.21576624
-0.06538002 -0.73918056 0.15627424 -0.07017501 -0.6093382 0.19713584 -0.8902435 0.31871605
-0.22050695 0.039906852 -0.055834457 -0.15163721 0.19099073 0.3753161 0.22227353 -0.30531836
-0.08875874 -0.27491924 -0.1805026 -0.23077342 -0.3447266 0.121831656 -0.3372858 -0.15482984
0.120050706 -0.17840132 -0.10546794 -0.5764125 -0.14795332 -0.20909017 -0.28186846 -0.11408359
0.103030115 -0.70021266 -0.054481573 0.0044658827 -0.53413934 0.31484464 -0.8556667 -0.21537505
-0.18692875 0.04314078 -0.019978642 -0.23949252 0.25192955 -0.28067967 -0.34843335 0.01997891
-0.2536041 -0.25617963 -0.118376225 -0.12572134 -0.15589145 -0.13814196 -0.3597593 -0.10373754
-0.05885318 0.033896632 0.33852825 0.50580966 0.09866833 -0.018286018 0.4224761 -0.14229444
0.08040681 0.095398985 0.013630252 -0.1586345 0.19304614 0.2629996 0.54196095 -0.22720928
00000000: b83f 94be 3d59 05bf 5b0a 1fbf c25a ef3e
00000010: 60de 233d a5c6 43bf b50a debc aaa0 1abe
00000020: 1d4d 26be 1d4d dd3e 192c d0bd 51aa 823d
00000030: 5741 c43e 261d 83bf f1d3 933e 2a91 0b3d
00000040: 9639 f83d 3bc5 81be 84fe 37be cfca 6fbf
00000050: 664f 0f3e 9eef 3dbd 3f48 0abf 3ea6 6b3d
00000060: 6c72 ddbe 20a7 00bf 8c59 c23e ce9b 123e
00000070: d3eb 45bf d2e4 dfbd ed0b cfbf e977 3ebf
00000080: 5db8 b4bd 22a6 7f3d 3a90 be3e e88b 22bf
00000090: 34ce 3e3c e2e0 613e ae6e 08be 24f2 cabc
000000a0: d95f 693d 4c5a 0cbf cbf1 ed3c 6703 78bc
000000b0: 67f0 44bf e717 963e 91c0 84bf 6ec3 1c3c
000000c0: 6928 b33d 10f5 043e 7c6e 2dbe f2cf 8ebf
000000d0: b408 12bd 8cbb 58be 9b81 b0bd f25e f9bd
000000e0: d541 52be 5222 63be 2fb4 173e df97 d53d
000000f0: f5ef 84bf 45da 4ebe a836 a5bf 0288 52bd
00000100: cb49 bf3d 6c51 21be 1b78 a5bc 1534 d8be
00000110: 6a7b 123c 5694 993e fea7 7a3e 2076 9dbc
00000120: 1340 45be b7e9 ccbe 3081 d83c a505 993e
00000130: dacd e4be 34d6 1b3e 1173 f6bd 4a39 68be
00000140: 5e53 b2bc ea6c 5b3e 33e1 e23d eb10 65bf
00000150: 473c 5c3d 47d4 223e b22d 0bbf 243c 5ebe
00000160: db39 febd 688c 28bf a3e4 3fbe ac36 fd3d
00000170: 6368 57bf cbd7 c73e 4231 89bf 304e aa3e
00000180: 5da9 e1be c4f5 013e cbff b0be 74ab 20bf
00000190: 2782 1bbe a7f9 cc3c 8e6b 1cbe 74d0 0fbf
000001a0: 9fb3 813e 1fb0 d7bd eb68 bbbd 93e8 b7bc
000001b0: aa44 8fbe a33d 0fbe d940 61bf 4a1a 163e
000001c0: 1d50 fbbd 823f a63e 2c5f e53e 5697 9c3e
000001d0: 4dd4 32bc ae6f 8d3e 9039 dabd df33 83be
000001e0: 2400 cc3e f8e8 693e e7c0 5b3d 5acb c5bd
000001f0: fdf6 993e b0f5 3d3e b244 bd3e 21aa a73d
00000200: b918 b53d 464b e23d 51c0 d3be e709 16bf
00000210: 8d15 90be 2590 db3d 2a57 a7bd caea 423d
00000220: 162f 81be 9409 d0be 0752 2c3e 7e45 42be
00000230: 1895 74be b118 103e 1888 3fbf 29ec a3be
00000240: f0b4 b63d 230e 063d 13bc 643e 07d7 1dbf
00000250: c00d ffbd 2bb1 25be afb9 a7be b783 9fbe
00000260: dbc6 9dbe f73a 07bc 294f 393e a3e9 edbd
00000270: f695 7dbe f21b 62be 8788 48bf 0111 873e
00000280: bb61 5f3e c11d 27be f7b7 c8be f654 1bbf
00000290: 2a5b 06be 6037 44bf 2099 27be 40fc 433e
000002a0: 40df 0abd ee11 88be 8618 433d aaa9 453e
000002b0: a000 05bf 17c8 04bf 2c53 18bf 45ed cd3d
000002c0: 51de f8bc d897 9f3d a231 a33e 1e39 1ebf
000002d0: f517 23be a9d4 bc3e e3fc cebe d3f1 5cbe
000002e0: f6e5 85bd f03a 3dbf 5b06 203e eab7 8fbd
000002f0: 97fd 1bbf fadd 493e ffe6 63bf c02e a33e
00000300: 93cc 61be 5e75 233d acb2 64bd c946 1bbe
00000310: 1393 433e 6f29 c03e ac9b 633e b052 9cbe
00000320: 24c7 b5bd 37c2 8cbe acd5 38be de4f 6cbe
00000330: 0180 b0be e082 f93d b9b0 acbe b78b 1ebe
00000340: 25dd f53d d6ae 36be 93ff d7bd c58f 13bf
00000350: 1381 17be bc1b 56be 1051 90be a8a4 e9bd
00000360: 7401 d33d 2341 33bf 1228 5fbd 8a56 923b
00000370: 5bbd 08bf 5133 a13e f90c 5bbf 478b 5cbe
00000380: 406a 3fbe 63b4 303d 40aa a3bc 873d 75be
00000390: e9fc 803e 3fb5 8fbe db65 b2be d0aa a33c
000003a0: 66d8 81be fa29 83be 3c6f f2bd 18bd 00be
000003b0: 02a2 1fbe 1675 0dbe 5f32 b8be 5974 d4bd
000003c0: 0810 71bd 32d7 0a3d 9353 ad3e be7c 013f
000003d0: 9f12 ca3d 8fcc 95bc ca4e d83e a2b5 11be
000003e0: 53ac a43d 8b60 c33d 6c51 5f3c 1571 22be
000003f0: e3ad 453e e2a7 863e f4bd 0a3f 8da9 68be

sage.1.lin_root.bias f4 [64]
-0.25134698 0.22897984 0.23042794 0.1060775 -0.0546997 -0.13288675 0.07540619 0.21717866
0.092968754 -0.3482071 0.30445594 0.12815619 0.010468158 0.15271197 -0.296354 0.40213856
0.25755447 0.09451421 0.5186194 0.18010502 -0.0038541693 -0.08155046 -0.17542414 0.30141234
0.23649295 0.08044563 0.15902175 -0.36163324 0.21083307 0.019340944 0.322708 0.29457846
0.6144429 -0.34737355 -0.597056 0.55026305 0.089477934 0.14417386 -0.42036337 0.07249395
-0.25775263 -0.1478442 0.74211204 -0.09442736 0.010713821 -0.33450586 0.21012908 -0.20251773
-0.10469033 -0.0075996006 0.61657244 0.039026845 -0.011827736 -0.3982959 0.7196228 0.42472234
-0.4459069 -0.61898315 0.16103934 0.10769351 0.28031066 -0.011179367 0.31079906 0.13542327
00000000: 8db0 80be b179 6a3e 4df5 6b3e 293f d93d
00000010: cb0c 60bd 7713 08be 8f6e 9a3d 1564 5e3e
00000020: 6766 be3d 3348 b2be a6e1 9b3e 603b 033e
00000030: a382 2b3c 8760 1c3e b6bb 97be 1be5 cd3e
00000040: 2ede 833e ab90 c13d 3ec4 043f 736d 383e
00000050: 3b96 7cbb ed03 a7bd 63a2 33be b852 9a3e
00000060: 352b 723e aec0 a43d 99d6 223e fe27 b9be
00000070: a0e4 573e e670 9e3c fc39 a53e fdd2 963e
00000080: 214c 1d3f f2da b1be a9d8 18bf 0ade 0c3f
00000090: 3540 b73d 50a2 133e de39 d7be b577 943d
000000a0: 27f8 83be 7864 17be 0efb 3d3f 2263 c1bd
000000b0: 0689 2f3c 5a44 abbe 142c 573e cf60 4fbe
000000c0: e267 d6bd 1206 f9bb b1d7 1d3f 9dda 1f3d
000000d0: 1fc9 41bc 71ed cbbe 3339 383f 3575 d93e
000000e0: e94d e4be ae75 1ebf 7fe7 243e 6a8e dc3d
000000f0: e184 8f3e aa29 37bc 0e21 9f3e 66ac 0a3e

sage.2.lin_rel.weight f4 [64, 64]
-0.041371815 -0.14862391 -0.24998999 -0.2518057 -0.10475019 -0.032975145 -0.07440659 0.026279708
-0.29046103 -0.044485204 -0.22062576 0.04141933 -0.48965517 -0.4085409 0.022549417 0.017380057
-0.060069233 -0.1654035 -0.3203736 0.21967071 -0.048006177 -0.24044956 -0.10608103 -0.046047498
-0.30568257 -0.17284234 0.006111129 -0.10907543 -0.04523812 0.12270999 -0.270947 -0.10714855
-0.21714471 -0.17809679 -0.18099812 -0.19486512 -0.29821813 -0.06607363 -0.18561941 -0.07290409
0.14764729 -0.16877589 -0.1595869 0.032619532 0.19021232 -0.07412373 0.083024 -0.21213906
-0.056896426 -0.1230512 -0.1849258 -0.17876261 0.021496423 0.018155627 -0.37941757 -0.1555387
0.030335879 -0.30922946 -0.40269062 -0.118692145 -0.1242047 0.03336573 -0.2759006 -0.0004420001
-0.029479034 -0.033875614 -0.0017228607 0.05716462 0.39912876 -0.39217925 -0.015037328 -0.03926521
0.022324573 -0.15926589 -0.013716 -0.29474497 -0.01673223 -0.12945545 0.17512749 -0.15062094
0.110643774 -0.101672925 -0.15544765 -0.11983352 -0.18466109 -0.15390559 0.25994855 0.23040164
-0.027940976 0.16925837 0.047098946 -0.05545981 0.08075022 0.23315562 -0.16815205 0.01248641
-0.008091113 -0.16603178 -0.17209084 -0.005695122 0.049085427 -0.00094153837 -0.12563984 0.110808946
0.014838747 -0.06805988 -0.06183652 0.088784724 0.14538051 -0.00898026 0.07333802 0.100305945
-0.09684566 0.036638543 0.16250484 0.0030401044 -0.06057515 0.064577885 0.090568714 -0.1496371
0.21189114 -0.040979844 -0.06651463 0.031363394 -0.13122173 0.17928426 -0.06698244 0.15529536
0.0031738111 -0.27999142 -0.45819956 -0.06638931 0.026408523 0.0008182091 -0.25186938 0.2703939
-0.19610517 -0.12833025 -0.19816652 0.1494217 -0.5078449 -0.23722404 -0.20483401 0.046564937
-0.24825656 -0.34313518 -0.32491046 0.27266905 -0.09786081 -0.12076479 -0.13583483 -0.14595899
-0.33569586 -0.12524572 -0.04277599 -0.08750553 -0.08796463 0.21272156 -0.16526882 -0.27035433
-0.071670815 -0.25532013 -0.1507166 0.027314203 -0.27059743 -0.032574236 -0.19202699 -0.08414164
-0.011543781 -0.24856572 0.06813291 -0.2431474 0.1006327 0.07484035 -0.18064423 0.08052214
-0.21398155 -0.29505807 -0.1645586 -0.12583886 0.23122545 -0.014967509 -0.3883624 -0.102965795
-0.0008181038 -0.2302212 -0.47412625 -0.25518543 -0.28071347 0.20770003 -0.38477972 -0.18122058
-0.053175397 -0.09068484 -0.02022917 0.16223283 -0.016060319 0.2447644 0.04632497 0.036573093
0.0745491 -0.018633278 0.04536766 0.16428517 0.059743863 0.12238945 -0.15491329 -0.034437135
0.18054993 0.04320786 -0.15319128 0.09190104 0.30693159 -0.04219352 -0.037579846 0.0805233
0.11933233 -0.02137178 0.29203704 0.009373362 0.14057325 -0.037711464 0.1021833 0.052873664
-0.055115104 0.17740048 0.006147226 0.010906042 -0.0630857 -0.07836036 -0.0030033814 -0.09727071
0.15866095 0.019454794 -0.029834509 0.0066296477 0.10438535 -0.13680537 -0.06180013 -0.08556523
0.075334206 -0.031545695 -0.053436078 0.2719338 -0.102767564 0.021469498 -0.08559153 -0.029187312
0.011099859 -0.074719824 -0.016136285 0.13627847 0.099997036 0.07032065 -0.21264067 -0.12760884
00000000: 7e75 29bd de30 18be 60fd 7fbe adec 80be
00000010: 4587 d6bd f210 07bd 7b62 98bd 8b48 d73c
00000020: 4fb7 94be 1e36 36bd b8eb 61be 51a7 293d
00000030: 15b4 fabe 462c d1be 8eb9 b83c 9f60 8e3c
00000040: 280b 76bd 895f 29be 0208 a4be 5cf1 603e
00000050: 20a2 44bd 6938 76be 0341 d9bd 4d9c 3cbd
00000060: 6d82 9cbe 95fd 30be de3f c83b f062 dfbd
00000070: 9b4b 39bd 604f fb3d 91b9 8abe b370 dbbd
00000080: 2f5b 5ebe 015f 36be 9257 39be b98a 47be
00000090: 0cb0 98be 9c51 87bd 0413 3ebe bd4e 95bd
000000a0: da30 173e 96d3 2cbe c06a 23be 0f9c 053d
000000b0: 05c7 423e 2fce 97bd 7d08 aa3d fb3a 59be
000000c0: 3a0c 69bd 4402 fcbd 305d 3dbe 8c0d 37be
000000d0: 4419 b03c 1cbb 943c 0543 c2be 8945 1fbe
000000e0: f382 f83c 5353 9ebe 772d cebe de14 f3bd
000000f0: 095f febd 81aa 083d d842 8dbe 40bc e7b9
00000100: 047e f1bc 28c1 0abd 9dd1 e1ba 7325 6a3d
00000110: 9b5a cc3e b8cb c8be 205f 76bc 8fd4 20bd
00000120: 06e2 b63c 9916 23be 13b9 60bc d0e8 96be
00000130: 0812 89bc f88f 04be 9f54 333e 603c 1abe
00000140: 3499 e23d e539 d0bd ab2d 1fbe 476b f5bd
00000150: cc17 3dbe 6d99 1dbe fa17 853e 68ee 6b3e
00000160: 79e4 e4bc 1152 2d3e d3ea 403d d329 63bd
00000170: 5f60 a53d 59c0 6e3e 0d30 2cbe cd93 4c3c
00000180: 9690 04bc 3c04 2abe 9538 30be 259e babb
00000190: cd0d 493d 92d1 76ba bba7 00be cdef e23d
000001a0: 371e 733c fa62 8bbd 4a48 7dbd c4d4 b53d
000001b0: a1de 143e f121 13bc 3e32 963d 346d cd3d
000001c0: 0457 c6bd 4c12 163d ab67 263e 7d3c 473b
000001d0: a61d 78bd 6941 843d 177c b93d 783a 19be
000001e0: fef9 583e 7bda 27bd d338 88bd e776 003d
000001f0: fd5e 06be 4b96 373e 172e 89bd bf05 1f3e
00000200: b7ff 4f3b 095b 8fbe 2299 eabe 1ef7 87bd
00000210: b056 d83c 157d 563a 06f5 80be 1271 8a3e
00000220: cbcf 48be 0169 03be 2aec 4abe 0102 193e
00000230: 2002 02bf dcea 72be 02c0 51be e0ba 3e3d
00000240: f836 7ebe 6aaf afbe aa5a a6be 479b 8b3e
00000250: 406b c8bd 8853 f7bd 4918 0bbe 4676 15be
00000260: 54e0 abbe 6a40 00be e035 2fbd 1936 b3bd
00000270: cd26 b4bd aed3 593e 3b3c 29be e26b 8abe
00000280: 26c8 92bd 52b9 82be 7455 1abe 09c2 df3c
00000290: bf8b 8abe 906c 05bd b9a2 44be 7452 acbd
000002a0: 2022 3dbc 0388 7ebe 4489 8b3d a2fb 78be
000002b0: 8418 ce3d e645 993d cdfa 38be cbe8 a43d
000002c0: fb1d 5bbe da11 97be 0d82 28be e7db 00be
000002d0: 5dc6 6c3e 483a 75bc 70d7 c6be bbdf d2bd
000002e0: 0476 56ba 1bbf 6bbe adc0 f2be aaa7 82be
000002f0: adb9 8fbe 51af 543e d901 c5be e391 39be
00000300: 72ce 59bd f9b8 b9bd a5b7 a5bc 5d20 263e
00000310: ee90 83bc 85a3 7a3e 40bf 3d3d abcd 153d
00000320: 33ad 983d d1a4 98bc 70d3 393d 5f3a 283e
00000330: fbb5 743d 52a7 fa3d 97a1 1ebe f40d 0dbd
00000340: 15e2 383e bafa 303d 2dde 1cbe 9d36 bc3d
00000350: 2326 9d3e 1dd3 2cbd 53ed 19bd 66e9 a43d
00000360: 8264 f43d df13 afbc e185 953e bb92 193c
00000370: 6ff2 0f3e 5677 1abd 7a45 d13d 0e92 583d
00000380: 60c0 61bd 79a8 353e ab6e c93b 41af 323c
00000390: 1333 81bd 657b a0bd 61d4 44bb de35 c7bd
000003a0: 0478 223e a95f 9f3c 8067 f4bc 843d d93b
000003b0: fdc7 d53d b516 0cbe 2222 7dbd d33c afbd
000003c0: d248 9a3d 0f36 01bd cadf 5abd e83a 8b3e
000003d0: cd77 d2bd cde0 af3c 9d4a afbd 3b1a efbc
000003e0: 2fdc 353c b506 99bd 3e30 84bc 958c 0b3e
000003f0: 3fcb cc3d 4604 903d 7abe 59be e4ab 02be

sage.2.lin_root.weight f4 [64, 64]
0.039350264 -0.19438694 -0.29811627 -0.20323385 -0.19125874 0.1616757 -0.15267396 0.18871966
-0.32952031 0.019956432 -0.13291217 0.19812375 -0.3572905 -0.24718104 -0.15898952 0.09011221
-0.19491626 -0.3046166 -0.2439234 0.13275863 -0.061435807 -0.23732398 -0.11520224 -0.26836005
-0.31260592 -0.31474882 0.122465424 -0.10286072 0.08735432 0.102264844 -0.25141838 -0.11361642
-0.25098154 -0.19048585 -0.17238182 -0.045896284 -0.2868961 0.06240431 -0.22497144 -0.009082891
0.1599915 -0.11403553 -0.23712628 -0.08483609 -0.018052602 -0.0044358578 -0.06078529 -0.04019846
-0.0030281495 -0.1476747 -0.36088508 -0.1148423 0.23041736 0.034326226 -0.39555365 -0.052770577
0.07759958 -0.35771012 -0.4617753 -0.1745591 -0.2885807 0.12647021 -0.33795437 -0.16789275
-0.059195798 0.013534126 -0.17604387 -0.09103321 0.37875637 -0.35572 -0.03983407 0.05909359
-0.086384065 -0.01835989 0.06620047 -0.100284725 -0.055024575 -0.19228788 0.0010846638 0.016807891
0.008388488 -0.062556244 -0.18035434 -0.08956173 -0.08661112 -0.015214838 0.1674062 0.1364112
-0.15772103 0.17511743 -0.14324053 -0.05479144 -0.062408008 0.13455042 -0.13400976 -0.022644369
-0.011797281 -0.07474236 -0.067064375 -0.03687805 0.123673685 -0.03428764 0.11200394 0.080643095
-0.007382465 -0.017120542 -0.04400315 0.08422658 0.18843502 -0.092762515 0.23585062 -0.022896757
-0.11249036 0.12942281 0.09861106 0.004827428 0.12600625 0.2392745 -0.1085756 0.012324309
0.19078505 0.1338974 0.023584576 0.13033341 -0.035306543 0.3293407 -0.089694194 0.0472164
-0.21730633 -0.365337 -0.32431942 -0.12115325 -0.09222182 0.03293982 -0.20517085 0.35508302
-0.2595598 -0.04843568 -0.2268399 0.05336723 -0.51943344 -0.44874406 -0.060888484 0.1712189
-0.33607602 -0.37950727 -0.21532723 0.12060434 -0.09557688 -0.16008177 -0.11021164 -0.19129308
-0.15148489 -0.16401257 0.011865982 -0.20326012 0.02817089 0.07588976 -0.08670232 -0.28166786
-0.2891126 -0.09486189 -0.10990322 0.011209813 -0.17625405 0.032282736 -0.16651304 -0.067236334
-0.037598807 -0.28238147 -0.09781813 -0.18375468 0.07663731 0.003945567 -0.15092105 -0.07804838
-0.18652053 -0.1818681 -0.19841407 -0.26175863 0.19506764 0.08454032 -0.25736782 -0.094340235
-0.124486126 -0.37311855 -0.4900288 -0.118286565 -0.3071283 0.1715451 -0.4170603 -0.010133371
-0.13858017 0.114206575 0.14038265 -0.0068481276 0.027475646 0.17638761 0.10758908 0.067577995
0.14187226 0.05363641 0.18564834 0.06460498 0.039511465 0.10671728 0.038171902 -0.11019218
0.05572841 -0.03835599 -0.013745785 0.13628641 0.1927832 -0.05150184 0.013154029 0.21095258
0.07762739 -0.20494148 0.28049847 -0.17000417 0.10552387 -0.044859663 0.036455102 0.1599596
0.015320476 0.10884242 0.19987042 -0.0707794 -0.022257987 -0.18104336 0.045201335 -0.22267415
0.16332388 0.013937782 -0.14012556 -0.09477734 0.0017311508 -0.020890543 0.13005897 0.024523733
0.21702017 0.08404793 0.027843697 0.27329344 -0.14160901 -0.14657469 0.030497901 0.16342302
-0.023171272 -0.1031209 -0.0940399 0.04209954 0.0815692 -0.043720577 -0.030963164 -0.031470202
00000000: be2d 213d 5f0d 47be b2a2 98be 891c 50be
00000010: 55d9 43be 518e 253e 9056 1cbe ba3f 413e
00000020: e3b6 a8be ac7b a33c 211a 08be f4e0 4a3e
00000030: c8ee b6be 071d 7dbe 26ce 22be c08c b83d
00000040: 2198 47be b5f6 9bbe 0ec7 79be e1f1 073e
00000050: 1da4 7bbd 0f05 73be 27ef ebbd 7d66 89be
00000060: e20d a0be c226 a1be 27cf fa3d a4a8 d2bd
00000070: d2e6 b23d 3b70 d13d e9b9 80be baaf e8bd
00000080: a780 80be b90e 43be dc84 30be befd 3bbd
00000090: 0ce4 92be a99b 7f3d ea5e 66be 68d0 14bc
000000a0: d0d4 233e 768b e9bd 3bd1 72be 8bbe adbd
000000b0: 0de3 93bc ac5a 91bb fff9 78bd 24a7 24bd
000000c0: eb73 46bb 0938 17be eec5 b8be 7132 ebbd
000000d0: 87f2 6b3e a899 0c3d 0286 cabe f625 58bd
000000e0: 87ec 9e3d c825 b7be d06d ecbe 9fbf 32be
000000f0: d9c0 93be 6881 013e 5b08 adbe 14ec 2bbe
00000100: 4b77 72bd 3dbe 5d3c d844 34be 9f6f babd
00000110: 5bec c13e ef20 b6be 0d29 23bd 1f0c 723d
00000120: 21ea b0bd 7b67 96bc 1d94 873d 1462 cdbd
00000130: 7361 61bd 1de7 44be 472b 8e3a b4b0 893c
00000140: de6f 093c 7d1d 80bd cfae 38be 246c b7bd
00000150: 2c61 b1bd a847 79bc 886c 2b3e 61af 0b3e
00000160: 9f81 21be fc51 333e a5ad 12be fd6c 60bd
00000170: 8a9f 7fbd 96c7 093e db39 09be af80 b9bc
00000180: 6249 41bc 8612 99bd 0c59 89bd 700d 17bd
00000190: a148 fd3d 3271 0cbd 5262 e53d 3528 a53d
000001a0: 9be8 f1bb 6140 8cbc a63c 34bd fc7e ac3d
000001b0: 1cf5 403e 46fa bdbd d382 713e fb91 bbbc
000001c0: 5961 e6bd 6a87 043e 98f4 c93d 672f 9e3b
000001d0: c807 013e 6004 753e e25c debd e6eb 493c
000001e0: 285d 433e 661c 093e 7134 c13c 1f76 053e
000001f0: 989d 10bd 589f a83e 97b1 b7bd fc65 413d
00000200: 8d85 5ebe 740d bbbe 320d a6be 321f f8bd
00000210: cbde bcbd e8eb 063d 4f18 52be 71cd b53e
00000220: 06e5 84be 7e64 46bd b848 68be 9997 5a3d
00000230: 97f9 04bf c8c1 e5be 3466 79bd 0254 2f3e
00000240: 2812 acbe c74e c2be be7e 5cbe 69ff f63d
00000250: d0bd c3bd 7aec 23be a4b6 e1bd 55e2 43be
00000260: db1e 1bbe e9f2 27be 8969 423c 6c23 50be
00000270: a3c6 e63c 176c 9b3d fc90 b1bd c536 90be
00000280: 9106 94be f346 c2bd f014 e1bd 5da9 373c
00000290: f17b 34be e73a 043d 6582 2abe 34b3 89bd
000002a0: 3501 1abd 4e94 90be df54 c8bd 302a 3cbe
000002b0: 06f4 9c3d d149 813b 0c8b 1abe d4d7 9fbd
000002c0: 3dff 3ebe a23b 3abe 0f2d 4bbe 3a05 86be
000002d0: d0bf 473e 7a23 ad3d b7c5 83be 7435 c1bd
000002e0: 95f2 febd 6509 bfbe 0ee5 fabe 3a40 f2bd
000002f0: ec3f 9dbe 85a9 2f3e ed88 d5be 7006 26bc
00000300: f6e7 0dbe 23e5 e93d 78c0 0f3e 4266 e0bb
00000310: 9b14 e13c f49e 343e aa57 dc3d 5566 8a3d
00000320: f646 113e dab1 5b3d 991a 3e3e 9e4f 843d
00000330: c6d6 213d 978e da3d 245a 1c3d 70ac e1bd
00000340: 7943 643d 2c1b 1dbd 0036 61bc aa8e 0b3e
00000350: f668 453e 98f3 52bd ff83 573c f403 583e
00000360: 1cfb 9e3d 2edc 51be 7f9d 8f3e 9315 2ebe
00000370: e61c d83d c4be 37bd f251 153d 73cc 233e
00000380: bc02 7b3c c6e8 de3d d5aa 4c3e caf4 90bd
00000390: 6256 b6bc 6e63 39be 0925 393d b104 64be
000003a0: 603e 273e 4b5b 643c 137d 0fbe 9f1a c2bd
000003b0: c8e7 e23a a522 abbc 2e2e 053e ffe5 c83c
000003c0: 893a 5e3e 5221 ac3d 7718 e43c 1eed 8b3e
000003d0: f401 11be ad17 16be bcd6 f93c 5d58 273e
000003e0: aed1 bdbc 0d31 d3bd fe97 c0bd 9170 2c3d
000003f0: c10d a73d 5914 33bd 76a6 fdbc e6e6 00bd

sage.2.lin_root.bias f4 [64]
-0.24977869 0.03836547 -0.22380807 0.028684808 -0.13894069 -0.2965334 0.13639255 -0.11742467
-0.11193001 -0.16056828 0.13510072 0.03677604 -0.371331 -0.17422143 0.09186873 -0.102529526
0.09087934 -0.12942372 -0.031079007 -0.025583042 -0.14666446 -0.08504385 -0.4212712 -0.05904654
-0.29227704 -0.15615639 -0.026835946 -0.13770765 -0.27942175 -0.16415912 -0.1782366 -0.11687939
-0.120067224 -0.0005196938 -0.039672777 0.1378127 0.062287953 -0.23212889 0.067972444 -0.18421191
-0.35141492 -0.055182286 -0.057260808 -0.25784892 -0.0077798297 -0.004942019 -0.17713805 -0.32099724
0.0072764773 0.04971662 -0.13730833 -0.018278291 -0.1798647 -0.30947772 -0.19287333 0.06530069
-0.27198124 -0.35867614 -0.022452468 0.029910643 -0.25835758 -0.30915737 -0.055545766 0.29260883
00000000: fcc5 7fbe 1c25 1d3d f12d 65be 67fc ea3c
00000010: 7846 0ebe 3ad3 97be 7daa 0b3e 587c f0bd
00000020: 903b e5bd 036c 24be d857 0a3e 79a2 163d
00000030: 191f bebe 1a67 32be ac25 bc3d 00fb d1bd
00000040: f31e ba3d a787 04be 6799 febc 8793 d1bc
00000050: 352f 16be 782b aebd dcb0 d7be c9da 71bd
00000060: 56a5 95be 76e7 1fbe 0fd7 dbbc 3c03 0dbe
00000070: 5e10 8fbe 5419 28be a883 36be 765e efbd
00000080: cee5 f5bd 0f3c 08ba ec7f 22bd c61e 0d3e
00000090: a721 7f3d 32b3 6dbe 2335 8b3d 0ca2 3cbe
000000a0: a8ec b3be d206 62bd 4f8a 6abd c604 84be
000000b0: f1ed febb a9f0 a1bb ad63 35be c059 a4be
000000c0: 846f ee3b a8a3 4b3d 8e9a 0cbe 5bbc 95bc
000000d0: 742e 38be dd73 9ebe 9680 45be 5ebc 853d
000000e0: 2041 8bbe 66a4 b7be 3dee b7bc 2a07 f53c
000000f0: 7247 84be e049 9ebe f583 63bd d3d0 953e

batch_norm.0.weight f4 [1000]
1.9315202 1.9001914 1.862138 1.8280135 1.7949466 1.7681795 1.7336638 1.7115833
1.692716 1.6690327 1.6480542 1.6335552 1.6155633 1.598484 1.5866052 1.5851988
1.5684534 1.5584892 1.547074 1.5347576 1.5301875 1.5276269 1.5244155 1.5111096
1.5080354 1.5028151 1.4957029 1.4992335 1.4885008 1.4839495 1.4791077 1.4686142
1.4685115 1.465528 1.465809 1.4601241 1.4565521 1.4561734 1.4578818 1.4523727
1.4496846 1.44599 1.4403417 1.4489632 1.4506091 1.4526954 1.4554901 1.4556487
1.4581417 1.4594389 1.4626288 1.473217 1.4659575 1.4799968 1.4792589 1.4811244
1.4839262 1.4872731 1.4882634 1.4944404 1.4987674 1.5027279 1.4993062 1.5076238
1.5130694 1.5078591 1.5171283 1.5173357 1.526558 1.5165228 1.5328004 1.5367601
1.5321512 1.5287762 1.5322231 1.5374843 1.5366074 1.5475327 1.5473554 1.5456911
1.5503685 1.5485157 1.5531961 1.5435164 1.5476868 1.5510626 1.5501268 1.5496092
1.5580171 1.5463637 1.5540324 1.5494627 1.5488896 1.5542177 1.550246 1.5420702
1.5486761 1.5498096 1.5362892 1.5465509 1.5390563 1.5420732 1.5363592 1.5416532
1.5368183 1.5382019 1.534188 1.5348274 1.5274272 1.5287501 1.5369074 1.5288948
1.5237358 1.5168939 1.5236536 1.5217863 1.5136287 1.5116545 1.5177248 1.512408
1.5037254 1.5118551 1.5033793 1.5018351 1.497584 1.501227 1.4967642 1.4919028
1.4935976 1.492852 1.487878 1.488787 1.4753517 1.4810227 1.4721001 1.4782196
1.4744366 1.4753996 1.4681729 1.4720939 1.4668924 1.4702921 1.4682553 1.4620993
1.4624298 1.4571015 1.4551542 1.453435 1.4533267 1.4470395 1.4459447 1.4524143
1.4447924 1.4496406 1.4509252 1.4432596 1.4445049 1.4385431 1.4425796 1.4399685
1.4361105 1.4433038 1.4305964 1.4322132 1.4371502 1.4346713 1.4343121 1.4331502
1.4248912 1.428451 1.430109 1.422814 1.4266416 1.4281876 1.4313345 1.4333684
1.4303979 1.4232907 1.4227545 1.4232094 1.431612 1.4253697 1.4236764 1.4295095
1.4244338 1.4240996 1.430431 1.4268191 1.4227406 1.4229351 1.4282794 1.4205809
1.4226141 1.424482 1.4227754 1.4269468 1.4202528 1.4294477 1.4255542 1.4235806
1.4250675 1.4269334 1.4199328 1.4266745 1.4314221 1.4274117 1.4265823 1.4282384
1.4287959 1.4276727 1.4248717 1.4300163 1.4258906 1.4293244 1.4284995 1.4314973
1.4359217 1.4313279 1.4301462 1.4304224 1.4309279 1.4312036 1.4297183 1.4310952
1.4354006 1.4350367 1.4322399 1.4340068 1.4354799 1.4403698 1.4396021 1.4392437
1.4364069 1.4452598 1.4462086 1.4390754 1.4451854 1.4457281 1.4426291 1.4469244
1.4445038 1.4413677 1.444648 1.4435164 1.4416916 1.449379 1.4469414 1.4466777
1.4468769 1.4511214 1.4508082 1.4513446 1.4452947 1.4511617 1.4498887 1.453908
00000000: 0e3c f73f 7939 f33f 8a5a ee3f 59fc e93f
00000010: cfc0 e53f b553 e23f b2e8 dd3f 2915 db3f
00000020: ebaa d83f dda2 d53f 71f3 d23f 5618 d13f
00000030: c7ca ce3f 209b cc3f e115 cb3f cbe7 ca3f
00000040: 15c3 c83f 937c c73f 8506 c63f f072 c43f
00000050: 2fdd c33f 4789 c33f 0c20 c33f 0a6c c13f
00000060: 4e07 c13f 3f5c c03f 3173 bf3f e2e6 bf3f
00000070: 3287 be3f 0ff2 bd3f 6753 bd3f 8dfb bb3f
00000080: 2ff8 bb3f 6c96 bb3f a19f bb3f 59e5 ba3f
00000090: 4d70 ba3f e463 ba3f df9b ba3f 59e7 b93f
000000a0: 448f b93f 3316 b93f 1e5d b83f a077 b93f
000000b0: 8fad b93f ecf1 b93f 804d ba3f b252 ba3f
000000c0: 63a4 ba3f e5ce ba3f 6c37 bb3f 6092 bc3f
000000d0: 7fa4 bb3f 8970 bd3f 5b58 bd3f 7c95 bd3f
000000e0: 4bf1 bd3f f75e be3f 6a7f be3f d349 bf3f
000000f0: 9cd7 bf3f 6359 c03f 44e9 bf3f d1f9 c03f
00000100: 42ac c13f 8701 c13f 4331 c23f 0e38 c23f
00000110: 4166 c33f 6b1d c23f ce32 c43f 8eb4 c43f
00000120: 881d c43f f0ae c33f e31f c43f 49cc c43f
00000130: 8daf c43f 8d15 c63f be0f c63f 35d9 c53f
00000140: 7a72 c63f c335 c63f 21cf c63f f291 c53f
00000150: 9a1a c63f 3889 c63f 8e6a c63f 9859 c63f
00000160: 1b6d c73f 3fef c53f 89ea c63f cb54 c63f
00000170: 0442 c63f 9bf0 c63f 766e c63f 8e62 c53f
00000180: 053b c63f 2960 c63f 20a5 c43f 61f5 c53f
00000190: ccff c43f a862 c53f 6ba7 c43f e454 c53f
000001a0: 76b6 c43f cde3 c43f 4660 c43f 3975 c43f
000001b0: bc82 c33f 15ae c33f 62b9 c43f d3b2 c33f
000001c0: c609 c33f 9429 c23f 1507 c33f e5c9 c23f
000001d0: 96be c13f e57d c13f ce44 c23f 9696 c13f
000001e0: 137a c03f 7884 c13f bc6e c03f 223c c03f
000001f0: d5b0 bf3f 3528 c03f f895 bf3f acf6 be3f
00000200: 352e bf3f c615 bf3f c972 be3f 9390 be3f
00000210: 53d8 bc3f 2792 bd3f c76d bc3f 4d36 bd3f
00000220: 57ba bc3f e5d9 bc3f 17ed bb3f 936d bc3f
00000230: 21c3 bb3f 8832 bc3f caef bb3f 1226 bb3f
00000240: e630 bb3f 4d82 ba3f 7e42 ba3f 280a ba3f
00000250: 9c06 ba3f 9738 b93f b714 b93f b6e8 b93f
00000260: f5ee b83f d38d b93f ebb7 b93f bbbc b83f
00000270: 89e5 b83f 2e22 b83f 73a6 b83f e350 b83f
00000280: 78d2 b73f 2ebe b83f c81d b73f c352 b73f
00000290: 8af4 b73f 4fa3 b73f 8a97 b73f 7771 b73f
000002a0: d662 b63f 7bd7 b63f d00d b73f c51e b63f
000002b0: 319c b63f dace b63f f835 b73f 9e78 b73f
000002c0: 4717 b73f 642e b63f d21c b63f ba2b b63f
000002d0: 103f b73f 8472 b63f 073b b63f 2bfa b63f
000002e0: d953 b63f e548 b63f 5d18 b73f 02a2 b63f
000002f0: 5d1c b63f bd22 b63f dcd1 b63f 98d5 b53f
00000300: 3818 b63f 6d55 b63f 811d b63f 31a6 b63f
00000310: d8ca b53f 24f8 b63f 8f78 b63f e437 b63f
00000320: 9d68 b63f c1a5 b63f 5cc0 b53f 459d b63f
00000330: d738 b73f 6db5 b63f 409a b63f 84d0 b63f
00000340: c9e2 b63f fbbd b63f 3262 b63f c60a b73f
00000350: 9583 b63f 1af4 b63f 12d9 b63f 4e3b b73f
00000360: 48cc b73f c135 b73f 080f b73f 1518 b73f
00000370: a528 b73f ae31 b73f 0201 b73f 212e b73f
00000380: 35bb b73f 48af b73f a353 b73f 898d b73f
00000390: cebd b73f 0a5e b83f e244 b83f 2339 b83f
000003a0: 2edc b73f 46fe b83f 5d1d b93f 9f33 b83f
000003b0: d6fb b83f 9e0d b93f 12a8 b83f d234 b93f
000003c0: 80e5 b83f bd7e b83f 3aea b83f 25c5 b83f
000003d0: 5a89 b83f 4085 b93f 6035 b93f bc2c b93f
000003e0: 4333 b93f 59be b93f 15b4 b93f a9c5 b93f
000003f0: 6bff b83f abbf b93f f495 b93f a819 ba3f

batch_norm.0.bias f4 [1000]
-0.35882306 -0.38240412 -0.37487215 -0.37171254 -0.37447396 -0.37796867 -0.375343 -0.36951905
-0.36640483 -0.36730298 -0.36541593 -0.36800405 -0.36710763 -0.37284634 -0.37200087 -0.37468776
-0.37589273 -0.37663808 -0.38208404 -0.38142768 -0.38894027 -0.38752556 -0.3946032 -0.39784768
-0.39965737 -0.3976315 -0.4035427 -0.40555125 -0.40843257 -0.41108873 -0.4161441 -0.41929674
-0.41885814 -0.42094016 -0.4243956 -0.4246647 -0.426729 -0.42905563 -0.42941356 -0.42882723
-0.4323901 -0.42878288 -0.4312235 -0.4377332 -0.43818805 -0.43904573 -0.439977 -0.44595784
-0.44383737 -0.441898 -0.44643936 -0.4505213 -0.45020482 -0.45197108 -0.45856512 -0.45864394
-0.45709616 -0.46016335 -0.45936438 -0.463194 -0.46453455 -0.46590826 -0.46374118 -0.4660635
-0.4683627 -0.4664367 -0.47274226 -0.4696591 -0.47069943 -0.47050014 -0.47114578 -0.47317636
-0.47448528 -0.47537446 -0.47309026 -0.4754724 -0.47456422 -0.47517842 -0.47262365 -0.47572604
-0.474746 -0.47579715 -0.47716847 -0.47299176 -0.47646463 -0.47730604 -0.4754758 -0.47409794
-0.4762708 -0.47438937 -0.47953737 -0.4727462 -0.47384766 -0.4749371 -0.4735085 -0.4751864
-0.4713153 -0.47887987 -0.4740736 -0.47800714 -0.4716112 -0.47231987 -0.46894354 -0.47319892
-0.46875572 -0.46676683 -0.46947002 -0.46569225 -0.4723019 -0.46883443 -0.46556148 -0.4686271
-0.4637867 -0.46784902 -0.46947882 -0.46849477 -0.4652808 -0.4694591 -0.46634904 -0.46610773
-0.46172664 -0.46515408 -0.46336895 -0.4627322 -0.46028748 -0.4638347 -0.4644582 -0.46372396
-0.45939445 -0.46276137 -0.46062672 -0.46095106 -0.45561814 -0.4612335 -0.4575442 -0.45679906
-0.46045452 -0.4640863 -0.46170595 -0.46447065 -0.46014613 -0.46314713 -0.46158442 -0.4570953
-0.45981497 -0.45759523 -0.45966706 -0.45973969 -0.4612646 -0.45904335 -0.45875072 -0.45975938
-0.45949954 -0.4583395 -0.45916152 -0.45680454 -0.4618472 -0.4606545 -0.46095145 -0.46002182
-0.45945695 -0.45876133 -0.45827582 -0.46145546 -0.4627827 -0.4613902 -0.46005258 -0.46056733
-0.45482883 -0.4601243 -0.45868868 -0.45855874 -0.4577978 -0.45895538 -0.4599336 -0.46155152
-0.46189108 -0.45990384 -0.4570358 -0.4595224 -0.46132573 -0.46317467 -0.46139503 -0.46289265
-0.46011907 -0.46358454 -0.46176234 -0.4610408 -0.46080482 -0.46215802 -0.46523416 -0.46376106
-0.46145546 -0.46468025 -0.4654213 -0.46486372 -0.46561763 -0.46705174 -0.46534276 -0.46663013
-0.46566743 -0.46841124 -0.464041 -0.46683148 -0.46914726 -0.46813032 -0.46801466 -0.46858102
-0.46932912 -0.4664804 -0.46695668 -0.4691367 -0.468767 -0.468846 -0.4692858 -0.4694542
-0.47271332 -0.4732404 -0.47072276 -0.470814 -0.47476232 -0.47528645 -0.47094497 -0.4742662
-0.47515813 -0.47719178 -0.47627217 -0.47531968 -0.4757424 -0.47612238 -0.47135082 -0.4747106
-0.4737704 -0.47456735 -0.47811 -0.47689456 -0.47806534 -0.47747108 -0.47809985 -0.47754994
-0.47745097 -0.47901744 -0.47586823 -0.4776461 -0.4761466 -0.47706556 -0.47803983 -0.48148924
-0.47812855 -0.4803262 -0.4778776 -0.47770888 -0.47586054 -0.47913626 -0.47733325 -0.4801699
00000000: a8b7 b7be 79ca c3be 3eef bfbe 1b51 bebe
00000010: 0dbb bfbe 1c85 c1be f52c c0be 9a31 bdbe
00000020: 6a99 bbbe 230f bcbe cc17 bbbe 076b bcbe
00000030: 88f5 bbbe b7e5 bebe e676 bebe 13d7 bfbe
00000040: 0375 c0be b5d6 c0be 85a0 c3be 7d4a c3be
00000050: 2e23 c7be c069 c6be 6e09 cabe b1b2 cbbe
00000060: e49f ccbe 5b96 cbbe 269d cebe 6aa4 cfbe
00000070: 131e d1be 397a d2be d710 d5be 10ae d6be
00000080: 9374 d6be 7885 d7be 614a d9be a76d d9be
00000090: 397c dabe 2ead dbbe 18dc dbbe 3e8f dbbe
000000a0: 3c62 ddbe 6e89 dbbe 54c9 dcbe 911e e0be
000000b0: 2f5a e0be 9aca e0be aa44 e1be 9654 e4be
000000c0: a73e e3be 7440 e2be b393 e4be baaa e6be
000000d0: 3f81 e6be c168 e7be 0cc9 eabe 61d3 eabe
000000e0: 8208 eabe 889a ebbe cf31 ebbe c427 edbe
000000f0: 79d7 edbe 878b eebe 7c6f edbe e09f eebe
00000100: 3ccd efbe cbd0 eebe 460b f2be 2877 f0be
00000110: 84ff f0be 65e5 f0be 053a f1be 2c44 f2be
00000120: bcef f2be 4864 f3be e338 f2be 1e71 f3be
00000130: 15fa f2be 964a f3be bafb f1be 5d92 f3be
00000140: e811 f3be af9b f3be 6d4f f4be fa2b f2be
00000150: 2cf3 f3be 7561 f4be 9071 f3be f7bc f2be
00000160: c4d9 f3be 2ae3 f2be ec85 f5be ca0b f2be
00000170: 299c f2be f52a f3be b56f f2be a24b f3be
00000180: 3d50 f1be be2f f5be c6b9 f2be 5abd f4be
00000190: 0677 f1be e9d3 f1be 5e19 f0be 2147 f2be
000001a0: c000 f0be 10fc eebe 605e f0be 376f eebe
000001b0: 8ed1 f1be 110b f0be 135e eebe e4ef efbe
000001c0: 7375 edbe e889 efbe 875f f0be 8cde efbe
000001d0: 4939 eebe f15c f0be 4dc5 eebe aca5 eebe
000001e0: 6f67 ecbe ad28 eebe b23e edbe 3ceb ecbe
000001f0: cdaa ebbe be7b edbe 77cd edbe 3a6d edbe
00000200: c035 ebbe 0fef ecbe 44d7 ebbe c701 ecbe
00000210: c846 e9be cc26 ecbe 3c43 eabe 91e1 e9be
00000220: b2c0 ebbe b89c edbe b964 ecbe 19cf edbe
00000230: 4698 ebbe 9f21 edbe cb54 ecbe 6508 eabe
00000240: de6c ebbe ec49 eabe 7b59 ebbe 0063 ebbe
00000250: e02a ecbe bb07 ebbe 60e1 eabe 9565 ebbe
00000260: 8643 ebbe 7aab eabe 3817 ebbe 49e2 e9be
00000270: 3c77 ecbe e8da ebbe d401 ecbe fb87 ebbe
00000280: f13d ebbe c4e2 eabe 21a3 eabe e443 ecbe
00000290: dbf1 ecbe 563b ecbe 038c ebbe 7bcf ebbe
000002a0: 53df e8be 6a95 ebbe 3ed9 eabe 36c8 eabe
000002b0: 7964 eabe 33fc eabe 6b7c ebbe 7b50 ecbe
000002c0: fd7c ecbe 8478 ebbe 9900 eabe 8546 ebbe
000002d0: e332 ecbe 3b25 edbe f83b ecbe 4400 edbe
000002e0: ba94 ebbe f45a edbe 1d6c ecbe 8a0d ecbe
000002f0: 9cee ebbe fa9f ecbe 2c33 eebe 1772 edbe
00000300: e443 ecbe 92ea edbe b34b eebe 9e02 eebe
00000310: 6f65 eebe 6821 efbe 6841 eebe 25ea eebe
00000320: f66b eebe 99d3 efbe c896 edbe 8904 efbe
00000330: 1234 f0be c7ae efbe 9e9f efbe dae9 efbe
00000340: e84b f0be 85d6 eebe f214 efbe af32 f0be
00000350: 3a02 f0be 950c f0be 3a46 f0be 4d5c f0be
00000360: 7b07 f2be 914c f2be 9302 f1be 880e f1be
00000370: 0c14 f3be bf58 f3be b31f f1be 05d3 f2be
00000380: ed47 f3be 7b52 f4be f2d9 f3be 1a5d f3be
00000390: 8294 f3be 50c6 f3be e554 f1be 450d f3be
000003a0: 0992 f2be 7efa f2be d5ca f4be 862b f4be
000003b0: fbc4 f4be 1777 f4be 81c9 f4be 6d81 f4be
000003c0: 7474 f4be c641 f5be 00a5 f3be 088e f4be
000003d0: 7dc9 f3be f041 f4be a3c1 f4be c285 f6be
000003e0: 44cd f4be 51ed f5be 5fac f4be 4296 f4be
000003f0: fea3 f3be 5951 f5be 0665 f4be d4d8 f5be

batch_norm.0.running_mean f4 [1000]
0.16947362 0.1681959 0.16849202 0.16866997 0.16847363 0.16902798 0.16923001 0.16952033
0.16978376 0.16959107 0.16985846 0.16987082 0.17013508 0.17035133 0.1705173 0.17105992
0.1705888 0.17067282 0.17091794 0.17084113 0.17109673 0.17097564 0.17098904 0.17098671
0.17078201 0.17107274 0.1711089 0.1711966 0.17128304 0.17122027 0.17096311 0.17103864
0.17108963 0.17114623 0.1711397 0.1710689 0.1710762 0.17103742 0.1708882 0.17104077
0.1708589 0.17093833 0.17082606 0.17086478 0.17088024 0.17083152 0.17092772 0.17075369
0.1708268 0.17078874 0.17092137 0.17079937 0.17068726 0.1707583 0.1706984 0.17082138
0.17071104 0.17079759 0.1707758 0.1706863 0.17059502 0.17060858 0.1707183 0.17059882
0.17060189 0.17067795 0.17060068 0.17058322 0.17056629 0.17067157 0.17073745 0.17083596
0.17089169 0.17085181 0.17076488 0.17085199 0.17077938 0.17083909 0.1709447 0.1708935
0.17091736 0.17093727 0.17097601 0.17098358 0.17103758 0.17100373 0.17113313 0.17120646
0.1712893 0.1712287 0.17119467 0.17138389 0.1714881 0.17151381 0.17147294 0.1714968
0.17152289 0.1714256 0.17139159 0.17136225 0.17157844 0.1716461 0.17168184 0.17181271
0.1719194 0.17189372 0.17176764 0.17188378 0.17185982 0.17188448 0.17201032 0.17198642
0.17215303 0.17217085 0.17206065 0.17219432 0.1722143 0.17220053 0.17229061 0.17223048
0.17218609 0.17215717 0.1724172 0.17257746 0.17249711 0.17259243 0.1725546 0.17257316
0.17259711 0.17252406 0.1724187 0.17261037 0.17261577 0.17259744 0.17263322 0.17269067
0.17279118 0.17272471 0.17279963 0.17281717 0.17280503 0.17274529 0.1728937 0.17285866
0.1727963 0.17272666 0.17282727 0.17289646 0.17296237 0.17295277 0.17289484 0.17281255
0.1728756 0.17287342 0.17292467 0.17301829 0.1730268 0.17287743 0.17278714 0.17289166
0.17291988 0.17294402 0.1729861 0.172922 0.17283544 0.17286459 0.17294633 0.17305514
0.17299345 0.17291988 0.17289585 0.17288558 0.17285872 0.17295809 0.17288159 0.17294143
0.17303425 0.17298397 0.17301369 0.17299287 0.17298381 0.17287423 0.17287837 0.17294303
0.17297968 0.17292492 0.17304261 0.17301506 0.17304552 0.17301749 0.17294517 0.17293885
0.17299299 0.1730592 0.17301156 0.17297138 0.17296904 0.17290846 0.1728196 0.1728906
0.17303634 0.1729698 0.17295861 0.17295396 0.17303047 0.17298055 0.17306086 0.17296815
0.172974 0.17296147 0.1729832 0.17293517 0.17297977 0.17299871 0.17301612 0.17299345
0.17290431 0.1729215 0.17286195 0.17284648 0.17284639 0.17282684 0.17282638 0.17277487
0.1727942 0.17277436 0.17278899 0.17280208 0.17286532 0.17286538 0.17288154 0.17285492
0.1728467 0.17284368 0.17283303 0.17289227 0.17288725 0.17289764 0.17283347 0.17282997
0.17285104 0.17283416 0.1728239 0.17282908 0.17283094 0.17282052 0.17282003 0.17285948
0.17285152 0.17287898 0.1729149 0.17283642 0.17280044 0.17285241 0.17281681 0.1727649
00000000: 7e8a 2d3e 8c3b 2c3e 2c89 2c3e d2b7 2c3e
00000010: 5a84 2c3e ac15 2d3e a24a 2d3e bd96 2d3e
00000020: cbdb 2d3e 48a9 2d3e 60ef 2d3e 9ef2 2d3e
00000030: e437 2e3e 9470 2e3e 169c 2e3e 552a 2f3e
00000040: d5ae 2e3e dbc4 2e3e 1d05 2f3e faf0 2e3e
00000050: fb33 2f3e 3d14 2f3e c017 2f3e 2417 2f3e
00000060: 7be1 2e3e b12d 2f3e 2c37 2f3e 294e 2f3e
00000070: d264 2f3e 5e54 2f3e f410 2f3e c124 2f3e
00000080: 1f32 2f3e f540 2f3e 3f3f 2f3e b02c 2f3e
00000090: 992e 2f3e 6f24 2f3e 51fd 2e3e 5025 2f3e
000000a0: a3f5 2e3e 750a 2f3e 07ed 2e3e 2df7 2e3e
000000b0: 3bfb 2e3e 75ee 2e3e ad07 2f3e 0eda 2e3e
000000c0: 38ed 2e3e 3ee3 2e3e 0306 2f3e 08e6 2e3e
000000d0: a4c8 2e3e 44db 2e3e 90cb 2e3e cdeb 2e3e
000000e0: e0ce 2e3e 90e5 2e3e dadf 2e3e 64c8 2e3e
000000f0: 76b0 2e3e 04b4 2e3e c7d0 2e3e 75b1 2e3e
00000100: 43b2 2e3e 33c6 2e3e f2b1 2e3e 5ead 2e3e
00000110: eea8 2e3e 87c4 2e3e ccd5 2e3e 9fef 2e3e
00000120: 3bfe 2e3e c7f3 2e3e fddc 2e3e d3f3 2e3e
00000130: cae0 2e3e 71f0 2e3e 210c 2f3e b5fe 2e3e
00000140: f604 2f3e 2e0a 2f3e 5614 2f3e 5216 2f3e
00000150: 7a24 2f3e 9a1b 2f3e 863d 2f3e bf50 2f3e
00000160: 7666 2f3e 9456 2f3e a84d 2f3e 427f 2f3e
00000170: 949a 2f3e 51a1 2f3e 9a96 2f3e db9c 2f3e
00000180: b2a3 2f3e 318a 2f3e 4781 2f3e 9679 2f3e
00000190: 42b2 2f3e ffc3 2f3e 5dcd 2f3e acef 2f3e
000001a0: a40b 303e e804 303e dbe3 2f3e 4d02 303e
000001b0: 05fc 2f3e 7c02 303e 7923 303e 351d 303e
000001c0: e248 303e 8e4d 303e ab30 303e b553 303e
000001d0: f258 303e 5655 303e f36c 303e 305d 303e
000001e0: 8d51 303e f849 303e 228e 303e 25b8 303e
000001f0: 15a3 303e 12bc 303e 27b2 303e 05b7 303e
00000200: 4cbd 303e 26aa 303e 878e 303e c6c0 303e
00000210: 30c2 303e 62bd 303e c3c6 303e d3d5 303e
00000220: 2cf0 303e bfde 303e 63f2 303e fcf6 303e
00000230: cdf3 303e 24e4 303e 0c0b 313e dc01 313e
00000240: 83f1 303e 42df 303e a2f9 303e c50b 313e
00000250: 0c1d 313e 881a 313e 580b 313e c6f5 303e
00000260: 4d06 313e bb05 313e 2a13 313e b52b 313e
00000270: f02d 313e c806 313e 1def 303e 830a 313e
00000280: e911 313e 3d18 313e 4523 313e 7712 313e
00000290: c6fb 303e 6a03 313e d818 313e 5e35 313e
000002a0: 3225 313e e911 313e 9c0b 313e eb08 313e
000002b0: e001 313e ed1b 313e df07 313e 8f17 313e
000002c0: e42f 313e b622 313e 802a 313e 0b25 313e
000002d0: ab22 313e f105 313e 0707 313e fa17 313e
000002e0: 9621 313e 3b13 313e 1532 313e dc2a 313e
000002f0: d832 313e 7f2b 313e 8a18 313e e216 313e
00000300: 1325 313e 6e36 313e f129 313e 691f 313e
00000310: cc1e 313e ea0e 313e 9ff7 303e 3c0a 313e
00000320: 7030 313e ff1e 313e 101c 313e d81a 313e
00000330: e62e 313e d021 313e de36 313e 901e 313e
00000340: 1920 313e d01c 313e 8222 313e eb15 313e
00000350: 9c21 313e 9326 313e 232b 313e 3225 313e
00000360: d40d 313e 5512 313e b902 313e abfe 303e
00000370: a5fe 303e 85f9 303e 66f9 303e e5eb 303e
00000380: f6f0 303e c3eb 303e 99ef 303e 07f3 303e
00000390: 9b03 313e 9f03 313e dc07 313e e100 313e
000003a0: bafe 303e effd 303e 24fb 303e ac0a 313e
000003b0: 5b09 313e 140c 313e 42fb 303e 57fa 303e
000003c0: ddff 303e 70fb 303e c0f8 303e 1bfa 303e
000003d0: 98fa 303e ddf7 303e bcf7 303e 1302 313e
000003e0: fdff 303e 3007 313e 9b10 313e 08fc 303e
000003f0: 99f2 303e 3900 313e e4f6 303e 48e9 303e
