Saves/3chan_ep_30_resnet.pth (torch, 641756 bytes, 130 tensors)

forward_blocks.0.sage1.lin_rel.weight f4 [32, 6]
000000 b3 a7 20 be bf 0a 88 3c 02 1a cf bd bc ff 27 3c
       -0.15688972 0.016606687 -0.101123825 0.010253843
000010 52 eb cf be 95 0c c7 be 1d 3f 88 be 02 23 50 be
       -0.40609223 -0.38876787 -0.26610652 -0.20325854
000020 ed cd 21 3e 0e 45 bb be ea da bd 3e 2f 39 8a be
       0.1580121 -0.36576122 0.3708108 -0.26996753
000030 a9 51 05 be c0 1e f0 bd 87 6a 9b 3e b2 01 71 bd
       -0.13019432 -0.11724615 0.3035471 -0.058839507
000040 cb 32 ec 3d df 00 65 bf 18 70 b8 3e fa 9d 87 3e
       0.115331255 -0.89454454 0.3602302 0.26487714
000050 97 a1 99 be 6b 2d 7d be b6 2c d0 3e 4b 14 fe bd
       -0.30006096 -0.24724357 0.40659112 -0.12406214
000060 49 96 96 3d 65 d3 47 3e 9a 78 bc 3d c6 3b 43 3e
       0.07352883 0.19514234 0.092026904 0.1906577
000070 0d c1 bc 3e 54 1c f1 bd c7 c8 a6 3e b1 e3 ba 3e
       0.36866036 -0.11772981 0.32575056 0.3650184
000080 8f f2 3f 3d 95 fb b9 3e e6 e5 08 3e f4 7a b8 be
       0.04686218 0.36324754 0.1336895 -0.36031306
000090 ce fb f5 bd f5 6e 3f 3d 1d 02 37 3e 7b 57 bf 3c
       -0.120109186 0.046736676 0.178719 0.023357144
0000a0 49 89 5b 3e 90 9c e4 bd 9d 14 b8 be 87 e6 d1 3d
       0.21439089 -0.111626744 -0.35953227 0.10249048
0000b0 1f 97 8f 3e 29 94 a1 bd e4 ce 06 3e d1 0a 84 be
       0.28044984 -0.078895874 0.1316486 -0.25789502
0000c0 9a 26 33 3e 43 36 80 3e d0 a4 97 bd a3 95 47 be
       0.17495194 0.25041398 -0.07404482 -0.19490676
0000d0 43 df 8e 3d 45 61 38 be 6f db a2 be c9 93 d7 3e
       0.069761775 -0.18005855 -0.3180804 0.4210494
0000e0 54 53 ba be 95 e0 7f 3e fc c8 94 3e 39 02 b2 3e
       -0.363917 0.24988015 0.2905959 0.3476732
0000f0 dc ce d8 3e 0a 6a f7 3c 71 4d 5c 3d e5 07 03 be
       0.4234532 0.03020193 0.05378479 -0.1279598
000100 e5 92 33 be a7 72 28 be 2e d4 bb 3e 88 dc bb 3d
       -0.17536505 -0.16449986 0.36685318 0.091729224
000110 32 02 aa 3e 9c f1 8c 3e d1 79 9a 3c cf 24 9b be
       0.332048 0.27528083 0.018856915 -0.3030152
000120 aa 1c 64 3e 3c db d4 be d0 7c a7 be df 00 2b 3e
       0.2227656 -0.41573513 -0.32712412 0.16699551
000130 a8 65 7e be ab 42 e9 3d 49 d0 92 be dd 14 07 bf
       -0.24843466 0.11389669 -0.28674534 -0.5276621
000140 f1 99 2d 3b 0e 07 28 be dc 93 fc 3c 6b e8 ae be
       0.0026489461 -0.16408941 0.030832224 -0.34161696
000150 63 ea 9c 3e e5 ac 57 3e e5 e0 f9 3d f3 29 75 3e
       0.30647573 0.21062048 0.12201098 0.23941784
000160 72 1a 8b bd 11 0f 12 3e ef 66 10 3e 3f f8 b7 bd
       -0.067921534 0.1426356 0.14101766 -0.08982896
000170 22 0c 7c be 68 c9 3f be 2e 30 83 bd 18 00 3f be
       -0.24614003 -0.18729174 -0.06405674 -0.1865238
000180 94 f3 9a 3d af 12 78 3e 45 98 3e 3e b7 65 63 be
       0.0756599 0.24225877 0.18612774 -0.2220677
000190 8c 42 44 be 4f 53 ca 3c 83 ab e2 3d f1 b5 9e 3e
       -0.1916601 0.024697928 0.110678695 0.30998185
0001a0 61 b5 92 bd 15 d9 05 3f 0e 67 7d 3e e3 23 95 3e
       -0.071635015 0.52284366 0.24746343 0.29128942
0001b0 8d 19 0f bf 9e 4d 9f be b4 ff d3 bd 0b 86 62 bd
       -0.5589836 -0.31113905 -0.10351506 -0.055303615
0001c0 91 b4 d7 3d 30 03 6c 3e 08 58 5b 3e 2d ab 7b be
       0.10532487 0.23048091 0.214203 -0.24577017
0001d0 ee 4e c7 bd 63 b8 d3 3d 95 7c 02 3f 72 59 a6 be
       -0.097318515 0.10337903 0.5097135 -0.32490116
0001e0 a1 0b 1c be 5c d2 96 be 35 29 65 3b 5d 13 dd 3e
       -0.15238811 -0.29457366 0.0034967188 0.43178836
0001f0 c0 f2 d4 3e 0a ad dd 3e 5f 8d ef 3d 1a 98 df be
       0.41591454 0.4329608 0.11696886 -0.43670732
000200 d4 21 05 3e 60 bb 1a 3e 19 af 91 3d 39 f9 53 3b
       0.13001186 0.1511054 0.07113475 0.0032344593
000210 12 f7 4d 3e e2 90 c6 3e cd ce 87 bc 11 12 87 bd
       0.20113781 0.38782412 -0.016578102 -0.06595243
000220 e8 9f a6 be 49 ba 4e be d0 59 c7 bd c6 35 3d 3e
       -0.32543874 -0.2018825 -0.09733927 0.18477544
000230 01 b4 45 3e df a4 dc bc d1 17 30 be bc b5 08 3f
       0.19306947 -0.026934085 -0.17196585 0.53402305
000240 ff b7 bb be 9c fc f5 be b5 c3 e5 bd 2d 53 83 3e
       -0.36663815 -0.48044288 -0.11218969 0.25649396
000250 db 01 4f 3e 20 51 8f 3e bf 5d de 3d d1 53 e7 3d
       0.20215552 0.2799158 0.108577244 0.112952836
000260 f6 77 5b bd 32 ce be 3e 91 82 9e 3e 5d ac 51 3e
       -0.0535812 0.3726669 0.3095899 0.20475908
000270 62 9a 90 be c3 51 bb 3e fb d8 7e be a6 9f 84 3d
       -0.28242785 0.36585817 -0.24887459 0.06475763
000280 be 24 8f 3d 04 b0 41 3e 15 81 b8 be d9 80 af bd
       0.0698943 0.18914801 -0.36035982 -0.085694976
000290 5a a6 92 bd 6a 34 2c 3e de 8c 7a 3e 3e f0 e7 3e
       -0.07160635 0.1681687 0.24467799 0.45300478
0002a0 58 1e 94 3e 48 00 79 3e 43 75 a7 bd d5 54 70 be
       0.289294 0.24316514 -0.08176663 -0.23469861
0002b0 a2 4d b8 be 57 3d cb 3d 31 7a 9b be f6 18 51 be
       -0.3599673 0.09923809 -0.30366662 -0.20419678
0002c0 bb 8e 1a 3d c7 87 f8 bd 0a 1d 87 3e 2e 01 18 bd
       0.037733775 -0.121352725 0.26389343 -0.0371105
0002d0 40 cd d8 3d 58 cb 4b 3e dd 75 f6 3d 29 01 0a be
       0.10586023 0.19901788 0.120341994 -0.13477005
0002e0 35 e4 d8 3d a8 f6 96 be 8d 8a a3 3d ee 73 0d 3f
       0.10590402 -0.2948506 0.07985411 0.5525502
0002f0 0a 33 89 bd b3 79 89 3e 4d 0c d6 bb 80 5f 1c 3e
       -0.06699188 0.26850662 -0.006532228 0.15270805

forward_blocks.0.sage1.lin_root.weight f4 [32, 6]
000000 b8 d0 36 bd a9 8d db 3d 92 8c bc be 6a 74 16 be
       -0.044632643 0.10720379 -0.36825997 -0.14692846
000010 b3 40 c3 bc 03 5c 76 be 04 18 92 3e 63 62 10 be
       -0.023834562 -0.24058537 0.28533947 -0.14100032
000020 3c 77 24 bc 98 25 63 3e 71 72 a9 3e 0b 33 68 38
       -0.010038193 0.2218231 0.33095124 5.5360648e-05
000030 38 7b be 3c 22 4d 1b 3d ed 03 69 c0 7d 74 28 be
       0.023252115 0.037915356 -3.6408646 -0.16450687
000040 bb 8e 86 3e c4 bf aa bd 54 83 6d be 9c 48 36 3e
       0.2628077 -0.08337358 -0.23194629 0.17801136
000050 3c 2f d4 bd a3 1b 4c 3e 91 84 86 3e 08 50 b9 be
       -0.10360572 0.19932418 0.26273015 -0.36193871
000060 da e8 14 be 0f ce 4d be 64 dc 4b bd 1c 8e aa 3d
       -0.14541951 -0.20098136 -0.049770728 0.083278865
000070 af b9 16 be a5 b1 29 bb f9 55 a6 3e da 58 2a 3e
       -0.1471927 -0.0025893238 0.32487467 0.16635457
000080 4e ee 7e bb ca 81 59 be 54 84 3c be 86 7b a7 3e
       -0.0038899365 -0.21240917 -0.18409854 0.32711428
000090 56 ea 86 be d5 de 55 be 13 36 32 be c3 c5 0f be
       -0.2635066 -0.20885785 -0.1740344 -0.14040284
0000a0 1c cb 10 be ff fc 2f bd 96 cd 56 be e3 8b 50 3e
       -0.1413998 -0.042965885 -0.20976862 0.20365863
0000b0 5c 7d c1 bd 2b 56 b4 be 4a 1e b3 3e db 99 98 be
       -0.094477385 -0.3522199 0.34984046 -0.29804882
0000c0 6a 8a 82 ba 1a d1 15 3c 6d 9a 57 3e 7a 11 7f 3d
       -0.0009959463 0.009144092 0.21055003 0.062272526
0000d0 7b 65 ac 3e 3e da 82 be c7 2e 8a be 03 fd 21 3e
       0.33671173 -0.2555713 -0.26988813 0.15819173
0000e0 86 10 f1 bd 76 53 63 be 8b f3 16 3e 0f aa 8f be
       -0.1177073 -0.22199807 0.14741342 -0.28059432
0000f0 33 8d b8 be 71 8c 89 bd b2 f4 9a bd 28 4d 30 3e
       -0.36045226 -0.0671624 -0.07566203 0.17216933
000100 6f 58 95 be 54 e9 f5 3e 50 46 2e be 1d 24 c2 3d
       -0.29169032 0.48029578 -0.1701901 0.09479544
000110 c7 a7 27 3e 0d de a8 3d 39 27 9f 3e 3a cd e4 be
       0.16372596 0.08245478 0.31084612 -0.44687825
000120 77 63 94 3c eb 1b 02 3f a6 b9 81 3e b9 21 ce 3d
       0.018113835 0.5082385 0.2533695 0.10065026
000130 fa 46 e7 be 18 b3 b6 3e e0 93 75 3e 4f bf 2b be
       -0.45171338 0.35683513 0.23982191 -0.16772197
000140 14 25 c9 3e 44 12 82 3e a8 ff be bd aa c6 c5 be
       0.392861 0.2540456 -0.09326106 -0.3862813
000150 fd 95 ce 3e 05 b2 c2 3c bd 84 62 3e ae f0 64 be
       0.40348807 0.023766527 0.22120948 -0.22357437
000160 d3 63 82 3d 56 4a b8 3e 08 d9 4c 3e 89 1c 98 bd
       0.06366696 0.35994214 0.20004666 -0.07427318
000170 1f 3c 4a be 31 53 da 3e 04 2a 48 3e 98 44 a8 be
       -0.19749497 0.42641595 0.19547278 -0.32864833
000180 3e 14 f8 bd 75 be 6c bd 55 8a 3d be 0c af e4 3c
       -0.12113236 -0.05779882 -0.185098 0.0279155
000190 4b cc d0 3e 81 9a 89 3e fa 09 37 3e 9c 86 8a 3d
       0.40780863 0.2687569 0.178749 0.06763956
0001a0 4d 6e b5 be b7 6b b9 bd 92 a5 33 3f 05 3e 86 3e
       -0.35435715 -0.09053748 0.70174515 0.26219192
0001b0 3a 4d ad 3e 55 06 a0 3e e2 21 b6 bc df 1c d9 bc
       0.33847982 0.3125483 -0.022232953 -0.026503025
0001c0 90 86 3b 3e b6 41 8e 3d 6a 6c 95 3d f6 a0 92 be
       0.1831305 0.06946127 0.07296069 -0.28638428
0001d0 bd 2d 3c 3e 77 8b 09 be 24 f5 38 3e eb 48 e3 bd
       0.18376823 -0.13432108 0.18062264 -0.110978924
0001e0 a7 5a 72 3e ef 9f 03 bf 8a c0 9d 3e 1b 41 06 be
       0.23667394 -0.51415914 0.30810958 -0.13110773
0001f0 8a 49 53 3e 48 c4 90 be 55 b4 74 3e ec 3b bb be
       0.20633522 -0.2827475 0.23896916 -0.36569154
000200 10 d0 92 3e 57 cd c5 3c be 0c 5c bc 7a 39 0b be
       0.28674364 0.024145765 -0.013430772 -0.13596144
000210 38 78 b9 3e 05 9d 92 be c4 23 49 bd b3 e2 9b 3d
       0.36224532 -0.2863542 -0.049106374 0.07611599
000220 bf 92 e1 bd b0 bf 75 3e 01 a3 0c be 18 b7 42 3e
       -0.11014318 0.23998904 -0.13734056 0.19015157
000230 a0 2e 02 bf d7 8d 8c 3e 6f ca c3 be 01 18 e7 be
       -0.50852394 0.27451965 -0.38240382 -0.451355
000240 ec 96 16 3e 6b 09 76 be 02 e8 72 be 64 8b cc bc
       0.1470601 -0.2402703 -0.23721316 -0.02496881
000250 b3 61 22 3f 6c 95 00 bc 00 30 47 be 0b f4 a4 3d
       0.6343033 -0.007848125 -0.19451904 0.0805436
000260 47 6d b2 bd f7 5e 2f 3e b5 42 9c be 04 50 91 3d
       -0.08712249 0.1712607 -0.30519643 0.0709534
000270 73 34 f5 be 7b 77 4b 3e 72 cb be 3c eb 5e 7c 3e
       -0.47891578 0.19869797 0.02329037 0.24645583
000280 df 60 f0 39 86 ba 83 3e 2d bd 1f 3e 5e d3 80 3e
       0.00045848542 0.25728244 0.15599509 0.2516126
000290 da b5 a1 3e 9f 2c b6 be c5 73 a5 3e 35 64 ec be
       0.31584054 -0.35580918 0.32314888 -0.46170202
0002a0 1a 59 5c bd f0 45 6a 3e 23 d9 c1 3e ee b3 cb 3e
       -0.05379591 0.22878242 0.37860975 0.39785713
0002b0 a6 bd 18 3e 54 e1 60 3e 0c 7e ae be 87 0d c5 3e
       0.14916095 0.21960956 -0.3408054 0.38486883
0002c0 1f 91 63 3e 08 c6 c8 bc cf a8 e4 be e6 93 8f 3d
       0.22223328 -0.024508491 -0.4466004 0.07010631
0002d0 3f a8 51 3d 51 ed 62 3e e9 45 64 3e 7b 53 d1 be
       0.051185843 0.22160842 0.22292294 -0.40884003
0002e0 6b 04 f3 be 2e ea 4a 3e 6f 4c 2e 3e e8 6c eb bd
       -0.47464308 0.19815895 0.17021345 -0.114953816
0002f0 ea 72 d5 3e 53 14 c8 3d da 58 dd 3d 1f 94 3c bd
       0.41689235 0.097695015 0.10807963 -0.046039697

forward_blocks.0.sage1.lin_root.bias f4 [32]
000000 52 9b 19 be 56 9f 74 bd 00 50 2f 3e 11 8e 9a 3d
       -0.15000656 -0.059722267 0.17120361 0.07546628
000010 cd 2a af 3c c4 ff 7e be 9a 60 c7 3e d7 ed a3 3d
       0.021382714 -0.24902254 0.3894089 0.08004349
000020 5d 4f 56 bd 2f d5 07 be e1 82 1e bc b4 cb 73 be
       -0.05232178 -0.13264917 -0.009674759 -0.23808175
000030 44 8d 51 3c 4e b5 dc 3e 90 80 12 be 5c 4a 5e 3c
       0.012790028 0.43107074 -0.14306855 0.013567533
000040 a1 b1 07 3a fb b4 b6 bd 76 df 65 3e 38 20 f4 bd
       0.000517631 -0.08921238 0.22448525 -0.11920208
000050 72 82 9e be d5 e2 22 3e 20 37 d7 3d cc 58 0b be
       -0.30958897 0.15906842 0.10508561 -0.13608092
000060 88 3a 97 bd 89 f1 3c 3e b5 b4 48 be 93 83 d7 be
       -0.07384211 0.18451513 -0.19600184 -0.4209257
000070 58 55 94 be b8 4b 79 3d e5 d7 42 be 24 49 fb bc
       -0.28971362 0.060863227 -0.1902767 -0.030674525

forward_blocks.0.lin.weight f4 [32, 32]
000000 19 8f ad 3c 27 8f df 3c e4 c4 0a be fe 38 5e bd
       0.021186398 0.02728994 -0.1355167 -0.05425357
000010 6e 51 21 bd c9 d1 13 bd ec a8 21 be d6 0a 1b 3d
       -0.039384298 -0.03608874 -0.15787095 0.03785213
000020 d6 a1 ba 3d 82 a4 42 bd 97 05 c1 bc f0 72 2e 3e
       0.09112899 -0.047520168 -0.023562236 0.17036033
000030 c1 55 95 3d 16 01 8b 3d cc c9 c0 bc 67 17 45 3c
       0.07291747 0.067873165 -0.023533724 0.012029505
000040 d2 f0 65 be a3 33 52 3e 95 8a 9b 3e e0 7f 53 bd
       -0.22455147 0.2052751 0.30379167 -0.051635623
000050 0e e5 11 bf b1 e2 f9 3b 96 29 86 bd 9c d2 66 3c
       -0.56990135 0.0076259007 -0.06550901 0.014088299
000060 07 59 9e 3e 62 72 56 bd 66 cc 80 bd b7 0c b7 be
       0.30927297 -0.052355178 -0.06288986 -0.35751888
000070 30 69 04 3d d9 ed e5 bc 0a d9 cc 3d 5a ec 03 be
       0.032326877 -0.028067516 0.100023344 -0.1288313
000080 45 b2 10 3e b0 ce 5a 3c 54 2a b0 3e 2e b7 ff bc
       0.14130504 0.013354942 0.34407294 -0.031215277
000090 a1 e1 2c be 72 42 fb 3c b2 05 8a bd df 4d 5a 3e
       -0.16882946 0.030671332 -0.067393675 0.21318768
0000a0 fc fe a2 3d a5 ca 09 be b1 55 99 3d a3 fe 45 be
       0.07958791 -0.13456209 0.074870475 -0.19335417
0000b0 b8 eb ca 3c b4 ae f3 bd 03 73 55 be d7 aa 47 bc
       0.024770603 -0.11898556 -0.20844655 -0.0121867275
0000c0 2e 47 d0 bd 77 40 23 3c 71 54 ff bd 1c 20 cd bd
       -0.101698264 0.0099641 -0.12467278 -0.1001589
0000d0 44 c9 0c 3f 58 4c a8 3d 7c 0b a9 bd 43 bc 07 bc
       0.54994607 0.082176864 -0.082541436 -0.008284631
0000e0 42 84 82 be cc 13 22 3d 51 d9 ec bc c2 bd 01 be
       -0.2549153 0.03956966 -0.028912218 -0.12670043
0000f0 08 f5 0e 3e 8c bc a8 3d fa 85 7a bc 33 f6 9c 3d
       0.1396066 0.082390875 -0.015290732 0.07664146
000100 77 29 34 3e 97 43 da bd 37 6d c8 bd 43 49 0f be
       0.17593943 -0.10657423 -0.09786456 -0.13992791
000110 d0 a0 bb bd 2f 76 d4 bd 71 79 58 3c fa 4d a7 3c
       -0.09161532 -0.10374104 0.013212548 0.020422924
000120 4a ac 1a 3e e6 f8 d5 bc 0a 6e a6 3e ca 8b 1b 3e
       0.15104786 -0.02611966 0.32505828 0.15190044
000130 1d db 19 3e 20 d1 c1 bd a0 b1 5f bd d4 5d 28 3e
       0.15024991 -0.094637156 -0.054612756 0.16442043
000140 9c ed 60 bd ae f1 cd bd 98 ab 0d bc 0d e0 21 3c
       -0.054914102 -0.10055862 -0.008646868 0.009880078
000150 19 58 3b 3e f8 75 f3 bd ab d2 4a be ed fe dc bd
       0.18295325 -0.11887735 -0.19806926 -0.10790811
000160 72 6a cc 3e 91 1c 09 3e 39 79 5a bc 59 ff e3 3d
       0.3992496 0.13389803 -0.013334566 0.11132688
000170 03 08 45 be ab 5e 87 be 29 0c b1 3d 8a 21 0b 3e
       -0.19241337 -0.26439413 0.086448975 0.13587013
000180 23 cf 2d 3d 69 3a d2 3c 4b db 85 3d 8a 19 25 bd
       0.04243387 0.025662618 0.065359674 -0.04030756
000190 36 aa aa be 33 0c 58 bd 2d 46 4e 3e 5c eb ab bc
       -0.33332986 -0.05274601 0.20143957 -0.020986252
0001a0 a9 98 f2 bd f3 48 2b be e2 24 fa be 45 08 05 be
       -0.11845524 -0.16727047 -0.48856264 -0.12991436
0001b0 78 b0 e1 3d f6 d5 4d 3e 14 7b f3 3d 39 38 2d 3e
       0.11019987 0.20101151 0.1188871 0.16915978
0001c0 5d 4d 35 be 6d 2b 29 3d 22 fa 35 bd bc c1 b0 bc
       -0.17705293 0.04130118 -0.044428 -0.021576755
0001d0 f4 ce b1 3e 79 bc de 3d ff 2d 75 bc 11 77 87 3d
       0.34728205 0.10875792 -0.01496458 0.06614507
0001e0 e2 92 b5 3e 92 6c 54 3d bf 6a 63 3e 90 6a 20 3e
       0.35463625 0.051861353 0.22208689 0.1566565
0001f0 e6 a4 f9 bc ac 10 25 bc ed d0 ff 3d 9b 7a 29 be
       -0.030474138 -0.010074776 0.12491021 -0.16550677
000200 be 57 94 3d 29 a8 58 bd 57 23 9d be 4d ad 02 3d
       0.07243298 -0.052894745 -0.30691025 0.031903554
000210 df 9b 48 3c 90 f5 dd bd 6b 6e 5f bd ea a1 38 be
       0.012244194 -0.10837853 -0.054548662 -0.18030515
000220 32 ca 38 bc fa 5b 30 bd de 12 45 be bd ad 97 3d
       -0.011278676 -0.043056466 -0.19245479 0.07406185
000230 ae 6e 5d 3d 94 f7 75 3d a2 c8 df 3c 35 69 ae 3b
       0.05406063 0.060050562 0.027317349 0.0053226002
000240 9f a2 1f 3e 6f 70 90 3e 7d ab 50 3e 56 c4 34 bd
       0.15589379 0.2821078 0.20377918 -0.044132553
000250 bc 8d 8a 3e 02 af 19 3e 51 61 03 bd 03 c9 9a bc
       0.2706126 0.15008166 -0.03207523 -0.018894678
000260 0f f1 56 be a8 f1 9b 3d 85 53 06 3d 83 c0 1e 3e
       -0.20990394 0.07614452 0.032794494 0.15503125
000270 46 2c 0d be 79 f7 e5 3d 0d 90 df bc b0 11 db 3d
       -0.1378642 0.11228842 -0.027290368 0.10696733
000280 76 82 9c bd 79 a6 29 3c 96 e3 c5 3c ca d3 10 3e
       -0.07642071 0.010354632 0.024156373 0.14143291
000290 25 6b be 3d 0a 09 c5 bd 6e da e1 3a eb 61 fe 3d
       0.0929778 -0.09620865 0.0017231235 0.1242102
0002a0 d7 b4 0f 3d 1a 90 09 be 9a e6 0e 3f 5c fe 63 3d
       0.03508457 -0.13433877 0.5582062 0.055662498
0002b0 04 8d bf bd 61 e3 be bc 66 b6 84 3d 12 6e a8 3e
       -0.093530685 -0.023301782 0.06480102 0.32896477
0002c0 db 5d b5 bb 90 63 1d 3e b0 09 c4 3d 35 f2 20 bd
       -0.00553487 0.15370011 0.0957216 -0.039293487
0002d0 a4 2c 06 be 93 e7 fc 3d bd af 69 3e 81 9a af 3e
       -0.13102967 0.12348857 0.22820945 0.34297565
0002e0 b2 8c 02 bf 1c 4b e6 bd 1d 83 ab bd 91 a3 5e be
       -0.50995934 -0.11244795 -0.08374617 -0.21742083
0002f0 0f e5 36 3e 4c 8a 1d be ff 9d 89 bd a4 b8 13 be
       0.17860816 -0.15384787 -0.067195885 -0.14425904
000300 25 ec 30 be 1c 35 38 be 24 37 8a be fe a2 49 3d
       -0.17277582 -0.1798901 -0.26995194 0.049227707
000310 f9 d5 07 3e 8c d0 a1 3d 16 19 8c 3c 02 04 eb 3d
       0.13265218 0.07901105 0.017101806 0.11475374
000320 ca 80 54 3d b6 b0 14 3e ae eb 0e bd 1a 50 61 3d
       0.051880635 0.14520535 -0.03489273 0.05500803
000330 6e 9f 8d bd 8d d1 3b bc 63 75 bf bd 07 d5 5a bb
       -0.069151744 -0.011463535 -0.093485616 -0.0033391134
000340 c8 fe 46 3d 9a 4c 68 3d 30 3d 11 3a c7 67 86 bd
       0.048582822 0.056713678 0.00055404287 -0.06562763
000350 e4 3d 89 be b3 af bc bd 63 e8 b8 39 a1 e1 40 be
       -0.2680503 -0.092131995 0.00035268356 -0.1883607
000360 f7 1c 92 3e 86 7e 3b 3e 77 39 47 bc 79 f8 58 3e
       0.28537723 0.18309984 -0.012159697 0.21188535
000370 b9 57 51 3e 13 20 59 3c a5 63 f7 3d 9d 35 0e 3c
       0.2044362 0.013252276 0.120795526 0.008679775
000380 10 05 9b bd 56 c9 76 3e 45 85 a9 3b d8 f0 f1 3d
       -0.07569325 0.24100241 0.0051733577 0.118135154
000390 f2 c7 3a 3e bb 48 a7 bd 1f 02 61 3e a8 fc 32 3e
       0.18240336 -0.08168169 0.21973465 0.17479193
0003a0 1c 16 5a 3d 7c fe 9f bd 80 de b4 3e 6e 02 3f be
       0.05324374 -0.07812211 0.35326004 -0.1865327
0003b0 9b e6 ce 3d e1 5e dd bd 6c ab 1f 3d ad c0 e4 bc
       0.10102578 -0.10809112 0.03898184 -0.027923906
0003c0 82 e7 9a bd d7 98 7c be 43 57 98 bd ed 7c 35 3e
       -0.07563688 -0.24667679 -0.07438519 0.17723437
0003d0 e4 95 2f 3c 84 29 95 3d e3 21 22 bb c3 8c fc 3d
       0.010716889 0.07283309 -0.0024739436 0.12331536
0003e0 97 93 56 be c3 f9 ce 3d 44 27 83 bd ec 4f 90 3d
       -0.20954739 0.10106232 -0.06403974 0.07046494
0003f0 2c 98 dc bd 52 75 4e bd 92 61 21 bd bc c2 22 bd
       -0.10771212 -0.050404854 -0.03939969 -0.039736494

forward_blocks.0.lin.bias f4 [32]
000000 25 4a 0e bc a0 ac 07 3e a6 b0 08 3d fe a5 a9 3d
       -0.00868467 0.13249445 0.03337159 0.082836136
000010 b2 1c 88 be ad 75 4a be 35 9d 5d be 7f 70 dd 3d
       -0.26584393 -0.19771452 -0.21642001 0.108124726
000020 18 f2 34 3e 6f 2a 54 be cf 92 d7 bd c9 ac 18 be
       0.17670476 -0.20719312 -0.105260484 -0.14909662
000030 17 54 54 be 63 47 b1 bd 64 7f 9f 3c ae c4 54 be
       -0.20735203 -0.08656194 0.019469924 -0.20778152
000040 b9 1f 26 3d 9e da 81 3d 2b 88 1d 3d 28 db 29 3e
       0.040557597 0.06340526 0.038459938 0.16587508
000050 c3 70 08 3e b5 41 14 bd 47 67 3e 3e 29 c0 77 3d
       0.13324265 -0.036195476 0.18594085 0.060485993
000060 82 a0 0d 3e 33 7e d4 bd 81 61 4f 3e 0c b3 07 3e
       0.1383076 -0.10375633 0.20252039 0.13251895
000070 39 c0 1e bd 88 02 5c 3c 7c fb 59 3e 44 81 6c bd
       -0.038757537 0.013428338 0.2128734 -0.057740465

forward_blocks.0.bn1.weight f4 [1000]
000000 78 65 61 3f de 27 6a 3f ed 50 6b 3f f2 c8 65 3f
       0.88045454 0.9146708 0.9192036 0.89759743
000010 b5 d0 66 3f 2e 41 68 3f 97 ec 6c 3f 09 2a 6e 3f
       0.9016221 0.90724456 0.9254851 0.9303289
000020 e0 3a 64 3f ea 92 68 3f 20 37 6e 3f a5 83 65 3f
       0.89152336 0.90849173 0.93052864 0.89654
000030 07 8e 5e 3f e5 40 68 3f d1 87 64 3f 94 d5 5d 3f
       0.86935467 0.9072402 0.8926974 0.8665402
000040 3d 23 5e 3f d1 e6 60 3f 60 43 66 3f 66 c1 64 3f
       0.8677252 0.878522 0.89946556 0.893576
000050 a9 5f 64 3f 6b 0d 6a 3f 8c cb 60 3f c1 6e 64 3f
       0.89208466 0.91426724 0.8781059 0.892315
000060 b0 fc 69 3f 58 21 66 3f f3 c4 65 3f 69 27 6a 3f
       0.91401196 0.8989463 0.89753646 0.91466385
000070 9e fa 65 3f 26 1d 6a 3f cf 29 69 3f a8 bd 6b 3f
       0.89835536 0.91450727 0.9107942 0.9208627
000080 34 a7 69 3f 56 ee 6a 3f 3f 00 69 3f c3 10 71 3f
       0.91270757 0.9176992 0.91016 0.941662
000090 49 fd 6a 3f ee 06 69 3f 0c 85 6b 3f c3 17 68 3f
       0.9179273 0.910262 0.9199989 0.9066126
0000a0 95 94 6a 3f 8e 14 69 3f 72 23 79 3f 6b 51 6f 3f
       0.9163297 0.9104699 0.9731971 0.9348361
0000b0 02 41 70 3f 16 cb 6e 3f f1 94 73 3f d8 7b 6f 3f
       0.93849194 0.93278635 0.9514914 0.93548346
0000c0 b8 11 70 3f 1c d2 6f 3f 97 f9 71 3f 25 b1 70 3f
       0.93777037 0.93679976 0.9452147 0.940203
0000d0 b1 67 75 3f d2 32 79 3f 02 25 76 3f 9f 39 7d 3f
       0.95861346 0.9734317 0.9615022 0.9891605
0000e0 56 af 7a 3f f0 7b 71 3f a0 d4 6d 3f 02 b3 74 3f
       0.9792379 0.9432974 0.92902565 0.95585644
0000f0 c8 9b 76 3f c8 86 75 3f 49 6d 7a 3f 3c 0f 80 3f
       0.96331453 0.95908785 0.97823006 1.0004649
000100 24 21 78 3f 82 eb 79 3f 48 3e 7c 3f 24 02 76 3f
       0.9692557 0.9762498 0.98532534 0.96097016
000110 4b 06 7c 3f 0e b1 76 3f 0d e2 79 3f 04 9a 7a 3f
       0.984471 0.96363914 0.9761055 0.9789126
000120 51 02 80 3f 58 c9 7b 3f ff 01 79 3f a3 53 7f 3f
       1.0000707 0.983541 0.9726867 0.99736995
000130 25 35 7c 3f 18 fa 7a 3f 55 38 80 3f 18 73 7c 3f
       0.9851859 0.9803786 1.0017191 0.9861312
000140 80 67 7c 3f c7 f8 7f 3f ac b5 80 3f c1 30 80 3f
       0.9859543 0.9998898 1.0055442 1.0014879
000150 24 5b 7f 3f 0c d7 7b 3f 12 ae 7d 3f 1f f3 7e 3f
       0.99748445 0.9837501 0.99093735 0.99589723
000160 2c d2 80 3f 0c eb 7b 3f 7c 37 7e 3f f7 07 7b 3f
       1.0064139 0.9840553 0.9930341 0.9805903
000170 30 f1 7c 3f 05 66 7d 3f 8c 57 7f 3f 27 3f 81 3f
       0.9880552 0.98983794 0.9974296 1.0097398
000180 04 3e 80 3f a4 90 81 3f 08 a8 80 3f 45 d5 7c 3f
       1.0018926 1.0122266 1.0051279 0.98762923
000190 5a 7a 7d 3f 13 3c 80 3f fb ee 7f 3f 8e 31 7e 3f
       0.9901482 1.0018333 0.9997403 0.99294364
0001a0 d5 df 80 3f ed e4 7c 3f c3 91 7e 3f 96 9d 82 3f
       1.0068308 0.98786813 0.99441165 1.0204341
0001b0 c8 7e 80 3f a1 39 80 3f 6d 51 7b 3f 8d 7d 7e 3f
       1.003869 1.0017587 0.9817112 0.99410325
0001c0 42 1b 82 3f 12 95 81 3f 3c 8b 7c 3f e7 06 81 3f
       1.0164568 1.0123618 0.98649955 1.0080231
0001d0 2e 4e 80 3f e1 a7 81 3f 04 2c 7f 3f 20 e0 7f 3f
       1.0023859 1.0129358 0.9967654 0.9995136
0001e0 ea 41 81 3f e0 d1 7f 3f c2 4e 83 3f 33 82 82 3f
       1.009824 0.9992962 1.025841 1.0195984
0001f0 05 93 7f 3f 34 cb 81 3f 7d 41 81 3f 85 89 80 3f
       0.9983371 1.0140138 1.009811 1.0041968
000200 e0 2c 80 3f 0a c7 82 3f a5 f4 80 3f b2 4b 82 3f
       1.0013695 1.0216992 1.007466 1.017935
000210 4d f3 81 3f 6e 9c 81 3f ce d4 82 3f 31 fe 7e 3f
       1.0152375 1.0125864 1.0221193 0.99606615
000220 c7 c2 81 3f da 29 82 3f 8c 72 81 3f 33 0d 82 3f
       1.0137566 1.0169022 1.0113082 1.0160278
000230 97 cb 80 3f d9 8c 80 3f e2 a1 82 3f ba 9c 81 3f
       1.0062131 1.0042983 1.0205653 1.0125954
000240 e9 0b 82 3f 42 22 82 3f ee 12 83 3f 1d ae 82 3f
       1.0159885 1.0166705 1.0240152 1.0209385
000250 64 4f 84 3f 32 13 85 3f e3 56 84 3f 19 3e 82 3f
       1.0336728 1.0396483 1.0339016 1.0175201
000260 0c 2b 84 3f 80 9b 82 3f 61 39 84 3f ea 78 85 3f
       1.0325637 1.0203705 1.0330011 1.0427525
000270 2c 3a 82 3f 8c e2 83 3f 65 9a 82 3f 38 23 84 3f
       1.0174003 1.0303512 1.0203367 1.0323248
000280 f1 20 83 3f 32 23 84 3f 5f 8c 83 3f 42 45 85 3f
       1.0244428 1.0323241 1.0277213 1.0411761
000290 fb 80 86 3f b8 07 85 3f 2f ac 84 3f 22 5f 84 3f
       1.0508112 1.039298 1.0365046 1.0341532
0002a0 53 b1 81 3f c5 31 86 3f fc 9e 83 3f c1 74 83 3f
       1.013224 1.0483938 1.0282893 1.0270005
0002b0 9f 25 83 3f a6 42 84 3f 56 99 83 3f 2d d7 82 3f
       1.0245856 1.033284 1.028117 1.0221916
0002c0 9f 70 82 3f ab 7a 83 3f 1d 28 84 3f 82 9c 84 3f
       1.0190619 1.027181 1.0324742 1.0360262
0002d0 bf fd 85 3f 68 e4 81 3f 45 54 84 3f b2 16 85 3f
       1.0468062 1.0147829 1.0338217 1.0397551
0002e0 68 79 86 3f 87 51 84 3f 58 c6 85 3f 7d 8a 84 3f
       1.05058 1.033738 1.0451155 1.0354763
0002f0 17 25 84 3f e7 24 82 3f 40 19 83 3f 8b fd 84 3f
       1.0323819 1.0167512 1.0242081 1.0389875
000300 62 2a 84 3f c7 f5 82 3f ce a1 82 3f 7c 80 83 3f
       1.0325434 1.0231255 1.0205629 1.0273585
000310 f2 58 82 3f 94 0c 85 3f 9f 62 86 3f ba d2 81 3f
       1.0183394 1.0394464 1.0498847 1.0142434
000320 dc 0d 84 3f a4 88 82 3f 77 a9 83 3f ec 6a 81 3f
       1.031673 1.019795 1.0286092 1.0110755
000330 19 9b 83 3f 37 1f 84 3f f3 7e 83 3f ae f5 81 3f
       1.0281707 1.0322026 1.0273117 1.01531
000340 0f 4e 83 3f c6 cf 81 3f c2 3b 82 3f 15 c0 83 3f
       1.0258197 1.0141532 1.0174487 1.0292994
000350 e1 cc 81 3f 34 8f 84 3f 65 8b 82 3f 03 5b 81 3f
       1.0140649 1.0356202 1.019879 1.01059
000360 fa a7 81 3f 83 d6 81 3f 02 1a 84 3f 08 66 83 3f
       1.0129387 1.0143589 1.0320437 1.0265512
000370 20 76 82 3f c1 82 83 3f 8d 9e 82 3f 37 40 83 3f
       1.0192299 1.0274278 1.0204636 1.0253972
000380 be 14 82 3f e3 89 82 3f 49 45 82 3f ed de 81 3f
       1.016258 1.019833 1.0177394 1.0146157
000390 ba 42 82 3f bc 69 83 3f 1a 9c 81 3f af 56 81 3f
       1.0176613 1.0266643 1.0125763 1.0104579
0003a0 05 f6 82 3f 74 c8 81 3f 23 0c 82 3f c7 5c 84 3f
       1.0231329 1.0139298 1.0159954 1.0340813
0003b0 7c ff 82 3f 0b b4 81 3f 6b 76 81 3f 4e 89 80 3f
       1.0234218 1.013307 1.0114263 1.0041902
0003c0 eb 6f 80 3f 33 e2 82 3f bd 64 80 3f 40 ad 7b 3f
       1.0034155 1.022528 1.0030743 0.98311234
0003d0 fe 35 7d 3f aa 84 80 3f ce 47 7e 3f 98 b0 80 3f
       0.9891051 1.0040486 0.99328315 1.0053892
0003e0 33 7b 80 3f 76 0d 80 3f a2 3e 80 3f 38 b6 7e 3f
       1.0037597 1.0004108 1.0019114 0.99496794
0003f0 c4 e6 7e 3f 68 40 7d 3f ed 61 7b 3f ec ec 7e 3f
       0.9957087 0.989264 0.981963 0.99580264

forward_blocks.0.bn1.bias f4 [1000]
000000 f2 46 93 3e a2 e4 81 3e 4b 05 51 3e f1 a7 4b 3e
       0.28765064 0.25369745 0.20412175 0.19888283
000010 cb d8 39 3e c6 f5 31 3e 42 43 26 3e 2f 1f 1d 3e
       0.18149106 0.17378911 0.16236594 0.15343927
000020 f3 ea 1f 3e 12 46 15 3e f4 f5 0f 3e 9d 8d 0a 3e
       0.1561697 0.14577511 0.14058667 0.13530584
000030 60 9a 07 3e 2c b0 05 3e 3d f7 fa 3d 72 42 00 3e
       0.13242483 0.13055485 0.12254188 0.12525347
000040 67 d8 03 3e 89 36 fa 3d aa f3 f4 3d 16 c3 fe 3d
       0.1287552 0.12217433 0.11960538 0.124395534
000050 e8 36 ee 3d 7d 92 db 3d c7 87 f3 3d 62 ba dd 3d
       0.11631566 0.107213 0.11891132 0.10826565
000060 fc c3 e3 3d 89 04 eb 3d c9 58 d4 3d 06 fc d4 3d
       0.111213654 0.114754744 0.10368497 0.10399632
000070 d0 02 c9 3d 0f 68 c5 3d 55 01 c3 3d cd a4 b0 3d
       0.098149896 0.09638988 0.095217384 0.08625183
000080 a8 38 b7 3d 32 99 b4 3d 98 93 ae 3d a8 7c b4 3d
       0.08946353 0.08818282 0.08524245 0.08812839
000090 f9 90 b0 3d 72 1c b7 3d b9 ca 9e 3d b9 a8 94 3d
       0.08621401 0.089409724 0.0775351 0.07258744
0000a0 a4 96 ab 3d 68 14 a8 3d e8 78 ae 3d 01 a8 87 3d
       0.08378342 0.08207017 0.08519155 0.06623841
0000b0 99 2c 98 3d 18 27 98 3d 80 e5 9a 3d 1e 70 9c 3d
       0.07430381 0.074293315 0.07563305 0.07638572
0000c0 3a d2 9c 3d da a5 8b 3d bf cc 89 3d 57 7c 97 3d
       0.07657285 0.06818743 0.06728505 0.07396763
0000d0 51 7e 8b 3d 6d 62 8f 3d 40 bc 78 3d aa 91 af 3d
       0.06811202 0.07001195 0.060726404 0.08572705
0000e0 fb 67 b3 3d 36 6f b3 3d 70 78 91 3d fe 34 a5 3d
       0.08760067 0.08761446 0.0710305 0.08066748
0000f0 1c 30 a4 3d 00 8d 97 3d 0b 8d 96 3d 15 18 a4 3d
       0.08016989 0.073999405 0.073511206 0.08012406
000100 5c 4b a5 3d 4c c0 a5 3d cc 14 b7 3d 6f e6 aa 3d
       0.08071014 0.08093318 0.089395136 0.08344733
000110 22 a4 90 3d f9 ab 8a 3d 77 50 87 3d 2c 6d 92 3d
       0.07062556 0.067710824 0.06607144 0.07149729
000120 35 c3 8e 3d f0 8e 89 3d 30 cb 9e 3d 04 b5 9b 3d
       0.069708265 0.06716716 0.07753599 0.07602885
000130 a6 00 9e 3d e2 ed a5 3d 84 b3 a5 3d 0f cc a3 3d
       0.077149674 0.08102013 0.080908805 0.079979055
000140 a1 48 9d 3d d1 b5 ae 3d 8a 7b 98 3d 8d a5 94 3d
       0.076798685 0.085307725 0.07445438 0.07258139
000150 b0 29 8c 3d aa 6b bc 3d 3e b1 a6 3d bf 00 b2 3d
       0.06843889 0.09200223 0.08139275 0.086915486
000160 4f 05 a5 3d 6b 00 b2 3d b2 94 aa 3d 1f 43 9e 3d
       0.08057653 0.08691486 0.08329143 0.07727646
000170 53 58 99 3d b9 23 bb 3d 0d 0c c0 3d 51 b5 c8 3d
       0.0748755 0.09137673 0.093772985 0.09800208
000180 e1 e1 b8 3d ec 96 b1 3d af e0 b7 3d 26 34 c6 3d
       0.09027458 0.08671364 0.08978402 0.09677915
000190 35 01 d0 3d b2 df c5 3d 8f b4 c1 3d 2e ff c9 3d
       0.1015648 0.09661807 0.09458267 0.09863125
0001a0 c0 1e d0 3d f4 b9 c9 3d 56 85 c5 3d 35 1f d1 3d
       0.10162115 0.09849921 0.096445724 0.102110304
0001b0 14 f6 d5 3d 6a 6b ca 3d fa 28 d5 3d 13 6b dc 3d
       0.10447326 0.09883769 0.10408206 0.1076261
0001c0 5f 56 d9 3d 11 30 c1 3d 9b 0c ce 3d 9e a8 d4 3d
       0.10612177 0.09432996 0.10060998 0.10383724
0001d0 81 92 cf 3d 38 bd b6 3d b6 6b d5 3d 28 c0 ee 3d
       0.10135365 0.08922809 0.10420935 0.11657745
0001e0 0d 9b d3 3d 3c ca d8 3d e5 13 da 3d 10 63 e7 3d
       0.10332308 0.10585448 0.10648326 0.112981915
0001f0 9b 90 d3 3d 3b a9 d4 3d 8f 4c d1 3d 13 c5 e4 3d
       0.10330316 0.10383841 0.102196805 0.111704014
000200 e7 96 cd 3d 25 bd e2 3d f2 bb f4 3d fd 25 db 3d
       0.10038548 0.11071233 0.1194991 0.10700605
000210 6b 25 ed 3d 54 cd d1 3d e7 b9 f2 3d c3 43 e2 3d
       0.115794025 0.10244241 0.11851864 0.11048081
000220 3c d5 e5 3d 39 5f e4 3d be a2 e6 3d 59 73 dd 3d
       0.11222312 0.11150975 0.11261509 0.108130164
000230 48 25 df 3d d8 b6 e7 3d 4e 98 e3 3d 9e a2 e1 3d
       0.10895783 0.113141716 0.11113034 0.11017345
000240 51 c0 dc 3d 3f 2e ef 3d 4d a2 f5 3d fe e7 db 3d
       0.10778869 0.116787426 0.11993847 0.107376084
000250 fa cb e8 3d 90 a3 df 3d dc 5b e1 3d 67 54 e4 3d
       0.113670304 0.10919869 0.11003849 0.11148911
000260 fa 4b cd 3d fc 77 f2 3d e7 a9 ec 3d 9c 6a e3 3d
       0.10024257 0.118392915 0.11555844 0.111043185
000270 b8 17 cd 3d c8 41 e1 3d 1e 3e db 3d ce d4 d1 3d
       0.100142896 0.10998875 0.10705207 0.102456674
000280 0b 65 de 3d 5c 7c cd 3d 5f a5 d1 3d fb 48 d1 3d
       0.10859116 0.10033485 0.1023662 0.10218998
000290 a8 b4 d4 3d ec b7 d9 3d 10 fb de 3d 2f 0b d7 3d
       0.1038602 0.106307834 0.1088773 0.1050018
0002a0 49 8c d9 3d d9 87 c1 3d e9 26 d5 3d 59 eb c7 3d
       0.106224604 0.09449739 0.10407812 0.09761686
0002b0 52 b7 b8 3d e5 03 bc 3d fd a9 b1 3d fb 87 b8 3d
       0.090193406 0.0918043 0.08675001 0.09010311
0002c0 d0 0a d5 3d 2a 1b d5 3d d5 e5 c4 3d 20 01 bd 3d
       0.10402453 0.10405572 0.096141495 0.0922873
0002d0 1d 07 b5 3d c6 85 d3 3d b0 2b b5 3d 9a 38 af 3d
       0.088392474 0.1032825 0.08846223 0.08555718
0002e0 66 a7 b3 3d dc 61 bc 3d e9 9e ac 3d 61 9b 9d 3d
       0.08772163 0.09198353 0.08428747 0.07695652
0002f0 c7 f3 a7 3d 46 90 c5 3d cb f7 b7 3d dc 2a 9e 3d
       0.08200794 0.096466586 0.0898281 0.077230185
000300 2f ae a8 3d 72 3f a4 3d a0 f9 ad 3d 5e c9 a1 3d
       0.08236348 0.08019914 0.08494878 0.07899736
000310 58 df b9 3d 0f bb a1 3d ed fa 83 3d f6 3b a2 3d
       0.090758026 0.07897007 0.06444345 0.07921593
000320 6d f6 a6 3d 58 be 94 3d cb 70 95 3d d3 a8 9a 3d
       0.08152471 0.07262868 0.07296904 0.07551732
000330 9c 7e 90 3d 66 eb 9f 3d 10 12 83 3d f4 80 93 3d
       0.07055399 0.078085706 0.063999295 0.0720233
000340 ac 03 b1 3d 6f ce 9e 3d 83 51 75 3d 36 f2 81 3d
       0.086432785 0.07754218 0.05989219 0.06345026
000350 f6 d9 90 3d 0d 62 81 3d a4 42 88 3d 99 bb 98 3d
       0.07072823 0.0631753 0.06653336 0.074576564
000360 ac f6 98 3d 0f de 81 3d 96 aa 7d 3d 61 e9 73 3d
       0.07468924 0.063411824 0.06193026 0.05954874
000370 cc 96 80 3d c2 de 79 3d b5 6e 8c 3d db f9 6e 3d
       0.06278762 0.061003454 0.06857053 0.05834375
000380 a8 11 44 3d 6d 8e 69 3d e3 f3 5c 3d df 53 6b 3d
       0.0478684 0.057020593 0.053943526 0.057453033
000390 e9 f5 5e 3d 23 88 63 3d 43 79 4e 3d df ff 42 3d
       0.054433737 0.055549752 0.050408613 0.0476073
0003a0 08 68 36 3d 82 92 32 3d ae 96 4a 3d 5d f8 68 3d
       0.044532806 0.043596752 0.049460106 0.056877483
0003b0 a6 82 75 3d a5 1d 47 3d 61 66 4d 3d 34 df 48 3d
       0.05993905 0.048612256 0.050146464 0.049040988
0003c0 06 84 6f 3d bb b1 45 3d 2f 27 65 3d 3b 14 3f 3d
       0.058475517 0.0482652 0.05594557 0.046650153
0003d0 d1 bf 5a 3d 67 8d 60 3d 0f 45 3b 3d 52 cb 60 3d
       0.053405587 0.05482235 0.045720156 0.0548814
0003e0 73 9e 31 3d b1 3d 4c 3d 0d 0c 39 3d f2 de 30 3d
       0.043364 0.04986352 0.04517751 0.043181367
0003f0 82 cc 0e 3d 3d 64 35 3d ae 95 47 3d 2a 93 2b 3d
       0.034863003 0.044285048 0.04872673 0.041888393

forward_blocks.0.bn1.running_mean f4 [1000]
000000 3c af 4b 3d 0e b3 4c 3d 70 2f 4b 3d d8 7f 49 3d
       0.049727663 0.049975447 0.049605787 0.049194187
000010 12 30 46 3d 99 d4 43 3d 61 42 42 3d 53 26 3f 3d
       0.048385687 0.04781017 0.047426585 0.04666741
000020 f6 e6 3d 3d 3a a3 3c 3d 90 90 3a 3d 0b 11 38 3d
       0.04636284 0.046054102 0.04554802 0.04493813
000030 86 1e 37 3d 75 70 34 3d a2 91 33 3d 71 f2 31 3d
       0.044706844 0.04405256 0.04384006 0.0434441
000040 cb 67 31 3d 57 17 31 3d 43 1d 30 3d cd ff 2e 3d
       0.043311875 0.04323515 0.042996656 0.04272442
000050 65 00 2e 3d 93 6d 2d 3d f5 64 2c 3d 01 c4 2b 3d
       0.042480845 0.042340826 0.042088468 0.04193497
000060 b2 d9 2a 3d 7c 4b 2a 3d 24 fb 2a 3d 69 ec 29 3d
       0.041711517 0.041575894 0.041743413 0.041485224
000070 67 4e 2a 3d 5a 30 29 3d 0c 88 2a 3d 91 57 29 3d
       0.041578677 0.041305877 0.04163365 0.041343275
000080 9e 92 29 3d 04 f5 28 3d 4e 56 28 3d 9c f0 28 3d
       0.04139959 0.04124929 0.04109793 0.041245088
000090 b1 37 29 3d 70 4e 27 3d dc 12 27 3d ae bd 26 3d
       0.041312877 0.04084629 0.04078947 0.040708236
0000a0 b0 b5 26 3d 13 43 27 3d 05 f5 26 3d b4 f5 25 3d
       0.040700614 0.04083545 0.040761013 0.040517524
0000b0 46 d5 27 3d 7c 75 27 3d 09 e4 25 3d 6f fa 25 3d
       0.040974878 0.040883526 0.040500674 0.040522035
0000c0 a3 29 27 3d 20 99 27 3d 19 6e 26 3d 9f 46 26 3d
       0.040811192 0.040917516 0.04063234 0.040594693
0000d0 62 5f 26 3d 6c 26 26 3d be c9 26 3d 51 bf 25 3d
       0.040618308 0.040563986 0.04071974 0.040465657
0000e0 d6 06 25 3d 0b a5 25 3d 0c df 24 3d 43 62 25 3d
       0.040289722 0.0404406 0.040251777 0.040376913
0000f0 c7 d9 24 3d 8d 53 24 3d 53 d0 23 3d c8 74 23 3d
       0.04024675 0.040118743 0.039993595 0.039906293
000100 67 8e 23 3d 1b bc 21 3d 23 65 21 3d ef 53 21 3d
       0.039930727 0.039486032 0.039403092 0.039386686
000110 de 76 20 3d 36 4a 21 3d 5f 4f 20 3d be f2 1e 3d
       0.03917586 0.039377414 0.039138194 0.038805716
000120 38 3f 1f 3d a4 ae 1f 3d a3 55 1f 3d d4 6d 1f 3d
       0.03887865 0.03898491 0.03890003 0.0389231
000130 15 fc 1e 3d d7 3f 1e 3d 29 bc 1d 3d 31 a2 1c 3d
       0.038814623 0.0386351 0.03850952 0.038240615
000140 1c 66 1c 3d e7 76 1c 3d 34 fe 1a 3d 30 02 1b 3d
       0.038183317 0.03819933 0.037840083 0.037843883
000150 0e de 1a 3d 75 7e 18 3d a0 97 18 3d b3 58 19 3d
       0.037809424 0.037229974 0.037253976 0.037438106
000160 33 75 18 3d 35 2e 19 3d 33 74 18 3d 46 d8 18 3d
       0.037221145 0.037397582 0.03722019 0.03731563
000170 0e 85 17 3d ea a0 16 3d f4 2f 17 3d 35 84 17 3d
       0.036992125 0.036774553 0.036910966 0.036991317
000180 3c 4f 17 3d f6 31 17 3d a0 a1 18 3d a5 98 16 3d
       0.0369408 0.03691288 0.037263513 0.036766667
000190 9a 2f 17 3d 97 c0 16 3d 5a 88 16 3d ce b2 15 3d
       0.03691063 0.03680476 0.03675113 0.036547475
0001a0 18 39 15 3d b7 68 15 3d 42 1a 15 3d fc 98 13 3d
       0.036431402 0.036476817 0.036401995 0.03603457
0001b0 d0 85 15 3d 5e 7f 15 3d f0 5b 15 3d cf e6 14 3d
       0.036504567 0.03649842 0.03646463 0.03635293
0001c0 45 29 15 3d c9 58 14 3d 65 48 14 3d 1a 41 15 3d
       0.03641631 0.036217485 0.036201853 0.03643904
0001d0 b1 c0 14 3d 4d c4 15 3d df e3 14 3d 6e 21 14 3d
       0.036316577 0.03656416 0.036350127 0.036164694
0001e0 d2 f7 14 3d c7 57 15 3d 08 cf 14 3d 9e 53 14 3d
       0.036369152 0.036460664 0.036330253 0.036212556
0001f0 89 ce 13 3d 62 ed 12 3d ad 44 12 3d b3 b9 11 3d
       0.03608564 0.035870917 0.035710026 0.035577487
000200 9f a0 12 3d d5 b3 12 3d 18 5f 10 3d fc fb 10 3d
       0.03579771 0.035816032 0.03524694 0.03539656
000210 9d cc 0f 3d 6e 94 10 3d cf 3a 12 3d f4 8c 10 3d
       0.035107244 0.035297804 0.035700615 0.035290673
000220 43 74 10 3d 19 35 0f 3d 45 28 0f 3d 1e 25 0f 3d
       0.035267126 0.034962747 0.034950513 0.034947507
000230 ad d5 0e 3d 56 45 0f 3d 55 35 0f 3d df fb 0e 3d
       0.034871746 0.034978233 0.03496297 0.03490817
000240 df 1b 0e 3d ec 23 0d 3d 4a b6 0d 3d f0 12 0e 3d
       0.03469455 0.034458086 0.034597673 0.03468603
000250 17 5d 0c 3d 8b 81 0c 3d be 60 0c 3d 04 58 0b 3d
       0.034268465 0.03430323 0.034271948 0.034019485
000260 9e 20 0b 3d 21 55 0a 3d 5a 4d 0a 3d 8d 50 0a 3d
       0.033966653 0.03377259 0.033765174 0.033768225
000270 a3 50 09 3d 15 1a 09 3d 64 62 08 3d e9 27 07 3d
       0.033524167 0.03347214 0.033296958 0.032997046
000280 81 87 06 3d 38 80 04 3d d3 41 05 3d cc a9 06 3d
       0.03284407 0.03234884 0.032533478 0.032876775
000290 ab 9d 06 3d 82 5c 06 3d b9 3e 05 3d 87 e6 03 3d
       0.032865208 0.032803066 0.03253052 0.03220227
0002a0 01 49 02 3d 20 31 02 3d 26 27 03 3d 90 1a 00 3d
       0.031807903 0.03178513 0.032019757 0.031275332
0002b0 11 a7 00 3d 7a c2 00 3d a5 fa ff 3c 4e c5 fc 3c
       0.031409327 0.031435467 0.031247446 0.030855801
0002c0 01 50 ff 3c 42 e7 ff 3c 73 1d fe 3c 9e 6a 00 3d
       0.031166079 0.031238202 0.031019902 0.031351678
0002d0 8b 72 ff 3c d8 17 ff 3c 20 1e fd 3c a1 3c fa 3c
       0.031182548 0.0311393 0.030898154 0.030546488
0002e0 66 74 f8 3c 31 86 f5 3c 22 27 f6 3c aa 5c f5 3c
       0.03032894 0.029971214 0.030047957 0.029951412
0002f0 e6 34 f4 3c 30 c2 f2 3c e3 44 f1 3c 89 48 f1 3c
       0.02981038 0.029633611 0.029451793 0.029453533
000300 da 01 f1 3c dc 79 ee 3c 23 42 f0 3c 3e 8a ec 3c
       0.029419828 0.029110841 0.029328411 0.028874513
000310 8d 0b ee 3c 80 10 ed 3c 06 1c ef 3c fc 6b eb 3c
       0.029058242 0.028938532 0.029188167 0.028738014
000320 bd e7 eb 3c f5 36 e9 3c ef 66 e9 3c 56 a8 e6 3c
       0.028797025 0.028468588 0.028491465 0.02815644
000330 3c 03 e8 3c 3b ed e6 3c 74 7e e8 3c d1 0f e5 3c
       0.028321855 0.028189292 0.02838061 0.027961643
000340 78 a6 e5 3c 82 e5 e6 3c 06 de e4 3c 5c 83 e1 3c
       0.02803348 0.02818561 0.0279379 0.027528457
000350 95 12 e4 3c 3e a7 e2 3c b4 51 e1 3c 28 34 df 3c
       0.027840892 0.027667638 0.02750478 0.02724655
000360 c3 f9 dd 3c 79 8e dd 3c 5c b3 de 3c ea 84 da 3c
       0.027096635 0.027045475 0.027185135 0.026674706
000370 5c b3 da 3c 30 68 d7 3c 23 fd d8 3c c3 90 d9 3c
       0.026696853 0.026294798 0.026487892 0.026558286
000380 b8 8c d5 3c 65 29 d4 3c a9 41 d6 3c 91 9a d5 3c
       0.026068076 0.025898645 0.026154356 0.02607468
000390 04 03 d5 3c b3 c2 d1 3c bc 79 d2 3c ab 3e d1 3c
       0.026002415 0.025605535 0.025692813 0.025542578
0003a0 38 1a d3 3c 27 8e cd 3c 47 25 cb 3c ee 53 cc 3c
       0.025769338 0.025092198 0.024798049 0.024942365
0003b0 d8 20 ca 3c a6 d0 c7 3c b0 51 c4 3c 92 2e c7 3c
       0.024673864 0.024391484 0.023964733 0.024314199
0003c0 b9 59 c3 3c c5 6b c2 3c 89 f4 c3 3c 57 27 c1 3c
       0.023846494 0.02373303 0.023920314 0.023578329
0003d0 e0 cb be 3c 1b 31 bf 3c 8c 29 be 3c 93 fa bb 3c
       0.023290575 0.023338845 0.02321317 0.022946632
0003e0 51 2b bb 3c 56 f7 b8 3c d7 ea b4 3c 37 9b b4 3c
       0.022847803 0.022578876 0.022084637 0.022046668
0003f0 40 8c b3 3c 26 18 b5 3c d2 9d b2 3c 2d 0b b3 3c
       0.021917462 0.022106241 0.02180377 0.021855915

forward_blocks.0.bn1.running_var f4 [1000]
000000 00 66 cf 3c 10 13 ce 3c c2 06 c9 3c cb 55 c6 3c
       0.025317192 0.025155574 0.024539355 0.024210831
000010 00 c0 c0 3c 5f 0e be 3c bd 9e bb 3c 04 11 b8 3c
       0.023529053 0.023200212 0.02290284 0.022469051
000020 b8 27 b5 3c 52 85 b4 3c 8c 6a b2 3c 82 7d b0 3c
       0.022113666 0.022036228 0.021779321 0.021544222
000030 69 a8 ae 3c 91 3d ad 3c 78 12 ad 3c 72 87 ab 3c
       0.021320539 0.021147521 0.02112697 0.020938609
000040 ae 14 a9 3c f2 02 a9 3c ce b4 a8 3c d5 01 a7 3c
       0.020639744 0.020631287 0.020594027 0.020386616
000050 8d f0 a6 3c 59 4f a6 3c 6d fe a5 3c d7 55 a6 3c
       0.020378375 0.020301508 0.020262921 0.020304604
000060 d4 e6 a3 3c 2c a2 a4 3c d4 42 a6 3c a4 ed a4 3c
       0.020007528 0.02009686 0.020295538 0.020132847
000070 0b 9b a3 3c b5 53 a4 3c e0 89 a5 3c b5 f2 a4 3c
       0.019971391 0.020059446 0.020207345 0.020135263
000080 bf ab a4 3c e9 1d a6 3c 36 90 a5 3c 7d 24 a7 3c
       0.020101426 0.020277934 0.020210367 0.020403141
000090 60 06 a6 3c 7c 2d a5 3c e0 f7 a6 3c 97 2e a7 3c
       0.020266712 0.02016329 0.020381868 0.020407958
0000a0 f1 c2 a7 3c 61 26 a9 3c 4f a7 a7 3c e7 b4 a6 3c
       0.020478697 0.020648183 0.020465521 0.020349933
0000b0 92 e0 aa 3c 62 48 aa 3c ae 47 aa 3c 1d 82 ab 3c
       0.020859037 0.020786468 0.020786133 0.020936066
0000c0 6f 48 ae 3c 8e 5c af 3c 00 c6 ae 3c 5b ed ae 3c
       0.021274773 0.021406438 0.021334648 0.021353414
0000d0 17 e9 ae 3c eb 17 b0 3c f7 c6 b1 3c 60 53 b2 3c
       0.02135138 0.02149578 0.02170132 0.021768272
0000e0 87 a0 b3 3c f0 ea b4 3c c2 55 b4 3c ef e9 b5 3c
       0.021927131 0.022084683 0.022013549 0.022206275
0000f0 2d 1a b7 3c 04 c6 b6 3c 2e f3 b7 3c 1b 86 b7 3c
       0.022351349 0.022311218 0.022454824 0.022402814
000100 bb 48 b9 3c d4 c5 b9 3c bf 9f ba 3c 6a f0 bb 3c
       0.022617688 0.02267734 0.022781251 0.022941787
000110 df 08 bd 3c 1c f6 bd 3c 93 73 bd 3c 4e 36 be 3c
       0.02307552 0.023188643 0.0231264 0.023219254
000120 2f 73 be 3c 6a 69 bf 3c ad f2 bf 3c 22 2b c1 3c
       0.023248283 0.023365695 0.023431147 0.023580138
000130 78 16 c3 3c 3d dc c2 3c a9 43 c3 3c a7 97 c3 3c
       0.023814425 0.023786658 0.023835974 0.023876024
000140 e5 dd c3 3c 91 c4 c3 3c 7e fd c3 3c c1 95 c4 3c
       0.023909518 0.023897441 0.023924585 0.02399719
000150 c6 6d c4 3c 36 8f c5 3c f2 8f c6 3c dd 95 c6 3c
       0.023978125 0.02411614 0.02423856 0.024241382
000160 88 5d c7 3c 2c fb c7 3c ef a4 c7 3c 19 51 c7 3c
       0.024336591 0.02441176 0.024370639 0.024330663
000170 48 c4 c8 3c 5b 6b c8 3c d7 6f c9 3c f6 3f ca 3c
       0.024507657 0.024465254 0.024589462 0.024688702
000180 99 e8 ca 3c b0 80 ca 3c 48 1a cb 3c 50 14 cb 3c
       0.024769114 0.024719566 0.024792805 0.02478996
000190 30 13 cc 3c bd 17 cc 3c 85 9e cb 3c 5c 9d cc 3c
       0.024911493 0.024913663 0.024855861 0.024977379
0001a0 86 58 cc 3c 74 0c cd 3c ce 23 cd 3c 8c 5b ce 3c
       0.024944555 0.025030352 0.025041487 0.025190137
0001b0 cf 17 ce 3c 06 e3 cd 3c a6 5b ce 3c 52 81 cc 3c
       0.025157837 0.025132667 0.025190186 0.024964008
0001c0 ce ce cd 3c c1 da cd 3c b9 3e ce 3c 46 21 d0 3c
       0.025123026 0.025128724 0.025176393 0.025406491
0001d0 71 38 d2 3c c4 0c d3 3c 65 40 d1 3c 21 2a d2 3c
       0.025661679 0.025762923 0.025543401 0.025654854
0001e0 0a 74 d2 3c 2b 83 d3 3c c7 a6 d2 3c 3e 37 d3 3c
       0.025690097 0.025819382 0.025714291 0.025783177
0001f0 75 34 d4 3c 70 b5 d3 3c 2e 31 d6 3c 2c f4 d5 3c
       0.02590392 0.025843352 0.026146498 0.026117407
000200 0f 26 d6 3c a1 20 d6 3c c4 f0 d6 3c ed 25 d8 3c
       0.026141195 0.026138606 0.026237853 0.026385272
000210 2b 03 d8 3c 98 45 d9 3c 5e d2 d9 3c 5e a3 d8 3c
       0.026368698 0.026522443 0.026589569 0.026445087
000220 05 36 da 3c d2 f6 d9 3c 03 29 da 3c e1 e6 d9 3c
       0.026637087 0.02660695 0.026630884 0.02659935
000230 fb 8e da 3c 8d 48 da 3c 69 74 d9 3c 7d bf d9 3c
       0.026679507 0.026645923 0.026544767 0.026580567
000240 e1 0e da 3c e3 87 d7 3c 06 4c da 3c 92 84 da 3c
       0.026618423 0.026309913 0.026647579 0.026674543
000250 d1 96 da 3c 4a 6b da 3c 94 c4 da 3c 73 67 da 3c
       0.026683243 0.026662488 0.026705064 0.026660657
000260 7b 36 da 3c 5b 30 da 3c 90 1f dc 3c 01 6e dc 3c
       0.026637306 0.026634386 0.026870519 0.026907923
000270 5f a7 da 3c f3 2a dc 3c 5c 15 dc 3c 21 19 db 3c
       0.026691137 0.026875949 0.026865654 0.02674538
000280 5f f3 da 3c 90 8b db 3c 79 5f da 3c f4 97 dc 3c
       0.026727377 0.026799947 0.026656853 0.026927926
000290 49 f3 db 3c 15 2b dc 3c fa ab dc 3c e0 1a da 3c
       0.026849406 0.026876012 0.026937474 0.026624143
0002a0 78 ba da 3c 3d a5 da 3c 26 49 dc 3c 6b 2f db 3c
       0.026700243 0.02669012 0.026890349 0.02675601
0002b0 bd 0e db 3c 19 9e db 3c 05 2f db 3c 6b 0f db 3c
       0.026740426 0.026808785 0.02675582 0.02674075
0002c0 2b 4a dc 3c df a9 db 3c 1b db d9 3c ee 5f db 3c
       0.026890835 0.0268144 0.026593735 0.026779141
0002d0 10 c1 db 3c a1 7e d9 3c d5 3e da 3c 61 75 d9 3c
       0.026825458 0.02654964 0.026641289 0.026545228
0002e0 48 fd d9 3c c6 25 d9 3c 15 f3 d9 3c 86 a6 da 3c
       0.026610032 0.02650727 0.026605168 0.026690733
0002f0 1b 9d d9 3c 0b 22 da 3c 6d 1a da 3c c6 f9 d8 3c
       0.026564172 0.026627561 0.026623929 0.026486289
000300 14 0e d8 3c 8c 8c d8 3c b4 05 d9 3c 95 9f d8 3c
       0.0263739 0.026434205 0.026491977 0.026443282
000310 03 94 d9 3c fb 1c d9 3c 11 94 d9 3c 6f 57 d9 3c
       0.026559835 0.026503077 0.026559861 0.02653095
000320 a5 6f d9 3c 42 13 d8 3c 91 47 d7 3c 0f 63 d6 3c
       0.026542494 0.02637637 0.026279243 0.026170282
000330 91 0b d7 3c 32 b6 d5 3c 82 77 d7 3c d4 da d6 3c
       0.026250632 0.026087854 0.026302103 0.026227392
000340 75 0b d6 3c 7c 48 d8 3c 5e 7d d6 3c f4 26 d6 3c
       0.02612851 0.02640175 0.026182827 0.026141621
000350 97 d0 d6 3c 5f 99 d5 3c e7 70 d6 3c 18 99 d5 3c
       0.02622251 0.02607411 0.026176883 0.026073977
000360 50 27 d5 3c 89 f6 d5 3c 89 9c d4 3c 0a 4d d4 3c
       0.026019722 0.026118534 0.025953548 0.025915641
000370 55 43 d4 3c 06 e3 d4 3c 2e de d4 3c 69 47 d5 3c
       0.025911013 0.02598716 0.02598485 0.026035028
000380 f5 8a d4 3c 37 5a d4 3c b7 87 d4 3c 96 bf d4 3c
       0.025945166 0.025921924 0.02594362 0.025970262
000390 36 62 d4 3c 45 7e d3 3c b5 32 d3 3c 58 29 d3 3c
       0.025925737 0.025817046 0.025781015 0.02577655
0003a0 91 89 d2 3c 7d ca d0 3c 0f 7f d1 3c 77 cf d0 3c
       0.025700362 0.025487179 0.025573282 0.025489552
0003b0 4b 12 d1 3c af 7b d0 3c 02 16 cf 3c 50 26 d0 3c
       0.025521418 0.025449602 0.025279049 0.025408894
0003c0 8e 6d d1 3c c4 59 cf 3c 87 7a d0 3c eb a0 cf 3c
       0.025564935 0.025311358 0.02544905 0.025345286
0003d0 ea f3 ce 3c 1e ec cd 3c fd aa cd 3c 3b 3a cd 3c
       0.025262792 0.025137004 0.025105948 0.02505218
0003e0 32 39 cd 3c 9d 2c cc 3c 58 22 cc 3c 3c b9 cb 3c
       0.025051687 0.024923617 0.02491872 0.0248686
0003f0 98 10 cd 3c a4 2f cc 3c 4d f1 cc 3c e7 b6 cc 3c
       0.025032327 0.02492506 0.025017405 0.024989558
