Saves/3chan_ep_20_resnet.pth (torch, 641756 bytes, 130 tensors)

forward_blocks.0.sage1.lin_rel.weight f4 [32, 6]
0	0xbe93dc9a	-0.28879243
1	0x3e899680	0.26872635
2	0x3d3b2c50	0.045696557
3	0xbd1937fa	-0.0374069
4	0x3e78442f	0.2424476
5	0xbea479cb	-0.3212417
6	0xbec493ac	-0.38393915
7	0x3eb3c35c	0.35109985
8	0x3e180757	0.1484655
9	0x3eb1d0d2	0.3472963
10	0x3e48e10d	0.196171
11	0xbe26d5bb	-0.16292469
12	0xbe33149e	-0.17488334
13	0x3a599eae	0.0008301538
14	0x3e23acde	0.15983912
15	0x3ea56d6a	0.3231004
16	0x3e5f0b0c	0.21781558
17	0x3ebef256	0.37294263
18	0xbd14fa5b	-0.03637157
19	0x3e9a8b84	0.30184567
20	0xbdb6e1e2	-0.089298025
21	0x3cfb6e63	0.030692285
22	0x3e2f4874	0.17117482
23	0x3e287335	0.16450198
24	0xbdf19b75	-0.11797229
25	0x3e582368	0.21107256
26	0xbe8cd7ef	-0.27508494
27	0x3eb37f1e	0.3505792
28	0x3e9a1b3f	0.30098912
29	0xbe40db9f	-0.18833779
30	0xbe945c28	-0.2897656
31	0x3e361086	0.1777974
32	0xbdc19ead	-0.09454093
33	0xbdcdd678	-0.10050672
34	0xbd95b78e	-0.07310401
35	0x3df9cdd9	0.121974654
36	0x3e789822	0.24276784
37	0xbdf9b3d1	-0.121925004
38	0x3d19acce	0.037518315
39	0x3e8dac00	0.27670288
40	0x3c4cf3a9	0.012509265
41	0xbe085946	-0.13315305
42	0xbd8a5595	-0.06754605
43	0x3e1e5900	0.15463638
44	0xbcd3a242	-0.025834206
45	0x3e7e1415	0.24812348
46	0xbc6592f6	-0.014012089
47	0xbe4d6d84	-0.20061308
48	0x3e1cb0b8	0.15301788
49	0x3ea19fd0	0.3156724
50	0xba8232d1	-0.0009933357
51	0xbe1e47a5	-0.15457018
52	0xbe482e9d	-0.19549032
53	0x3d893872	0.06700219
54	0xbc7887d8	-0.015169106
55	0x3e5ae970	0.21378112
56	0x3ee98c98	0.45615077
57	0x3e03c480	0.12867928
58	0x3df475a7	0.11936503
59	0xbe18e23e	-0.14930055
60	0xbde61d6b	-0.1123608
61	0xbece11b3	-0.40247878
62	0xbea1b491	-0.31583074
63	0x3d14f949	0.03637055
64	0x3ebebcb6	0.3725335
65	0xbe847b46	-0.258753
66	0xbee3b20b	-0.44471774
67	0x3e25b858	0.16183603
68	0x3da968c5	0.08271936
69	0xbd98c049	-0.074585505
70	0x3e513fc5	0.20434482
71	0x3eb33b8f	0.35006377
72	0xbea1df51	-0.3161569
73	0x3c921c7b	0.017835846
74	0xbc7f73c3	-0.015591565
75	0xbe2cb195	-0.16864617
76	0xbea298b7	-0.31757137
77	0xbea09a63	-0.31367788
78	0x3e2407ad	0.16018553
79	0x3eb5af44	0.3548528
80	0xbd3ce3d6	-0.04611572
81	0x3c1a5350	0.009419277
82	0xbda3f9a5	-0.080066
83	0x3e906702	0.2820359
84	0x3e91d6f8	0.2848432
85	0x3d79b6c8	0.06096533
86	0x3deb739d	0.11496661
87	0x3d400764	0.04688205
88	0xbe57f37b	-0.21088974
89	0x3dbcc268	0.092167675
90	0x3eb43e09	0.3520358
91	0x3e3cc49d	0.18434377
92	0x3e128239	0.14307489
93	0xbe46956a	-0.19392934
94	0xbda3053c	-0.07959983
95	0x3de36caa	0.111047104
96	0x3e9a204e	0.30102772
97	0x3eaef24e	0.3416924
98	0x3ea9315e	0.33045477
99	0xbe8112ea	-0.25209743
100	0xbe45de0e	-0.19322988
101	0x3e19ce03	0.15019993
102	0xbe7cc4f1	-0.24684502
103	0xbce95012	-0.028480563
104	0x3dee82d5	0.11646048
105	0xbe29c966	-0.16580734
106	0x3e5ee700	0.21767807
107	0x3eb2f8ca	0.34955436
108	0x3e2e5144	0.17023188
109	0xbbab705e	-0.005231901
110	0x3e7951fc	0.24347681
111	0x3d8a5061	0.06753612
112	0x3d8cf313	0.068823
113	0x3d3487f8	0.044074982
114	0x3ea0aa88	0.31380105
115	0xbddd7336	-0.1081299
116	0xbe611e61	-0.21984245
117	0xbe60cae0	-0.2195239
118	0x3e877d88	0.2646296
119	0x3e3fc23d	0.1872644
120	0x3e43fc46	0.19139203
121	0x3e4e801b	0.20166056
122	0xbe34cd39	-0.17656411
123	0xbea978d7	-0.33100006
124	0xbd114064	-0.0354618
125	0x3d9105f7	0.07081216
126	0xbe9ce411	-0.3064275
127	0xbea47cf1	-0.32126573
128	0xbec8912f	-0.39173266
129	0xbc8827f2	-0.01662061
130	0xbeae61eb	-0.3405908
131	0xbec3808e	-0.38184017
132	0x3df9687d	0.12178133
133	0x3e6165ce	0.22011492
134	0xbd6e88d5	-0.058235962
135	0x3e8d73c4	0.27627385
136	0x3ebd3300	0.36952972
137	0x3e8e86bd	0.27837172
138	0xbd13ae0e	-0.036054663
139	0xbe38a21c	-0.1803059
140	0x3eab8f96	0.33507985
141	0xbe0cfd87	-0.13768588
142	0xbe043d20	-0.12913942
143	0x3ea16bb4	0.31527483
144	0xbe47db87	-0.19517337
145	0x3ebfb1b4	0.37440264
146	0x3e2961de	0.1654124
147	0xbd438212	-0.047731467
148	0x3dbe7ca2	0.093011156
149	0xbe8b5f69	-0.2722123
150	0xbc8f6160	-0.017502487
151	0x3dea8081	0.114502914
152	0xbdb03d1d	-0.086054064
153	0xbd4602f5	-0.048342664
154	0xbd191b91	-0.037379805
155	0x3d28d8c8	0.041222364
156	0xbe17cba2	-0.14823774
157	0xbd974c3d	-0.07387588
158	0xbe9b1889	-0.30292156
159	0xbe84a007	-0.2590334
160	0xbe759ba8	-0.2398516
161	0x3eac4180	0.33643723
162	0x3e212373	0.15736179
163	0xbeb5507f	-0.35412976
164	0x3ec0bf91	0.37646154
165	0x3e6bfe63	0.2304626
166	0xbf004c81	-0.50116736
167	0x3e369ec5	0.17834003
168	0xbcf88ab9	-0.030339586
169	0xbea07d72	-0.31345707
170	0xbdd2d40f	-0.10294353
171	0xbe807179	-0.25086573
172	0xbe247586	-0.16060457
173	0xbd8f0b7e	-0.06984614
174	0x3ed695f0	0.41911268
175	0x3e93d42b	0.2887281
176	0x3ec8a9ed	0.39192143
177	0x3e71a087	0.23596393
178	0x3ea4ae60	0.32164288
179	0xbe49d70f	-0.19710945
180	0x3ea4c7d7	0.32183716
181	0xbe6c6b3d	-0.23087783
182	0xbe516e30	-0.2045219
183	0x3a4bb4c5	0.0007770772
184	0xbeb3fd7c	-0.3515433
185	0xba970b4c	-0.0011523752
186	0x3e8ec3c1	0.27883723
187	0x3ea351d4	0.31898367
188	0x3eb8efc9	0.36120442
189	0x3eb2c1e7	0.3491356
190	0xbe9fa70a	-0.31182128
191	0xbe86e0cb	-0.26343378

forward_blocks.0.sage1.lin_root.weight f4 [32, 6]
0	0xbedd9e3f	-0.43284795
1	0x3cc436e9	0.023951964
2	0xbeca46ab	-0.3950704
3	0x3ea9994f	0.33124778
4	0x3c40bdb6	0.011763981
5	0xbec34b7c	-0.38143528
6	0x3dbf5765	0.09342841
7	0xbe108c0b	-0.14115922
8	0xbe2eac25	-0.17057855
9	0xbe8cae6d	-0.27476826
10	0xbe099681	-0.13436319
11	0x3d367f90	0.044555247
12	0x3eb48803	0.3526002
13	0xbe2a7a18	-0.16648138
14	0x3ce95d7d	0.028486961
15	0xbee652b2	-0.44984967
16	0x3d8e547e	0.06949709
17	0x3e647f22	0.22314122
18	0x3e97742c	0.2958082
19	0x3e824181	0.254406
20	0xbe8e711a	-0.27820665
21	0x3a8fa737	0.0010959868
22	0xbe2599b5	-0.16171916
23	0xbec0572b	-0.37566504
24	0xbe2de812	-0.16983059
25	0xbe832765	-0.25615993
26	0x3d668494	0.05627878
27	0x3ea06595	0.313275
28	0xbe5e63b8	-0.21717727
29	0x3b35dabb	0.0027748782
30	0xbe605b45	-0.21909817
31	0x3e2ecc82	0.17070201
32	0xbe7950f1	-0.24347283
33	0xbe9483fb	-0.29006943
34	0x3c7da581	0.015481354
35	0xbec8b6d5	-0.3920199
36	0x3e8c3ad4	0.27388632
37	0xbc2e0517	-0.010621331
38	0x3dd43686	0.10361962
39	0xbe4260bd	-0.18982215
40	0x3ecc9474	0.3995701
41	0xbdbbf47a	-0.091774896
42	0x3e8f3b97	0.2797515
43	0x3e162d43	0.14665703
44	0x3eb5aaac	0.35481775
45	0xbcbb559c	-0.02286797
46	0x3e833836	0.25628823
47	0x3ec06bb0	0.3758216
48	0x3e8ea0e7	0.27857134
49	0xbc3e6e27	-0.011622942
50	0x3e205e9a	0.15661088
51	0xbe5efb45	-0.21775539
52	0xbf0bbbeb	-0.54583615
53	0xbb96a570	-0.0045973584
54	0xbd43e0e5	-0.047821898
55	0xbec01fed	-0.37524357
56	0xbe1cde5e	-0.15319201
57	0xbe79eba5	-0.24406298
58	0x3ebc5600	0.36784363
59	0xbdd1464a	-0.10218485
60	0xbe7cf35f	-0.24702214
61	0x3e8a4a1e	0.27009672
62	0xbe600ec6	-0.21880636
63	0x3ea67164	0.32508385
64	0xbd429d18	-0.047513098
65	0x3e2b1be5	0.1670986
66	0x3eb5ee0f	0.35533187
67	0xbcf6d439	-0.030130493
68	0x3d5b0fcd	0.053481866
69	0x3dae39ea	0.0850714
70	0x3e9c694d	0.30549088
71	0xbe833732	-0.25628048
72	0xbe89e284	-0.2693063
73	0x3e8ad495	0.27115312
74	0x3ebda0aa	0.3703664
75	0x3edc5583	0.4303399
76	0xbe9603fa	-0.2929991
77	0x3e4b227f	0.19837378
78	0x3d9e76c4	0.077374965
79	0x3ebc0738	0.36724257
80	0x3dce2a11	0.10066617
81	0xbe2c6c95	-0.16838296
82	0xbe9296ae	-0.28630584
83	0xbe3c7242	-0.18402961
84	0x3dbd8fc9	0.092559405
85	0x3e797cdc	0.24364036
86	0x3e1cb1c6	0.1530219
87	0xbe94ac0e	-0.29037517
88	0x3e5baca4	0.21452576
89	0x3e807e3e	0.25096315
90	0xbe166c92	-0.14689854
91	0x3e54d9ff	0.20786284
92	0x3d64980c	0.055809066
93	0x3e96d511	0.29459432
94	0x3eac4c98	0.33652186
95	0x3ec8d48f	0.3922467
96	0x3d17c051	0.03704864
97	0x3e268e44	0.16265208
98	0x3e284ba8	0.1643511
99	0xbe82611c	-0.25464714
100	0x3d846860	0.064652205
101	0x3db00586	0.085948035
102	0xbe817ac4	-0.25288975
103	0x3e4dcf0f	0.20098518
104	0xbe780f79	-0.24224652
105	0x3e38877c	0.18020433
106	0xbdea23f3	-0.11432638
107	0xbeb391a2	-0.35072047
108	0x3eaf946e	0.3429293
109	0xbd35182b	-0.0442125
110	0x3da08b51	0.078390725
111	0x3e892c6d	0.26791707
112	0xbe5b3368	-0.21406329
113	0x3ea1b984	0.3158685
114	0xbe88fa3e	-0.2675342
115	0xbd48bce3	-0.04900826
116	0xbe88b308	-0.2669909
117	0x3e69acb1	0.22819783
118	0x3e3f0749	0.18655123
119	0xbe8fbaea	-0.28072292
120	0x3eaa99aa	0.3332036
121	0xbcee1d6e	-0.029066768
122	0x3e554535	0.20827182
123	0xbeaf1f07	-0.3420336
124	0xbe011d9a	-0.12608948
125	0x3eee89d1	0.4658952
126	0x3ddd6ddf	0.10811972
127	0x3e4d0c2a	0.20024171
128	0x3e79aca4	0.24382263
129	0x3eb0d410	0.3453679
130	0xbe9d202a	-0.30688602
131	0x3e8d7a08	0.27632165
132	0xbd613293	-0.054979872
133	0xbe5fd2b0	-0.21857715
134	0xbc550343	-0.013001266
135	0x3eb1befe	0.34716028
136	0xbef45010	-0.47717333
137	0xbe86fccb	-0.2636474
138	0xbe515b2b	-0.20444934
139	0x3c9bcf7e	0.019019838
140	0xbe2da0f8	-0.16955936
141	0xbeaceedb	-0.33775982
142	0xbdbc0e4d	-0.09182415
143	0x3d78150c	0.060566947
144	0x3db5727b	0.08859726
145	0x3d7f671b	0.06235419
146	0xbd13b831	-0.03606433
147	0x3ed3d572	0.41373783
148	0xbe4b58ee	-0.19858143
149	0xbe54560c	-0.2073595
150	0x3e44e9fd	0.19229884
151	0x3e3153c0	0.17317104
152	0x3cdde5c9	0.02708711
153	0xbebe0965	-0.37116542
154	0xbea5040c	-0.3222965
155	0x3e402038	0.1876229
156	0x3e5e3bf4	0.21702558
157	0x3df7f03a	0.121063665
158	0xbe4f7d17	-0.20262562
159	0x3e45933b	0.19294445
160	0x3e647242	0.22309211
161	0x3d22261e	0.039587133
162	0xbe24803b	-0.16064541
163	0xbe6c3fcd	-0.23071213
164	0xbeaf997d	-0.3429679
165	0xbedf712c	-0.4364103
166	0xbe8e95aa	-0.2784856
167	0xbcff5159	-0.03116672
168	0x3c59fa3c	0.013304289
169	0xbe439606	-0.19100198
170	0x3ec4e092	0.38452584
171	0x3b4d94ec	0.0031369282
172	0xbc32b897	-0.010908267
173	0xbe4fbed7	-0.20287643
174	0x3dd72acb	0.10506209
175	0x3ebe4bfc	0.37167346
176	0x3e3374ae	0.17524979
177	0x3e7fac53	0.2496808
178	0x3dfd380a	0.12364204
179	0xbd0cda4d	-0.034387875
180	0x3e27354d	0.16328926
181	0x3eae5a88	0.34053445
182	0x3ea46362	0.32107073
183	0x3e8b5391	0.27212194
184	0x3e410695	0.18850167
185	0xbea5464f	-0.32280204
186	0xbdc789bc	-0.097430676
187	0x3dc94558	0.098276794
188	0x3eb4e8b3	0.35333785
189	0x3ec6f11d	0.3885583
190	0xbe9e8b40	-0.30965614
191	0x3e1262d2	0.1429551

forward_blocks.0.sage1.lin_root.bias f4 [32]
0	0xbe389e0f	-0.18029045
1	0x3ea475ab	0.32121024
2	0x3e96b315	0.29433504
3	0xbeb8eec7	-0.36119673
4	0xbe7e919f	-0.24860238
5	0xbea357ec	-0.31903017
6	0xbea1b7ed	-0.31585637
7	0xbe09d678	-0.1346072
8	0x3e6eff80	0.23339653
9	0x3d951319	0.07279033
10	0x3e140ceb	0.14458053
11	0x3e0e49b3	0.13895302
12	0x3e59c084	0.21264845
13	0x3e69a2c6	0.22816
14	0xbea0b1ca	-0.31385642
15	0xbec291e7	-0.3800194
16	0xbdc7274e	-0.09724294
17	0x3d138262	0.036013015
18	0x3eb179d0	0.34663248
19	0xbe29f98b	-0.165991
20	0x3e42991b	0.19003718
21	0xbdb200fe	-0.086915955
22	0x3cd2314b	0.02565827
23	0x3eb120bb	0.34595284
24	0xbebe6b7a	-0.37191373
25	0xbe863cfc	-0.26218402
26	0xbe5c9465	-0.21540983
27	0x3ca2ab0b	0.01985695
28	0xbea4fff2	-0.3222652
29	0xbea4c84b	-0.3218406
30	0x3ba1c212	0.004936465
31	0xbe8df58f	-0.2772641

forward_blocks.0.lin.weight f4 [32, 32]
0	0xbdd524f9	-0.104074426
1	0xbe005587	-0.12532626
2	0x3dd13a13	0.10216155
3	0x3e41649d	0.18886037
4	0xbd11acf8	-0.035565346
5	0xbc8b7431	-0.017023178
6	0xbd298b5e	-0.041392677
7	0x3d2c7cdf	0.042111274
8	0x3e0e2f1f	0.13885163
9	0xbe0c6d88	-0.13713658
10	0x3b4ff518	0.003173178
11	0x3e0ade09	0.13561262
12	0x3e1fdf8a	0.15612617
13	0x3d0d1368	0.034442335
14	0x3c9e46c4	0.019320853
15	0xbd80fb53	-0.06297936
16	0xbd05465d	-0.032537807
17	0x3e6ac6ba	0.2292737
18	0x3e2c199c	0.16806644
19	0xbd3f8bc8	-0.046764165
20	0xbc1956d6	-0.009359082
21	0xbd5e8b76	-0.05433222
22	0x3e602359	0.21888484
23	0x3dde1042	0.10842945
24	0x3c5db1b3	0.013531136
25	0x3e24743d	0.16059966
26	0xbdc44d70	-0.095850825
27	0xbe0f4344	-0.13990504
28	0xbc4d85f5	-0.012544145
29	0xbd8d57d9	-0.06901521
30	0x3e0bbcde	0.13646266
31	0x3e118371	0.14210297
32	0xbe28f37e	-0.16499135
33	0x3d41c717	0.047309007
34	0x3d33894e	0.043832116
35	0x3cef11ae	0.029183235
36	0xbd7cfabb	-0.061762553
37	0xbe1cce90	-0.15313172
38	0xbe20e311	-0.15711619
39	0xbddbb496	-0.107278034
40	0xbe0d63f9	-0.13807668
41	0xbe043171	-0.12909485
42	0xbe1b080a	-0.15139785
43	0x3dce619d	0.10077212
44	0xbe232977	-0.15933786
45	0xbe4227e0	-0.18960524
46	0x3e1a29c6	0.15054998
47	0x3d5200f7	0.05127045
48	0x3dce52af	0.100743644
49	0xbd16bd1a	-0.036801435
50	0x3e00963c	0.1255731
51	0xbd10154e	-0.035176568
52	0x3e006e3a	0.12542048
53	0xbd1536b4	-0.036429122
54	0xbe499911	-0.19687296
55	0xbd8a154a	-0.06742342
56	0xbe505a90	-0.20347047
57	0x3e16c0bd	0.14721961
58	0x3c85d942	0.016338948
59	0xbe0e9f51	-0.13927962
60	0x3e079a59	0.13242473
61	0x3c82309c	0.01589232
62	0x3d82b675	0.06382457
63	0x3aaaad15	0.0013021553
64	0x3e5624d0	0.2091248
65	0xbd51054a	-0.051030435
66	0x3daa2978	0.08308691
67	0x3e535898	0.20639265
68	0xbdf990f7	-0.12185853
69	0x3d822a63	0.06355741
70	0xbdc74508	-0.097299635
71	0xbe009912	-0.12558392
72	0xbe541e93	-0.20714788
73	0x3e124607	0.14284526
74	0xbd8e0bd8	-0.06935853
75	0x3e53e2bd	0.20691963
76	0xbe0a7ef7	-0.13524996
77	0x3e01c9fb	0.12674706
78	0xbd1b34d8	-0.037892193
79	0x3e0c40fc	0.13696665
80	0xbe3bb990	-0.18332505
81	0xbcec4dcf	-0.028845696
82	0xbe4352f8	-0.19074619
83	0xbd439b71	-0.047755662
84	0xbe328038	-0.17431724
85	0xbdcbe588	-0.09955889
86	0x3e5549f1	0.20828988
87	0x3d2c5b9e	0.04207956
88	0x3dee9ff3	0.11651602
89	0x3b9b56b5	0.004740561
90	0xbe37fbf1	-0.17967202
91	0xbd4f745f	-0.05064809
92	0xbe1a7353	-0.15083055
93	0xbcd32898	-0.025776193
94	0xbe363b40	-0.1779604
95	0x3d15a9c1	0.036538843
96	0x3d9d1ad1	0.076711304
97	0x3dfb3e50	0.122677445
98	0xbd3b79c3	-0.045770418
99	0x3e0d9bdf	0.13828991
100	0xbe14f82c	-0.14547795
101	0x3d93acbb	0.0721068
102	0x3de6a075	0.112610735
103	0x3dc6d96a	0.09709437
104	0x3d976f5b	0.07394286
105	0x3df740cb	0.12072905
106	0xb9735d7d	-0.00023209113
107	0x3e10ed7a	0.1415309
108	0xbe1e0114	-0.15430099
109	0xbe2e56c0	-0.1702528
110	0x3de2d669	0.11076052
111	0xbdce8adf	-0.10085081
112	0x3e1a1c95	0.15049966
113	0x3d36b71a	0.044608213
114	0xbd309a9e	-0.043116204
115	0xbe4001b5	-0.18750651
116	0x3c3f6528	0.011681832
117	0x3d8efece	0.06982194
118	0xbc4945bc	-0.012284692
119	0x3da16248	0.07880074
120	0x3c1d22d0	0.0095908195
121	0xbdc92ccf	-0.09823
122	0x3e493edf	0.1965289
123	0x3dbc32d8	0.09189385
124	0xbe2b279b	-0.16714327
125	0xbd9b476d	-0.07581983
126	0xbdd0026e	-0.101567134
127	0xbe0af6b5	-0.13570674
128	0xbd333121	-0.043748025
129	0xbd9552ff	-0.07291221
130	0xbdd8b774	-0.10581866
131	0xbd122f36	-0.035689555
132	0xbe175ed5	-0.1478227
133	0xbd941594	-0.07230678
134	0x3dc86e2e	0.0978664
135	0x3db48b6f	0.08815657
136	0x3e0b8aff	0.13627242
137	0x3ddd4808	0.108047545
138	0xbdb70304	-0.08936122
139	0xbe211092	-0.15728977
140	0x3d90aa00	0.07063675
141	0xbda89646	-0.082317874
142	0x3e46143d	0.19343658
143	0xbe128ae7	-0.143108
144	0x3e0cfa02	0.13767245
145	0xbde19d94	-0.11016384
146	0xbe18b9a5	-0.14914568
147	0xbe1dbb7a	-0.15403548
148	0x3e4d8355	0.2006963
149	0x3d0bb74a	0.034110345
150	0xbe709e8f	-0.23497985
151	0xbdc9b6b9	-0.09849305
152	0x3db0f0ee	0.08639704
153	0x3d4ad891	0.04952294
154	0xbde9d876	-0.1141824
155	0xbdc8adc2	-0.09798767
156	0x3e2c2504	0.16810995
157	0xbd5afa32	-0.05346126
158	0x3c8c38d0	0.017116934
159	0xbd4e9bc9	-0.050441537
160	0xbd863698	-0.06553382
161	0xbca9b3dd	-0.020715648
162	0x3d8d46fc	0.06898305
163	0x3dff68b3	0.12471142
164	0x3d82585c	0.063645095
165	0xbe22ee17	-0.15911137
166	0xbda633a6	-0.0811532
167	0x3e1f96c1	0.15584852
168	0x3d9b618a	0.075869635
169	0xbdb29deb	-0.08721527
170	0x3d9f32ba	0.07773347
171	0x3b1e2e25	0.002413639
172	0xbdc1b683	-0.094586395
173	0xbdca8cb0	-0.09890115
174	0x3e489c37	0.19590841
175	0xbdd6288d	-0.10456953
176	0x3e4a06d8	0.19729173
177	0x3d37d62b	0.04488198
178	0x3df5a1b8	0.11993736
179	0xbde11404	-0.10990146
180	0x3e02ea98	0.12784803
181	0xbdbcd520	-0.09220338
182	0x3dc3914b	0.09549197
183	0x3d69efe2	0.057113536
184	0x3e254bf5	0.16142257
185	0xbd8f9966	-0.0701168
186	0xbdb27b99	-0.08714981
187	0x3da23042	0.07919361
188	0xbc02a681	-0.007974268
189	0xbcb0e0df	-0.021591602
190	0x3e2a3867	0.16623078
191	0x3e43818f	0.19092391
192	0x3c3687a9	0.011140742
193	0xbd33894f	-0.04383212
194	0xbe34f734	-0.17672426
195	0xbde4eb4d	-0.111776926
196	0xbe068e88	-0.13140309
197	0x3d6ec35e	0.058291785
198	0xbe3c7d47	-0.18407165
199	0x3dba9f80	0.091124535
200	0xbdd5b4eb	-0.10434898
201	0xbd647fa4	-0.05578579
202	0xbcbd75c8	-0.023127452
203	0xbb1eb1e7	-0.0024214925
204	0x3c5d05cd	0.013490153
205	0xbe1838a0	-0.1486535
206	0xbd1867ef	-0.037208494
207	0xbd858dbd	-0.06521175
208	0x3dbe353b	0.09287497
209	0xbab6784d	-0.001392135
210	0xbd78c006	-0.060730003
211	0x3dc0e849	0.09419305
212	0x3dfb169f	0.12260174
213	0xbbabfc93	-0.005248615
214	0xbd77f094	-0.060532168
215	0xbdf165b1	-0.11786974
216	0x3e0eaa79	0.13932218
217	0x3e38ab2e	0.1803405
218	0x3e3e43d7	0.18580566
219	0xbcd04373	-0.025422787
220	0xbe05a650	-0.13051724
221	0xbe44c7f9	-0.19216909
222	0x3d28e8b1	0.041237537
223	0xbe116b59	-0.14201106
224	0x3ccec9ea	0.025242765
225	0xbe3300d6	-0.17480788
226	0xbd8558b2	-0.06511058
227	0xbd1b0664	-0.03784789
228	0xbe1a39d6	-0.15061125
229	0x3c01e7c6	0.007928794
230	0xbdcbde13	-0.09954467
231	0xbd175b9f	-0.03695261
232	0xbda7fd16	-0.08202569
233	0x3d4bff5b	0.049804073
234	0xbe0b4e49	-0.13604082
235	0x3dbcdeb9	0.092221685
236	0xbe08d1fc	-0.13361353
237	0x3dc0a822	0.09407069
238	0x3e367d24	0.17821175
239	0x3ab0da4a	0.001349279
240	0x3e219e97	0.15783153
241	0xbd2c8b3f	-0.042124983
242	0xbcc876cb	-0.024470707
243	0xbe4ed8f6	-0.20199952
244	0x3dc3c7fe	0.0955963
245	0xbdf88eb4	-0.121365935
246	0xbd4212c3	-0.047381174
247	0xbbe9cf6a	-0.0071353214
248	0xbde15e75	-0.110043444
249	0x3e0091e6	0.12555656
250	0x3e125b79	0.14292707
251	0x3e58c99a	0.21170655
252	0xbdeddb16	-0.11614053
253	0xbc60aadf	-0.013712614
254	0xbdfc5910	-0.12321675
255	0x3c3bc9bd	0.011461672

forward_blocks.0.lin.bias f4 [32]
0	0x3dfb0cf0	0.12258327
1	0x3dd732d8	0.105077446
2	0x3d8b620a	0.06805809
3	0xbe269210	-0.16266656
4	0x3d3a22f6	0.045443498
5	0xbddf23ec	-0.108955234
6	0xbda6b079	-0.08139128
7	0xbda06b0a	-0.07832916
8	0xbe528ffc	-0.20562738
9	0xbd3a6cb6	-0.04551383
10	0xbe21f38e	-0.15815565
11	0x3e3cc1e8	0.18433344
12	0xbd5a6145	-0.05331542
13	0xbc4eb43b	-0.0126162125
14	0x3da9a80c	0.082840055
15	0xbd8a8838	-0.06764263
16	0x3d4071da	0.046983577
17	0xbd86bbbb	-0.065787755
18	0xbe0ca252	-0.13733795
19	0xbe1ab5d3	-0.15108423
20	0xbcb4c523	-0.022066658
21	0x3cf18635	0.02948294
22	0xbd635cac	-0.0555083
23	0x3d244281	0.040102486
24	0x3d446bd9	0.047954414
25	0xbdc3b370	-0.09555709
26	0xbe17dd37	-0.1483048
27	0x3cf0c25e	0.029389556
28	0x3e388389	0.18018927
29	0xbd8ca11f	-0.06866669
30	0xbd0d3e2a	-0.034483112
31	0xbdfbf734	-0.1230301

forward_blocks.0.bn1.weight f4 [1000]
0	0x3f83e34c	1.030374
1	0x3f840c4a	1.031625
2	0x3f8448b6	1.033469
3	0x3f80950b	1.0045484
4	0x3f821c68	1.0164919
5	0x3f78d064	0.9719298
6	0x3f7eecf9	0.9958034
7	0x3f6ee245	0.9331401
8	0x3f7d6e8b	0.989968
9	0x3f70c158	0.9404502
10	0x3f7edd7e	0.9955672
11	0x3f805dfd	1.0028683
12	0x3f6ef860	0.9334774
13	0x3f824336	1.0176761
14	0x3f825d4c	1.0184722
15	0x3f7ff4c9	0.9998289
16	0x3f70203b	0.9379918
17	0x3f6efb67	0.9335236
18	0x3f7f2bef	0.9967641
19	0x3f819133	1.0122436
20	0x3f828891	1.0197927
21	0x3f80665b	1.0031236
22	0x3f83f705	1.0309759
23	0x3f7ffa42	0.9999124
24	0x3f80ca43	1.0061725
25	0x3f8167dd	1.0109822
26	0x3f7710cf	0.9651002
27	0x3f71a937	0.94398826
28	0x3f71c1dd	0.94436437
29	0x3f7585e6	0.9590744
30	0x3f82a73c	1.0207286
31	0x3f86af39	1.0522224
32	0x3f8644d5	1.0489756
33	0x3f84a14e	1.0361726
34	0x3f87842a	1.0587208
35	0x3f7b7105	0.9821933
36	0x3f825e74	1.0185075
37	0x3f82d42c	1.0221
38	0x3f831140	1.0239639
39	0x3f86ebec	1.0540748
40	0x3f8644cc	1.0489745
41	0x3f837511	1.0270101
42	0x3f85fb3a	1.0467293
43	0x3f894f21	1.0727273
44	0x3f849a5f	1.035961
45	0x3f7b34cb	0.9812743
46	0x3f8708c7	1.0549554
47	0x3f83408a	1.0254071
48	0x3f879428	1.0592089
49	0x3f8659cb	1.0496153
50	0x3f800720	1.0002174
51	0x3f848f8b	1.0356306
52	0x3f863e59	1.0487777
53	0x3f84cc83	1.0374912
54	0x3f84d0ba	1.0376198
55	0x3f831fc2	1.0244067
56	0x3f882769	1.0637027
57	0x3f84021c	1.0313144
58	0x3f872619	1.0558501
59	0x3f8400bf	1.0312728
60	0x3f851ff6	1.0400379
61	0x3f7b9ac3	0.9828302
62	0x3f88ccf9	1.0687553
63	0x3f84a002	1.036133
64	0x3f881575	1.0631548
65	0x3f84b1b3	1.036673
66	0x3f87f72b	1.0622305
67	0x3f85100c	1.0395522
68	0x3f81dbc1	1.0145189
69	0x3f7749fd	0.9659727
70	0x3f86cdde	1.0531576
71	0x3f7f9548	0.9983716
72	0x3f80e7d6	1.0070751
73	0x3f7d6b3c	0.9899175
74	0x3f861e65	1.0478026
75	0x3f84bc0b	1.0369886
76	0x3f87cd68	1.060956
77	0x3f8066d7	1.0031384
78	0x3f7965a7	0.97420734
79	0x3f8aaabc	1.0833354
80	0x3f847c74	1.035048
81	0x3f83c7a9	1.0295306
82	0x3f84ad31	1.0365354
83	0x3f840503	1.031403
84	0x3f83eaac	1.0305991
85	0x3f844006	1.0332038
86	0x3f837d36	1.0272586
87	0x3f856c61	1.04237
88	0x3f85a678	1.0441427
89	0x3f838adc	1.0276752
90	0x3f7b981f	0.98278993
91	0x3f79f2a8	0.9763589
92	0x3f749cd8	0.95551825
93	0x3f862e28	1.0482836
94	0x3f87a50b	1.0597242
95	0x3f79583f	0.9740028
96	0x3f7af94e	0.9803666
97	0x3f75037e	0.95708454
98	0x3f8550f5	1.0415331
99	0x3f762aab	0.96158856
100	0x3f849bce	1.0360048
101	0x3f767f91	0.962884
102	0x3f83387c	1.0251613
103	0x3f856d98	1.042407
104	0x3f7457f1	0.9544669
105	0x3f868faa	1.0512593
106	0x3f7e3926	0.9930595
107	0x3f7b199d	0.9808596
108	0x3f79b405	0.97540313
109	0x3f726766	0.94689023
110	0x3f81a864	1.0129514
111	0x3f81d12e	1.0141962
112	0x3f7cc694	0.98740506
113	0x3f8105e7	1.0079926
114	0x3f82241e	1.0167272
115	0x3f77f855	0.968633
116	0x3f81e292	1.0147269
117	0x3f70a656	0.9400381
118	0x3f7e4157	0.9931845
119	0x3f80eec8	1.007287
120	0x3f838ad4	1.0276742
121	0x3f835746	1.0261009
122	0x3f755a33	0.9584076
123	0x3f827137	1.01908
124	0x3f82dda4	1.0223889
125	0x3f81807f	1.0117339
126	0x3f77dda2	0.9682256
127	0x3f728734	0.94737554
128	0x3f78dc28	0.9721093
129	0x3f83974e	1.028055
130	0x3f718621	0.9434529
131	0x3f71e2d6	0.9448675
132	0x3f6e5cf0	0.9311056
133	0x3f774822	0.9659444
134	0x3f831dcc	1.0243468
135	0x3f819b52	1.0125525
136	0x3f756d0f	0.95869535
137	0x3f72e481	0.9487992
138	0x3f72fd51	0.9491778
139	0x3f821966	1.0164001
140	0x3f820006	1.0156257
141	0x3f73eb8f	0.9528131
142	0x3f7706c0	0.96494675
143	0x3f6da59e	0.92830837
144	0x3f8277f4	1.0192857
145	0x3f7e2254	0.9927113
146	0x3f790a22	0.97281086
147	0x3f84b4cc	1.0367675
148	0x3f80fd84	1.0077367
149	0x3f84a817	1.0363797
150	0x3f80d006	1.0063484
151	0x3f796541	0.97420126
152	0x3f8150a1	1.0102731
153	0x3f7655ab	0.9622447
154	0x3f79079c	0.97277236
155	0x3f83e739	1.0304939
156	0x3f76be1d	0.9638384
157	0x3f76057f	0.96102136
158	0x3f74d8d3	0.9564335
159	0x3f83a096	1.0283382
160	0x3f8331d4	1.0249581
161	0x3f70c3b3	0.94048613
162	0x3f789d52	0.9711505
163	0x3f84b69e	1.036823
164	0x3f7c322b	0.9851405
165	0x3f822e54	1.0170388
166	0x3f82b5e6	1.0211761
167	0x3f834b5b	1.0257372
168	0x3f84f727	1.0387925
169	0x3f843ceb	1.0331091
170	0x3f77f8e3	0.96864146
171	0x3f70b947	0.9403271
172	0x3f80f99c	1.0076175
173	0x3f76d687	0.9642109
174	0x3f8428da	1.0324967
175	0x3f869ea3	1.0517162
176	0x3f809300	1.0044861
177	0x3f82ef16	1.0229213
178	0x3f871079	1.0551902
179	0x3f866eb8	1.0502539
180	0x3f84f241	1.038643
181	0x3f7cf076	0.98804414
182	0x3f7ad2be	0.9797782
183	0x3f803ae9	1.0017978
184	0x3f836378	1.026473
185	0x3f83a690	1.0285206
186	0x3f86fd63	1.0546077
187	0x3f84be84	1.0370641
188	0x3f7eff84	0.99608636
189	0x3f86af84	1.0522313
190	0x3f86820d	1.0508438
191	0x3f79f4e4	0.976393
192	0x3f85a262	1.044018
193	0x3f7cb1c9	0.9870878
194	0x3f85aa21	1.0442544
195	0x3f8258a3	1.01833
196	0x3f7bbb7f	0.9833297
197	0x3f7ebdd7	0.9950842
198	0x3f77f697	0.9686064
199	0x3f7a848a	0.9785849
200	0x3f84b75a	1.0368454
201	0x3f84b7de	1.0368612
202	0x3f80c29f	1.0059394
203	0x3f747c4c	0.9550216
204	0x3f87f10c	1.0620437
205	0x3f7f0ed0	0.9963198
206	0x3f7f5907	0.9974522
207	0x3f7e2f8a	0.9929129
208	0x3f7d504f	0.98950666
209	0x3f7e5238	0.99344206
210	0x3f8717ba	1.0554116
211	0x3f813d7b	1.0096887
212	0x3f7fd627	0.99936146
213	0x3f86b993	1.0525383
214	0x3f80d35f	1.0064505
215	0x3f800b41	1.0003434
216	0x3f8755e9	1.0573093
217	0x3f8762c6	1.0577018
218	0x3f88eeaf	1.069784
219	0x3f81136c	1.0084052
220	0x3f7dcb5d	0.9913843
221	0x3f7d0478	0.98834944
222	0x3f7ed8b1	0.99549395
223	0x3f7ed41f	0.9954242
224	0x3f83f659	1.0309554
225	0x3f7fc303	0.9990694
226	0x3f7de12c	0.9917171
227	0x3f7c07ef	0.98449606
228	0x3f825061	1.018078
229	0x3f7c781d	0.9862078
230	0x3f7de424	0.9917624
231	0x3f800599	1.0001708
232	0x3f883bc4	1.0643239
233	0x3f876f6a	1.0580876
234	0x3f863d4f	1.048746
235	0x3f8910c7	1.0708245
236	0x3f83b417	1.0289334
237	0x3f877048	1.058114
238	0x3f818445	1.011849
239	0x3f80d54a	1.0065091
240	0x3f851cd8	1.0399427
241	0x3f881a27	1.0632981
242	0x3f87ed0a	1.0619214
243	0x3f87f760	1.0622368
244	0x3f812309	1.0088817
245	0x3f8918dd	1.0710713
246	0x3f880304	1.062592
247	0x3f7d9892	0.9906093
248	0x3f896df0	1.0736675
249	0x3f880490	1.0626392
250	0x3f86eea5	1.0541579
251	0x3f8bafbd	1.0913006
252	0x3f8840ed	1.0644814
253	0x3f822e4d	1.017038
254	0x3f87dc13	1.0614036
255	0x3f8a2899	1.079364

forward_blocks.0.bn1.bias f4 [1000]
0	0x3d26a70b	0.04068665
1	0x3d071449	0.03297833
2	0x3c09d6e2	0.008413048
3	0xbc7743ec	-0.015091877
4	0xbc6a36b0	-0.014295265
5	0x3cb5b62e	0.022181597
6	0xbd00b006	-0.03141787
7	0xbca33197	-0.019921107
8	0x3d2d3529	0.042287026
9	0xbcfbd3e1	-0.03074068
10	0xbd4b3a51	-0.04961616
11	0xbd12eb7b	-0.035869103
12	0xbc858696	-0.016299527
13	0x3d021663	0.03175963
14	0x3d152512	0.036412306
15	0x3c9b5ffb	0.018966665
16	0xbd34e11e	-0.04416
17	0xbcc04830	-0.023471922
18	0xbca2fb28	-0.019895151
19	0xbca4e43a	-0.020128358
20	0xbd070ed1	-0.032973114
21	0xbd2e22c4	-0.042513624
22	0x3c400f91	0.011722461
23	0xbd544f3a	-0.05183337
24	0x3c40f234	0.011776496
25	0xbc4213fe	-0.011845587
26	0xbcf975ed	-0.03045174
27	0xbd379d8e	-0.04482799
28	0x3c89e8ce	0.016834643
29	0x3d0b3b5f	0.033992168
30	0x3cf1fb93	0.029538905
31	0xbd0697ff	-0.0328598
32	0xbc969abd	-0.018384332
33	0xba28fca9	-0.00064463407
34	0x3cfcc776	0.03085683
35	0xbcbd503e	-0.023109552
36	0xbd289f0e	-0.04116731
37	0x3c9c2621	0.01906115
38	0xbd635d65	-0.05550899
39	0xbd062ede	-0.03275954
40	0xbd384da6	-0.044995926
41	0x3d09213b	0.033478957
42	0xbd2ad744	-0.0417092
43	0xbcbe1c7f	-0.023206947
44	0x3cf6301f	0.030052243
45	0x3c2b9b39	0.01047402
46	0x3c95f078	0.018303141
47	0xbd002406	-0.031284355
48	0x3c995936	0.018719297
49	0xbcf6643d	-0.030077094
50	0x3cfb4884	0.030674227
51	0xbca73772	-0.02041218
52	0x3c70dfaa	0.014701763
53	0xbd08b350	-0.03337413
54	0xbd2b2440	-0.041782618
55	0xbd3e5a8f	-0.046473082
56	0x3c9e2dea	0.019309003
57	0xbd4a8dcb	-0.04945163
58	0x3c8de1d6	0.017319601
59	0x3cbc3336	0.022973638
60	0xbcabcde6	-0.020972203
61	0x3c530710	0.012880102
62	0x3cea7d93	0.028624332
63	0x3cebe379	0.02879499
64	0xbd2942d2	-0.04132349
65	0xbd2e9ac0	-0.04262805
66	0x3cee059d	0.029055411
67	0xbcf82a9a	-0.030293752
68	0xbd2a6c2f	-0.04160708
69	0xbccef984	-0.025265463
70	0x3c6bd213	0.014393347
71	0xbcea743d	-0.02861988
72	0xbce08661	-0.027407827
73	0xbcc9cc92	-0.02463368
74	0xbd01578a	-0.031577624
75	0xbd05af89	-0.032638106
76	0xbd10e75f	-0.035376903
77	0x3cbf78f8	0.023373112
78	0xbcd1952c	-0.025583826
79	0xbd408fe0	-0.04701221
80	0x3cf49dc9	0.029860394
81	0x3cf4451f	0.029818116
82	0x3cf18e78	0.02948688
83	0x3ceb0ce0	0.028692663
84	0xbcea5573	-0.028605198
85	0xbd4343cb	-0.047672074
86	0xbd3c53d5	-0.045978386
87	0xbd434b06	-0.04767897
88	0xbcc06da1	-0.023489775
89	0x3cb2008e	0.02172878
90	0x3c8d053c	0.01721441
91	0xbd21c959	-0.03949866
92	0x3cede233	0.029038524
93	0xbc267c1b	-0.010161425
94	0x3cf54935	0.029942134
95	0xbcff4c1a	-0.031164218
96	0xbd4d327b	-0.05009697
97	0xbd1701de	-0.036867015
98	0xbd3180da	-0.043335773
99	0x3c4e45ae	0.012589855
100	0xbd15fb05	-0.036616344
101	0x3d20ff82	0.03930617
102	0x3c728095	0.014801164
103	0x3bec5a66	0.007212925
104	0xbd48ac8d	-0.048992682
105	0x3c846aaf	0.016164152
106	0xbc2d4afb	-0.010576959
107	0x3c8c009a	0.01709013
108	0xbd01836e	-0.03161948
109	0xbd5232c8	-0.05131796
110	0xbd3e1fff	-0.046417233
111	0x3d186c7d	0.037212837
112	0x3d0c353d	0.03423046
113	0xbd1d115d	-0.038346637
114	0x3c9920e4	0.018692441
115	0xbcecf54a	-0.028925557
116	0xbd01c001	-0.03167725
117	0xbd228298	-0.039675325
118	0xbd40a068	-0.047027975
119	0xbd117471	-0.035511438
120	0xbd1b3946	-0.037896417
121	0x3c0e17e6	0.00867269
122	0x3cc8241d	0.024431283
123	0xbd1db188	-0.038499385
124	0xbcd01d94	-0.025404729
125	0xbcd9cdcd	-0.026587391
126	0x3ca4438e	0.020051744
127	0xbd3300cc	-0.04370193
128	0x3ca7bfe5	0.020477245
129	0x3d126b40	0.035746813
130	0x3d012c50	0.0315364
131	0xbd19b213	-0.03752334
132	0xbd43b42d	-0.04777925
133	0xbcdc7ed3	-0.026915943
134	0x3d2ca454	0.042148903
135	0xbcb3882c	-0.021915518
136	0x3cdd66e9	0.02702661
137	0x3d0a5d43	0.033780348
138	0x3d073f6e	0.033019476
139	0xbcd379ea	-0.02581497
140	0xbc9095c0	-0.017649531
141	0x3cffa00e	0.03120425
142	0xbc516352	-0.012780027
143	0x3cb2d54f	0.02183023
144	0xbcf9cdf7	-0.03049372
145	0x3cc2c0e1	0.023773612
146	0xbcac36ec	-0.021022283
147	0xbd08d44f	-0.0334056
148	0x3cd23d26	0.025663923
149	0x3d04bcdf	0.032406684
150	0x3d0b531d	0.03401481
151	0x3d8a616b	0.06756862
152	0xbcde6b7b	-0.02715086
153	0xbcb04723	-0.021518296
154	0xbbca7076	-0.006177957
155	0xbd0e1b55	-0.034694035
156	0xbbec3cf4	-0.0072094146
157	0xbc9b1731	-0.018931957
158	0xbcfce0c6	-0.0308689
159	0x3c425c59	0.011862838
160	0x3cb6441c	0.022249274
161	0xbccfa50d	-0.025347257
162	0x3cea2873	0.02858374
163	0x3cf1f1e0	0.02953428
164	0xbc977698	-0.018489167
165	0xbce3a13d	-0.027786845
166	0x3d19d32b	0.0375549
167	0x3d1236c6	0.035696767
168	0xbd3e8486	-0.046513103
169	0x3d068304	0.03283979
170	0xbd2c6c29	-0.042095337
171	0xbccc95d1	-0.024973782
172	0xbd1d1d2b	-0.038357895
173	0xbc293e7a	-0.010329837
174	0x3cadc24a	0.021210808
175	0xbd1d5a2c	-0.038416073
176	0xbd0a1bfc	-0.033718094
177	0xbd1c2c8d	-0.038128424
178	0xbcd9b10b	-0.026573678
179	0xbcead182	-0.028664354
180	0x3cd0d963	0.025494283
181	0xbd0a22f1	-0.03372473
182	0xbc790f8b	-0.01520146
183	0xbcb621a4	-0.022232838
184	0x3cb982dd	0.022645408
185	0xbd04e5d4	-0.032445744
186	0xbd1a1b14	-0.03762348
187	0x3c885e5e	0.01664656
188	0xbcbf46cf	-0.023349194
189	0xbd2ea964	-0.042642012
190	0x3ce1940f	0.02753642
191	0xbccd9de1	-0.025099697
192	0x3c8a5d56	0.01689021
193	0x3d0984d9	0.03357396
194	0x3c3696e2	0.011144372
195	0xbc8a688a	-0.016895551
196	0xbd00d8be	-0.0314567
197	0xbd08e106	-0.033417724
198	0x3cc803a7	0.024415804
199	0x3cd166f6	0.02556179
200	0x3ca17b51	0.019712122
201	0xbcc16667	-0.0236084
202	0xbce8f30c	-0.028436206
203	0xbd0e1db7	-0.034696307
204	0xbc9057d4	-0.017620005
205	0xbd28511b	-0.041092973
206	0x3c5caafd	0.013468501
207	0xbcd3eb56	-0.025869053
208	0x3c8daa99	0.017293261
209	0x3c9f00be	0.019409534
210	0x3cb43c85	0.022001514
211	0xbd33d800	-0.043907166
212	0xbd2001af	-0.039064106
213	0x3c830990	0.01599577
214	0x3c6c4820	0.014421493
215	0xbd244ab4	-0.040110305
216	0x3c6f010e	0.014587654
217	0xbd18b7ea	-0.03728477
218	0x3bb0e42f	0.0053982954
219	0xbd68707f	-0.05674791
220	0xbd55460f	-0.052068766
221	0xbd280061	-0.041015986
222	0xbd13baf7	-0.036066975
223	0xbd3c6ca6	-0.046002053
224	0xbd563755	-0.052298862
225	0x3c4fa928	0.012674607
226	0xbd128f07	-0.035780933
227	0x3c1f23da	0.0097131375
228	0xbd58c31f	-0.052920457
229	0xbd642b66	-0.05570545
230	0xbd4a80bd	-0.04943918
231	0xbd667985	-0.056268234
232	0xbd4807a7	-0.048835423
233	0xbd400a03	-0.046884548
234	0xbd266709	-0.040625606
235	0x3c428ab1	0.011873887
236	0xbd506cc3	-0.050884973
237	0x3bf51dc8	0.007480357
238	0xbd3bc913	-0.045846056
239	0x3ca76094	0.020431794
240	0xb8b59768	-8.658954e-05
241	0xbd766974	-0.06015916
242	0x3c338f96	0.0109595265
243	0xbd31fab8	-0.043451995
244	0xbd255d5e	-0.040372245
245	0x3c98e082	0.018661741
246	0xbcb691b7	-0.02228628
247	0xbd1e811e	-0.038697354
248	0xbd2d2a4d	-0.04227667
249	0x3b340000	0.002746582
250	0xbd770318	-0.060305685
251	0xbd394b8a	-0.045238055
252	0xbd3f0c72	-0.04664273
253	0x3c4c26fa	0.012460465
254	0x3ca088ac	0.01959642
255	0xbd4411a1	-0.047868375

forward_blocks.0.bn1.running_mean f4 [1000]
0	0x3c0712a2	0.0082441885
1	0x3be0446d	0.0068440945
2	0x3bc5b71f	0.0060337926
3	0x3ba758e6	0.005107033
4	0x3b816f2f	0.0039500217
5	0x3b491baf	0.0030686667
6	0x3b2835b1	0.0025666768
7	0x3b02ce60	0.0019959435
8	0x3ab96fc5	0.001414769
9	0x3a364b8c	0.00069540064
10	0x3a49157b	0.00076707423
11	0x3a0afc8f	0.00053019164
12	0x3966bda0	0.0002200515
13	0x38b9d700	8.861534e-05
14	0x38a47779	7.842383e-05
15	0xb958234f	-0.00020612519
16	0x38aac6c4	8.143255e-05
17	0xb9ca4de6	-0.0003858648
18	0xb9db0306	-0.00041773188
19	0xba4543f2	-0.0007525078
20	0xb9ed5dfb	-0.00045274184
21	0xba5354f1	-0.00080616685
22	0xb9d4cd3a	-0.00040588697
23	0xba13f5ba	-0.0005644221
24	0xb9ff1c2b	-0.00048658377
25	0xba1307df	-0.0005608778
26	0xba5259f6	-0.00080242695
27	0xba4860bc	-0.0007643809
28	0xba0cde51	-0.0005373704
29	0xb97975ce	-0.00023790376
30	0xba0cb4a8	-0.0005367496
31	0xb9e3b1c3	-0.00043429257
32	0xb9ddcb46	-0.00042303855
33	0xb9a5d891	-0.00031632607
34	0xba17a5a5	-0.0005784876
35	0xba12e040	-0.0005602874
36	0xb9cb8939	-0.00038821416
37	0xba030b49	-0.0004998935
38	0xb9c9e1c5	-0.0003850592
39	0xb9f61477	-0.00046936024
40	0xb969efd5	-0.00022309956
41	0xb9e62389	-0.00043895494
42	0xb9914ca8	-0.00027713669
43	0xb96204c1	-0.0002155481
44	0xba03bada	-0.00050250965
45	0xba075d1e	-0.0005163717
46	0xba13df27	-0.0005640857
47	0xba53fcd0	-0.0008086683
48	0xb9fd5d9c	-0.00048325665
49	0xba55f9fd	-0.00081625563
50	0xba6aa873	-0.00089514925
51	0xba4d9da8	-0.0007843622
52	0xba064e30	-0.0005123345
53	0xba571980	-0.0008205399
54	0xba7ce902	-0.0009647758
55	0xba4edf32	-0.0007891535
56	0xba449b16	-0.0007499916
57	0xba81d966	-0.0009906709
58	0xbaa359bf	-0.001246266
59	0xbab0db5f	-0.0013493112
60	0xba9fabe3	-0.0012181964
61	0xbad89b35	-0.0016525747
62	0xbad37329	-0.0016132343
63	0xbadc7b57	-0.0016821426
64	0xbae1957b	-0.0017210686
65	0xbad3f8b2	-0.001617214
66	0xbaeed46c	-0.0018221266
67	0xbadee899	-0.0017006575
68	0xbac9d0cb	-0.0015397308
69	0xbaf3b189	-0.0018592338
70	0xbaf92d39	-0.001901067
71	0xbaffbb44	-0.0019510766
72	0xbb07f68e	-0.0020746323
73	0xbb167ca3	-0.0022962473
74	0xbb0e49c8	-0.0021711458
75	0xbb1d0769	-0.0023960716
76	0xbb1ef8ae	-0.0024257111
77	0xbb23c6b8	-0.0024990272
78	0xbb22b349	-0.00248261
79	0xbb1b5c13	-0.0023706004
80	0xbb2bbdf7	-0.0026205757
81	0xbb397699	-0.002829945
82	0xbb3ccb52	-0.0028807712
83	0xbb48f70f	-0.0030664837
84	0xbb47fd08	-0.0030515809
85	0xbb4aa4cd	-0.0030920983
86	0xbb46922f	-0.0030299535
87	0xbb492cf3	-0.0030696958
88	0xbb4a4300	-0.003086269
89	0xbb4ef101	-0.0031576755
90	0xbb4b719c	-0.0031043058
91	0xbb5c9c3a	-0.0033662454
92	0xbb4f2e77	-0.0031613389
93	0xbb4e6ce9	-0.003149802
94	0xbb66f73e	-0.0035242583
95	0xbb6a3969	-0.0035739786
96	0xbb667558	-0.0035165157
97	0xbb69a0d1	-0.0035648833
98	0xbb6c59a2	-0.0036064168
99	0xbb6bfd1a	-0.0036009015
100	0xbb6ffaa0	-0.003661789
101	0xbb82172d	-0.003970048
102	0xbb811d1f	-0.003940239
103	0xbb88d47f	-0.004175722
104	0xbb86deba	-0.0041159065
105	0xbb881b57	-0.00415365
106	0xbb8f1609	-0.0043666405
107	0xbb88c6b5	-0.0041740783
108	0xbb8e187b	-0.0043364144
109	0xbb981999	-0.0046417234
110	0xbb96114a	-0.0045796977
111	0xbb94ca1c	-0.004540695
112	0xbb9182e8	-0.004440654
113	0xbb9ad264	-0.0047247875
114	0xbba64197	-0.005073737
115	0xbba5d3db	-0.0050606555
116	0xbb9e1641	-0.00482443
117	0xbb9f7a81	-0.0048668985
118	0xbba86aa1	-0.0051396643
119	0xbbb05ed9	-0.0053824005
120	0xbbb178e6	-0.0054160235
121	0xbbb18fe6	-0.0054187654
122	0xbbb148dc	-0.005410297
123	0xbbb386b9	-0.0054787067
124	0xbbaf96a1	-0.0053585325
125	0xbbb66269	-0.0055659306
126	0xbbbaf655	-0.0057056346
127	0xbbc335c0	-0.0059573352
128	0xbbc85408	-0.006113533
129	0xbbc6880b	-0.006058698
130	0xbbc9aefe	-0.006154894
131	0xbbc56bb5	-0.0060248026
132	0xbbcff926	-0.0063468395
133	0xbbcd462d	-0.006264469
134	0xbbcc8550	-0.006241478
135	0xbbdcaaab	-0.0067342124
136	0xbbe1dbc1	-0.006892652
137	0xbbe63365	-0.0070251697
138	0xbbe89cd2	-0.0070987726
139	0xbbec8e78	-0.007219132
140	0xbbed9dae	-0.007251463
141	0xbbec4f2d	-0.007211587
142	0xbbf8a8e2	-0.007588492
143	0xbbf50f33	-0.0074786185
144	0xbbfd1c0d	-0.007724291
145	0xbc027e00	-0.007964611
146	0xbc07805f	-0.008270352
147	0xbc051a68	-0.0081239715
148	0xbc0449df	-0.008074253
149	0xbc088dfa	-0.008334631
150	0xbc0c0722	-0.0085466225
151	0xbc0cbe7c	-0.008590337
152	0xbc0f4cf9	-0.008746379
153	0xbc0e37c2	-0.008680286
154	0xbc10d69e	-0.008840231
155	0xbc12132e	-0.008915706
156	0xbc120529	-0.008912363
157	0xbc14bb30	-0.009077832
158	0xbc195860	-0.009359449
159	0xbc1bb822	-0.00950435
160	0xbc1d8c6c	-0.009615999
161	0xbc1cae6f	-0.009563073
162	0xbc1ee021	-0.009696991
163	0xbc1fa0db	-0.009742941
164	0xbc20c4bd	-0.009812531
165	0xbc23fe9b	-0.010009433
166	0xbc2724cd	-0.010201645
167	0xbc29a203	-0.010353568
168	0xbc2df050	-0.010616377
169	0xbc2e0713	-0.010621804
170	0xbc30ad7b	-0.0107835485
171	0xbc32f9d0	-0.010923818
172	0xbc3693ea	-0.011143664
173	0xbc382c18	-0.0112409815
174	0xbc3ffbbf	-0.011717736
175	0xbc4170d7	-0.011806688
176	0xbc433d99	-0.0119165415
177	0xbc43c717	-0.011949322
178	0xbc47fd79	-0.012206429
179	0xbc48ff87	-0.012267954
180	0xbc504fe2	-0.012714358
181	0xbc509b52	-0.012732344
182	0xbc544369	-0.012955525
183	0xbc56ac37	-0.013102583
184	0xbc588ff6	-0.013217917
185	0xbc594719	-0.01326158
186	0xbc5c28e5	-0.013437484
187	0xbc59733a	-0.013272101
188	0xbc5c6044	-0.013450686
189	0xbc610f9d	-0.013736633
190	0xbc62883b	-0.013826425
191	0xbc643865	-0.013929461
192	0xbc65c3eb	-0.014023761
193	0xbc67fb2e	-0.014159007
194	0xbc69d13a	-0.014271075
195	0xbc6f8bd1	-0.014620737
196	0xbc6fc60f	-0.014634623
197	0xbc7507e1	-0.014955492
198	0xbc78a89f	-0.015176921
199	0xbc78adb5	-0.015178134
200	0xbc7b2ff6	-0.015331259
201	0xbc7dd4cf	-0.015492632
202	0xbc8041ac	-0.015656315
203	0xbc807a83	-0.015683418
204	0xbc832beb	-0.016012153
205	0xbc847a67	-0.016171647
206	0xbc86118c	-0.016365789
207	0xbc8728e8	-0.016498998
208	0xbc885921	-0.016644062
209	0xbc88b5a8	-0.016688183
210	0xbc896753	-0.016772902
211	0xbc8b00bf	-0.01696813
212	0xbc8cf3d4	-0.01720611
213	0xbc8e0e7c	-0.017340891
214	0xbc8ef41e	-0.017450389
215	0xbc8fad0a	-0.017538566
216	0xbc8fc40e	-0.01754954
217	0xbc90b8e9	-0.017666297
218	0xbc91dbe3	-0.017805045
219	0xbc92e9f6	-0.017933827
220	0xbc947646	-0.018122803
221	0xbc9621f1	-0.018326731
222	0xbc9718d6	-0.01844446
223	0xbc9895e3	-0.018626159
224	0xbc98689a	-0.018604565
225	0xbc9926f0	-0.018695325
226	0xbc9b2fbd	-0.018943662
227	0xbc9bcf2e	-0.01901969
228	0xbc9db136	-0.01924954
229	0xbc9e722c	-0.01934155
230	0xbc9eb08f	-0.0193713
231	0xbca0136a	-0.019540507
232	0xbca1849e	-0.019716557
233	0xbca2d491	-0.01987675
234	0xbca354ba	-0.019937862
235	0xbca40035	-0.02001963
236	0xbca4f72b	-0.02013739
237	0xbca5008a	-0.020141859
238	0xbca68a2a	-0.020329554
239	0xbca769fd	-0.020436281
240	0xbca87324	-0.020562716
241	0xbca9944b	-0.020700594
242	0xbcaa85f4	-0.020815827
243	0xbcababb9	-0.020955907
244	0xbcac7ccd	-0.021055603
245	0xbcad8ab1	-0.021184297
246	0xbcad67ea	-0.021167714
247	0xbcae02c7	-0.021241559
248	0xbcae57ab	-0.021282038
249	0xbcae3b3d	-0.021268481
250	0xbcaf8671	-0.021426411
251	0xbcb08ea1	-0.021552386
252	0xbcb11b85	-0.021619568
253	0xbcb281a9	-0.021790342
254	0xbcb37d7f	-0.021910427
255	0xbcb3ed32	-0.02196369

forward_blocks.0.bn1.running_var f4 [1000]
0	0x3ddf5e8f	0.109067075
1	0x3de2449f	0.11048245
2	0x3de32662	0.11091305
3	0x3de4916d	0.1116055
4	0x3de29389	0.11063296
5	0x3de50429	0.11182434
6	0x3de5079c	0.11183092
7	0x3de689ba	0.11256738
8	0x3de59042	0.112091556
9	0x3de67f21	0.11254717
10	0x3de7cf96	0.11318891
11	0x3de8a3f7	0.11359399
12	0x3de9604a	0.11395319
13	0x3dea5ad9	0.11443109
14	0x3dea8b8a	0.11452396
15	0x3deabd2d	0.11461864
16	0x3deac2e6	0.11462955
17	0x3dec0bb4	0.1152567
18	0x3ded44c8	0.115853846
19	0x3ded218e	0.11578666
20	0x3ded16c8	0.11576611
21	0x3dee41b4	0.116336256
22	0x3ded7ae1	0.11595703
23	0x3dee1146	0.116243884
24	0x3deeeb5b	0.11665984
25	0x3deeaa61	0.11653591
26	0x3df0cac9	0.11757428
27	0x3df0d415	0.117592014
28	0x3df04fac	0.11733946
29	0x3def4eaa	0.11684926
30	0x3df12f4b	0.117765985
31	0x3df1c096	0.11804311
32	0x3df06e2c	0.117397636
33	0x3df1968e	0.11796294
34	0x3df1a708	0.11799437
35	0x3df22245	0.11822943
36	0x3df160c4	0.11786035
37	0x3df0a444	0.11750081
38	0x3df21763	0.11820867
39	0x3df1a43c	0.11798903
40	0x3df188cd	0.11793671
41	0x3df08e92	0.11745943
42	0x3defdf69	0.11712534
43	0x3df0247e	0.1172571
44	0x3def923a	0.116978124
45	0x3defd9c8	0.1171146
46	0x3defa804	0.11701968
47	0x3dee41f5	0.11633674
48	0x3dee757d	0.11643503
49	0x3ded3af0	0.11583507
50	0x3ded80ee	0.11596857
51	0x3deb8ad7	0.11501091
52	0x3debb683	0.11509421
53	0x3debd2ac	0.11514792
54	0x3deb003e	0.114746556
55	0x3de9d591	0.11417688
56	0x3de80ac4	0.113301784
57	0x3de73011	0.11288465
58	0x3de5d610	0.1122247
59	0x3de51eac	0.11187491
60	0x3de28c5e	0.11061929
61	0x3de2d01f	0.11074852
62	0x3de140c0	0.10998678
63	0x3de02a9e	0.109456286
64	0x3ddf10a0	0.10891843
65	0x3ddf5f5d	0.10906861
66	0x3ddeea8d	0.10884581
67	0x3dddb22a	0.10824998
68	0x3ddbd00a	0.1073304
69	0x3ddc5403	0.107582115
70	0x3dda7e9e	0.106686816
71	0x3dd9a998	0.106280506
72	0x3dd7fc23	0.10546138
73	0x3dd6ff62	0.10497929
74	0x3dd5d42e	0.10440861
75	0x3dd4461e	0.10364936
76	0x3dd196c5	0.10233835
77	0x3dd11565	0.10209159
78	0x3dd0c244	0.10193303
79	0x3dcff8c2	0.10154869
80	0x3dcea644	0.100903064
81	0x3dcc9b3e	0.099905476
82	0x3dcc1f5b	0.09966918
83	0x3dcac7b4	0.099013716
84	0x3dcaa6e6	0.098951146
85	0x3dcae6cb	0.099073015
86	0x3dc9266f	0.09821784
87	0x3dc898f9	0.09794802
88	0x3dc7b373	0.09751024
89	0x3dc84329	0.09778435
90	0x3dc6a7a5	0.096999444
91	0x3dc5a540	0.096506596
92	0x3dc57ac7	0.096425585
93	0x3dc3d737	0.09562533
94	0x3dc2d7a5	0.09513787
95	0x3dc240a7	0.09484988
96	0x3dc197d4	0.09452787
97	0x3dbf2637	0.09333461
98	0x3dbd7f52	0.092528
99	0x3dbd5c9b	0.09246179
100	0x3dbd01bc	0.092288464
101	0x3dbbefb4	0.09176579
102	0x3dbb1d05	0.091363944
103	0x3dbb157c	0.09134957
104	0x3db9df6f	0.0907582
105	0x3db9759d	0.09055636
106	0x3db94e04	0.090480834
107	0x3db8d0e7	0.0902422
108	0x3db8de1e	0.090267405
109	0x3db6cca3	0.0892575
110	0x3db6120e	0.088901624
111	0x3db498cf	0.088182084
112	0x3db4177d	0.087935425
113	0x3db401be	0.08789395
114	0x3db318d0	0.08744967
115	0x3db2b32c	0.087255806
116	0x3db1956b	0.08671077
117	0x3db06098	0.08612174
118	0x3daf82ec	0.08569893
119	0x3db00809	0.085952826
120	0x3daedc9f	0.08538174
121	0x3daefbfe	0.085441574
122	0x3dad1a61	0.08452297
123	0x3dac86cd	0.08424149
124	0x3dab4863	0.08363416
125	0x3da927cb	0.08259543
126	0x3da8aeca	0.08236463
127	0x3da82b87	0.08211427
128	0x3da79b27	0.0818389
129	0x3da7a697	0.08186071
130	0x3da78981	0.08180524
131	0x3da79c1b	0.08184072
132	0x3da7971b	0.08183118
133	0x3da70520	0.081552744
134	0x3da69aad	0.08134971
135	0x3da4bd1b	0.080438815
136	0x3da44410	0.080207944
137	0x3da2aa6e	0.07942663
138	0x3da286e6	0.07935886
139	0x3da1d204	0.079013854
140	0x3da22a2c	0.079182
141	0x3da165ad	0.07880721
142	0x3da0b763	0.07847478
143	0x3da04bf4	0.07826987
144	0x3da1a1cb	0.07892188
145	0x3da0e6ff	0.07856559
146	0x3da1583d	0.07878158
147	0x3da01629	0.07816727
148	0x3d9e3f43	0.0772691
149	0x3d9f8ffd	0.077911355
150	0x3d9e8e9c	0.07742044
151	0x3d9dca38	0.07704586
152	0x3d9d9685	0.07694725
153	0x3d9cf2e0	0.07663512
154	0x3d9b9917	0.07597559
155	0x3d99def0	0.07513225
156	0x3d99d27e	0.07510851
157	0x3d984f48	0.07436997
158	0x3d97870e	0.073988065
159	0x3d97d4c5	0.074136294
160	0x3d970a7e	0.07375048
161	0x3d979e85	0.07403282
162	0x3d96ba4a	0.073597506
163	0x3d97515f	0.07388567
164	0x3d958773	0.073012255
165	0x3d954a2e	0.07289539
166	0x3d959083	0.07302954
167	0x3d935d02	0.07195474
168	0x3d94c2d1	0.07263721
169	0x3d938627	0.07203322
170	0x3d9251dd	0.071445204
171	0x3d92b606	0.071636245
172	0x3d91ca52	0.07118668
173	0x3d91c341	0.0711732
174	0x3d929430	0.07157171
175	0x3d9109d6	0.07081954
176	0x3d91915c	0.07107803
177	0x3d908e6c	0.07058415
178	0x3d90e4d1	0.07074893
179	0x3d8f0b21	0.069845445
180	0x3d91453c	0.070932835
181	0x3d9025c2	0.07038452
182	0x3d8fd5d2	0.07023205
183	0x3d8dc5f9	0.06922526
184	0x3d8e1d23	0.06939151
185	0x3d8df93e	0.06932305
186	0x3d8e422e	0.069462165
187	0x3d8de297	0.06927984
188	0x3d8d759b	0.06907197
189	0x3d8d058f	0.06885826
190	0x3d8af4f7	0.067850046
191	0x3d8c1004	0.06838992
192	0x3d8a6c79	0.06758971
193	0x3d8ad9b5	0.067798056
194	0x3d8aefde	0.06784032
195	0x3d8b0715	0.0678846
196	0x3d891a1b	0.06694432
197	0x3d892e35	0.066982664
198	0x3d8a3834	0.06749001
199	0x3d8a1c7f	0.067437164
200	0x3d8a739d	0.06760333
201	0x3d89b963	0.06724813
202	0x3d89258d	0.06696615
203	0x3d86c0d0	0.06579745
204	0x3d857d7a	0.065180734
205	0x3d884297	0.06653326
206	0x3d86eac4	0.06587747
207	0x3d877cb4	0.06615582
208	0x3d8613bc	0.06546733
209	0x3d85db3e	0.06535958
210	0x3d8573db	0.06516238
211	0x3d859c98	0.065240085
212	0x3d851871	0.064988025
213	0x3d84d803	0.064865135
214	0x3d82e507	0.0639134
215	0x3d833503	0.064065956
216	0x3d80acf7	0.062829904
217	0x3d81d469	0.06339342
218	0x3d8109d3	0.06300702
219	0x3d805bdd	0.062675215
220	0x3d81c885	0.06337074
221	0x3d826c66	0.063683316
222	0x3d83333f	0.06406259
223	0x3d81663c	0.06318328
224	0x3d817ebb	0.06323
225	0x3d8280e1	0.06372238
226	0x3d81e440	0.06342363
227	0x3d81617c	0.06317422
228	0x3d800d6c	0.0625256
229	0x3d7d6fef	0.061874326
230	0x3d7de55f	0.061986323
231	0x3d7f654d	0.062352467
232	0x3d7f3599	0.062306974
233	0x3d7d88f1	0.061898176
234	0x3d7cbd50	0.06170398
235	0x3d7b2367	0.06131306
236	0x3d7aa945	0.061196584
237	0x3d7961a5	0.060884137
238	0x3d7bba8e	0.06145721
239	0x3d76b53e	0.06023144
240	0x3d7810e3	0.06056298
241	0x3d775704	0.06038572
242	0x3d7697f3	0.060203504
243	0x3d763338	0.06010744
244	0x3d79e454	0.061008766
245	0x3d76a6cf	0.060217675
246	0x3d74e2f4	0.059786752
247	0x3d73f969	0.059564028
248	0x3d7262c9	0.05917624
249	0x3d6d8ecb	0.057997506
250	0x3d6e13b8	0.058124274
251	0x3d69adf9	0.05705068
252	0x3d65c7a5	0.0560986
253	0x3d69e343	0.0571015
254	0x3d6470cd	0.055771638
255	0x3d66915b	0.056290966
