Saves/3chan_ep_40_resnet.pth (torch, 634866 bytes, 130 tensors)

forward_blocks.0.sage1.lin_rel.weight f4 [32, 6]
0	0xbe20a7b3	-0.15688972
1	0x3c880abf	0.016606687
2	0xbdcf1a02	-0.101123825
3	0x3c27ffbc	0.010253843
4	0xbecfeb52	-0.40609223
5	0xbec70c95	-0.38876787
6	0xbe85586d	-0.26044026
7	0xbe29ea48	-0.16593277
8	0x3e9c5f96	0.30541676
9	0xbee0688a	-0.43829757
10	0x3ec108d3	0.37702045
11	0xbf0f2a0f	-0.5592355
12	0xbe0c1ab2	-0.13682058
13	0xbe14bca3	-0.14525084
14	0x3d4143e9	0.047183905
15	0x3e090a7d	0.13382907
16	0x3d806129	0.06268532
17	0xbeb5f9fe	-0.3554229
18	0x3ebcd997	0.36884758
19	0x3e7295cd	0.23689957
20	0xbe7641cb	-0.24048536
21	0xbe6aac46	-0.2291728
22	0x3ec237e3	0.37933263
23	0xbdeb803d	-0.11499069
24	0x3e0f2004	0.13977057
25	0x3e511859	0.20419444
26	0x3c05df62	0.008170934
27	0x3e3fdeb8	0.18737304
28	0x3e8ceb11	0.2752309
29	0x3e169864	0.1470657
30	0x3e87d7c3	0.265318
31	0x3ec158ee	0.3776316
32	0xbbb1b730	-0.005423449
33	0x3ec019bb	0.3751963
34	0x3e084a7e	0.13309667
35	0xbe7ae58e	-0.2450163
36	0xbcff6e1c	-0.031180434
37	0x3d9bf36d	0.07614789
38	0x3e581a51	0.21103789
39	0x3d57d27a	0.05269096
40	0x3e340b9d	0.17582555
41	0xbde3939e	-0.1111214
42	0xbe91e355	-0.28493753
43	0x3dc17bd0	0.094474435
44	0x3ec8d9d1	0.3922868
45	0x3cab86e4	0.020938344
46	0x3e026a86	0.12735948
47	0xbeb25323	-0.34829053
48	0x3e11d11a	0.14239922
49	0x3e8c5a68	0.27412724
50	0x3c446c2d	0.011988682
51	0xbe26dcc8	-0.16295159
52	0x3d24462f	0.040105995
53	0xbe95df88	-0.29272103
54	0xbe9ba7e1	-0.3040152
55	0x3ed16341	0.40896037
56	0xbe95c8f8	-0.2925489
57	0x3eafb1e7	0.34315416
58	0x3e904860	0.28180218
59	0x3ec183f8	0.37795997
60	0x3eec53cd	0.46157685
61	0x3ce64f82	0.028114084
62	0x3bb31f3e	0.005466371
63	0xbe0415f6	-0.12899002
64	0xbe0fdaa1	-0.14048244
65	0xbe1f72c7	-0.15571128
66	0x3ee19ffa	0.44067365
67	0x3ba5795e	0.0050498685
68	0x3e8df3aa	0.27724963
69	0x3e883731	0.26604608
70	0xbc9d92a5	-0.019234965
71	0x3c65abbb	0.0140179945
72	0x3e861c5d	0.26193514
73	0xbf058e50	-0.52170277
74	0xbe563d31	-0.2092178
75	0x3e07c32a	0.13258043
76	0xbe36314c	-0.17792243
77	0x3d9b2a72	0.07576455
78	0xbe8f985f	-0.28045937
79	0xbf0dbdbb	-0.5536763
80	0x3df19d8e	0.11797629
81	0xbe40ccf7	-0.18828188
82	0x3b5087f3	0.0031819313
83	0xbef18ebf	-0.4717922
84	0x3e4ea14a	0.20178714
85	0x3e4deb68	0.20109332
86	0x3dec8d9e	0.11550449
87	0x3e83d758	0.25750232
88	0xbd56eb77	-0.05247065
89	0x3d8ab267	0.06772309
90	0x3ddd97c3	0.10819962
91	0xbe1643eb	-0.14674346
92	0xbe436b44	-0.19083887
93	0xbe5e9c68	-0.21739352
94	0xbd20e525	-0.03928103
95	0xbe16376d	-0.14669581
96	0x3d256996	0.040383898
97	0x3e8e9780	0.2784996
98	0xbd8d8597	-0.06910246
99	0xbe1aba93	-0.15110235
100	0xbe4f6762	-0.20254281
101	0x3ccbb0ea	0.024864633
102	0x3d77a50f	0.060460147
103	0x3e85ce92	0.26134163
104	0x3b97c410	0.004631527
105	0x3efcc357	0.49367782
106	0x3eab3487	0.33438513
107	0x3e583ed2	0.21117714
108	0xbf178ce6	-0.5919937
109	0xbe9dc74e	-0.3081612
110	0xbcf2c795	-0.029636184
111	0xbd01ad49	-0.0316594
112	0x3e08c534	0.13356477
113	0x3df47654	0.11936632
114	0x3e5b6eed	0.21429034
115	0xbe755630	-0.23958659
116	0xbd82b982	-0.06383039
117	0x3e0a63e2	0.13514665
118	0x3f0132a9	0.50467926
119	0xbea49d34	-0.32151186
120	0xbe42acd7	-0.19011246
121	0xbe764423	-0.2404943
122	0xbd8730f4	-0.06601134
123	0x3ee92371	0.45534852
124	0x3ed4e6f8	0.41582465
125	0x3ee8c42f	0.45462176
126	0x3e06b303	0.13154225
127	0xbee81919	-0.45331648
128	0x3daf8578	0.08570379
129	0x3e16209e	0.1466088
130	0x3d5df5c9	0.054189477
131	0x3d3c77c3	0.04601265
132	0x3e08ff61	0.1337867
133	0x3ee2c429	0.44290283
134	0xbce7db01	-0.028302671
135	0xbd94ec9f	-0.072716944
136	0xbe9a5118	-0.30139995
137	0xbe841fd5	-0.25805536
138	0xbd93b457	-0.072121315
139	0x3db7eba6	0.08980493
140	0x3e4cc216	0.19995913
141	0x3caa7111	0.020805867
142	0xbdfb1c1d	-0.122612216
143	0x3ebe1a27	0.37129328
144	0xbeb1fcc1	-0.34763148
145	0xbeea41e6	-0.45753402
146	0xbdf714ea	-0.12064536
147	0x3e9c7592	0.3055845
148	0x3e3e1c92	0.18565586
149	0x3e7f209f	0.24914788
150	0x3e1c93e8	0.15290797
151	0x3db8300c	0.08993539
152	0xbdff7f5d	-0.124754645
153	0x3eb73d9a	0.35789186
154	0x3e75f9e7	0.24021111
155	0x3e96215a	0.2932232
156	0xbeb3622d	-0.3503584
157	0x3e9d7f87	0.30761358
158	0xbd0e81cc	-0.034791753
159	0x3dc5e6b1	0.096631415
160	0x3dc7154b	0.09720858
161	0x3e2f38dd	0.17111535
162	0xbea4a5bd	-0.32157698
163	0xbdcf79ea	-0.10130675
164	0xbd68db6b	-0.05684988
165	0x3eb6c57f	0.35697553
166	0x3e5829e1	0.21109726
167	0x3f24eb6b	0.6442172
168	0x3e8b503c	0.2720965
169	0x3e7dca50	0.24784207
170	0xbd9a133d	-0.07523201
171	0xbe66d5b0	-0.22542453
172	0xbec39ddc	-0.38206375
173	0x3ddc43cd	0.107551195
174	0xbe6c5e1a	-0.23082772
175	0xbe1e2ad1	-0.1544602
176	0xbe5d17dc	-0.21591133
177	0xbdc5360e	-0.09629451
178	0x3e6583cb	0.22413556
179	0x3d1e192e	0.038598232
180	0x3d9f09c7	0.07765537
181	0x3e2f3047	0.1710826
182	0x3dd0799f	0.101794474
183	0xbdd4cadb	-0.10390254
184	0x3e665574	0.22493535
185	0xbe8c7ef5	-0.2744061
186	0x3ceec7ad	0.029147947
187	0x3f19b09a	0.600351
188	0xbe20f8e1	-0.1571994
189	0x3e82b0f5	0.25525633
190	0xbc464a19	-0.012102627
191	0x3e7976d7	0.2436174

forward_blocks.0.sage1.lin_root.weight f4 [32, 6]
0	0xbd36d0b8	-0.044632643
1	0x3ddb8da9	0.10720379
2	0xbebc8c92	-0.36825997
3	0xbe16746a	-0.14692846
4	0xbcc340b3	-0.023834562
5	0xbe765c03	-0.24058537
6	0x3e8948b8	0.26813293
7	0xbdcec4e1	-0.100961454
8	0x3d10ae83	0.035322677
9	0x3e849782	0.2589684
10	0x3e9ee008	0.31030297
11	0xbd9e5513	-0.0773107
12	0x3c904b4d	0.017614031
13	0x3c8567df	0.016284881
14	0xc0801e78	-4.0037193
15	0xbe28747d	-0.16450687
16	0x3e742f54	0.23846179
17	0xbdaabfc4	-0.08337358
18	0xbea4ae8f	-0.32164428
19	0x3ddb6eba	0.10714479
20	0xbd1fd93a	-0.039025523
21	0x3e54e391	0.20789935
22	0x3e920946	0.285227
23	0xbf200d7a	-0.62520564
24	0xbe49a288	-0.19690907
25	0xbe945be2	-0.2897635
26	0xbcc825a6	-0.024432015
27	0x3da20931	0.07911909
28	0xbdeba2c3	-0.11505654
29	0xbd850967	-0.06495934
30	0x3e9f4782	0.31109244
31	0x3dd97198	0.106173694
32	0xbd643ed9	-0.055724
33	0xbe40d398	-0.18830717
34	0xbe3e6793	-0.18594198
35	0x3ea39891	0.31952336
36	0xbe6459d6	-0.22299895
37	0xbe703bf1	-0.23460366
38	0xbdc7acc0	-0.09749746
39	0xbdf5d432	-0.12003364
40	0xbe173c29	-0.14769043
41	0xbdc99336	-0.098425314
42	0xbe06e6e6	-0.13174018
43	0x3e43e95b	0.19131987
44	0x3b387943	0.002814845
45	0xbf00a11c	-0.50245833
46	0x3eb9fd86	0.36326236
47	0xbed75046	-0.4205343
48	0xbca681cf	-0.02032557
49	0xbd0e0899	-0.034676168
50	0x3e1b6d4f	0.15178417
51	0x3d5154fc	0.051106438
52	0x3ea74d35	0.32676092
53	0xbcf91720	-0.030406535
54	0xbe82cee2	-0.25548464
55	0x3de01044	0.109406024
56	0xbe4d3456	-0.20039496
57	0xbea1ceef	-0.3160319
58	0x3e24c3e5	0.16090353
59	0xbe7849d0	-0.24246907
60	0xbee652bb	-0.44984993
61	0xbd86b5e3	-0.06577661
62	0xbd0024db	-0.031285148
63	0x3e40be95	0.18822701
64	0xbe95586f	-0.29169032
65	0x3ed3ac06	0.4134218
66	0xbe79bdf7	-0.24388872
67	0x3ddb6c1d	0.1071398
68	0x3dff6286	0.12469964
69	0x3da13d6b	0.07873043
70	0x3eaa7106	0.33289355
71	0xbf0ae0b5	-0.54249126
72	0x3ccc06ce	0.024905588
73	0x3f290e23	0.66037196
74	0x3e0b777e	0.13619801
75	0x3da81602	0.08207323
76	0xbeb5375b	-0.35393795
77	0x3e9d4610	0.30717516
78	0x3e87408d	0.26416436
79	0xbbab0a2a	-0.0052197175
80	0x3eba7b3d	0.36422148
81	0x3e67be4a	0.22631183
82	0xbdf0fcb1	-0.11766947
83	0xbeb1f638	-0.34758162
84	0x3ebe5eb1	0.3718162
85	0x3cf5e500	0.030016422
86	0x3e5df216	0.2167438
87	0xbe5a270f	-0.21303962
88	0xbb1d3f12	-0.0023993892
89	0x3ed8aa92	0.42317635
90	0x3dfabeb6	0.122434065
91	0x3b164382	0.0022928421
92	0xbda4b6b3	-0.080426596
93	0x3ed34b12	0.41268212
94	0x3e572083	0.21008496
95	0xbea84498	-0.32864833
96	0xbdc0b53f	-0.0940957
97	0xbd47505d	-0.048660625
98	0xbe587d98	-0.2114166
99	0xbd066345	-0.032809515
100	0x3ed57830	0.41693258
101	0x3e900046	0.2812521
102	0x3e60c558	0.2195028
103	0x3dbcbfa8	0.09216243
104	0xbe95816f	-0.29200312
105	0xbddadf88	-0.106871665
106	0x3f1a9a0a	0.60391295
107	0x3e929405	0.28628555
108	0x3ec815e0	0.3907919
109	0x3eb410bd	0.3516902
110	0x3c162f98	0.009166621
111	0xbc06916f	-0.008213385
112	0x3e025121	0.1272626
113	0x3db5fee3	0.088865064
114	0x3d9a7641	0.075420864
115	0xbe806270	-0.25075102
116	0x3cb00761	0.021487894
117	0xbe6bb1d4	-0.23017055
118	0x3e4bc5dc	0.19899696
119	0xbdf3f328	-0.11911613
120	0x3e52051a	0.20509759
121	0xbf049d1f	-0.5180225
122	0x3e3569ae	0.17716095
123	0xbe0a4a22	-0.13504842
124	0x3e5878b1	0.2113979
125	0xbe442d13	-0.1915782
126	0x3e7afd53	0.24510698
127	0xbe9d0cf5	-0.30673948
128	0x3e860a2d	0.26179639
129	0xbc031d1d	-0.008002547
130	0xbc0f261b	-0.008737112
131	0xbd2aa236	-0.041658603
132	0x3ebd6c64	0.36996758
133	0xbea98a28	-0.33113217
134	0x3aaf248d	0.0013362333
135	0x3d818066	0.06323318
136	0xbe1db853	-0.15402345
137	0x3e8b3844	0.27191365
138	0xbe704f51	-0.23467757
139	0x3e0bb0b8	0.13641632
140	0xbed559c0	-0.41670036
141	0x3e9e083e	0.30865663
142	0xbec3ca6f	-0.38240382
143	0xbeb9674a	-0.36211616
144	0x3e25cb64	0.16190869
145	0xbe48a879	-0.19595517
146	0xbe117c84	-0.14207655
147	0xbe13c242	-0.14429572
148	0x3f2093af	0.6272535
149	0xbdf27b65	-0.11839942
150	0xbe6e1076	-0.23248467
151	0x3d08071b	0.0332099
152	0xbe00a836	-0.12564167
153	0x3e22e12d	0.1590621
154	0xbe8c1457	-0.27359268
155	0x3c8558f4	0.016277768
156	0xbefaddde	-0.48997396
157	0x3e6cb336	0.23115239
158	0x3aa96aab	0.0012925466
159	0x3e65349c	0.2238335
160	0x3e67c3cb	0.22633283
161	0x3e7c1971	0.2461908
162	0x3e4474b9	0.19185151
163	0x3e72d7a9	0.2371508
164	0x3e228090	0.15869355
165	0xbef34981	-0.47517017
166	0x3ea261cb	0.31715235
167	0xbeddb8e7	-0.43305132
168	0xbdf0002c	-0.11718783
169	0x3e3fd1c5	0.18732364
170	0x3ec25752	0.37957245
171	0x3ec9b03c	0.3939227
172	0x3e20966b	0.1568238
173	0x3e8ac18d	0.27100793
174	0xbe801e17	-0.25022957
175	0x3ef73c9e	0.48288435
176	0x3c54b845	0.012983386
177	0xbe0901e1	-0.13379623
178	0xbeb50406	-0.35354632
179	0x3e380c69	0.17973484
180	0x3e415ead	0.18883772
181	0x3e804874	0.25055277
182	0x3d88e111	0.06683553
183	0xbef5f4d3	-0.4803835
184	0xbec7827b	-0.38966736
185	0x3e6ab932	0.22922209
186	0x3e119b83	0.1421948
187	0xbe87ee00	-0.26548767
188	0x3ed5451d	0.41654292
189	0x3da4c36b	0.080450855
190	0x3dd61693	0.104535244
191	0x3ca0f91b	0.019650033

forward_blocks.0.sage1.lin_root.bias f4 [32]
0	0xbe199b52	-0.15000656
1	0xbd8dac6a	-0.06917651
2	0x3e1661d3	0.14685754
3	0x3dab86f1	0.083753474
4	0x3ca12dbf	0.019675134
5	0xbe714590	-0.23561692
6	0x3ec5f685	0.38664642
7	0x3db882e5	0.09009341
8	0xbd7ce414	-0.06174095
9	0xbdff78d5	-0.12474219
10	0xbbd9b1d3	-0.0066435128
11	0xbe6fe55e	-0.2342734
12	0xbc4ac12b	-0.012375156
13	0x3ecc8e4d	0.39952317
14	0xbe0f92d9	-0.14020862
15	0x3c7228ac	0.014780205
16	0x3c464a2c	0.012102645
17	0xbde86a7f	-0.113484375
18	0x3e6b0d15	0.22954209
19	0xbdf12c48	-0.11776024
20	0xbe9abb85	-0.3022119
21	0x3e1ac805	0.15115364
22	0x3dc24dfb	0.0948753
23	0xbdcddd68	-0.100519955
24	0xbda956c2	-0.08268501
25	0x3e31364a	0.17305866
26	0xbe2d859f	-0.16945504
27	0xbedad4b0	-0.42740393
28	0xbe90ea84	-0.2830392
29	0x3d8dbeeb	0.0692118
30	0xbe2134ea	-0.15742841
31	0xbd0c956d	-0.03432219

forward_blocks.0.lin.weight f4 [32, 32]
0	0x3cad8f19	0.021186398
1	0x3d57eb80	0.052714825
2	0xbe46c1a7	-0.1940981
3	0xbcfe8013	-0.03106693
4	0xbe0c9431	-0.13728406
5	0xbb95b157	-0.0045682597
6	0xbe3879cd	-0.18015213
7	0x3d2f0993	0.04273374
8	0xbbfae298	-0.0076564066
9	0x3cded640	0.027201772
10	0xbd829ebd	-0.06377933
11	0x3e43bc74	0.19114858
12	0x3e49a5f4	0.19692212
13	0x3dd9f46e	0.106423244
14	0xbcd53511	-0.02602628
15	0xbb7faf24	-0.0039014304
16	0xbe9a7949	-0.30170658
17	0x3e366df3	0.1781538
18	0x3ee41925	0.44550434
19	0xbe60380a	-0.21896377
20	0xbeeca4c3	-0.46219453
21	0x3ce6b26f	0.028161256
22	0xbe13e182	-0.14441493
23	0xbbbbfc05	-0.00573683
24	0x3e2eea03	0.17081456
25	0xbd67965d	-0.056539882
26	0x3c066d0b	0.008204709
27	0xbea44cae	-0.32089752
28	0x3a82acc8	0.0009969706
29	0xbd938a7f	-0.072041504
30	0x3cbf8911	0.023380788
31	0xbe448558	-0.19191492
32	0x3e10b245	0.14130504
33	0xbe00120d	-0.12506886
34	0x3e88e1de	0.26734823
35	0xbc2a77e9	-0.010404565
36	0xbe30c1ab	-0.17261378
37	0x3c413edf	0.011794775
38	0xbd5eeb47	-0.054423597
39	0x3e5e45ce	0.21706316
40	0x3d5ada59	0.05343089
41	0xbe3c2414	-0.18373138
42	0x3df89256	0.12137286
43	0xbe4170bc	-0.18890661
44	0x3b91a3b4	0.0044445638
45	0xbd5768d9	-0.052590225
46	0xbe50a90e	-0.20376989
47	0xbbdc6b1e	-0.0067266366
48	0xbd46dc7f	-0.048550125
49	0x3c4f1c66	0.012641048
50	0xbdfb55db	-0.12272235
51	0x3d2e8705	0.042609233
52	0x3ef3c487	0.47610876
53	0x3d28a8b4	0.041176513
54	0xbdac94a6	-0.0842679
55	0x3d06dd4a	0.03292588
56	0xbe7f577b	-0.24935715
57	0x3d19aff5	0.03752132
58	0xbdb33a66	-0.08751373
59	0xbdfab0fc	-0.12240788
60	0x3e26af67	0.16277848
61	0x3e0c6abe	0.13712594
62	0xbd38e0e4	-0.045136347
63	0x3d9dec1f	0.07711052
64	0x3e342977	0.17593943
65	0xbdaf9d2f	-0.08574902
66	0xbdf2734f	-0.118383996
67	0xbddb1ae1	-0.10698486
68	0xbdfaddbe	-0.12249325
69	0xbd9a8670	-0.07545173
70	0xbd11254d	-0.035435963
71	0x3c3b3399	0.011425876
72	0x3e3e224c	0.1856777
73	0xbd7db65d	-0.061941493
74	0x3efe1a35	0.4962937
75	0x3e2cfbdb	0.1689295
76	0x3e321673	0.17391376
77	0xbdf90d5c	-0.12160751
78	0xbd3350c7	-0.043778207
79	0x3e527757	0.20553337
80	0xbcf7b3ad	-0.030237043
81	0xbdc817c7	-0.0977016
82	0xbd98adb6	-0.07455008
83	0xbd4db21b	-0.050218683
84	0x3dc73ddc	0.097285956
85	0xbddba583	-0.10724928
86	0xbe5bca71	-0.21463944
87	0xbdd66a2b	-0.10469469
88	0x3ec2433e	0.37941927
89	0x3e02c9bc	0.12772268
90	0xbb7207b2	-0.0036930856
91	0x3e005da9	0.12535729
92	0xbe235748	-0.15951264
93	0xbe91d05e	-0.28479284
94	0x3e0d5ea7	0.13805638
95	0x3dedcdb3	0.116115
96	0x3d2dcf23	0.04243387
97	0x3c52894d	0.012850118
98	0x3c9a1677	0.01880954
99	0xbd031b0d	-0.03200822
100	0xbec7a38f	-0.38991973
101	0xbd1fb9dc	-0.03899561
102	0x3e08ad40	0.1334734
103	0xbc5a7e94	-0.013335843
104	0xbdefc26d	-0.11707006
105	0xbdd5c7f0	-0.10438526
106	0xbf28be28	-0.65915155
107	0xbe01d489	-0.12678732
108	0x3e51ffe6	0.20507774
109	0x3e1a5ea4	0.15075165
110	0x3de8b235	0.11362115
111	0x3e24803e	0.16064546
112	0xbe350257	-0.17676674
113	0x3d11c8eb	0.035592
114	0xbba8c58b	-0.005150502
115	0x3b7e7449	0.0038826636
116	0x3e0266f9	0.12734593
117	0x3d9da715	0.07697884
118	0xbd475c99	-0.048672292
119	0x3d17c181	0.037049774
120	0x3ea10503	0.31449136
121	0x3d065f11	0.032805506
122	0x3e301ad8	0.1719774
123	0x3e12b810	0.14328027
124	0xbc7cf5b6	-0.015439441
125	0xbb9822c8	-0.004642818
126	0x3d96e9fc	0.07368848
127	0xbe45eafe	-0.19327924
128	0x3d9457be	0.07243298
129	0xbcd47535	-0.025934795
130	0xbe8b81f8	-0.27247596
131	0x3d1245de	0.03571116
132	0x3d2fd545	0.042928
133	0xbdea9a09	-0.11455161
134	0x3ac38aa2	0.0014918635
135	0xbe370ba8	-0.1787554
136	0xbbfbfcf0	-0.0076900646
137	0xbcfff87b	-0.031246414
138	0xbea0563d	-0.31315795
139	0x37af9ff6	2.0936113e-05
140	0x3d1744db	0.0369309
141	0x3d213951	0.0393613
142	0x3d2002b7	0.03906509
143	0xbc95b414	-0.018274345
144	0x3e142232	0.1446617
145	0x3e856655	0.26054636
146	0x3e90626e	0.28200096
147	0xbd94be49	-0.072628565
148	0x3eb6ec4b	0.35727152
149	0x3dd9b84f	0.10630857
150	0xbc837389	-0.016046302
151	0x3c71f49a	0.01476779
152	0xbe42cc66	-0.19023284
153	0x3d91e149	0.07123048
154	0xbc080d38	-0.008303933
155	0x3dc4ac47	0.09603172
156	0xbde0db6a	-0.1097935
157	0xbd086bc2	-0.03330589
158	0xbc92daa8	-0.017926529
159	0x3dff1c94	0.12456623
160	0xbd9c8276	-0.07642071
161	0xbc971a83	-0.018445259
162	0x3d03cc37	0.032177176
163	0x3e049d31	0.12950589
164	0x3dee189d	0.11625788
165	0xbe163757	-0.14669548
166	0x3d6c51f0	0.05769533
167	0x3e0f23e0	0.13978529
168	0x3d0a58f8	0.033776253
169	0xbdea1260	-0.11429286
170	0x3f38da15	0.72207767
171	0x3d9d0600	0.0766716
172	0xbe15e49d	-0.1463799
173	0x38abf22f	8.1990256e-05
174	0x3d31a962	0.043374427
175	0x3e8449b9	0.25837496
176	0x3c66c4e1	0.0140850255
177	0x3e143e8d	0.14476986
178	0x3da8a34f	0.08234274
179	0x3b804530	0.003914498
180	0xbd9f5fab	-0.07781919
181	0x3dcf26f6	0.10114853
182	0x3e5ee09d	0.2176537
183	0x3e8cb2bf	0.27480122
184	0xbeedc9de	-0.46443075
185	0xbdf466f3	-0.119336985
186	0xbba89c9f	-0.005145624
187	0xbe5dce3e	-0.21660706
188	0x3e7af4e5	0.24507482
189	0x3dad1698	0.08451575
190	0xbd260893	-0.04053552
191	0xbdeb9f6d	-0.115050174
192	0xbe30ec25	-0.17277582
193	0xbdcd7fa3	-0.100341104
194	0xbe3319c8	-0.17490304
195	0xbb18c5bc	-0.0023311218
196	0x3e4f4fa9	0.20245232
197	0x3de070df	0.109590285
198	0x3dd08907	0.10182386
199	0x3d91711f	0.07101654
200	0x3d17c107	0.03704932
201	0x3e0ea539	0.13930215
202	0x3e35e4fb	0.1776313
203	0x3d8a528f	0.06754028
204	0xbdb9383e	-0.090439305
205	0x3afb9706	0.0019194789
206	0xbdd0b18b	-0.10190114
207	0xbcb6e500	-0.022325993
208	0x3c2b8fc0	0.010471284
209	0x3d613432	0.054981418
210	0xbdaa12e7	-0.083043866
211	0xbdd3728a	-0.10324581
212	0xbe2ccd5f	-0.16875218
213	0xbd2a2e66	-0.041548155
214	0x3d010a6f	0.03150409
215	0xbe8faa83	-0.28059778
216	0x3e80bad4	0.2514254
217	0x3e55733e	0.20844743
218	0xbd3d5330	-0.046221912
219	0x3e2fb6b2	0.17159536
220	0x3de5d229	0.112217255
221	0xbe9fd0d1	-0.31214002
222	0x3dacedeb	0.08443817
223	0x3cde53f5	0.027139643
224	0xbd9b0510	-0.07569325
225	0x3e5de08f	0.21667694
226	0xbd962347	-0.07330947
227	0x3dab76cb	0.08372267
228	0x3e0bdf57	0.13659416
229	0xbd895a0c	-0.06706628
230	0x3d250255	0.040285427
231	0x3e622870	0.22085738
232	0x3d70432c	0.05865781
233	0xbd511656	-0.05104669
234	0x3ec7e80b	0.39044222
235	0xbda73918	-0.08165187
236	0x3dcfbeb7	0.10143798
237	0xbe153c5b	-0.14573805
238	0x3d507dd4	0.05090125
239	0xbde893cb	-0.11356314
240	0xbbd38807	-0.0064554247
241	0xbe7b9374	-0.24567968
242	0xbe2b2f51	-0.16717269
243	0x3ea03e3f	0.3129749
244	0x3e1da73d	0.15395828
245	0x3c1c279c	0.009530928
246	0x3b98821b	0.0046541817
247	0x3e001400	0.1250763
248	0xbe67cde7	-0.2263714
249	0x3daaa4e3	0.08332231
250	0xbcf087bd	-0.0293616
251	0x3d9ab73b	0.0755448
252	0xbcbbaf74	-0.022910811
253	0x3e864876	0.26227158
254	0xbcaaad24	-0.020834513
255	0xbc92938f	-0.017892627

forward_blocks.0.lin.bias f4 [32]
0	0xbc595353	-0.013264495
1	0x3e0853f0	0.1331327
2	0x3ce7d1b7	0.028298242
3	0x3d84d3d7	0.06485718
4	0xbe799778	-0.24374187
5	0xbe3bf4b6	-0.18355069
6	0xbe47e9a5	-0.19522722
7	0x3dba6688	0.091015875
8	0x3e37fb1f	0.17966889
9	0xbe362570	-0.17787719
10	0xbdbdc379	-0.09265799
11	0xbdf37b41	-0.11888743
12	0xbe459dcd	-0.19298477
13	0xbda72247	-0.08160835
14	0x3beeb4f8	0.0072847567
15	0xbe3a7e89	-0.18212332
16	0x3d35fcce	0.044430546
17	0x3d40635b	0.046969753
18	0x3d609bd9	0.054836128
19	0x3dfd9579	0.12382025
20	0x3e00d60c	0.12581652
21	0xbd0dd3ea	-0.034625925
22	0x3e276999	0.16348876
23	0x3d8043c5	0.06262926
24	0x3e0fbebf	0.14037608
25	0xbdbc1dcb	-0.0918537
26	0x3e521138	0.20514381
27	0x3df2a941	0.11848689
28	0xbd4a5f81	-0.049407486
29	0x3ba0687c	0.004895268
30	0x3e29da37	0.16587149
31	0xbd50fdaf	-0.05102318

forward_blocks.0.bn1.weight f4 [1000]
0	0x3f327881	0.69715124
1	0x3f3eed25	0.74580604
2	0x3f470335	0.7773927
3	0x3f4e3b3f	0.8055915
4	0x3f54cb6b	0.8312289
5	0x3f616274	0.8804085
6	0x3f6b5483	0.9192583
7	0x3f732e3d	0.9499243
8	0x3f6d8ba1	0.9279118
9	0x3f791610	0.9729929
10	0x3f7bad55	0.9831136
11	0x3f7c4e6b	0.98557156
12	0x3f797f32	0.9745971
13	0x3f7e3e9a	0.9931427
14	0x3f801f77	1.0009602
15	0x3f7bde9f	0.9838657
16	0x3f80c95b	1.0061449
17	0x3f7f2c7f	0.9967727
18	0x3f8276b3	1.0192474
19	0x3f814ec1	1.0102159
20	0x3f807d56	1.003825
21	0x3f7fcbce	0.99920356
22	0x3f7c9cc5	0.9867671
23	0x3f8086ec	1.0041175
24	0x3f8029b9	1.0012733
25	0x3f80dd00	1.0067444
26	0x3f80852a	1.0040638
27	0x3f824581	1.0177461
28	0x3f7df388	0.99199724
29	0x3f809602	1.0045779
30	0x3f7ddc17	0.99163955
31	0x3f809316	1.0044887
32	0x3f80eb69	1.0071841
33	0x3f7f49d9	0.9972206
34	0x3f7d69ae	0.9898938
35	0x3f7d16de	0.9886302
36	0x3f80e041	1.0068437
37	0x3f7d184d	0.98865205
38	0x3f7c5208	0.9856267
39	0x3f7aaf26	0.97923505
40	0x3f7e013a	0.9922062
41	0x3f7c7ab1	0.9862471
42	0x3f83df41	1.0302507
43	0x3f7c930f	0.98661894
44	0x3f7e3ea2	0.9931432
45	0x3f7df313	0.99199027
46	0x3f7fe2f9	0.9995571
47	0x3f7e24e1	0.9927502
48	0x3f7ee988	0.9957509
49	0x3f78fbbc	0.97259116
50	0x3f7eccc7	0.99531215
51	0x3f7e6208	0.99368334
52	0x3f7ef084	0.9958575
53	0x3f80d445	1.006478
54	0x3f7bb2ac	0.98319507
55	0x3f8190f7	1.0122365
56	0x3f8115b9	1.0084754
57	0x3f7babd7	0.9830908
58	0x3f795689	0.9739767
59	0x3f7fe65c	0.99960876
60	0x3f7db54e	0.99104774
61	0x3f7aad4b	0.97920674
62	0x3f7f9bc7	0.9984707
63	0x3f7e921a	0.99441683
64	0x3f7a12fe	0.9768523
65	0x3f7be97f	0.9840316
66	0x3f816325	1.0108382
67	0x3f73528a	0.9504782
68	0x3f7c23f0	0.98492336
69	0x3f7c50bb	0.98560685
70	0x3f7b295b	0.9810998
71	0x3f7d3596	0.9890989
72	0x3f7ba088	0.98291826
73	0x3f7dfb90	0.9921198
74	0x3f78b7db	0.9715554
75	0x3f7dc6c6	0.9913143
76	0x3f7986ab	0.9747111
77	0x3f7ae351	0.9800311
78	0x3f808fca	1.0043881
79	0x3f7519b5	0.9574235
80	0x3f7beed5	0.98411304
81	0x3f7c10aa	0.9846293
82	0x3f78f00a	0.9724127
83	0x3f7f8e23	0.9982626
84	0x3f7a6c31	0.97821337
85	0x3f7c5a80	0.9857559
86	0x3f7a856e	0.9785985
87	0x3f7e98ec	0.9945209
88	0x3f7baf13	0.9831402
89	0x3f7b8a5c	0.98257995
90	0x3f7afb4f	0.98039716
91	0x3f794381	0.9736863
92	0x3f7be90b	0.9840247
93	0x3f79e53d	0.97615415
94	0x3f7a9690	0.9788599
95	0x3f7c447b	0.9854199
96	0x3f7bc4f6	0.98347414
97	0x3f7df88e	0.9920739
98	0x3f7c00d8	0.9843879
99	0x3f7a1408	0.97686815
100	0x3f79bdc9	0.97555214
101	0x3f756bb2	0.95867455
102	0x3f7885cb	0.9707915
103	0x3f79db1a	0.9759995
104	0x3f797f7e	0.9746016
105	0x3f76a3a6	0.9634346
106	0x3f7a6fd8	0.9782691
107	0x3f7d4dca	0.9894682
108	0x3f7ad6a3	0.9798376
109	0x3f76f1d3	0.96462744
110	0x3f7578b7	0.9588732
111	0x3f76b17c	0.9636457
112	0x3f7a2109	0.9770666
113	0x3f742466	0.9536804
114	0x3f701744	0.937855
115	0x3f799cab	0.9750468
116	0x3f78adc5	0.9714015
117	0x3f745a3f	0.95450205
118	0x3f74ae44	0.9557841
119	0x3f78dc3f	0.9721107
120	0x3f76c5ea	0.9639574
121	0x3f76c624	0.9639609
122	0x3f74957b	0.9554059
123	0x3f794c83	0.9738237
124	0x3f72de3f	0.9487037
125	0x3f765793	0.9622738
126	0x3f73e8cd	0.952771
127	0x3f74df3c	0.9565313
128	0x3f76fa4c	0.9647567
129	0x3f7905ff	0.97274774
130	0x3f75e088	0.9604573
131	0x3f77bc5a	0.96771777
132	0x3f77776f	0.96666616
133	0x3f7c6e78	0.9860606
134	0x3f79c89f	0.9757175
135	0x3f742264	0.95364976
136	0x3f7904b7	0.9727282
137	0x3f742f64	0.9538481
138	0x3f7684db	0.9629647
139	0x3f75eb96	0.960626
140	0x3f73b98a	0.95204985
141	0x3f760e59	0.9611564
142	0x3f76cf17	0.96409744
143	0x3f7620f8	0.96144056
144	0x3f72826d	0.94730264
145	0x3f74186d	0.9534977
146	0x3f77ea96	0.96842325
147	0x3f721e4d	0.94577485
148	0x3f780644	0.9688456
149	0x3f76e5df	0.96444505
150	0x3f773b04	0.96574426
151	0x3f7318d9	0.9495979
152	0x3f7803ad	0.9688061
153	0x3f764fd3	0.9621555
154	0x3f78f88a	0.9725424
155	0x3f79a9e4	0.9752486
156	0x3f75ad08	0.9596715
157	0x3f7843f1	0.9697867
158	0x3f7607d6	0.96105707
159	0x3f7717aa	0.96520483
160	0x3f7832e3	0.96952647
161	0x3f79e369	0.97612625
162	0x3f7651f7	0.9621882
163	0x3f7997ee	0.9749745
164	0x3f766a19	0.9625564
165	0x3f780042	0.96875393
166	0x3f797adc	0.97453094
167	0x3f7ac9a2	0.9796392
168	0x3f7657af	0.96227545
169	0x3f7cf550	0.9881182
170	0x3f77f1e1	0.9685345
171	0x3f7667db	0.9625222
172	0x3f777b58	0.9667258
173	0x3f7826b7	0.96934074
174	0x3f7986b3	0.9747116
175	0x3f7b2cd5	0.98115283
176	0x3f748c33	0.9552643
177	0x3f7a72a7	0.97831196
178	0x3f79b44a	0.97540724
179	0x3f77ad2a	0.967486
180	0x3f7c1ed5	0.98484546
181	0x3f76f144	0.9646189
182	0x3f7439b3	0.9540054
183	0x3f7b7ed8	0.98240423
184	0x3f7a3269	0.9773317
185	0x3f7ad081	0.979744
186	0x3f7ad0b8	0.9797473
187	0x3f79525d	0.973913
188	0x3f7d2398	0.98882437
189	0x3f78a886	0.97132146
190	0x3f7708b7	0.9649767
191	0x3f7c80c7	0.98634
192	0x3f78081a	0.9688736
193	0x3f7b77a7	0.9822945
194	0x3f770b60	0.9650173
195	0x3f77d9ce	0.9681672
196	0x3f7ddeee	0.9916829
197	0x3f7dfa56	0.9921011
198	0x3f7b98eb	0.9828021
199	0x3f792b1b	0.973314
200	0x3f7cea8b	0.98795384
201	0x3f7efa75	0.9960092
202	0x3f7b06c0	0.98057175
203	0x3f772b6f	0.9655065
204	0x3f7e0f2f	0.9924192
205	0x3f7eecb5	0.99579936
206	0x3f7c7bc9	0.9862638
207	0x3f766055	0.9624074
208	0x3f7d1353	0.9885761
209	0x3f78be63	0.9716551
210	0x3f7c694c	0.9859817
211	0x3f7d076f	0.9883947
212	0x3f781933	0.9691345
213	0x3f7bc59b	0.98348397
214	0x3f7c2232	0.9848968
215	0x3f7808fe	0.9688872
216	0x3f7a4156	0.97755945
217	0x3f7bfa2c	0.98428607
218	0x3f7dc9c8	0.9913602
219	0x3f7ccc19	0.9874893
220	0x3f7d86db	0.990339
221	0x3f7b2471	0.9810248
222	0x3f7c092e	0.9845151
223	0x3f7db2f9	0.99101216
224	0x3f7a1a9e	0.97696865
225	0x3f7f2f82	0.99681866
226	0x3f7d01b8	0.9883075
227	0x3f7eaf7d	0.99486524
228	0x3f7c91d2	0.98660004
229	0x3f7e4f62	0.9933988
230	0x3f7df481	0.9920121
231	0x3f7dc48f	0.9912805
232	0x3f8045e9	1.0021335
233	0x3f7e66fb	0.99375886
234	0x3f7c8fa0	0.98656654
235	0x3f7efb80	0.9960251
236	0x3f7ec5d0	0.9952059
237	0x3f7ec33e	0.99516666
238	0x3f7da15d	0.99074346
239	0x3f7b77bc	0.98229575
240	0x3f7cffb7	0.9882769
241	0x3f80279f	1.0012091
242	0x3f7ca2f0	0.9868612
243	0x3f7a9449	0.97882515
244	0x3f780380	0.9688034
245	0x3f7a142c	0.9768703
246	0x3f774f46	0.96605337
247	0x3f7c7ade	0.9862498
248	0x3f80448b	1.0020918
249	0x3f7c3385	0.9851611
250	0x3f79c8c4	0.9757197
251	0x3f79b054	0.9753468
252	0x3f7d9fe7	0.99072117
253	0x3f7ac695	0.9795926
254	0x3f77555f	0.9661464
255	0x3f7b1644	0.9808085

forward_blocks.0.bn1.bias f4 [1000]
0	0x3e04650f	0.12929176
1	0x3de89c3b	0.113579236
2	0x3dbe090b	0.092790686
3	0x3ddc6635	0.10761682
4	0x3dcca4df	0.09992384
5	0x3daab915	0.08336083
6	0x3dc6dd86	0.09710221
7	0x3db9f54a	0.09079988
8	0x3da8042c	0.08203921
9	0x3dab86b9	0.08375306
10	0x3db0a83c	0.08625838
11	0x3dbb59f4	0.091480166
12	0x3dbb1c04	0.09136203
13	0x3dc93e96	0.098263904
14	0x3dd22a10	0.10261929
15	0x3dcf68b5	0.10127393
16	0x3dc0ca33	0.094135664
17	0x3dbb62f1	0.09149731
18	0x3dc80c1d	0.097679354
19	0x3dc77812	0.097396985
20	0x3dd296e1	0.10282684
21	0x3dbb5a09	0.09148032
22	0x3dd18bb3	0.10231724
23	0x3db33bd9	0.087516494
24	0x3dbf9718	0.09354991
25	0x3dcd3b39	0.100210615
26	0x3dd4fd6c	0.10399899
27	0x3dd2514a	0.10269411
28	0x3dc40862	0.095719114
29	0x3dd308ad	0.10304389
30	0x3dc86721	0.09785295
31	0x3db60acb	0.08888777
32	0x3dd04db1	0.101710685
33	0x3dcda0d4	0.10040441
34	0x3dd5566d	0.10416875
35	0x3dd672b1	0.104710944
36	0x3dd2722a	0.10275681
37	0x3dc72a60	0.09724879
38	0x3dc26133	0.094911955
39	0x3dcaeb58	0.099081695
40	0x3dcaf8ba	0.09910722
41	0x3dc85141	0.09781123
42	0x3dcfc254	0.10144487
43	0x3dd249ed	0.102680065
44	0x3dd233b4	0.10263768
45	0x3de15bf1	0.110038646
46	0x3dc362c8	0.095403254
47	0x3dd6a9a4	0.10481575
48	0x3dd984c4	0.10621026
49	0x3dd2c2c2	0.10291053
50	0x3dd1a80c	0.102371305
51	0x3dbc8872	0.092057124
52	0x3dd2fbef	0.10301959
53	0x3dcb3355	0.099219
54	0x3dced3ab	0.10098966
55	0x3dd7f387	0.10544496
56	0x3dd6671e	0.10468887
57	0x3dd5db83	0.10442259
58	0x3dcd544a	0.100258425
59	0x3dddd0ad	0.10830817
60	0x3dd10d6f	0.102076404
61	0x3dd12b82	0.102133766
62	0x3dd8e314	0.10590187
63	0x3de50c0f	0.111839406
64	0x3dc79e1f	0.09746956
65	0x3dc8a828	0.09797698
66	0x3dcbe64f	0.09956037
67	0x3dcfa5fe	0.10139082
68	0x3ddf269b	0.10896035
69	0x3dc77097	0.09738272
70	0x3dd5a95e	0.10432695
71	0x3db12574	0.08649722
72	0x3dc61c74	0.09673396
73	0x3dc13855	0.094345726
74	0x3dc4aa62	0.096028104
75	0x3dd39222	0.10330607
76	0x3dcf5342	0.10123302
77	0x3db94e76	0.09048168
78	0x3dc270ba	0.09494157
79	0x3dbef897	0.093247585
80	0x3dcd0288	0.100102484
81	0x3dc7bdf6	0.09753029
82	0x3dbee85a	0.09321661
83	0x3dc2cca4	0.09511688
84	0x3dbe1c62	0.09282757
85	0x3dd93d5d	0.10607407
86	0x3dcf3d06	0.10119061
87	0x3dc90a00	0.098163605
88	0x3dbeeefe	0.09322928
89	0x3dbdc301	0.0926571
90	0x3dcc9c72	0.09990777
91	0x3dcf6b49	0.10127885
92	0x3dc3b42c	0.095558494
93	0x3daea273	0.085270785
94	0x3dbc6c74	0.09200373
95	0x3dcf1d93	0.10113063
96	0x3dc52293	0.09625735
97	0x3db3244d	0.08747158
98	0x3dce33ba	0.1006846
99	0x3dcf74f7	0.10129731
100	0x3dcbe675	0.099560656
101	0x3dca495d	0.09877274
102	0x3dd2907a	0.10281463
103	0x3dd0ea04	0.10200885
104	0x3dc91f2d	0.098203994
105	0x3db33e1a	0.08752079
106	0x3dc3db90	0.095633626
107	0x3dbecadb	0.09316035
108	0x3dc00f2d	0.093778946
109	0x3dc201bb	0.09472986
110	0x3daed514	0.08536735
111	0x3dc2fe8d	0.09521208
112	0x3db96a62	0.09053494
113	0x3dc65af9	0.096853204
114	0x3db7d1d3	0.08975568
115	0x3dc1ee9f	0.094693415
116	0x3dae9f0d	0.0852643
117	0x3da76ff7	0.081756525
118	0x3db06e76	0.08614819
119	0x3dbed6f1	0.093183406
120	0x3dca7583	0.09885695
121	0x3dc35d8e	0.095393285
122	0x3dbef6d8	0.093244255
123	0x3dcb0ca9	0.09914524
124	0x3dc3c6ce	0.09559403
125	0x3dbeb6ce	0.09312211
126	0x3dc66669	0.09687502
127	0x3dbe6137	0.09295886
128	0x3dbf2d46	0.09334807
129	0x3dbaf2dd	0.09128354
130	0x3dc8d6d7	0.098066024
131	0x3db53a58	0.08849019
132	0x3dbcaae6	0.09212284
133	0x3db861d6	0.09003036
134	0x3db23c34	0.08702889
135	0x3dc67040	0.09689379
136	0x3db30c93	0.08742633
137	0x3db1a26a	0.08673556
138	0x3db817a1	0.08988882
139	0x3da7df53	0.081968926
140	0x3dba22a4	0.090886384
141	0x3dbd8b16	0.09255044
142	0x3db3dd76	0.08782475
143	0x3dbcd9cb	0.09221228
144	0x3dc36488	0.09540659
145	0x3dc4cf27	0.09609824
146	0x3dbcccee	0.09218775
147	0x3dbde7e7	0.092727475
148	0x3db1f458	0.08689183
149	0x3daa4577	0.083140306
150	0x3dc26c15	0.09493271
151	0x3db557b6	0.0885462
152	0x3db5417c	0.08850381
153	0x3db9d402	0.090736404
154	0x3dad2a44	0.08455327
155	0x3da00b31	0.078146346
156	0x3d9de8bf	0.077104084
157	0x3da84fc8	0.08218342
158	0x3daf091b	0.085466586
159	0x3daa2a11	0.08308805
160	0x3db6478f	0.089003675
161	0x3d9e059e	0.07715915
162	0x3da5cbd4	0.08095518
163	0x3da9bbc4	0.082877666
164	0x3da02c08	0.07820898
165	0x3d8dd2b3	0.06924953
166	0x3d921bcd	0.07134209
167	0x3d8e4b3c	0.069479436
168	0x3d9ec208	0.07751852
169	0x3d925eee	0.07147013
170	0x3d8f37de	0.06993078
171	0x3d8e3ef6	0.069456026
172	0x3d8aa35f	0.06769442
173	0x3d8b6c15	0.068077244
174	0x3d97096b	0.07374843
175	0x3d73d9fb	0.059534054
176	0x3d8a50d3	0.06753697
177	0x3d89a191	0.067202695
178	0x3d6be4f6	0.0575914
179	0x3d70c30d	0.058779765
180	0x3d7a229a	0.061068155
181	0x3d89d7f1	0.06730641
182	0x3d7c0a4b	0.061533254
183	0x3d8954b6	0.067056105
184	0x3d899712	0.067182675
185	0x3d94f98c	0.0727416
186	0x3da0fdbc	0.07860896
187	0x3d7706c8	0.0603092
188	0x3d7243e6	0.059146784
189	0x3d93fb78	0.07225698
190	0x3d9a79dc	0.07542774
191	0x3d795713	0.060874056
192	0x3d77df30	0.060515583
193	0x3d51391f	0.051079866
194	0x3d53fa29	0.051752243
195	0x3d84d839	0.06486554
196	0x3d519a8c	0.051172778
197	0x3d5ce0b3	0.053925227
198	0x3d55d5df	0.052205916
199	0x3d629f19	0.05532751
200	0x3d2b51f8	0.04182622
201	0x3d3a4870	0.045479238
202	0x3d3c4821	0.045967225
203	0x3d379a5f	0.044824954
204	0x3d5c6bf8	0.053813905
205	0x3d4d84c2	0.050175436
206	0x3d420df6	0.047376595
207	0x3d4ea0cd	0.05044632
208	0x3d67dc9c	0.056606874
209	0x3d4f9d98	0.050687402
210	0x3d4543ae	0.048160248
211	0x3d5da891	0.054115836
212	0x3d4ca705	0.04996397
213	0x3d1574a3	0.036488187
214	0x3d232c19	0.039836977
215	0x3d2b7567	0.04186001
216	0x3d3d2b6c	0.04618399
217	0x3d1bf17a	0.038072087
218	0x3d3f1e2a	0.046659626
219	0x3d0bc8fa	0.034127213
220	0x3d222667	0.039587405
221	0x3cee1612	0.029063258
222	0x3d1bab64	0.038005248
223	0x3d12aad6	0.035807453
224	0x3d220164	0.039552107
225	0x3d14aa19	0.03629503
226	0x3d106ff3	0.035263013
227	0x3d2ad395	0.041705687
228	0x3d0bdaea	0.03414432
229	0x3d017a28	0.031610638
230	0x3d3466c7	0.04404333
231	0x3d1f306c	0.038864538
232	0x3cd0f1fc	0.025506012
233	0x3c9e3f2a	0.019317228
234	0x3c8f596b	0.017498692
235	0x3cb27691	0.021785052
236	0x3d13a11c	0.036042318
237	0x3ccfceb9	0.025367128
238	0x3d2fc39c	0.042911157
239	0x3ceedd96	0.029158395
240	0x3ce60fcf	0.02808371
241	0x3cc5f901	0.024166586
242	0x3cc9c921	0.024632039
243	0x3ca4c494	0.020113267
244	0x3d113a61	0.035456065
245	0x3d085231	0.03328151
246	0x3d0b18a1	0.033959035
247	0x3bfe2a35	0.0077564963
248	0x3d0cfcde	0.03442084
249	0x3d09e7c9	0.033668313
250	0x3c95fe70	0.018309802
251	0x3ca408e8	0.020023778
252	0x3caece4e	0.021338608
253	0x3c6bfb44	0.014403168
254	0x3cb3e2d5	0.021958748
255	0x3c80c74f	0.015720038

forward_blocks.0.bn1.running_mean f4 [1000]
0	0x3d138c8a	0.0360227
1	0x3d156193	0.036470007
2	0x3d1568b7	0.036476817
3	0x3d14fd2f	0.036374267
4	0x3d12d305	0.035845775
5	0x3d11338c	0.03544955
6	0x3d0f9457	0.035053577
7	0x3d0d057d	0.034429062
8	0x3d0af048	0.033920556
9	0x3d09eda2	0.03367389
10	0x3d07ee6a	0.033186354
11	0x3d06139c	0.032733545
12	0x3d052222	0.032503255
13	0x3d04552b	0.032307785
14	0x3d0306e8	0.03198901
15	0x3d019a5d	0.031641353
16	0x3d010bc4	0.03150536
17	0x3d0094b4	0.031391814
18	0x3d003e46	0.03130939
19	0x3cfdde83	0.03098989
20	0x3cfe4166	0.031037044
21	0x3cfcb3de	0.030847486
22	0x3cfbbc6b	0.030729493
23	0x3cfb1617	0.030650182
24	0x3cfbc04e	0.030731346
25	0x3cfa8499	0.030580806
26	0x3cf9ef0e	0.030509498
27	0x3cf9d721	0.03049809
28	0x3cf78f9a	0.030219842
29	0x3cf708a8	0.030155495
30	0x3cf69d64	0.030104347
31	0x3cf79b7d	0.03022551
32	0x3cf53a95	0.02993516
33	0x3cf49137	0.0298544
34	0x3cf6879d	0.030093962
35	0x3cf77a7a	0.030209769
36	0x3cf6ad00	0.03011179
37	0x3cf57275	0.029961804
38	0x3cf58264	0.029969402
39	0x3cf3ba7e	0.029752012
40	0x3cf3caf3	0.02975986
41	0x3cf58059	0.029968427
42	0x3cf398bb	0.029735914
43	0x3cf3b449	0.029749053
44	0x3cf55fa9	0.02995284
45	0x3cf32136	0.029678922
46	0x3cf271d2	0.02959529
47	0x3cf3e037	0.02977
48	0x3cf450cf	0.029823689
49	0x3cf3a030	0.02973947
50	0x3cf32d92	0.029684816
51	0x3cf2f810	0.029659301
52	0x3cf2e068	0.02964802
53	0x3cf2fb84	0.029660948
54	0x3cf21ab0	0.029553741
55	0x3cf266cb	0.029590031
56	0x3cf44728	0.029819086
57	0x3cf37d27	0.029722763
58	0x3cf2f2b7	0.029656751
59	0x3cf3e6c2	0.02977312
60	0x3cf30b6e	0.029668536
61	0x3cf1e136	0.029526334
62	0x3cf2392e	0.029568281
63	0x3cf0eb0c	0.029408954
64	0x3cf1b66f	0.029505936
65	0x3cf1cb66	0.029515933
66	0x3cf226e7	0.029559566
67	0x3cf1782a	0.029476244
68	0x3cf25ba6	0.029584717
69	0x3cf28421	0.02960402
70	0x3cf1a88c	0.029499315
71	0x3cf0ae9f	0.02938014
72	0x3cf08bcc	0.029363535
73	0x3cf0358a	0.029322404
74	0x3cf14802	0.029453281
75	0x3cef1429	0.029184418
76	0x3cef0239	0.029175865
77	0x3cef1e2a	0.029189188
78	0x3cecf4e2	0.028925363
79	0x3cece8a5	0.028919527
80	0x3cecbb51	0.028897913
81	0x3cebb50b	0.028772851
82	0x3cecc352	0.02890173
83	0x3ceb21ff	0.028702734
84	0x3cecbe47	0.028899325
85	0x3ceb3c47	0.028715266
86	0x3cec04cf	0.028810887
87	0x3ceae325	0.028672764
88	0x3ceb001f	0.028686581
89	0x3ceb2927	0.028706146
90	0x3ceb016e	0.028687205
91	0x3ce9ef84	0.028556593
92	0x3ce9f097	0.028557105
93	0x3cea07ec	0.02856823
94	0x3ce9ac3e	0.028524514
95	0x3ce84c48	0.028356686
96	0x3ce8f68c	0.028437875
97	0x3ce92257	0.028458757
98	0x3ce8bf1c	0.02841144
99	0x3ce92e3e	0.028464433
100	0x3ce8b25f	0.028405366
101	0x3ceb6d7e	0.028738733
102	0x3ce9910f	0.028511552
103	0x3ce8cd97	0.028418345
104	0x3ce6c65d	0.028170759
105	0x3ce690d6	0.028145235
106	0x3ce4d870	0.027935237
107	0x3ce542fc	0.027986042
108	0x3ce63505	0.028101454
109	0x3ce75543	0.028238898
110	0x3ce56f6a	0.028007228
111	0x3ce5c4e4	0.028047986
112	0x3ce5bd64	0.02804441
113	0x3ce51a4c	0.02796664
114	0x3ce40bf8	0.027837738
115	0x3ce3e4f6	0.027819138
116	0x3ce368ab	0.02775987
117	0x3ce3d20a	0.027810115
118	0x3ce2f598	0.027704999
119	0x3ce2aec3	0.027671224
120	0x3ce23ae4	0.027615972
121	0x3ce23db7	0.027617319
122	0x3ce112fe	0.027474876
123	0x3ce2a48a	0.027666349
124	0x3ce15da4	0.027510472
125	0x3ce25baf	0.027631609
126	0x3ce0f097	0.027458472
127	0x3ce09296	0.027413648
128	0x3ce125d6	0.027483862
129	0x3ce11ba1	0.027478995
130	0x3ce04aec	0.027379476
131	0x3cdf6f86	0.027274858
132	0x3cde5921	0.02714211
133	0x3cdde748	0.027087823
134	0x3cded848	0.02720274
135	0x3cde4685	0.027133236
136	0x3cde687f	0.027149437
137	0x3cdd3ee6	0.027007531
138	0x3cdc8c47	0.026922358
139	0x3cdd57fb	0.027019491
140	0x3cdbd534	0.026835062
141	0x3cdc5b00	0.026898861
142	0x3cdc65cf	0.026904015
143	0x3cdc28de	0.026874956
144	0x3cdba708	0.026813045
145	0x3cd9760a	0.026545543
146	0x3cdabaad	0.026700342
147	0x3cdaea70	0.026723117
148	0x3cdbe974	0.026844718
149	0x3cd7b350	0.02633062
150	0x3cd930f2	0.026512597
151	0x3cd7c229	0.0263377
152	0x3cd7cc02	0.026342396
153	0x3cd77bf8	0.02630423
154	0x3cd6f92a	0.026241858
155	0x3cd4e924	0.025990076
156	0x3cd64384	0.02615524
157	0x3cd6b498	0.02620916
158	0x3cd44177	0.025910122
159	0x3cd4dc7c	0.025984041
160	0x3cd3f8fa	0.025875557
161	0x3cd0ec8a	0.025503416
162	0x3cd13d5c	0.025541954
163	0x3cd1ba20	0.025601447
164	0x3cd0a26b	0.025468072
165	0x3cd00f89	0.025398033
166	0x3ccfaa6b	0.025349816
167	0x3ccf95c9	0.025339978
168	0x3cce5602	0.025187496
169	0x3ccdeea0	0.0251382
170	0x3ccdb901	0.02511263
171	0x3ccd3d45	0.02505363
172	0x3cca0b1e	0.024663504
173	0x3ccb9874	0.024852969
174	0x3cc9a871	0.024616452
175	0x3cc9d6f8	0.024638638
176	0x3cc6b87b	0.024257889
177	0x3cc988dd	0.024601394
178	0x3cc71bff	0.024305342
179	0x3cc6e69c	0.024279885
180	0x3cc57132	0.024101827
181	0x3cc590e0	0.024116933
182	0x3cc4b3e4	0.02401156
183	0x3cc4aaac	0.024007164
184	0x3cc32feb	0.02382656
185	0x3cc4c5bc	0.024020068
186	0x3cc47ca7	0.02398522
187	0x3cc3a33f	0.023881553
188	0x3cc44557	0.023958845
189	0x3cc199f5	0.023632983
190	0x3cbfbe8c	0.02340629
191	0x3cc0f79f	0.023555575
192	0x3cbedb48	0.02329792
193	0x3cbdbb3d	0.023160571
194	0x3cbd218b	0.023087284
195	0x3cbc8653	0.02301327
196	0x3cbc9b44	0.023023255
197	0x3cbb2016	0.022842448
198	0x3cbb3bc9	0.022855656
199	0x3cb968a1	0.022632899
200	0x3cb8df4d	0.022567416
201	0x3cb731b9	0.022362577
202	0x3cb62fb0	0.022239536
203	0x3cb67e3c	0.02227699
204	0x3cb67861	0.022274198
205	0x3cb622df	0.022233425
206	0x3cb41c66	0.021986198
207	0x3cb528e2	0.022114221
208	0x3cb4104d	0.021980429
209	0x3cb3e6fa	0.021960724
210	0x3cb37463	0.021906083
211	0x3cb136e4	0.02163262
212	0x3cb07fb6	0.021545272
213	0x3cb13069	0.02162953
214	0x3cae3d2c	0.021269403
215	0x3caf628b	0.021409294
216	0x3cae5aba	0.021283496
217	0x3caf4c5c	0.021398716
218	0x3cae415c	0.0212714
219	0x3cae2ea1	0.021262469
220	0x3caad658	0.02085416
221	0x3cabe0a0	0.020981133
222	0x3cab3760	0.020900428
223	0x3caa11a1	0.02076036
224	0x3ca7d0a3	0.020485228
225	0x3ca73a98	0.020413682
226	0x3ca8db05	0.02061225
227	0x3ca74935	0.02042065
228	0x3ca7c7a6	0.020480942
229	0x3ca74f85	0.02042366
230	0x3ca5a94d	0.02022233
231	0x3ca4e93d	0.020130748
232	0x3ca4aee0	0.020102918
233	0x3ca35a08	0.019940391
234	0x3ca36eab	0.019950232
235	0x3ca2c449	0.019868987
236	0x3ca2617e	0.019821879
237	0x3ca28dcd	0.019843007
238	0x3ca0624c	0.019578122
239	0x3c9e6552	0.019335423
240	0x3c9ff538	0.01952611
241	0x3c9e14e2	0.019297067
242	0x3c9e21e1	0.019303264
243	0x3c9c0edd	0.019050056
244	0x3c9c53f8	0.019083008
245	0x3c9d0875	0.019169072
246	0x3c9c9e09	0.019118326
247	0x3c9ba4bb	0.018999448
248	0x3c98ee81	0.018668415
249	0x3c984084	0.018585451
250	0x3c969d96	0.01838569
251	0x3c94dbf0	0.01817128
252	0x3c94bdb6	0.018156867
253	0x3c915fe1	0.017745914
254	0x3c8f4062	0.017486755
255	0x3c8e74f9	0.017389761

forward_blocks.0.bn1.running_var f4 [1000]
0	0x3c02a45f	0.007973759
1	0x3bec7ddc	0.007217152
2	0x3bdede6e	0.006801418
3	0x3bd70d82	0.0065628896
4	0x3bd26b31	0.0064214696
5	0x3bce6aa3	0.006299333
6	0x3bc9c620	0.0061576515
7	0x3bc43ce6	0.005988705
8	0x3bc23d88	0.0059277453
9	0x3bbfe7a3	0.0058564707
10	0x3bbc898a	0.0057537006
11	0x3bb9e8a7	0.0056734863
12	0x3bb8e2de	0.005642279
13	0x3bb69b4e	0.005572713
14	0x3bb6697c	0.005566774
15	0x3bb434d1	0.0054994603
16	0x3bb3e3f4	0.0054898206
17	0x3bb2c696	0.005455802
18	0x3bb2a9fb	0.005452392
19	0x3bb03d3c	0.0053783935
20	0x3bb0e936	0.0053988947
21	0x3bae966d	0.0053279907
22	0x3bb0039f	0.0053715254
23	0x3bafe023	0.0053672954
24	0x3bb15255	0.005411426
25	0x3bb05cad	0.0053821416
26	0x3bb14a36	0.005410458
27	0x3bb177a5	0.005415874
28	0x3bafd1ba	0.0053655775
29	0x3bb0ba7c	0.0053933244
30	0x3bb0b3e6	0.0053925393
31	0x3bb26cd8	0.005445104
32	0x3bb1db04	0.00542772
33	0x3baf57f5	0.0053510615
34	0x3bb2ed0a	0.005460386
35	0x3bb5d40e	0.0055489605
36	0x3bb65552	0.00556437
37	0x3bb51082	0.0055256495
38	0x3bb81223	0.0056173964
39	0x3bb6fe81	0.0055845384
40	0x3bb67bb5	0.0055689462
41	0x3bb9fe37	0.0056760567
42	0x3bba1ee7	0.0056799534
43	0x3bbc0a81	0.005738557
44	0x3bbebfb5	0.005821193
45	0x3bbe8692	0.005814382
46	0x3bbdf225	0.005796688
47	0x3bc105d7	0.0058905887
48	0x3bc32cee	0.005956284
49	0x3bc53091	0.0060177525
50	0x3bc5d678	0.0060375296
51	0x3bc62d1b	0.0060478575
52	0x3bc80b79	0.0061048833
53	0x3bc81490	0.006105967
54	0x3bc9653e	0.006146102
55	0x3bcbf857	0.006224673
56	0x3bce802f	0.006301902
57	0x3bcf4856	0.006325762
58	0x3bd16da1	0.0063912426
59	0x3bd28220	0.0064242035
60	0x3bd4ed90	0.006498046
61	0x3bd6fc8d	0.006560868
62	0x3bda6f7b	0.0066661215
63	0x3bd8b112	0.0066129053
64	0x3bda9eb6	0.006671752
65	0x3bdc93bd	0.006731479
66	0x3bddea17	0.0067722904
67	0x3be0af56	0.006856839
68	0x3be10627	0.0068671885
69	0x3be2efb5	0.006925548
70	0x3be313b1	0.0069298376
71	0x3be4e83d	0.006985693
72	0x3be7490e	0.0070582693
73	0x3beb2f02	0.0071772346
74	0x3beb99bb	0.007189957
75	0x3bed6d62	0.0072457055
76	0x3befcc18	0.007318031
77	0x3befd544	0.0073191244
78	0x3bf08df0	0.007341139
79	0x3bf1e8ed	0.0073825032
80	0x3bf20dec	0.0073869135
81	0x3bf40d33	0.0074478625
82	0x3bf5c80e	0.007500655
83	0x3bf8048c	0.0075689014
84	0x3bf9e2f6	0.007625933
85	0x3bf97faa	0.0076140957
86	0x3bfbdd0a	0.007686262
87	0x3bfb2613	0.007664451
88	0x3bfcb8d0	0.007712461
89	0x3bfdc9e0	0.0077450126
90	0x3bffa2d0	0.007801391
91	0x3c010afe	0.007876156
92	0x3c014b49	0.007891485
93	0x3c01c81b	0.007921244
94	0x3c02ceb6	0.007983854
95	0x3c0372c3	0.008022967
96	0x3c03485a	0.008012855
97	0x3c03d6d0	0.008046821
98	0x3c047163	0.008083674
99	0x3c0530dd	0.008129326
100	0x3c05c668	0.0081649795
101	0x3c0679c8	0.008207746
102	0x3c07c6fe	0.0082871895
103	0x3c07b23e	0.008282242
104	0x3c0802e0	0.008301467
105	0x3c09cfdc	0.008411374
106	0x3c09b8bb	0.00840586
107	0x3c0a8673	0.008454907
108	0x3c0a755c	0.008450832
109	0x3c0ac900	0.008470774
110	0x3c0b6e25	0.008510147
111	0x3c0be88d	0.008539331
112	0x3c0c9e64	0.008582685
113	0x3c0d6ffd	0.008632657
114	0x3c0dc0ef	0.008651956
115	0x3c0e0332	0.008667754
116	0x3c0e57bb	0.008687909
117	0x3c0f6489	0.008751997
118	0x3c0fa872	0.008768188
119	0x3c0fb19d	0.008770374
120	0x3c1028fe	0.008798836
121	0x3c10c29b	0.00883546
122	0x3c1088c6	0.008821672
123	0x3c11f4ee	0.008908493
124	0x3c1233b3	0.008923459
125	0x3c13e0da	0.009025777
126	0x3c145e2f	0.009055658
127	0x3c1476ee	0.009061558
128	0x3c147230	0.009060428
129	0x3c159270	0.009129152
130	0x3c152ebf	0.009105383
131	0x3c16f756	0.009214243
132	0x3c17a34f	0.009255244
133	0x3c17bdff	0.009261607
134	0x3c18b849	0.009321281
135	0x3c1a2266	0.009407615
136	0x3c19ebee	0.009394629
137	0x3c1b2ec2	0.009471597
138	0x3c1b95e9	0.009496191
139	0x3c1bdb15	0.009512682
140	0x3c1cdec8	0.0095746
141	0x3c1cfa68	0.009581186
142	0x3c1deb9f	0.009638696
143	0x3c1e19d5	0.0096497135
144	0x3c1e52a3	0.009663257
145	0x3c1fd620	0.009755641
146	0x3c207052	0.009792404
147	0x3c220b40	0.0098903775
148	0x3c22943f	0.00992304
149	0x3c22407e	0.009903071
150	0x3c223d08	0.009902246
151	0x3c225f39	0.009910398
152	0x3c2461cc	0.010033082
153	0x3c240f23	0.0100133745
154	0x3c23be3e	0.009994088
155	0x3c25c483	0.010117653
156	0x3c258950	0.010103539
157	0x3c278c24	0.010226283
158	0x3c2843f9	0.010270112
159	0x3c282238	0.010262065
160	0x3c289af2	0.010290848
161	0x3c296df0	0.010341153
162	0x3c29a2d6	0.0103537645
163	0x3c2a3fdd	0.010391203
164	0x3c2b514c	0.010456394
165	0x3c2bc902	0.010484936
166	0x3c2c0ca9	0.010501065
167	0x3c2c7225	0.010525261
168	0x3c2cb44e	0.010541035
169	0x3c2d0ef9	0.010562652
170	0x3c2dd63b	0.010610159
171	0x3c2e484d	0.010637355
172	0x3c2efee7	0.010680891
173	0x3c3099c1	0.010778845
174	0x3c2fd7e1	0.010732622
175	0x3c308d19	0.010775828
176	0x3c320aac	0.010866802
177	0x3c324917	0.010881684
178	0x3c3220dc	0.010872092
179	0x3c317ef4	0.010833491
180	0x3c31c4e3	0.010850164
181	0x3c3231bf	0.010876118
182	0x3c32ab13	0.010905045
183	0x3c34a329	0.011025229
184	0x3c33571c	0.010946061
185	0x3c35ff27	0.011108196
186	0x3c36ab0a	0.011149177
187	0x3c36c511	0.011155383
188	0x3c364090	0.011123791
189	0x3c360ba9	0.011111178
190	0x3c3726b2	0.011178659
191	0x3c37bdea	0.011214713
192	0x3c379233	0.01120429
193	0x3c39615c	0.011314716
194	0x3c3ad827	0.011404074
195	0x3c3af9e9	0.011412122
196	0x3c3b1c87	0.011420376
197	0x3c3b182d	0.011419338
198	0x3c3b7dc8	0.011443563
199	0x3c3c3114	0.0114863105
200	0x3c3c1e0a	0.011481771
201	0x3c3cedc8	0.011531301
202	0x3c3d9ea1	0.011573465
203	0x3c3e515e	0.011616079
204	0x3c40c635	0.011766006
205	0x3c41da50	0.011831835
206	0x3c415b93	0.011801618
207	0x3c41dd83	0.011832598
208	0x3c41cf30	0.0118291825
209	0x3c416e48	0.011806078
210	0x3c41246f	0.011788472
211	0x3c416743	0.011804405
212	0x3c415fa6	0.0118025895
213	0x3c426366	0.011864519
214	0x3c43b2f1	0.011944518
215	0x3c43d568	0.0119527355
216	0x3c445d39	0.011985117
217	0x3c44f886	0.012022143
218	0x3c4574e7	0.0120517975
219	0x3c461b0a	0.012091408
220	0x3c45e2fa	0.012078041
221	0x3c46da4d	0.012137008
222	0x3c47cb17	0.0121944165
223	0x3c470da1	0.0121492455
224	0x3c487684	0.012235288
225	0x3c4a0b62	0.012331815
226	0x3c498db3	0.01230185
227	0x3c49f41a	0.012326265
228	0x3c48f2cb	0.012264918
229	0x3c49bb10	0.012312666
230	0x3c49b82b	0.0123119755
231	0x3c4aae0a	0.012370596
232	0x3c4a19a5	0.012335216
233	0x3c4aa9b0	0.012369558
234	0x3c4bdfef	0.012443527
235	0x3c4d3643	0.012525144
236	0x3c4d5c57	0.012534223
237	0x3c4d08de	0.012514321
238	0x3c4dc00e	0.012557996
239	0x3c4cfe7c	0.012511846
240	0x3c4e0c17	0.012576125
241	0x3c4de22a	0.012566129
242	0x3c4ea878	0.012613408
243	0x3c4e5d52	0.0125954915
244	0x3c4e8288	0.012604363
245	0x3c4ef5e2	0.012631865
246	0x3c4fb867	0.012678242
247	0x3c50c937	0.012743286
248	0x3c51893c	0.012789067
249	0x3c5263e4	0.012841199
250	0x3c52102d	0.012821239
251	0x3c5296bf	0.0128533235
252	0x3c528a1e	0.0128503125
253	0x3c530053	0.012878495
254	0x3c52e66c	0.01287232
255	0x3c53a77e	0.012918351
