Saves/3chan_ep_10_resnet.pth (torch, 641756 bytes, 130 tensors)

forward_blocks.0.sage1.lin_rel.weight f4 [32, 6]
000000 d4 58 66 3e 1b 80 d3 3e 26 1e d6 3d 36 e8 a9 bd
       0.22494823 0.41308674 0.10454969 -0.08296244
000010 a7 15 58 3e e2 0d 9f bd 49 58 f0 bd 67 fe 52 3e
       0.2110201 -0.0776632 -0.11735589 0.2060486
000020 20 ff b7 3e e8 a8 9c 3d 4c d0 92 be 81 5e 2b be
       0.35936832 0.07649404 -0.28674543 -0.16735269
000030 82 92 c9 bd 69 1d 9d 3e 02 9f b9 bd bb a6 3f bd
       -0.09842397 0.306865 -0.090635315 -0.046789866
000040 1b eb b6 be 79 6a 5f 3e d9 4f b3 be 34 31 a1 bd
       -0.35726246 0.2181796 -0.35021856 -0.07870713
000050 04 7e 15 be 82 12 37 3e 7e fb f1 bd 2a b3 87 3d
       -0.14598852 0.17878154 -0.118155465 0.0662597
000060 66 c4 f4 3c 95 43 30 3d 52 cc 89 be 57 c2 82 be
       0.029878806 0.0430332 -0.26913697 -0.25538895
000070 7c dd 2e be e7 a8 55 bc f4 6e 2e 3e e3 33 69 be
       -0.17076677 -0.013040758 0.17034513 -0.227737
000080 2a 22 8e be 46 d7 f2 bd e0 21 9f 3e 39 d4 cb 3d
       -0.2776044 -0.118574664 0.31080532 0.09952588
000090 34 23 2c be b7 23 2c be 6e e8 81 3e b8 52 af 3e
       -0.16810304 -0.16810499 0.25372642 0.34242797
0000a0 cd 7f a9 3e 07 4a 54 be a4 18 b9 3c ac ca c1 be
       0.33105317 -0.20731364 0.022594757 -0.3784994
0000b0 d2 ec 70 3e 62 6e cd 3e 4e fa 44 3e 1d 29 85 be
       0.2352784 0.40123278 0.19236109 -0.2600793
0000c0 1c 68 a3 be c1 4e 43 be 74 95 ea bd 6a 49 5e be
       -0.31915367 -0.19073011 -0.11454287 -0.21707693
0000d0 d5 1f 47 be 5b e7 88 3e cc c2 b1 3e 8d 0c 35 be
       -0.19445737 0.2673901 0.3471893 -0.17680569
0000e0 c2 b4 a2 be b1 aa a6 be 7a 81 b7 3e e1 2e ce 3e
       -0.31778532 -0.32552102 0.3584097 0.4027014
0000f0 b5 75 88 3e 3a 07 30 be 2e c6 4c 3e 5b 32 a6 be
       0.26652303 -0.17190257 0.19997475 -0.32460293
000100 0c 9e 75 be e3 52 11 be 4f b5 16 be 9d e5 8f be
       -0.23986071 -0.14191775 -0.14717601 -0.2810487
000110 84 50 4a be 57 bf bd be bc ff 80 be a4 34 be 3e
       -0.19757277 -0.37060043 -0.2519511 0.37149537
000120 88 0d 70 be 30 00 6e be 00 92 a3 be b3 e0 b7 be
       -0.23442662 -0.23242259 -0.31947327 -0.3591362
000130 9e 4b 86 be 86 aa cc 3e 04 e9 53 be c6 0e 92 3e
       -0.26229566 0.3997385 -0.20694357 0.28526896
000140 68 72 94 bd c0 f0 a4 3e c6 65 a7 be 33 45 09 3d
       -0.07248384 0.32214928 -0.32694834 0.03351326
000150 a3 e1 79 be 8e e7 47 3e ae ef ba 3e ff d5 b3 be
       -0.2440248 0.19521925 0.36510986 -0.35124204
000160 a4 5d 60 be 35 f8 6f 3e 43 61 80 3e 96 87 0e bd
       -0.21910721 0.23434527 0.25074205 -0.034797274
000170 fb 4e 95 bc 49 a4 a0 be 2d 25 89 3e a3 06 3e 3e
       -0.018226137 -0.3137534 0.26786175 0.18557219
000180 1e 9b d0 bc 91 e5 a3 be ec 3e 12 3e 93 fe 8c 3e
       -0.02546459 -0.32011083 0.14281815 0.27537975
000190 41 3d 90 be 62 aa 55 ba b5 2d c0 3e 1c 42 94 bc
       -0.28171733 -0.0008150694 0.37534872 -0.01809793
0001a0 ed c1 8a 3e 06 5c 98 3e 10 53 ae be 5b 95 a3 be
       0.2710108 0.29757708 -0.34047747 -0.31949887
0001b0 5c 49 d3 3e bb 11 4e be 01 0b 8b bb cb 45 48 3d
       0.41266906 -0.20123951 -0.004243255 0.048894685
0001c0 87 fe a1 be 34 52 4d 3e cc dd 21 bd 81 2d 64 be
       -0.316395 0.20050889 -0.039518163 -0.22282983
0001d0 97 72 c6 3d 05 a4 42 3b 9f 9d 9f be 2a 39 a1 3e
       0.09689825 0.0029699814 -0.31174943 0.31488925
0001e0 62 7f 05 3e 8f 82 a2 3c c0 25 cd be 89 5d 3e 3e
       0.13036874 0.019837646 -0.40067863 0.18590368
0001f0 22 a0 8e 3e 02 43 7f be ce 09 b5 be 9f 97 84 3e
       0.27856547 -0.24927905 -0.35359043 0.25896928
000200 2c ca 46 3e 06 f7 be 3e 65 fd dc 3d a4 27 d7 bb
       0.1941306 0.3729784 0.10790519 -0.006566005
000210 42 bd 46 be cd 63 27 3e 0d 65 80 3e 79 29 ba 3e
       -0.19408134 0.16346665 0.25077096 0.36359766
000220 12 2b 38 3e 7d 42 35 be 65 d5 be be a9 b4 f7 3d
       0.1798518 -0.17701145 -0.37272182 0.12095005
000230 94 c9 0a bc b7 03 48 be 44 28 a8 3d 71 e1 c2 be
       -0.0084709115 -0.19532667 0.08210805 -0.38062623
000240 35 6b 3d 3e 22 36 2a 3d 14 3a 2c be 5f 52 c4 3e
       0.18497927 0.04155553 -0.1681903 0.38344094
000250 4f 4d 76 3d d9 ea da 3c 8e 33 90 3e 6a 96 c5 3e
       0.06013232 0.026723312 0.28164333 0.3859132
000260 38 bd 9a 3e 2d d2 08 be de e7 b9 be 58 73 23 bd
       0.30222487 -0.13361426 -0.36309713 -0.039904922
000270 b0 56 3a be db 96 7b 3e a0 09 9c be 5a e4 6b 3e
       -0.18197131 0.24569266 -0.30476093 0.23036328
000280 61 7e f6 3b 33 9a 7c bd 13 2f cc 3e d1 47 60 be
       0.0075223898 -0.061670493 0.39879665 -0.21902396
000290 a2 e7 96 3e 83 22 ed bd 01 79 87 3e e7 0a d1 3e
       0.29473597 -0.11578848 0.26459506 0.4082863
0002a0 e2 be c5 3d 0f bc 39 bd 48 94 9a be b6 25 b0 3d
       0.09655549 -0.045345362 -0.30191255 0.08600943
0002b0 84 ea c0 be 92 9d 17 be a5 6d b2 be 46 b6 92 be
       -0.3767892 -0.14806202 -0.34849277 -0.2865469
0002c0 81 b0 b3 3e d7 b2 8a be c3 2d 55 be bb fc 80 bd
       0.350956 -0.2708957 -0.20818238 -0.062982045
0002d0 ec a0 bf be fb 18 aa 3e ef 1c 70 bc 89 fe a1 bd
       -0.3742746 0.33222184 -0.014655336 -0.07909877
0002e0 71 c0 de 3d d5 2d b3 be 9c 1b 06 3e a4 cc 3f 3e
       0.10876549 -0.34995905 0.1309647 0.18730408
0002f0 5d 6d c0 3e de 48 30 bd d4 b7 53 3e 16 b7 16 be
       0.37583438 -0.04303824 0.20675594 -0.14718279

forward_blocks.0.sage1.lin_root.weight f4 [32, 6]
000000 ce cb 28 3d 9f 7f 07 bc bc 1c 54 3c c1 44 51 3d
       0.04120999 -0.008270173 0.012946304 0.05109096
000010 df 5a 8c 3e 19 77 9f 3e b6 d7 48 be 70 ec 32 be
       0.2741308 0.31145552 -0.19613537 -0.17473006
000020 58 8f 70 be 72 c4 b1 3e 73 49 8e 3e cf 46 00 3d
       -0.23492181 0.34720188 0.27790412 0.03131753
000030 bf b3 51 be 38 fa 56 be 54 81 1e be a7 ad 80 3e
       -0.20478724 -0.20993888 -0.15479022 0.25132486
000040 5a 5b 82 3e 54 4f c2 3d e7 be a4 3e 6f 76 65 3e
       0.2546032 0.09487787 0.32176897 0.2240846
000050 24 c3 99 3e e7 b0 49 be c3 c7 4e 3e c4 f3 60 3e
       0.30031693 -0.19696389 0.2019339 0.21967989
000060 44 f4 9d be 12 c3 0c 3e 5d 26 9d 3e 78 9f 9f be
       -0.30850422 0.13746288 0.3069333 -0.31176353
000070 c0 df 59 bd ae 33 b3 bc 8c f3 a0 be 43 bd 89 bc
       -0.0531919 -0.021875229 -0.31435812 -0.01681388
000080 61 3b a6 be b0 f4 a9 be ee b8 89 3e 5d 7c a9 be
       -0.32467178 -0.33194494 0.26898903 -0.33102694
000090 70 05 32 be ee 3f 68 bd 20 21 42 3d ea 54 04 bd
       -0.17384887 -0.056701593 0.04739487 -0.032307543
0000a0 e0 5d 1b bd 4b e9 90 3e bc a4 e9 bd e8 97 ba 3e
       -0.037931323 0.28302988 -0.11408374 0.3644402
0000b0 5b c0 bf be 4a 77 18 be 90 76 bb 3e 86 27 49 3e
       -0.37451443 -0.14889255 0.36613894 0.19643983
0000c0 98 f1 c4 bb 02 80 b4 3e bc 3a 8e 3e ee 4a 98 3e
       -0.0060102455 0.35253912 0.27779186 0.29744667
0000d0 85 39 4a be 45 14 a5 3e c5 b2 ed bd 35 5d 18 be
       -0.19748504 0.32242027 -0.11606363 -0.14879306
0000e0 40 14 b2 3d 1d 06 cd 3e 03 90 bc be 5e 44 94 be
       0.08695269 0.40043727 -0.36828622 -0.2895841
0000f0 37 2c 0c 3e 6c a8 1f 3e 45 ae 00 be 52 ca 94 be
       0.13688742 0.15591592 -0.12566479 -0.29060608
000100 da 18 92 3e da fc 49 3e fc 03 1e 3e 12 88 04 3e
       0.28534585 0.19725361 0.15431207 0.12942532
000110 91 a4 0e bd 62 6e 98 be e3 7e f4 bd ab 2e 89 be
       -0.03482491 -0.29771715 -0.11938264 -0.26793417
000120 0a 75 88 3e 2d 0c 75 3d 7d 0f 2a be 8b 57 a6 3e
       0.26651794 0.059826065 -0.16607471 0.32488665
000130 0f 74 40 be f8 f5 cb 3e cb 89 9a 3e eb 9d 23 3e
       -0.18794273 0.39836097 0.30183253 0.1597821
000140 db 2c d3 3e be fa 9a 3c 0e 30 2b 3d a6 de 1e be
       0.4124516 0.018918391 0.041793875 -0.15514621
000150 7a ad 4b 3e e5 e3 49 be b3 75 07 3c bd dd 61 be
       0.19890395 -0.19715841 0.008267808 -0.22057243
000160 08 b9 65 3e 35 20 ef 3d 58 0f a7 be 4b 42 1d bc
       0.22433865 0.11676065 -0.32628894 -0.009598325
000170 a0 5f 8e 3e b6 09 23 be 5a 6b d9 3c 13 40 28 bd
       0.2780733 -0.15921673 0.026540447 -0.04107673
000180 e2 83 e8 bd 1d df bd 3e 3f 2d 9d be db 99 a2 be
       -0.1135328 0.37084284 -0.30698583 -0.31758007
000190 28 32 ca 3e e8 dc 58 be c5 d1 90 be c3 1f 54 3e
       0.3949139 -0.21178019 -0.2828504 0.20715241
0001a0 10 b5 33 3d 80 33 e2 bd 33 f8 9f be 70 9f 85 be
       0.043873847 -0.11044979 -0.31244048 -0.26098204
0001b0 6c 68 8c bd f2 22 99 be 07 01 c3 3e 16 01 88 3e
       -0.068558544 -0.29909474 0.3808672 0.26563329
0001c0 ee 22 9b be 02 5f 8d bd 78 35 89 3e 5b 27 24 be
       -0.30300087 -0.06902887 0.26798606 -0.16030638
0001d0 7e 28 a5 be e4 b3 a6 be 9c 86 55 3d df 9d 5d 3e
       -0.32257456 -0.3255912 0.052130327 0.21642254
0001e0 35 24 7b 3e 6d 9d 0f be 8b 02 2a be 0f d0 b1 be
       0.2452553 -0.14024897 -0.16602533 -0.3472905
0001f0 48 e2 8c 3d aa e1 a1 be 89 a7 3e be 67 3e 52 3e
       0.06879097 -0.3161748 -0.18618597 0.20531617
000200 8f 10 8d be 22 50 c5 bd 35 de bc 3d 41 b5 c3 bb
       -0.27551696 -0.09634425 0.0922207 -0.005972535
000210 c6 0e 87 be 9a bd 16 be 5d 1e 53 bd f1 19 5d 3e
       -0.2637846 -0.14720765 -0.05154263 0.21591927
000220 25 89 92 3e 57 34 9c 3e b6 14 ad 3e 1e da a7 3e
       0.28620258 0.30508682 0.33804864 0.32783598
000230 74 ee 8a be 4a 51 6b be 99 19 32 be ea 85 c4 be
       -0.2713505 -0.22980228 -0.17392577 -0.38383418
000240 21 c2 cd bc be cc 9b bd 40 07 95 bc 62 73 49 bd
       -0.025116982 -0.07607411 -0.018191934 -0.049182303
000250 0e a5 53 be 4d 24 21 3e 4f a4 90 be ba 2d b6 3d
       -0.20668432 0.15736504 -0.28250358 0.088954404
000260 0c 08 66 be ba e6 38 be 37 d0 03 be 7e f0 bf 3e
       -0.22464007 -0.18056765 -0.12872396 0.37488168
000270 58 d8 ba 3d d7 f6 59 3e 56 60 0e 3d 09 2d 2d be
       0.091232955 0.21285568 0.03475984 -0.16911711
000280 03 e1 1f bd c3 32 08 bd 43 00 20 3e 6b d6 83 be
       -0.039032947 -0.033251535 0.156251 -0.25749525
000290 ba 9b d6 3c 21 10 a2 3d 57 74 7c 3e cd e6 0d 3e
       0.026197303 0.079132326 0.24653755 0.13857575
0002a0 53 f7 76 be 37 1c 24 3e 8b 9e b4 be 25 3d a8 be
       -0.24117784 0.16026388 -0.3527721 -0.3285915
0002b0 95 12 06 be c9 14 25 3e 3f 57 1d 3e 09 5d 13 be
       -0.13093026 0.1612121 0.15365313 -0.14390959
0002c0 65 ff 43 be 67 d3 c7 bd 11 00 77 3e 27 b9 57 3d
       -0.19140394 -0.09757119 0.24121119 0.05266681
0002d0 86 8a d5 3c c9 e9 bd 3e b7 3a 98 3d 49 c3 22 bd
       0.02606703 0.37092426 0.07433074 -0.03973702
0002e0 23 b4 bc 3e 1a 1e 8e 3e 8d 34 b2 3e b8 06 91 3e
       0.36856183 0.2775734 0.34805718 0.28325438
0002f0 d8 aa 65 be 07 d6 bd 3d 76 23 c0 be ff d7 76 3d
       -0.22428453 0.09269338 -0.37527055 0.060264584

forward_blocks.0.sage1.lin_root.bias f4 [32]
000000 73 f5 9c bd dd 0d ad 3e 51 37 9f be da eb 82 3d
       -0.07664003 0.3379964 -0.3109689 0.06392641
000010 12 e9 c4 be a0 65 17 bd d2 67 a6 bb 02 fd 90 3e
       -0.3845907 -0.03696215 -0.0050782943 0.2831803
000020 b3 fb 65 be 3e 94 1a bc 96 75 53 3c 37 d7 7b 3e
       -0.22459297 -0.009434758 0.012906453 0.24593817
000030 62 0b cc 3e 05 02 3c bd 96 05 6b be ff 11 ed 3d
       0.39852434 -0.045900363 -0.2295135 0.11575698
000040 66 72 74 3e 8b 95 60 3c 86 9b 94 be 0f 20 94 be
       0.23871765 0.013707529 -0.29024905 -0.2893071
000050 65 cc f0 3d a9 9d 9c be 0c ea ed 3d d1 30 97 be
       0.11757735 -0.30589035 0.116169065 -0.2952943
000060 d7 e2 e8 3d ac 5e 26 3e f7 eb 1f 3e 8a 2b b4 3c
       0.11371391 0.16247052 0.15617357 0.021993417
000070 ba 72 29 bd 88 74 81 3e 97 4a 29 3e 49 47 ae 3e
       -0.041369177 0.2528422 0.1653236 0.3403876

forward_blocks.0.lin.weight f4 [32, 32]
000000 fa f0 46 3d 89 47 30 be fa 46 46 bd 03 61 ed bd
       0.048569657 -0.17214788 -0.048407532 -0.11590769
000010 60 aa 77 bb 23 9b 11 3d 1d 9d 1d be e2 c6 3c bc
       -0.003779076 0.03554834 -0.15391965 -0.011522027
000020 4c 08 26 be d6 94 08 bd fa 25 87 3c 15 87 00 be
       -0.16214103 -0.033345066 0.0164976 -0.1255153
000030 6f 7b 71 bd 61 80 ae 3d 98 ae a3 bc c4 70 ee 3d
       -0.058955606 0.0852058 -0.019980714 0.11642602
000040 4f 44 eb 3c b2 b0 f7 3d 09 e5 16 bd 9f 2d 35 bd
       0.028719096 0.12094249 -0.03683952 -0.04423296
000050 c7 bf 97 bd d6 94 e2 3d d5 2f 01 3e 6b 3c 33 bd
       -0.074096255 0.110635445 0.12615903 -0.04375879
000060 0b e7 03 be 62 80 bd bd 53 b1 da bd a0 c5 a6 3d
       -0.12881105 -0.09253003 -0.10678353 0.08143163
000070 4f a6 34 be 01 c0 02 bd cc 0f 10 3d 01 8f 9d 3d
       -0.17641567 -0.03192139 0.035171315 0.076932915
000080 92 91 b6 3d 51 e6 4c 3d 5a cf 9c bd ea 95 45 bd
       0.08914484 0.050024334 -0.07656737 -0.048238672
000090 e2 7f de 3c 59 45 a3 3d 94 bd d9 bb fd a4 84 3d
       0.027160589 0.079722114 -0.006644914 0.064767815
0000a0 dd 43 d4 bd 48 e3 b3 bd 30 a9 83 3d d1 27 06 be
       -0.103645064 -0.08783585 0.06428754 -0.13101126
0000b0 8f 04 5a 3b 94 d4 2f bd 65 44 12 be d7 29 dc bc
       0.0033266877 -0.04292734 -0.14283903 -0.02687542
0000c0 b6 e9 ae bd 8f f3 d4 bd 34 e6 ae bd 44 dc 72 3d
       -0.085406706 -0.103980176 -0.085400015 0.059292093
0000d0 54 a7 71 3d 30 ad 89 bd 90 cd ce bd f8 b9 03 3d
       0.058997467 -0.06722486 -0.10097802 0.032159775
0000e0 55 97 12 3d 31 39 cc bd bd 4e 08 be c4 43 a7 bd
       0.035788853 -0.09971846 -0.13311286 -0.08167222
0000f0 c0 92 ce 3d 09 97 d5 bd cb bd 8d 3d c7 37 b4 bd
       0.10086584 -0.10429198 0.06920966 -0.08799701
000100 5a a9 24 3e 11 aa 23 be d3 4b 2c be 24 f5 20 be
       0.16080227 -0.15982844 -0.168258 -0.15718514
000110 36 e6 fc bd a2 a3 20 bd 3e c7 a3 3d 0c f6 d0 3c
       -0.12348597 -0.039218552 0.07996987 0.02550795
000120 df 8b d5 3d 61 59 37 3e 25 93 8c bc 0d 28 ad 3d
       0.10427069 0.17905189 -0.017160008 0.08454905
000130 c9 a6 22 3c b5 61 7c bd b6 b5 9f 3d 40 18 2a be
       0.00992746 -0.06161662 0.077983305 -0.16610813
000140 e4 b9 dc bd 40 3a a3 bd dc ba 21 3e 89 ec 76 bc
       -0.10777643 -0.07970095 0.15793937 -0.015071043
000150 6e 60 bf bd c0 45 fe bd 7d aa fa 3d 7c 56 a9 3c
       -0.093445644 -0.124156475 0.12239549 0.020671122
000160 20 64 4c bd af 38 0b be 73 d9 ef bb 52 34 9f 3c
       -0.049900174 -0.13595842 -0.007319623 0.019434128
000170 53 f2 ed bc f2 23 f7 bd fd f6 b2 3d d2 37 85 bd
       -0.029046213 -0.12067403 0.087385155 -0.065047875
000180 f6 43 c2 bc d9 1f b0 3d 32 e7 e3 bd 18 59 e5 3d
       -0.023714047 0.085998245 -0.111280814 0.11198634
000190 a3 92 28 bc db e6 09 be 2e 6a c1 bd 28 46 71 bd
       -0.010288867 -0.1346697 -0.0944408 -0.058904797
0001a0 30 fd f3 bd 50 c6 f2 bc 8b 69 0f 3e 0e 7f 71 3d
       -0.11913526 -0.029635578 0.14005105 0.05895906
0001b0 9c 23 28 be 76 d7 9d bd 3b ea 2a 3e 52 b0 8c 3d
       -0.16419834 -0.077071115 0.16690914 0.06869568
0001c0 90 f6 1d 3e ea e1 e9 3d ef 73 a1 bd d1 22 50 ba
       0.15426087 0.11420043 -0.07883441 -0.00079397584
0001d0 b3 4b e8 3d d8 e3 d9 3d 39 7a f8 3b 93 48 aa bc
       0.113425635 0.10639161 0.0075829295 -0.02078656
0001e0 ab 9c 3d bb 4a 8f 84 bd 74 4b 9d 3d 4e e9 5b bd
       -0.0028932493 -0.06472643 0.07680407 -0.053689294
0001f0 18 3a ec 3d d3 72 eb 3d b3 8d 06 be 5a f1 ad bd
       0.11534518 0.1149651 -0.13139991 -0.084933
000200 d1 9c 14 3e f5 51 55 bd 62 a8 26 be 4c 19 29 be
       0.14512946 -0.052080113 -0.1627517 -0.16513556
000210 4a 66 a4 3d 00 80 a3 bd 27 2d 06 be 89 1f 8b 3d
       0.080273226 -0.079833984 -0.13103162 0.06793124
000220 e8 e8 45 3d de 98 49 3c 0e 91 38 bc 70 fa ad 3a
       0.04831782 0.012304513 -0.0112650525 0.0013273489
000230 37 53 3a bb 0b 02 cb 3d ca 8c 0f bd 9c bb 62 3d
       -0.0028430948 0.09912499 -0.035046376 0.0553547
000240 9a 21 fc bd 4e 64 5f ba 5b b7 ea 3c 15 c7 84 3c
       -0.123110965 -0.00085217215 0.028651884 0.016208211
000250 7d 13 1b be f1 19 18 bd 95 a4 60 bd a9 2a 17 3e
       -0.15144153 -0.037134115 -0.054844458 0.14762367
000260 c8 ac e7 bd f8 a1 08 3e 8c eb 0a be 11 a8 34 3e
       -0.11312252 0.13343036 -0.13566417 0.17642237
000270 04 57 f4 bc f5 bd ea bb 4a 7f 96 3a e3 fb 77 bd
       -0.029826649 -0.007163758 0.0011482027 -0.060542952
000280 26 d5 e9 bc 13 3b ad 3d 17 72 3b 3d fa ba 20 bd
       -0.02854402 0.08458533 0.0457631 -0.039240815
000290 9d ac 4c 3d 06 bf e9 3d 6f 55 8d 3d 36 df 42 3d
       0.049969304 0.11413388 0.06901061 0.04757615
0002a0 e1 e7 0e be 5f 69 99 3d 3f 22 5a bc 45 89 50 bd
       -0.13955642 0.07490801 -0.013313829 -0.05091216
0002b0 ae 96 1b 3e 85 58 d9 3c c0 61 22 be 90 bf 0a be
       0.15194198 0.026531467 -0.15857601 -0.13549638
0002c0 b3 06 4c 3d 58 df db bc aa db 0c 3a ed 55 1e 3e
       0.049811076 -0.026839897 0.00053733087 0.15462466
0002d0 05 b9 22 bb 01 2e 36 bd 69 55 be 3d 74 8e e6 3d
       -0.0024829519 -0.044477466 0.092936344 0.112576395
0002e0 f0 86 bd bc ea 76 94 bc 53 48 2f 3d ac b3 58 3d
       -0.023135632 -0.018123109 0.042793583 0.052905723
0002f0 7a a0 2a 3e e4 06 05 be e1 8e 67 3d 4f ec 08 3d
       0.1666278 -0.1299091 0.056532744 0.033428486
000300 68 10 0b 3e 97 f2 c2 bc 0e 87 19 3e 07 b5 2b be
       0.13580477 -0.023797316 0.14992926 -0.16768275
000310 ae ce 01 3d 7d 3e 13 3e 02 0c 2f 3e f3 a4 2b be
       0.031691246 0.14379306 0.17094424 -0.16762142
000320 97 55 d3 bd 79 ef ec bd 8f 86 3c bd 5b 67 46 bd
       -0.10319059 -0.11569113 -0.046026763 -0.04843841
000330 02 3b 9f bd 59 ab 7f 3c 6f 2d 08 bc d6 5a 87 bc
       -0.07774927 0.015604817 -0.008311613 -0.016522806
000340 3e 72 b9 3d 48 60 ed 3d c8 3f 98 bd 2b 9a e8 bd
       0.09054993 0.1159063 -0.0743404 -0.1135753
000350 b2 d3 ed 3d fb cf 1e bd 62 06 44 3d 59 7c 2e 3e
       0.11612643 -0.038772564 0.04785765 0.17039622
000360 ec 63 c6 bd 52 c9 0b 3e c8 46 4e 3d 45 49 63 bc
       -0.09687027 0.13651016 0.05036047 -0.013872449
000370 fa e5 8a bd e4 3b ad 3b 5e 00 e3 bb b5 ee 17 3e
       -0.06782146 0.0052866805 -0.006927534 0.14837153
000380 08 c3 11 bd ad c2 bb bd d0 cf 94 3c 7a b8 8d bc
       -0.035586387 -0.09167991 0.018165499 -0.01729988
000390 dc b3 0d 3d 5d db e5 bc 52 1b 31 3e 5f 1d a8 bc
       0.034595355 -0.028058702 0.17295578 -0.020521818
0003a0 61 2a e7 3d 3d f8 ba bc 52 fb fb bd 2b 35 2f 3e
       0.1128738 -0.022823447 -0.12303795 0.17110126
0003b0 88 ff dd 3b bb be e3 3d 6a 5f 34 3e eb 9a 9d bd
       0.0067748465 0.11120363 0.17614523 -0.07695564
0003c0 0e 76 11 3e 6a eb e8 bd 60 f9 ac bd 8c 37 34 3d
       0.1420519 -0.11373027 -0.08446002 0.043998286
0003d0 9c 08 1b 3e b3 a1 a0 39 f1 07 f2 bd 70 d8 04 3e
       0.15140003 0.00030638053 -0.11817921 0.1297319
0003e0 11 52 5d 3d c5 ba 00 bd 23 61 17 3e 34 b7 0c be
       0.054033343 -0.031428117 0.14783148 -0.13741761
0003f0 90 d1 65 3d c8 d2 18 be 27 9f a8 3d 4a 77 dd 3d
       0.056108057 -0.14924157 0.08233481 0.10813768

forward_blocks.0.lin.bias f4 [32]
000000 c2 1d a1 3d e9 7a c5 bd 0b 8c a1 3c f7 eb 33 3d
       0.07867004 -0.09642584 0.019720098 0.043926205
000010 db ce 00 3e 00 28 c8 3d 6e b9 d3 3c a1 79 28 3e
       0.12578909 0.097732544 0.025845256 0.16452648
000020 1e 10 e6 bd d8 cf 4b bd 5a 28 eb 3d e8 d4 fc 3d
       -0.11233543 -0.049758762 0.11482306 0.12345296
000030 49 15 35 bd b3 60 33 be e2 b5 ac 3d ea a1 05 be
       -0.044209752 -0.17517357 0.08433129 -0.13050047
000040 8c c6 6e bd a4 61 2c be 32 a0 d5 bd 39 56 fc bd
       -0.058294818 -0.16834122 -0.104309455 -0.12321133
000050 12 de fd bd 65 cf 83 bd b7 79 18 3e 8f ef f2 bc
       -0.12395872 -0.06436042 0.1489018 -0.029655246
000060 d0 06 99 bc 4a 2a b9 3d f7 3c 1b 3e 82 6c 56 bd
       -0.018680006 0.09041269 0.15159975 -0.052349575
000070 9c 0b 08 3e 28 df f2 bd 60 b2 64 3d 80 bc 02 3e
       0.13285679 -0.1185897 0.055834174 0.1276722

forward_blocks.0.bn1.weight f4 [1000]
000000 de a0 80 3f 29 00 81 3f 2e d1 7e 3f c5 12 81 3f
       1.0049093 1.0078174 0.9953793 1.0083853
000010 d2 e9 80 3f 9c 6d 7e 3f 8a e4 80 3f 54 d2 80 3f
       1.0071356 0.99386 1.0069745 1.0064187
000020 1b d1 80 3f 05 e9 80 3f 57 c5 80 3f 55 e2 80 3f
       1.0063814 1.0071112 1.0060223 1.0069071
000030 e8 bd 7f 3f a1 a8 7e 3f 05 c6 80 3f f3 01 81 3f
       0.9989915 0.9947606 1.0060431 1.007872
000040 68 da 80 3f 60 cc 80 3f 0e ff 80 3f 4e db 80 3f
       1.0066652 1.006237 1.0077837 1.0066926
000050 ce e1 7e 3f 38 e6 80 3f f4 d7 80 3f 65 63 7e 3f
       0.995633 1.0070257 1.0065904 0.99370414
000060 c1 79 7e 3f 06 f1 80 3f a3 fc 7d 3f 55 91 7e 3f
       0.9940453 1.0073555 0.9921362 0.9944051
000070 ec c2 80 3f 12 06 81 3f ca 8e 80 3f 37 cb 80 3f
       1.0059485 1.0079978 1.0043576 1.0062016
000080 81 be 80 3f 9e 97 80 3f ad 8b 7e 3f c9 93 7e 3f
       1.0058137 1.004627 0.9943188 0.9944425
000090 19 f0 80 3f e2 8a 7e 3f 1d 19 81 3f 1f 17 81 3f
       1.0073272 0.9943067 1.0085789 1.0085181
0000a0 6a ce 80 3f d8 cd 80 3f 97 5e 7e 3f da a7 7e 3f
       1.0062993 1.0062819 0.9936308 0.9947487
0000b0 29 85 80 3f 6f da 7e 3f 73 f1 80 3f c2 75 7e 3f
       1.0040637 0.99552053 1.0073684 0.99398434
0000c0 31 c6 80 3f d2 a9 80 3f 3f ed 80 3f fe 4b 7e 3f
       1.0060483 1.0051825 1.0072402 0.99334705
0000d0 ca 9f 7e 3f fc e5 80 3f c5 cb 80 3f e2 6f 7e 3f
       0.9946257 1.0070186 1.0062186 0.9938947
0000e0 51 c5 80 3f cc 10 81 3f 2c d3 80 3f 9b e2 80 3f
       1.0060216 1.0083251 1.0064445 1.0069155
0000f0 42 0a 7e 3f 76 c6 80 3f 06 c3 80 3f fb 1d 7e 3f
       0.992344 1.0060565 1.0059516 0.99264497
000100 38 14 81 3f 60 c3 80 3f 7a bf 80 3f fb 2c 80 3f
       1.0084295 1.0059624 1.0058434 1.0013727
000110 71 d7 80 3f ad e3 80 3f 83 f1 80 3f 89 cd 7e 3f
       1.0065747 1.0069481 1.0073704 0.9953237
000120 40 5b 7e 3f fe 78 7e 3f be c2 80 3f 3e 12 81 3f
       0.99357986 0.9940337 1.0059431 1.0083692
000130 66 b8 80 3f 4e 9a 7e 3f 55 b9 80 3f ba 2a 7e 3f
       1.0056274 0.994542 1.0056559 0.99283946
000140 99 05 7f 3f ba f7 7e 3f 83 fd 7f 3f 41 8e 7e 3f
       0.99617916 0.9959675 0.99996203 0.9943581
000150 f6 44 7f 3f 7c bc 80 3f 54 e2 80 3f d3 a3 7e 3f
       0.997146 1.0057521 1.006907 0.99468726
000160 93 c7 80 3f 04 d3 80 3f e2 61 7e 3f 98 e1 80 3f
       1.0060905 1.0064397 0.9936811 1.0068846
000170 79 b5 80 3f 13 d2 80 3f 07 6a 7f 3f 16 7a 7e 3f
       1.0055381 1.006411 0.9977116 0.9940504
000180 26 ba 80 3f 67 a0 7e 3f 99 1a 81 3f 28 bb 80 3f
       1.0056808 0.99463505 1.0086242 1.0057116
000190 02 d0 80 3f cb da 80 3f d5 c1 7e 3f 15 17 81 3f
       1.0063479 1.006677 0.99514514 1.0085169
0001a0 26 ff 7e 3f 98 e7 80 3f b7 29 81 3f 16 ca 80 3f
       0.99608076 1.0070677 1.0090855 1.0061672
0001b0 51 e3 7e 3f 1a b3 80 3f 79 00 7f 3f c9 36 80 3f
       0.9956561 1.0054657 0.99610096 1.0016719
0001c0 1b ce 7f 3f 90 76 80 3f ac d3 80 3f 15 5a 7e 3f
       0.99923867 1.0036182 1.0064597 0.99356204
0001d0 d7 3d 7e 3f 80 d0 80 3f 41 40 7e 3f 10 b8 7e 3f
       0.9931311 1.0063629 0.99316794 0.9949961
0001e0 7c 03 81 3f 4f 73 7e 3f 7d ec 80 3f 9e c0 7e 3f
       1.0079188 0.99394697 1.007217 0.9951266
0001f0 52 a9 7e 3f 52 75 80 3f d4 f7 80 3f f4 8a 7e 3f
       0.9947711 1.0035803 1.0075631 0.99430776
000200 56 7a 7e 3f a2 ff 7d 3f 61 c9 80 3f f3 d9 80 3f
       0.9940542 0.9921819 1.0061456 1.0066513
000210 15 7e 7e 3f 76 df 80 3f 3c cd 80 3f bf d1 80 3f
       0.99411136 1.0068195 1.0062633 1.006401
000220 3c c4 80 3f 0d 28 7e 3f 0b b7 80 3f 50 5d 80 3f
       1.0059886 0.9927986 1.005586 1.0028477
000230 d1 b3 80 3f 0d a1 7e 3f c1 e8 80 3f f3 85 80 3f
       1.0054876 0.99464494 1.0071031 1.0040878
000240 e8 b6 7e 3f 49 f2 7e 3f 56 d5 80 3f 60 dc 7e 3f
       0.9949784 0.9958845 1.0065105 0.99555016
000250 7a cd 7e 3f 38 a7 7e 3f 70 d3 80 3f 26 e0 80 3f
       0.9953228 0.99473906 1.0064526 1.0068405
000260 fd ca 80 3f 4d 36 7f 3f 95 c3 80 3f 4d e4 80 3f
       1.0061947 0.9969223 1.0059687 1.0069672
000270 71 af 7e 3f 05 c0 80 3f 9d e9 7e 3f d6 64 7e 3f
       0.9948645 1.00586 0.99575216 0.99372613
000280 4a 9a 7e 3f 08 dc 80 3f df 6f 7e 3f 4b a8 7e 3f
       0.99454176 1.0067148 0.9938945 0.99475545
000290 ee 19 81 3f f7 d2 80 3f 6d 6a 7e 3f 34 a3 7e 3f
       1.0086038 1.0064381 0.9938114 0.9946778
0002a0 cb e2 80 3f e0 e1 80 3f 7b d2 80 3f 76 ef 80 3f
       1.0069212 1.0068932 1.0064234 1.0073078
0002b0 78 9c 7e 3f ec d5 80 3f a0 b5 80 3f 5e d8 80 3f
       0.994575 1.0065284 1.0055428 1.006603
0002c0 f9 8a 80 3f 2b c3 80 3f 1d 66 7f 3f c5 db 80 3f
       1.0042411 1.005956 0.9976519 1.0067068
0002d0 57 39 80 3f b4 f7 80 3f 1e fb 80 3f 76 da 7e 3f
       1.0017499 1.0075593 1.0076635 0.99552095
0002e0 29 db 80 3f 4c cc 80 3f f9 21 7e 3f 7a 87 7e 3f
       1.0066882 1.0062346 0.9927059 0.9942547
0002f0 e7 c5 80 3f 20 bd 80 3f d3 61 7e 3f cf 1e 7e 3f
       1.0060395 1.0057716 0.9936802 0.9926576
000300 12 dc 80 3f f2 fc 7d 3f 1f ce 80 3f 80 de 80 3f
       1.006716 0.9921409 1.0062903 1.0067902
000310 31 06 81 3f 60 cd 80 3f 4a cd 80 3f 9d 6e 7e 3f
       1.0080014 1.0062675 1.0062649 0.9938753
000320 ba 99 80 3f 89 b8 80 3f b7 75 80 3f a7 6a 80 3f
       1.0046914 1.0056316 1.0035924 1.0032548
000330 29 d4 80 3f ec db 80 3f 63 c1 80 3f fb e5 7d 3f
       1.0064746 1.0067115 1.0059017 0.9917905
000340 14 82 7e 3f 3e bf 80 3f 0e 09 81 3f 34 b5 80 3f
       0.99417233 1.0058362 1.0080888 1.0055299
000350 53 a0 80 3f 30 cd 80 3f 3b 84 7e 3f bd bc 80 3f
       1.0048927 1.0062618 0.9942052 1.0057598
000360 2c e6 80 3f 06 26 7e 3f fa 4e 7f 3f b0 b5 80 3f
       1.0070243 0.9927677 0.99729884 1.0055447
000370 b2 b6 80 3f d6 9f 7e 3f 66 b9 7e 3f b9 e9 80 3f
       1.0055754 0.9946264 0.99501646 1.0071326
000380 f3 25 7f 3f f2 b9 80 3f 96 83 7e 3f 62 9e 80 3f
       0.9966728 1.0056746 0.99419534 1.0048335
000390 7e e4 80 3f 3f 1d 80 3f ac 58 7e 3f 0b b1 80 3f
       1.006973 1.0008925 0.9935405 1.0054029
0003a0 d2 a2 80 3f 9a 72 7e 3f c9 a0 80 3f 9c d9 80 3f
       1.0049689 0.9939362 1.0049068 1.0066409
0003b0 8c 7e 7e 3f d1 c9 80 3f 11 d8 80 3f f3 43 7e 3f
       0.99411845 1.006159 1.0065938 0.9932243
0003c0 e0 a3 80 3f 2e 85 7e 3f e3 cb 80 3f 62 c1 80 3f
       1.0050011 0.99421966 1.0062221 1.0059016
0003d0 5f 8e 7e 3f 72 a8 80 3f cd c7 80 3f 9c bd 80 3f
       0.9943599 1.0051405 1.0060974 1.0057864
0003e0 55 80 80 3f 68 b1 80 3f e9 7e 80 3f 8d a1 80 3f
       1.0039164 1.005414 1.003873 1.0049301
0003f0 9f dd 80 3f 99 2f 7e 3f 59 da 7d 3f e2 c3 80 3f
       1.0067633 0.9929138 0.991613 1.0059779

forward_blocks.0.bn1.bias f4 [1000]
000000 42 fe 58 bb 3d 26 51 ba b1 84 d5 bb aa af bd bb
       -0.0033110534 -0.0007978415 -0.006516062 -0.005788763
000010 99 29 c9 3b fc 78 fb 3b 1c 04 c3 bb 32 58 ae bb
       0.006138992 0.0076743346 -0.0059514176 -0.0053205723
000020 cd f7 ce 3b ae c5 c7 3b b0 a4 a1 bb a8 9a af bb
       0.0063161612 0.0060965633 -0.0049329624 -0.0053590126
000030 ce 4f ee 3b 5c 53 cb 3b a9 13 bb bb 0c 4c b6 bb
       0.007272697 0.0062050056 -0.005709131 -0.0055632647
000040 7c 84 c6 bb 98 9d 7a ba e7 7b c3 bb 93 98 d0 3b
       -0.006058274 -0.00095602265 -0.005965698 0.0063658445
000050 4c 47 ba bb fc d3 b6 bb e7 e1 ba bb ad 9c 07 3c
       -0.005684769 -0.0055794697 -0.005703199 0.0082771005
000060 cb 58 b9 bb b7 68 c0 bb e2 99 96 bb f1 b5 a2 bb
       -0.005656337 -0.005871858 -0.004595981 -0.0049655368
000070 43 eb b8 bb ab f3 b7 bb d7 25 bc bb 6e 11 c6 bb
       -0.0056432798 -0.0056137643 -0.0057418155 -0.0060445582
000080 f0 0c b9 bb 56 47 d3 bb 17 22 c7 bb e1 7f c2 bb
       -0.005647294 -0.006447713 -0.006077062 -0.0059356545
000090 04 62 ca bb 49 28 ae bb 1c 31 ab bb 92 ee c4 bb
       -0.006176235 -0.005314861 -0.00522436 -0.006009885
0000a0 37 a1 b9 bb df 9d c1 bb 3a 50 bd bb 68 6a bb bb
       -0.0056649703 -0.0059087123 -0.005777386 -0.0057194717
0000b0 96 3b 98 bb 8c 75 b7 bb e8 45 ca bb 15 fd bb bb
       -0.004645775 -0.0055987295 -0.0061728843 -0.005736957
0000c0 e9 a1 c3 bb 30 52 bb bb 7d 43 b7 bb d7 b6 c7 bb
       -0.005970229 -0.0057165846 -0.005592762 -0.0060947943
0000d0 7f 63 c3 bb e8 c2 cd bb d7 91 f0 3b c3 42 bf bb
       -0.0059627886 -0.006279338 0.007341604 -0.005836816
0000e0 7c a0 a9 bb 83 8e c1 bb 1f fb ba bb 4b 8c be bb
       -0.005176602 -0.0059068813 -0.0057062055 -0.005815064
0000f0 51 3c 39 bb 57 06 bd bb 02 65 b7 bb c7 9b db 3b
       -0.002826471 -0.005768578 -0.005596758 0.0067019197
000100 65 ed c0 bb 9f ff b7 bb e2 42 b5 bb 8f 99 b4 bb
       -0.0058876746 -0.005615189 -0.0055316547 -0.0055114697
000110 34 ec b6 bb a1 1e aa bb a4 6f be bb 27 cd af bb
       -0.005582357 -0.0051916395 -0.0058116484 -0.0053650322
000120 41 6b b9 bb 14 be ba bb 5f 8c ae bb 31 c2 b9 bb
       -0.0056585376 -0.0056989286 -0.005326792 -0.0056689014
000130 ea cb b6 bb 0e 73 ce bb a6 b7 bd bb e4 73 c1 bb
       -0.0055785077 -0.0063003367 -0.005789715 -0.005903708
000140 cd 36 c2 bb cb ce bc bb 58 c9 b7 bb 1d 1b 0a 3c
       -0.005926943 -0.0057619563 -0.005608719 0.008429316
000150 1b a5 ce bb 4b 44 c4 3b 03 14 ca bb 66 85 be bb
       -0.006306303 0.0059895865 -0.0061669364 -0.005814242
000160 62 50 ce bb fc bc bb bb f1 c8 c5 bb 00 c4 b2 bb
       -0.0062962035 -0.005729316 -0.006035917 -0.005455494
000170 7d 7b b6 bb 54 33 c1 bb 3f fd a4 bb 11 9b d0 3b
       -0.00556892 -0.0058960114 -0.005035072 0.0063661416
000180 58 8c 8c bb 0f 9a c3 bb 74 9f 9f bb 03 5b b8 bb
       -0.004289191 -0.005969293 -0.004871303 -0.005626084
000190 53 c4 c2 bb 6b cb c3 bb 07 55 b9 bb 99 00 c4 bb
       -0.005943814 -0.005975177 -0.005655888 -0.0059815166
0001a0 dd 1d b2 bb a7 7d c3 bb 43 cb b4 bb 20 df c5 bb
       -0.005435689 -0.0059659067 -0.0055173947 -0.0060385615
0001b0 c5 5f b6 bb 2f 22 bb bb 49 1f ba bb af 2a b1 bb
       -0.005565616 -0.005710862 -0.005679999 -0.0054066996
0001c0 96 fd bc bb 32 2e 8d bb d4 ee c1 bb 43 9a ae bb
       -0.0057675345 -0.0043084854 -0.005918363 -0.005328448
0001d0 02 a1 04 3c b7 40 9f bb 2e 66 b6 39 b0 cf b7 bb
       0.008095028 -0.0048600095 0.00034789875 -0.005609475
0001e0 46 03 b4 bb 59 d6 b8 bb 3f a6 be bb 64 47 bb bb
       -0.0054935543 -0.0056407866 -0.005818158 -0.0057152975
0001f0 95 33 9b bb 7c dd be bb d5 8f c7 bb ad 13 ba bb
       -0.0047363737 -0.005824743 -0.006090144 -0.005678615
000200 bd 1a b8 bb 3d 28 b1 bb 85 1f c2 bb 55 d5 a4 bb
       -0.005618422 -0.005406408 -0.0059241676 -0.005030314
000210 45 1c b6 bb 9f 89 ab bb c4 ed 9a bb 03 74 ce bb
       -0.005557569 -0.0052349116 -0.004728051 -0.006300451
000220 31 97 c7 bb ad 30 0d 3c bd 65 c0 bb af 46 b4 bb
       -0.0060910215 0.008617562 -0.005871503 -0.00550159
000230 4d 54 b1 bb ad c3 b3 bb 1c 1a a4 bb 0a 44 b3 bb
       -0.0054116608 -0.005485973 -0.0050079953 -0.0054707574
000240 d7 dc be bb 1c 66 c5 bb 16 42 ba bb 48 cf c3 bb
       -0.005824666 -0.0060241353 -0.0056841476 -0.0059756376
000250 99 bc d8 bb b4 3a c6 bb 15 6f bb 3b 1a 59 ad bb
       -0.0066142795 -0.0060494784 0.005720029 -0.0052901627
000260 4b 0a 65 bb 84 61 09 3c 25 39 b5 bb 6e 2a af 3b
       -0.0034948762 0.008385066 -0.005530494 0.005345634
000270 d6 8c c8 bb cf 12 c6 bb 48 73 cf bb 25 e6 b8 bb
       -0.0061203046 -0.0060447226 -0.0063308813 -0.0056426697
000280 93 6b bc bb e0 01 b2 bb d4 2e b3 bb 35 de c9 bb
       -0.0057501285 -0.0054323524 -0.005468229 -0.0061605223
000290 f3 71 c8 3b 2e e6 b5 bb 85 ec a6 bb 98 70 ba bb
       0.0061170994 -0.005551121 -0.0050941133 -0.0056896918
0002a0 4a 88 c5 bb 6d 7f b3 bb b0 c5 bc bb a3 a4 c6 bb
       -0.00602821 -0.005477837 -0.005760871 -0.0060621067
0002b0 59 69 d0 bb c0 5e a0 bb 80 0f ac bb f0 7d be bb
       -0.0063602147 -0.0048941076 -0.005250871 -0.0058133528
0002c0 28 ac c3 bb 5d dd c2 bb 2e 2d c7 bb 05 42 be bb
       -0.0059714504 -0.0059467987 -0.006078384 -0.00580621
0002d0 ac d1 c7 bb ca 6d c4 bb 5b 7e bc bb 06 7c d1 bb
       -0.006097993 -0.005994533 -0.0057523674 -0.0063929586
0002e0 67 8c c3 bb 39 5f c0 bb 57 37 84 bb 2e aa c7 bb
       -0.005967665 -0.0058707264 -0.0040349173 -0.006093285
0002f0 43 ee a3 bb 99 99 bc bb c9 df bc bb 08 cb 38 bb
       -0.0050027682 -0.005755615 -0.005763982 -0.0028197188
000300 ea 2d b2 bb 9c 53 af bb ee a5 ba bb 1f db a8 bb
       -0.0054376023 -0.005350543 -0.00569605 -0.0051530744
000310 3a c1 b2 bb db 67 be bb cd 1e c1 bb 30 24 9b bb
       -0.0054551633 -0.0058107204 -0.0058935643 -0.0047345385
000320 42 dc a1 bb ab 0b ae bb b4 a1 c0 bb db e7 aa bb
       -0.004939587 -0.0053114495 -0.0058786515 -0.0052156276
000330 2c 1d bd bb 57 f1 c4 bb 6b 1a ad bb fc 04 c2 bb
       -0.0057713 -0.0060102153 -0.0052826903 -0.0059210043
000340 9b aa c5 bb d3 d1 ad bb be e5 98 bb b7 a1 a8 bb
       -0.0060323006 -0.005304554 -0.0046660593 -0.005146231
000350 86 72 a5 bb a5 12 b4 bb 72 94 b4 bb b2 da bf bb
       -0.0050490526 -0.0054953867 -0.00551086 -0.005854928
000360 39 1a d9 bb 64 13 2d ba 0a bd b6 bb d5 3c b8 bb
       -0.0066254404 -0.00066023157 -0.0055767344 -0.005622486
000370 57 3c 93 bb 97 f1 32 3a 0d 1a d4 bb e9 e8 c5 bb
       -0.004493277 0.0006826161 -0.006472832 -0.006039728
000380 55 76 cf bb 77 b7 be bb ef d6 c0 bb d9 96 bb bb
       -0.006331245 -0.0058202106 -0.005884997 -0.0057247696
000390 de 88 b2 bb 3a 30 e8 bb e0 99 a5 bb dd 2a ba bb
       -0.0054484447 -0.007085827 -0.0050537437 -0.005681379
0003a0 8b ed b4 bb b1 c5 ad bb e2 81 ba bb 6d 51 b8 bb
       -0.0055214814 -0.0053031077 -0.005691753 -0.005624941
0003b0 33 d8 a8 bb e9 87 c0 bb 88 44 bd bb e3 73 61 ba
       -0.005152726 -0.0058755768 -0.005775992 -0.00086003373
0003c0 42 e9 a5 bb 35 38 0f bb e6 9b a1 3b 8b 02 ba bb
       -0.005063207 -0.002185357 0.0049319146 -0.0056765727
0003d0 90 1b ef 3b d7 bd a5 bb c9 8b a5 bb 08 f4 93 bb
       0.007296987 -0.005058031 -0.005052064 -0.004515175
0003e0 c2 7f c2 bb e9 f4 bc bb 3d 3a 88 3a 9a f8 be bb
       -0.00593564 -0.0057665003 0.0010393333 -0.0058279755
0003f0 ba 79 c3 bb 11 ad e5 3b e9 25 c2 bb 95 38 be bb
       -0.0059654387 0.0070091565 -0.0059249294 -0.005805085

forward_blocks.0.bn1.running_mean f4 [1000]
000000 c1 31 cf bc 1f e3 dc bc 99 ab ea bc ac 3e f3 bc
       -0.02529228 -0.026963769 -0.028646277 -0.02969297
000010 c0 0f f1 bc 4e cd f8 bc 25 9e fc bc ae 16 01 bd
       -0.029426455 -0.030371334 -0.030837128 -0.03151577
000020 5a 2d ff bc 54 0a 03 bd c8 f9 04 bd bc d7 06 bd
       -0.031149555 -0.03199227 -0.032464772 -0.032920584
000030 6c 1a 05 bd 22 17 07 bd f7 b3 09 bd ea 49 09 bd
       -0.0324959 -0.032981046 -0.033618893 -0.033517756
000040 03 76 07 bd f0 47 09 bd cb 04 09 bd 45 36 0a bd
       -0.03307153 -0.03351587 -0.033451837 -0.03374316
000050 2f da 0a bd 44 5a 0b bd 60 86 0a bd fb e4 0b bd
       -0.033899482 -0.03402163 -0.033819556 -0.03415392
000060 ce 9e 0b bd 3d fa 0a bd 3d 6a 0a bd 5e 2a 0b bd
       -0.034086995 -0.033930052 -0.033792723 -0.03397595
000070 35 da 0a bd 11 a9 0b bd 86 9a 0b bd 00 bb 0a bd
       -0.033899505 -0.03409678 -0.034082912 -0.033869743
000080 13 9d 09 bd 50 19 0b bd b2 8b 0a bd 4b 9b 0a bd
       -0.033597063 -0.033959687 -0.03382463 -0.033839505
000090 f6 0a 0b bd 9f 24 0b bd e7 09 0b bd ce 7f 0b bd
       -0.033946 -0.03397047 -0.03394499 -0.03405743
0000a0 d5 25 0a bd 1b 4a 0c bd b1 68 0b bd ea 70 0b bd
       -0.033727486 -0.03425036 -0.03403539 -0.03404323
0000b0 db 53 0c bd 9d 2c 0c bd 07 1e 0c bd 82 23 0c bd
       -0.03425966 -0.034222234 -0.034208324 -0.03421355
0000c0 f5 44 0c bd a7 97 0e bd 76 51 0d bd 1c 87 0d bd
       -0.03424545 -0.034812596 -0.034501515 -0.03455268
0000d0 b6 e2 0d bd 4d 42 0e bd 11 16 0f bd bb ce 0f bd
       -0.034640037 -0.034731198 -0.034933154 -0.035109263
0000e0 90 c1 0e bd 04 69 0f bd 11 ba 0f bd 61 17 12 bd
       -0.034852564 -0.03501226 -0.035089556 -0.035666827
0000f0 12 c6 12 bd 4a 2b 12 bd 3a 45 13 bd f7 0b 15 bd
       -0.035833426 -0.035685815 -0.03595469 -0.036388364
000100 09 7c 14 bd d9 fd 13 bd ed 91 15 bd 36 a9 16 bd
       -0.0362511 -0.03613076 -0.03651612 -0.036782466
000110 27 f1 15 bd df 16 17 bd 12 df 17 bd af 8a 18 bd
       -0.036606934 -0.036887046 -0.03707797 -0.037241634
000120 ef ed 18 bd f3 03 19 bd 4a 52 18 bd 56 d5 19 bd
       -0.037336286 -0.037357282 -0.037187852 -0.03755697
000130 16 04 1b bd 7b c9 1b bd 08 0a 1d bd 85 8a 1d bd
       -0.037845694 -0.038033944 -0.038339645 -0.03846218
000140 5d fe 1d bd 45 29 1f bd 2b 60 20 bd 2d 62 21 bd
       -0.038572658 -0.038857717 -0.039154213 -0.03940027
000150 50 58 21 bd ad 49 21 bd fe ae 21 bd cd 8d 22 bd
       -0.039390862 -0.039376903 -0.039473526 -0.039686013
000160 11 d4 23 bd 7e 9d 22 bd f3 d5 23 bd 3c 97 24 bd
       -0.039997164 -0.039700978 -0.03999896 -0.04018329
000170 d8 15 25 bd fd 74 25 bd 41 51 25 bd 07 f0 24 bd
       -0.040304035 -0.04039477 -0.040360693 -0.04026797
000180 00 7e 25 bd bb 11 25 bd 01 2a 26 bd 33 43 26 bd
       -0.040403366 -0.040300112 -0.0405674 -0.04059143
000190 b3 1c 27 bd 7d 17 27 bd 92 9d 26 bd fe 05 27 bd
       -0.040798854 -0.040793885 -0.040677615 -0.0407772
0001a0 63 3e 28 bd 76 e5 27 bd a7 a6 27 bd 28 de 27 bd
       -0.04107512 -0.040990315 -0.040930416 -0.04098335
0001b0 09 33 28 bd 9b 33 29 bd 20 b4 28 bd a3 5e 28 bd
       -0.041064296 -0.04130898 -0.041187406 -0.041105878
0001c0 a2 a8 28 bd 9b d6 28 bd 00 25 29 bd e9 df 29 bd
       -0.041176446 -0.04122029 -0.04129505 -0.041473303
0001d0 e1 5d 2a bd 16 7e 29 bd 35 22 29 bd aa 16 2b bd
       -0.041593436 -0.04138001 -0.041292388 -0.04176966
0001e0 2c d9 28 bd 5f 52 2a bd 2e 3b 2b bd a1 33 2a bd
       -0.041222736 -0.04158246 -0.041804485 -0.041553143
0001f0 27 67 2a bd 4b 2c 2b bd de 49 2b bd e1 91 2a bd
       -0.04160228 -0.041790288 -0.041818492 -0.041643027
000200 7b 74 2a bd dc 58 2b bd 92 54 2a bd 79 f6 2a bd
       -0.04161499 -0.04183279 -0.04158456 -0.04173896
000210 0d c1 2b bd 9e bf 2a bd b0 3b 2b bd db 1d 2c bd
       -0.041932154 -0.041686647 -0.04180497 -0.04202066
000220 f4 de 2b bd a6 79 2c bd ab 9b 2c bd e6 c9 2c bd
       -0.04196067 -0.0421082 -0.042140644 -0.042184733
000230 7e 1e 2d bd 20 a6 2c bd 8c c1 2b bd e9 c8 2b bd
       -0.042265408 -0.042150617 -0.041932628 -0.04193965
000240 81 9c 2b bd ef c5 2b bd 16 ab 2b bd 83 a7 2c bd
       -0.0418973 -0.04193681 -0.041911207 -0.04215194
000250 dd e4 2b bd ba 62 2b bd fa 55 2c bd aa 3b 2c bd
       -0.041966308 -0.0418422 -0.04207418 -0.042049088
000260 a6 71 2c bd 5f ec 2d bd 2c d7 2c bd d9 6b 2c bd
       -0.04210057 -0.04246175 -0.04219739 -0.04209504
000270 e8 89 2b bd 66 3d 2c bd 11 64 2c bd 06 f2 2b bd
       -0.041879565 -0.04205074 -0.04208762 -0.04197886
000280 c3 48 2b bd 47 b0 2a bd f6 19 2b bd 2f 78 2a bd
       -0.041817438 -0.041672017 -0.041772805 -0.041618522
000290 3f c1 2a bd 87 11 29 bd c0 8c 2a bd 0d e7 29 bd
       -0.0416882 -0.04127648 -0.041638136 -0.041480113
0002a0 f1 02 2a bd f8 60 29 bd 1e 81 29 bd 33 9a 28 bd
       -0.04150671 -0.041352242 -0.0413829 -0.04116268
0002b0 0b 39 28 bd e6 ef 27 bd 25 e5 28 bd 68 28 27 bd
       -0.041070025 -0.04100027 -0.041234154 -0.04081002
0002c0 d9 de 26 bd a0 60 26 bd 59 23 26 bd 10 10 26 bd
       -0.040739868 -0.040619493 -0.040561054 -0.040542662
0002d0 93 cc 25 bd 10 56 24 bd 40 fe 24 bd 9c cb 25 bd
       -0.0404783 -0.040121138 -0.040281534 -0.04047738
0002e0 ab f4 24 bd 8d c4 24 bd b7 a3 23 bd 7d aa 23 bd
       -0.040272396 -0.040226508 -0.039951053 -0.039957512
0002f0 82 ec 22 bd 69 d3 22 bd 8e ab 22 bd ac 66 21 bd
       -0.039776333 -0.039752398 -0.03971439 -0.039404556
000300 92 4a 21 bd 1f 42 22 bd 6d 26 20 bd 01 fb 1e bd
       -0.039377756 -0.03961384 -0.039099146 -0.038813595
000310 7b c0 1d bd 60 d9 1d bd 3f 2d 1c bd c5 0f 1c bd
       -0.03851364 -0.038537383 -0.038129088 -0.038100976
000320 99 5e 1a bd 86 bb 19 bd 26 66 1a bd bf d9 18 bd
       -0.03768787 -0.037532352 -0.037695073 -0.037317034
000330 3a af 17 bd a2 53 17 bd 24 e1 15 bd 7a 0c 14 bd
       -0.037032343 -0.036944993 -0.036591664 -0.03614471
000340 25 31 15 bd b5 48 14 bd 52 ac 12 bd 82 df 11 bd
       -0.03642382 -0.03620215 -0.03580887 -0.035613544
000350 e1 5a 11 bd 11 c3 0f bd f4 97 0e bd 99 95 0e bd
       -0.03548706 -0.03509814 -0.034812883 -0.034810636
000360 46 45 0d bd d6 06 0d bd ce 93 0c bd d2 a0 0a bd
       -0.034489892 -0.034430347 -0.034320645 -0.033844776
000370 c8 20 0b bd 96 a1 09 bd 1b 01 07 bd 12 84 07 bd
       -0.03396681 -0.033601366 -0.03296004 -0.033084936
000380 34 6f 07 bd b0 5b 06 bd 78 eb 04 bd 7c 4f 04 bd
       -0.033065036 -0.032802284 -0.032451123 -0.032302365
000390 e7 37 02 bd 32 42 02 bd 8a d5 00 bd dd 0c ff bc
       -0.031791594 -0.03180141 -0.031453647 -0.031134063
0003a0 d5 4c fc bc e7 4b fb bc bf 61 f9 bc d4 2b f7 bc
       -0.030798355 -0.030675841 -0.030442117 -0.030172266
0003b0 0f 5c f4 bc d8 49 f2 bc d3 56 f2 bc 4d 9c f0 bc
       -0.029829053 -0.029576227 -0.029582417 -0.029371405
0003c0 0e 30 ef bc 19 c8 eb bc 17 18 e9 bc 29 62 e7 bc
       -0.029197719 -0.028781937 -0.02845387 -0.028245049
0003d0 26 27 e6 bc e4 f0 e3 bc 22 6e e3 bc 61 79 e1 bc
       -0.02809484 -0.027824827 -0.027762476 -0.027523698
0003e0 71 99 de bc 82 0e db bc 87 c8 db bc 7f fc d9 bc
       -0.027172776 -0.026740316 -0.026829017 -0.026609657
0003f0 f5 f0 d4 bc a4 e9 d3 bc f9 19 d2 bc f1 75 d1 bc
       -0.025993804 -0.025868244 -0.02564715 -0.025568934

forward_blocks.0.bn1.running_var f4 [1000]
000000 67 94 3a 3d e9 f2 3b 3d d5 0d 3e 3d 29 5d 3f 3d
       0.045551684 0.045885954 0.04639991 0.046719704
000010 09 1b 41 3d 75 25 43 3d 6d 60 44 3d 4b 68 45 3d
       0.047144923 0.047643144 0.04794352 0.048195165
000020 60 5a 46 3d 66 62 47 3d 25 34 48 3d a0 84 48 3d
       0.048426032 0.048677824 0.048877854 0.048954606
000030 0c 3a 49 3d 53 f6 49 3d 2d 34 4a 3d d1 dc 4a 3d
       0.049127623 0.04930718 0.049366165 0.049526993
000040 53 bc 4a 3d 1c 08 4b 3d de 82 4b 3d 0d 9c 4b 3d
       0.049496006 0.04956828 0.04968535 0.04970937
000050 9c a5 4c 3d 96 49 4c 3d 7b 9e 4c 3d 75 68 4d 3d
       0.049962625 0.049874865 0.049955826 0.050148446
000060 66 0d 4d 3d fd 8e 4d 3d 11 8f 4d 3d af 07 4e 3d
       0.050061606 0.050185192 0.050185267 0.050300296
000070 f5 eb 4d 3d 24 c2 4e 3d 86 42 4f 3d 1b 6a 4f 3d
       0.050273854 0.050478116 0.05060055 0.0506383
000080 92 e6 4e 3d 9f fb 4e 3d 27 e7 4f 3d 43 5c 50 3d
       0.050512858 0.050532933 0.050757553 0.050869238
000090 0e 95 50 3d f3 98 50 3d 3d 49 51 3d 74 e2 50 3d
       0.0509234 0.050927114 0.051095236 0.050997213
0000a0 d8 dc 50 3d fe 00 52 3d e2 4d 51 3d 47 ea 51 3d
       0.050991863 0.051270477 0.051099665 0.051248815
0000b0 ab 59 52 3d ab 32 53 3d 59 87 53 3d ab 13 53 3d
       0.051355045 0.051561993 0.05164275 0.05153243
0000c0 23 c0 53 3d 74 8d 54 3d 0e f9 53 3d 2e 77 54 3d
       0.051696908 0.051892713 0.05175119 0.05187147
0000d0 70 e8 54 3d e9 c3 55 3d ba ac 55 3d 17 c1 55 3d
       0.051979482 0.052188788 0.052166678 0.052186098
0000e0 9a 5c 55 3d b2 21 56 3d 74 a6 56 3d 93 78 56 3d
       0.052090265 0.052278228 0.052404836 0.052361082
0000f0 a4 c8 56 3d db cb 56 3d 07 df 56 3d 92 6c 57 3d
       0.05243744 0.052440505 0.05245879 0.052593775
000100 6a 93 57 3d 48 ed 57 3d d8 4b 58 3d b6 b7 58 3d
       0.05263082 0.052716523 0.052806705 0.052909575
000110 b4 e4 58 3d 4e 33 58 3d c2 41 59 3d c3 7a 58 3d
       0.052952483 0.052783303 0.053041227 0.05285145
000120 70 5d 59 3d ed 90 58 3d 26 31 59 3d aa e3 58 3d
       0.053067625 0.052872587 0.053025387 0.052951492
000130 a4 7d 59 3d cf 79 59 3d fc 74 59 3d 57 91 59 3d
       0.053098336 0.05309468 0.05309008 0.053117123
000140 cc ae 59 3d bd 91 5a 3d ba 79 5a 3d 2f 6b 5a 3d
       0.053145215 0.053361643 0.053338744 0.053324874
000150 a6 7e 5a 3d a3 3c 5a 3d dc b5 59 3d 4b 33 5a 3d
       0.053343438 0.053280484 0.05315195 0.053271573
000160 04 8e 5a 3d 2a 72 5a 3d 90 41 5a 3d 57 df 5a 3d
       0.053358093 0.05333153 0.05328518 0.05343565
000170 b5 5e 5b 3d 2d 7e 5b 3d db a1 5a 3d a9 80 5a 3d
       0.053557117 0.053587127 0.053377014 0.053345356
000180 ba f2 5a 3d 1f f3 5a 3d 5f e3 5a 3d 91 d1 5a 3d
       0.05345414 0.053454515 0.053439494 0.053422514
000190 5c 28 5b 3d 05 3b 5b 3d 1f 8d 5b 3d bb 60 5b 3d
       0.053505287 0.053523082 0.05360138 0.053559046
0001a0 42 92 5b 3d 68 5a 5b 3d 5d 66 5b 3d 09 1e 5b 3d
       0.05360628 0.053553015 0.053564418 0.05349544
0001b0 e5 5d 5a 3d ed 48 5b 3d ff 28 5b 3d bd 01 5b 3d
       0.0533122 0.053536344 0.053505894 0.053468455
0001c0 ca 3f 5b 3d 31 73 5b 3d 1b a6 5b 3d f6 04 5b 3d
       0.05352763 0.053576652 0.053625207 0.053471528
0001d0 7c 19 5c 3d 2f a9 5b 3d a6 0c 5b 3d 17 52 5b 3d
       0.05373524 0.053628143 0.05347886 0.053545084
0001e0 b0 5d 5b 3d 4f 92 5a 3d 02 bd 5a 3d 95 b9 5a 3d
       0.053556144 0.053362187 0.05340291 0.05339964
0001f0 6d e3 5a 3d 3c a7 5a 3d 35 7f 5a 3d bd 09 5b 3d
       0.053439546 0.053382143 0.05334397 0.053476084
000200 27 04 5b 3d 15 92 5b 3d 0c 9d 5a 3d db ad 5a 3d
       0.053470757 0.05360611 0.053372428 0.053388458
000210 c8 7f 5a 3d 98 ef 5a 3d ba 5e 5b 3d 44 b7 5a 3d
       0.053344518 0.05345115 0.053557135 0.053397432
000220 df bc 5a 3d da c5 5a 3d 8e 6a 5a 3d 07 d1 5a 3d
       0.053402778 0.053411342 0.053324275 0.053422
000230 2f 80 5a 3d a2 bb 59 3d a1 09 59 3d 18 6c 59 3d
       0.0533449 0.053157456 0.0529877 0.0530816
000240 0c f7 58 3d 90 31 59 3d 18 73 59 3d fa 0e 59 3d
       0.052969977 0.053025782 0.053088278 0.0529928
000250 95 26 59 3d e3 50 59 3d 31 dc 58 3d 77 c5 58 3d
       0.05301531 0.053055655 0.052944366 0.052922692
000260 c6 b5 58 3d ca 14 59 3d 4a 22 58 3d 4e 7a 58 3d
       0.052907728 0.05299834 0.052767076 0.052851014
000270 c1 83 57 3d b6 58 58 3d 29 af 57 3d cd 38 57 3d
       0.052615885 0.052818976 0.05265728 0.052544404
000280 40 26 57 3d 69 64 56 3d f9 04 56 3d b0 fe 55 3d
       0.052526712 0.052341852 0.052250836 0.052244842
000290 83 a0 55 3d a1 87 54 3d 78 21 55 3d 54 54 55 3d
       0.05215503 0.05188716 0.05203387 0.052082375
0002a0 df 0c 55 3d 16 0b 55 3d 71 f9 54 3d 5f 08 54 3d
       0.052014228 0.052012525 0.0519957 0.051765796
0002b0 9f cb 53 3d 71 4f 53 3d 61 e1 52 3d a1 eb 51 3d
       0.05170786 0.051589433 0.05148447 0.051250104
0002c0 d4 65 52 3d 2c da 51 3d 13 40 52 3d 05 cb 51 3d
       0.051366642 0.051233456 0.051330637 0.051219005
0002d0 b2 d9 50 3d f7 69 4f 3d 6c 54 50 3d 33 ea 4f 3d
       0.05098886 0.050638165 0.05086176 0.05076046
0002e0 35 ce 4e 3d a8 45 4e 3d 38 f6 4d 3d fc dd 4d 3d
       0.050489623 0.050359398 0.05028364 0.05026053
0002f0 2b 34 4d 3d 12 d0 4c 3d 9c 25 4d 3d 3a fa 4b 3d
       0.05009858 0.05000312 0.050084695 0.04979918
000300 2a 1f 4c 3d 01 f0 4b 3d 35 cf 4a 3d 35 b1 4a 3d
       0.049834408 0.049789432 0.049514014 0.049485404
000310 46 00 4a 3d b1 39 49 3d 86 67 48 3d 8f bd 47 3d
       0.049316667 0.049127284 0.048926853 0.04876476
000320 bc c3 47 3d b4 65 46 3d b4 fd 46 3d 2b 07 46 3d
       0.04877065 0.048436835 0.048581794 0.04834668
000330 f3 a0 44 3d ab af 44 3d 9f 17 44 3d 21 f7 42 3d
       0.048005056 0.048019093 0.04787409 0.04759896
000340 cf 57 42 3d 55 35 42 3d 36 f6 40 3d c6 cc 3f 3d
       0.047447022 0.047414143 0.047109805 0.046826147
000350 87 25 3f 3d 6c 7c 3e 3d e7 5a 3e 3d 38 b5 3d 3d
       0.04666665 0.046505377 0.04647341 0.0463154
000360 05 84 3d 3d 6b 42 3d 3d a1 14 3d 3d d3 bd 3b 3d
       0.04626848 0.04620592 0.04616225 0.045835327
000370 a6 14 3b 3d b8 02 3b 3d 4b b9 39 3d 7d ea 38 3d
       0.04567399 0.04565689 0.045342725 0.0451455
000380 f3 b5 38 3d b6 cc 36 3d d1 b9 36 3d e4 f5 35 3d
       0.045095395 0.04462882 0.044610802 0.044423953
000390 53 53 35 3d 55 10 35 3d b0 b7 32 3d 38 86 31 3d
       0.044268917 0.04420503 0.04363221 0.04334089
0003a0 8f 76 30 3d f7 09 30 3d d7 de 2e 3d 85 10 2e 3d
       0.043081816 0.042978253 0.042692985 0.042496223
0003b0 ae a8 2c 3d 7a 87 2b 3d 4c 22 2b 3d 96 fe 2a 3d
       0.042153053 0.041877247 0.041780755 0.0417467
0003c0 7b 47 2a 3d 2c 80 29 3d 9d 87 28 3d bb 41 28 3d
       0.041572075 0.041382 0.041144956 0.04107831
0003d0 2c 2c 28 3d 58 1a 27 3d 86 f1 25 3d 3a 87 25 3d
       0.04105775 0.040796608 0.040513538 0.040412165
0003e0 88 a5 24 3d 07 0e 23 3d a7 d3 21 3d 23 31 21 3d
       0.040196925 0.0398083 0.039508488 0.0393535
0003f0 95 e9 1f 3d 33 4e 1f 3d d5 bf 1e 3d 57 5f 1e 3d
       0.03904112 0.038892936 0.038757164 0.038665142
