Saves/ecal_ep_60.pth (torch, 146338 bytes, 42 tensors)

sage.0.lin_rel.weight f4 [16, 3]
0	0x3d943f6c	0.07238659
1	0x3e97445d	0.29544345
2	0x3ec51c42	0.38498122
3	0x3fabcb73	1.3421463
4	0x3ec5dce7	0.38645098
5	0xbd8f6964	-0.070025235
6	0x3eeaec79	0.4588354
7	0x3d454a22	0.0481664
8	0xbde210db	-0.11038371
9	0x3e8cc7f3	0.274963
10	0x3c6b7211	0.014370457
11	0xc010cdab	-2.262553
12	0xbebc02a5	-0.36720768
13	0x3bbd9460	0.00578551
14	0x3ef85e9c	0.4850968
15	0xbf0c0c7e	-0.5470656
16	0xbea80074	-0.32812846
17	0xbf028eca	-0.5099913
18	0xbe2eb46a	-0.1706101
19	0xbdb1f142	-0.086885944
20	0xc0404b9c	-3.0046148
21	0xbf814f12	-1.0102255
22	0x3e3f3fa4	0.1867662
23	0x3d7d5520	0.06184876
24	0x3e0b769e	0.13619468
25	0xbe3064ed	-0.17226
26	0x3e906ed8	0.28209567
27	0xbf2960de	-0.6616343
28	0xbe872602	-0.26396185
29	0xbfa3cb30	-1.2796383
30	0x3e22b429	0.15889038
31	0xbe98b043	-0.29821977
32	0x3da420bd	0.08014057
33	0xbe0184ec	-0.12648362
34	0x3f30d31c	0.6907213
35	0xc00ea953	-2.2290847
36	0xbd28ed47	-0.04124191
37	0xbd228ebd	-0.039686907
38	0xbf89e9e2	-1.07745
39	0x3f12b7e1	0.57311827
40	0x3cfd3bee	0.030912366
41	0x3daeaf34	0.08529511
42	0xbe6942c4	-0.22779375
43	0xbf5d9d0f	-0.8656778
44	0x3e25d10c	0.16193026
45	0x3e3394a0	0.17537165
46	0xbee21d8e	-0.44163173
47	0xbfe9cb82	-1.8265231

sage.0.lin_root.weight f4 [16, 3]
0	0xbbe69365	-0.0070366138
1	0xbe6c6e38	-0.2308892
2	0x3e9ae71b	0.30254444
3	0xbfa127f9	-1.2590324
4	0xbeba5c47	-0.36398527
5	0x3e7badee	0.24578068
6	0xbeffd35a	-0.49965936
7	0xbe846306	-0.258568
8	0xbe248eff	-0.16070174
9	0xbe591fa7	-0.2120348
10	0xbcc6c461	-0.024263563
11	0x3e48fc2d	0.19627447
12	0x3d9ccaa0	0.07655835
13	0x3c07319d	0.008251575
14	0x3f0b594a	0.5443312
15	0x3f01a4e0	0.50642204
16	0x3e943224	0.28944504
17	0x3e5f7f46	0.21825895
18	0x3d285d4f	0.04110461
19	0xbd43194b	-0.047631543
20	0xbf132fa0	-0.57494545
21	0x3f6cd8f6	0.92518556
22	0xbe24ce16	-0.1609424
23	0x3e3224f6	0.17396912
24	0xbf093f28	-0.53611994
25	0x3e99c245	0.30031028
26	0xbe52f71d	-0.20602079
27	0x3daeb3fe	0.085304245
28	0x3e1e919e	0.15485236
29	0xbde25b52	-0.11052574
30	0xbda4db14	-0.08049598
31	0xbef72252	-0.48268372
32	0xbedc43fd	-0.4302062
33	0x3df74d7a	0.12075324
34	0xbf294014	-0.661134
35	0x3e823d1c	0.25437248
36	0xbc006498	-0.007836483
37	0xbb52b573	-0.003215161
38	0xbdb54e87	-0.088528685
39	0xbf0c7e0a	-0.5487982
40	0xbcd00527	-0.025393082
41	0x3d599eaf	0.053129848
42	0x3e3fd955	0.1873525
43	0x3f55377b	0.8328778
44	0x3d3a1df6	0.04543873
45	0xbe2712f9	-0.16315831
46	0x3edb3a92	0.42818123
47	0x3e5e11bf	0.21686457

sage.0.lin_root.bias f4 [16]
0	0x3da31f9b	0.07965013
1	0xbe2f9306	-0.17145929
2	0xbe8e55f8	-0.27799964
3	0xbc224e04	-0.009906296
4	0x3e46a2d0	0.19398046
5	0x3c3f69bc	0.011682924
6	0x3ca8ff59	0.020629572
7	0xbd1f2698	-0.038855165
8	0xbf0c42f2	-0.5478965
9	0x3e91b8bc	0.28461254
10	0xbe33b643	-0.17549996
11	0xbd1780db	-0.03698812
12	0x3b8fedd5	0.0043923655
13	0xbd8313c9	-0.06400258
14	0xbc5090f8	-0.012729876
15	0xbc04a213	-0.008095282

sage.1.lin_rel.weight f4 [64, 16]
0	0xbd368a27	-0.044565346
1	0xbd7b3202	-0.061326988
2	0x3da14216	0.07873933
3	0xbe1393e7	-0.14411889
4	0xbc673b23	-0.01411322
5	0x3ef3489c	0.47516334
6	0x3e584c26	0.21122798
7	0x3e814c4d	0.25253525
8	0xbd1b645b	-0.037937503
9	0x3dfad9b2	0.12248553
10	0x3e0d3678	0.1379031
11	0x3de1ef33	0.11031952
12	0x3e128944	0.14310175
13	0x3d0dea36	0.03464719
14	0x3ed5af24	0.41735184
15	0x3b78ce16	0.0037964634
16	0xbe287add	-0.16453119
17	0x3e1aee9d	0.15130086
18	0x3c1287cf	0.008943512
19	0xbe1daaf3	-0.15397243
20	0xbe53dc0b	-0.20689408
21	0x3ecd785f	0.40130898
22	0x3cd536af	0.026027052
23	0x3ec0809f	0.3759813
24	0xbc2c5be0	-0.010519952
25	0xbaf39a73	-0.0018585458
26	0xbe4cc13f	-0.19995593
27	0xbc84bb7d	-0.016202683
28	0xbe9395e7	-0.28825304
29	0xbd8043f6	-0.062629625
30	0x3ea74cb6	0.32675713
31	0x3e195188	0.14972508
32	0xbca14a1c	-0.019688658
33	0x3d4922a1	0.04910529
34	0xbec6bea4	-0.38817322
35	0xbd16a312	-0.03677661
36	0x3bda1461	0.0066552614
37	0xbddfea5c	-0.109333724
38	0xbdc5d442	-0.096596256
39	0x3d6791c7	0.05653551
40	0xbe87f5c6	-0.26554698
41	0xbc85b210	-0.016320258
42	0xbdbe83ac	-0.09302458
43	0xbdb0f61c	-0.08640692
44	0xbed84a44	-0.4224416
45	0x3d69e8be	0.057106726
46	0x3e2402cb	0.1601669
47	0xbea1bede	-0.31590933
48	0xbe95060a	-0.2910617
49	0xbd455bf0	-0.04818338
50	0x3e297100	0.16547012
51	0x3da546dd	0.08070157
52	0xbde8cf8c	-0.113677114
53	0x3e3a93d6	0.18220457
54	0xbe2576ca	-0.16158596
55	0xbdd383df	-0.10327887
56	0xbe18ddc1	-0.14928342
57	0x3e59701e	0.21234176
58	0x3e77e9b0	0.24210238
59	0x3e12b423	0.14326529
60	0x3b96d3ec	0.0046029
61	0xbd6ad062	-0.057327636
62	0xbe021b65	-0.12705763
63	0x3e2da242	0.16956428
64	0xbcb3fece	-0.021972086
65	0xbd061748	-0.032737046
66	0xbe72a79c	-0.2369675
67	0xbd52b35e	-0.05144059
68	0xbc0b21ac	-0.008491915
69	0x3d099ac8	0.033594877
70	0xbe621abe	-0.22080514
71	0xbd077a9d	-0.033075918
72	0xbea5c742	-0.32378584
73	0x3c2e8398	0.010651492
74	0xbe8890c1	-0.26672938
75	0xbe3c98aa	-0.18417612
76	0xbe8d7e37	-0.27635357
77	0xbd9fa6fd	-0.07795522
78	0xbdea7cd5	-0.11449591
79	0xbd281926	-0.04103961
80	0xbcb20d11	-0.021734746
81	0x3dcd69ad	0.10029922
82	0xbe2aff77	-0.16699015
83	0xbde03a04	-0.109485656
84	0xbc3bd086	-0.01146329
85	0xbe917e06	-0.2841646
86	0xbef8b7d4	-0.4857775
87	0xbc37ade6	-0.011210894
88	0xbe4c4958	-0.19949853
89	0xbc9a8d4b	-0.018866202
90	0xbed1c108	-0.40967584
91	0xbd00a2c0	-0.03140521
92	0xbeea6016	-0.45776433
93	0xbe6a6564	-0.2289024
94	0x3e393b7a	0.18089095
95	0xbe6fa582	-0.2340298
96	0xbc96a554	-0.018389381
97	0xbe0256f6	-0.12728485
98	0xbed0ca28	-0.40779233
99	0xbdb42315	-0.08795754
100	0xbd1edc98	-0.038784593
101	0x3d0ae358	0.03390822
102	0xbed7de43	-0.4216176
103	0xbe185e02	-0.14879611
104	0xbea4a428	-0.3215649
105	0x3d114a66	0.035471343
106	0xbd878450	-0.066170335
107	0xbe038cb6	-0.12846646
108	0xbd85ddaf	-0.065364234
109	0xbe730317	-0.23731647
110	0xbe1603e7	-0.14649926
111	0x3ce15700	0.027507305
112	0xbca7de5b	-0.02049177
113	0x3d57c470	0.05267757
114	0xbe91d58a	-0.2848323
115	0xbd4ca895	-0.04996546
116	0x389bb635	7.424915e-05
117	0xbe878982	-0.26472098
118	0xbe9352b9	-0.2877405
119	0x3d614bed	0.05500405
120	0xbe8a2a3c	-0.26985347
121	0x3c39587a	0.011312598
122	0xbe5c848e	-0.2153494
123	0x3d3e035a	0.046389915
124	0xbe7fa0f2	-0.2496374
125	0xbdcf3137	-0.10116809
126	0xbd090298	-0.03344974
127	0xbd532cef	-0.051556524
128	0xbe18a50a	-0.14906707
129	0xbdf625d1	-0.12018932
130	0xbe15a78b	-0.14614694
131	0xbde7c183	-0.11316206
132	0x3c49fa61	0.012327761
133	0x3e7ebb5d	0.24876161
134	0xbdb8443e	-0.08997391
135	0x3e287ddd	0.16454263
136	0x3d36c8c1	0.044625048
137	0x3c2c3fe5	0.0105132805
138	0x3e446664	0.19179684
139	0x3eb1cec8	0.34728074
140	0xbe36f13e	-0.17865464
141	0x3c17dea4	0.00926939
142	0x3e099167	0.13434373
143	0x3e22eb92	0.15910175
144	0xbd2fb2be	-0.04289507
145	0xbb3703f5	-0.0027925943
146	0xbe4c2b75	-0.19938453
147	0xbcdccdd1	-0.02695361
148	0xbdc0a0ea	-0.09405692
149	0x3e6497bc	0.22323507
150	0x3e8c2e66	0.2737915
151	0x3cb1b7c8	0.021694079
152	0xbe1245a4	-0.14284378
153	0x3c9bc738	0.019015893
154	0xbe49bfba	-0.19702044
155	0x3dbdad7e	0.09261607
156	0xbd1215f2	-0.03566546
157	0x3daa623a	0.083195165
158	0xbe45a453	-0.19300966
159	0x3dcfcfd6	0.101470634
160	0xbea46a7c	-0.3211249
161	0xbc64625e	-0.013939468
162	0xbd775472	-0.060383268
163	0xbe3de687	-0.1854497
164	0x3bb0653c	0.005383162
165	0x3f05a21e	0.52200496
166	0x3dad7ee1	0.08471466
167	0x3e9fcdbf	0.3121166
168	0x3d4e5716	0.05037602
169	0x3decf087	0.115693145
170	0x3d934879	0.071915574
171	0xbe3a137e	-0.18171498
172	0xbea0bb60	-0.31392956
173	0x3d9d272b	0.07673486
174	0x3f037c69	0.5136171
175	0x3e005978	0.1253413
176	0xbc9f7e64	-0.019469447
177	0x3d87a258	0.066227615
178	0xbed6c956	-0.41950482
179	0xbdc9faef	-0.09862315
180	0xbc814407	-0.015779508
181	0xbd09ed70	-0.033673704
182	0xbed2a4bf	-0.41141316
183	0x3d345be8	0.04403296
184	0xbe96dfe0	-0.29467678
185	0x3ad9f042	0.0016627389
186	0xbe501b9c	-0.20323032
187	0xbcaa7285	-0.02080656
188	0xbec0beea	-0.37645656
189	0xbe4631cc	-0.19354934
190	0xbd354f9c	-0.044265375
191	0xbe4812b7	-0.19538389
192	0xbe7edc58	-0.24888742
193	0x3e417287	0.18891345
194	0x3e57a348	0.2105838
195	0xbdfb26ee	-0.122632846
196	0x3c622076	0.013801685
197	0x3d9244dd	0.07142041
198	0x3df9f13b	0.12204214
199	0x3cdb6ee6	0.026786279
200	0xbe3cd686	-0.18441209
201	0xbf0d0c49	-0.5509687
202	0x3e447f97	0.19189297
203	0x3e7fe4a4	0.24989563
204	0xbd971c56	-0.073784515
205	0xbf63c4c3	-0.8897211
206	0xbed803b7	-0.42190334
207	0xbaf5c78e	-0.0018751489
208	0xbe388d02	-0.1802254
209	0xbdaf627a	-0.08563705
210	0xbae8c6cd	-0.0017759443
211	0x3e583db5	0.2111729
212	0x3e2f186f	0.17099164
213	0xbd58bd61	-0.05291498
214	0x3cddc5c9	0.02707185
215	0xbe1233e5	-0.14277609
216	0x3e02a6c2	0.12758926
217	0xbda0b0ee	-0.07846247
218	0xbd9dd1b3	-0.077060126
219	0x3e6ea808	0.23306286
220	0x3de7b20e	0.11313258
221	0x3bb7c25c	0.0056078862
222	0x3e72275d	0.23647828
223	0xbc90062d	-0.01758107
224	0xbda1dde4	-0.079036504
225	0xbe746623	-0.23867087
226	0xbf7efdc6	-0.9960598
227	0xbea3311a	-0.318734
228	0xbd825548	-0.06363922
229	0xbef7d982	-0.48408133
230	0xbf6d29ea	-0.9264208
231	0xbebb279c	-0.36553657
232	0xbf80e0b0	-1.0068569
233	0xbd019ba5	-0.031642575
234	0xbf790d03	-0.9728548
235	0xbee48fca	-0.44640952
236	0xbf538a5b	-0.8263299
237	0xbef7fc7f	-0.48434827
238	0xbe8e505f	-0.27795693
239	0xbf138909	-0.57630974
240	0x3c9a7d3a	0.01885854
241	0x3ca1ef6f	0.019767491
242	0x3e59f5fb	0.2128524
243	0xbd4d57e4	-0.050132647
244	0xbd8e0651	-0.069347985
245	0x3d169059	0.036758754
246	0x3e1aec0f	0.15129112
247	0x3dfa76b5	0.12229673
248	0x3e556b7d	0.20841785
249	0x3cc28c65	0.023748586
250	0x3e060ae1	0.13090087
251	0x3dd3b8ec	0.103380054
252	0x3d1db8ea	0.038506426
253	0xbd7c38dd	-0.061577667
254	0x3e60bdb0	0.2194736
255	0x3e7f385e	0.24923846

sage.1.lin_root.weight f4 [64, 16]
0	0xbe46f574	-0.1942957
1	0x3e41b363	0.18916087
2	0xbd968c86	-0.073510215
3	0xbd71a8a7	-0.05899873
4	0xbbcbd449	-0.0062203747
5	0x3ec70cba	0.38876897
6	0xbe1b3857	-0.1515821
7	0x3e21c5a8	0.15798056
8	0x3dd77c66	0.10521774
9	0x3c8baa94	0.017049111
10	0xbe09fd39	-0.13475503
11	0xbe1b7abb	-0.15183537
12	0xbe3d139a	-0.18464509
13	0xbc65020f	-0.013977542
14	0x3d4e84dc	0.050419673
15	0xbe413b50	-0.18870282
16	0xbdaa04e2	-0.083017126
17	0xba72612d	-0.00092460477
18	0x3ec8e4bb	0.39237007
19	0x3e5e0f8b	0.21685617
20	0x3dbb5f83	0.09149077
21	0x3e513aa9	0.20432533
22	0x3d995b8d	0.07488165
23	0x3d19eea9	0.03758112
24	0x3ed19c74	0.40939677
25	0x3c6ec830	0.014574096
26	0x3e891382	0.26772696
27	0x3eaf5b2d	0.3424925
28	0x3cf964bf	0.030443547
29	0xbe81afb9	-0.25329378
30	0xbd9b5ef4	-0.0758647
31	0x3f4b9b48	0.79533815
32	0x3c831647	0.016001834
33	0x3eaf6cd7	0.34262726
34	0xbf5c084b	-0.85950154
35	0xbe3306c0	-0.17483044
36	0x3e46ce6b	0.1941468
37	0xbe55f1c2	-0.20893005
38	0xbf29a240	-0.662632
39	0x3f14579d	0.5794619
40	0xbf1e3902	-0.61805737
41	0xbe734937	-0.23758398
42	0xbec090f8	-0.37610602
43	0x3d1238fc	0.035698876
44	0xbf51df96	-0.8198179
45	0x3ec44023	0.38330182
46	0x3e457907	0.1928445
47	0xbef4c7e4	-0.47808754
48	0x3c82a1f2	0.015946362
49	0x3bb09c41	0.0053897207
50	0x3ea0a6e9	0.31377342
51	0x3ccb7065	0.024833867
52	0xbd2c3d9e	-0.04205095
53	0x3f07639e	0.5288638
54	0xbdfceb15	-0.12349526
55	0x3e3b0a6a	0.18265691
56	0x3e63d719	0.22250022
57	0x3d1dd0c8	0.038529187
58	0x3f032d29	0.51240784
59	0x3e3b420b	0.18286912
60	0x3ec9c971	0.394115
61	0xbe49d4bb	-0.19710056
62	0x3d0c6623	0.034277093
63	0x3ece0aa8	0.40242505
64	0xbc816759	-0.01579635
65	0x3ed2476e	0.41070122
66	0xbeb33326	-0.3499996
67	0x3de4b52c	0.11167368
68	0xbdaa249f	-0.08307766
69	0x3e7328a0	0.23745966
70	0xbe481233	-0.19538192
71	0x3ee2332d	0.4417967
72	0xbded1fc0	-0.115783215
73	0xbe526c40	-0.20549107
74	0xbe5e9f17	-0.21740375
75	0x3f17c419	0.59283596
76	0xbe40d029	-0.18829407
77	0x3ee72bb7	0.4515054
78	0x3eb12304	0.34597027
79	0x3e9982f6	0.29982728
80	0xbd098d73	-0.033582162
81	0x3f2594bb	0.6468007
82	0xbf00e22a	-0.503451
83	0xbd513c0f	-0.051082667
84	0x3e366ab9	0.17814149
85	0xbdf5f9da	-0.12010546
86	0xbf3c8d9e	-0.7365359
87	0x3f14b64a	0.5809065
88	0xbf6468b4	-0.89222264
89	0xbe510c2d	-0.20414801
90	0xbf4219ab	-0.75820416
91	0xbda51d98	-0.08062285
92	0xbf673521	-0.90315443
93	0x3ee80269	0.4531434
94	0x3ea7d33b	0.32778344
95	0xbef8db74	-0.4860493
96	0xbe2770d2	-0.16351631
97	0x3e6823c7	0.22669898
98	0xbe366931	-0.17813565
99	0x3daefe27	0.085445695
100	0x3dd071b4	0.10177937
101	0x3f0fa359	0.56108624
102	0xbea0406d	-0.31299153
103	0x3de676d8	0.112531364
104	0xbea42e09	-0.32066372
105	0xbe8cfec6	-0.27538127
106	0xbe44a9ee	-0.19205448
107	0x3f060620	0.52353096
108	0xbeac3ee7	-0.3364174
109	0x3ee773b7	0.4520547
110	0x3e581b34	0.21104127
111	0x3dabea53	0.08394303
112	0xbb9c3de7	-0.0047681215
113	0x3eb8bb9f	0.36080644
114	0xbf3f0e90	-0.74631596
115	0xbecb0ec7	-0.39659712
116	0x3e253c21	0.16136219
117	0xbeb970cb	-0.36218867
118	0xbf0467b4	-0.5172074
119	0x3f4923d1	0.78570276
120	0xbf1830c7	-0.5944943
121	0xbd8dbbe8	-0.06920606
122	0xbf789892	-0.97107804
123	0xbe98f006	-0.29870623
124	0xbf163464	-0.5867369
125	0xbd5c2ec2	-0.05375553
126	0x3e3cd8a7	0.18442021
127	0xbf0b0fa3	-0.54320735
128	0xbc7b92c5	-0.015354817
129	0x3ea70e28	0.32627988
130	0x3e42103d	0.18951507
131	0x3df6392c	0.120226234
132	0x3d92000f	0.071289174
133	0x3f0a2316	0.53959787
134	0x3eab3aa8	0.3344319
135	0x3ec501fb	0.38478073
136	0x3e0cfd58	0.13768518
137	0x3d7575c9	0.05992678
138	0x3ec0634b	0.37575755
139	0x3ea92c9d	0.3304185
140	0x3f41a920	0.7564869
141	0xbe22347c	-0.15840334
142	0xbccc01b9	-0.024903165
143	0x3e151f73	0.14562778
144	0x3d34253b	0.04398082
145	0xbe3b369a	-0.18282548
146	0xbe51c451	-0.20485045
147	0xbdbef378	-0.09323782
148	0x3dacd4d1	0.08439029
149	0x3e421e2b	0.1895682
150	0x3e28ebeb	0.16496246
151	0xbe887735	-0.26653448
152	0x3def4555	0.11683146
153	0xbcaea90b	-0.02132084
154	0xbdd4f85f	-0.103989355
155	0xbe61f817	-0.22067295
156	0x3d1aad9c	0.037763223
157	0xbea60c5a	-0.32431298
158	0xbdc9b77c	-0.0984945
159	0x3d022e6c	0.031782553
160	0xbe904aae	-0.28181976
161	0xbd83b64c	-0.06431255
162	0x3bb79ac5	0.0056031668
163	0xbe6156c7	-0.22005759
164	0x3ceb745b	0.028742006
165	0x3ee4b3b7	0.44668362
166	0xbd328140	-0.043580294
167	0x3e6e2690	0.23256898
168	0xbe7db06c	-0.24774331
169	0x3d818f22	0.063261285
170	0xbebd7092	-0.36999947
171	0xbe80519a	-0.25062257
172	0xba234df2	-0.00062295713
173	0xbecc0e0c	-0.39854467
174	0x3ee2cd0d	0.44297066
175	0xbd753799	-0.059867475
176	0x3e08cf30	0.13360286
177	0x3f307316	0.6892561
178	0xbf1d67a6	-0.6148628
179	0xbea0143c	-0.31265438
180	0x3c9cd13b	0.019142738
181	0xbecc831b	-0.39943776
182	0xbeb26adb	-0.3484715
183	0x3f8a093b	1.0784067
184	0xbe9b467e	-0.3032722
185	0xbd9e965a	-0.07743521
186	0xbf310551	-0.6914874
187	0xbde0cc8a	-0.10976513
188	0xbf084aa8	-0.53238916
189	0x3dc42dca	0.09579046
190	0x3f3b3ade	0.731367
191	0xbdacda11	-0.0844003
192	0xbe1b448d	-0.15162869
193	0x3e316bff	0.17326353
194	0x3e8a394a	0.26996833
195	0x3e37cc85	0.17949112
196	0x3e97bd40	0.29636574
197	0x3dbddd29	0.092706986
198	0x3d9200ae	0.07129036
199	0x3e14be6d	0.14525767
200	0xbe0ed28c	-0.13947505
201	0xbee0970a	-0.43865234
202	0xbceb706b	-0.028740129
203	0x3e8a8e6c	0.27061784
204	0xbc9e1530	-0.019297212
205	0x3e96356b	0.2933763
206	0x3ccb4e35	0.024817565
207	0x3df241c9	0.11828954
208	0xbd3dc473	-0.046329927
209	0x3e4b4e0d	0.19853993
210	0x3eb30cf3	0.34970817
211	0xbda6b6e5	-0.08140353
212	0x3d762aef	0.06009954
213	0x3e857afc	0.26070392
214	0x3dcca323	0.09992053
215	0x3e714e8e	0.23565122
216	0x3eb386cb	0.35063776
217	0xbd6a2927	-0.057168152
218	0x3e87cfeb	0.26525816
219	0x3d82d53a	0.06388326
220	0x3d28a72c	0.041175053
221	0xbe089da7	-0.1334139
222	0x3e4e66ba	0.20156375
223	0x3e0daf8e	0.138365
224	0x3da7ac43	0.08187153
225	0x402cf97d	2.7027276
226	0xbe63f30a	-0.22260681
227	0x3e298c34	0.1655739
228	0x3d644e5a	0.055738784
229	0x3f971e2a	1.180608
230	0x3ca40177	0.02002023
231	0x3fb2afd9	1.3959914
232	0x3d47573a	0.04866717
233	0xbea8d794	-0.32976973
234	0xbe8c200b	-0.27368197
235	0x3f9a5f01	1.2060243
236	0xbea2d7af	-0.3180518
237	0x3e8e6109	0.27808407
238	0x3fc96a28	1.5735521
239	0x3f9dc838	1.2326727
240	0xbdc7bc43	-0.09752705
241	0x3e69b0f3	0.22821407
242	0x3e166e7a	0.14690581
243	0x3be7bff8	0.007072445
244	0x3c83cf10	0.016089946
245	0x3e959315	0.29213777
246	0xbd9a0c71	-0.07521904
247	0x3e84dc73	0.2594944
248	0x3e54bb9a	0.2077469
249	0x3e79dd7b	0.24400894
250	0x3e4794da	0.19490376
251	0xbe62cb52	-0.22147873
252	0xbaa696c4	-0.0012709727
253	0xbead46ef	-0.3384318
254	0xbca0fcdf	-0.019651828
255	0xbe3da5fa	-0.18520346

sage.1.lin_root.bias f4 [64]
0	0xbd14e113	-0.03634746
1	0xbbd6d72a	-0.0065564113
2	0x3f512be8	0.8170762
3	0xbc9bec59	-0.019033598
4	0xbf87b7c2	-1.0602953
5	0xbf298548	-0.66218996
6	0xbf8b1d8b	-1.0868391
7	0x3f751611	0.95736796
8	0xbe15a2d4	-0.14612895
9	0x3f92249c	1.1417422
10	0xbd252171	-0.040315095
11	0xbe9e13a1	-0.3087435
12	0x3f9350e5	1.1509062
13	0x3da356b3	0.07975521
14	0xbf048c1a	-0.5177628
15	0xbc730784	-0.014833335
16	0xbe87b041	-0.2650166
17	0xbda85563	-0.08219411
18	0x3f84a74e	1.0363557
19	0xbc2402c7	-0.010010428
20	0xbc8dedc9	-0.017325299
21	0xbd1ce9d7	-0.038308945
22	0xbca0be23	-0.019621914
23	0xbc8eabda	-0.01741593
24	0xba2516a9	-0.0006297627
25	0xbf0e0535	-0.55476695
26	0xbdf60bc5	-0.120139636
27	0xbd875af9	-0.066091485
28	0xbce2a100	-0.027664661
29	0xbf43eece	-0.7653626
30	0xbfd040f2	-1.626982
31	0xbf39b8dd	-0.72547704
32	0x3f80d883	1.0066074
33	0x401a4e8f	2.4110448
34	0xbd007646	-0.031362794
35	0x3f7fd10b	0.9992835
36	0x3f887f04	1.0663762
37	0xbca25e14	-0.01982025
38	0xbd2038c7	-0.039116647
39	0xbd84005a	-0.064453796
40	0x3f9e5dd8	1.2372389
41	0xbbca7a50	-0.0061791316
42	0x3f946260	1.1592522
43	0x3f90c6ba	1.1310647
44	0xbd7c4ed7	-0.061598625
45	0xbcb6fd0b	-0.022337457
46	0x3fa27ace	1.2693727
47	0xbf49bc1f	-0.78802675
48	0xbe78bec2	-0.24291518
49	0xbd8d88ab	-0.06910833
50	0xbdeb68a4	-0.11494568
51	0xbc43afe3	-0.01194379
52	0x401840ff	2.378967
53	0xbd220ed0	-0.039564908
54	0xbda05ead	-0.07830558
55	0x3f9328fd	1.1496884
56	0x3fa1becb	1.263635
57	0xbf8f6d76	-1.120528
58	0xbc0271f8	-0.007961743
59	0x3c90d446	0.017679345
60	0x3e9a092f	0.30085132
61	0xbf03be58	-0.51462317
62	0xbfc7bf09	-1.5605174
63	0xbf8a7456	-1.0816753

sage.2.lin_rel.weight f4 [64, 64]
0	0x3e3a28c0	0.18179607
1	0x3dfd6a1c	0.123737544
2	0x3e1436f8	0.14474094
3	0x3cd14349	0.02554478
4	0x3db9498b	0.0904723
5	0xbd8eda57	-0.06975239
6	0x3dc82d95	0.09774319
7	0xbd447b3a	-0.04796908
8	0x3cd9bc17	0.026578946
9	0x3c03eab4	0.008051563
10	0x3e25d709	0.1619531
11	0x3db1f7f8	0.086898744
12	0x3e1f440a	0.15553299
13	0xbc878838	-0.016544446
14	0xbcc95843	-0.02457822
15	0x3e691978	0.22763622
16	0x3d413c98	0.047176927
17	0x3e7b8145	0.24561031
18	0x3d41fcad	0.04736011
19	0x3e0d7158	0.13812768
20	0x3dc4e35a	0.09613676
21	0x3d91b881	0.071152695
22	0xbe0b3ba6	-0.13596973
23	0x3c1d7815	0.009611149
24	0x3e6afcf3	0.22948055
25	0x3bc95895	0.006144593
26	0x3e0f0038	0.13964927
27	0x3d27d1d8	0.040971607
28	0x3e49b41f	0.19697617
29	0xbdd8d86b	-0.105881535
30	0xb94d6f1c	-0.00019591715
31	0xbd80b436	-0.062843725
32	0xbc5b9305	-0.013401751
33	0xbd81f9d0	-0.06346476
34	0x3e249ef5	0.16076262
35	0x3e786a0b	0.24259202
36	0xbe010f5e	-0.12603518
37	0x3e2bcae0	0.1677661
38	0x3d3745a8	0.044744164
39	0x3e2c3963	0.16818766
40	0xbdae75d2	-0.08518566
41	0x3d7aaf6b	0.061202448
42	0x3e1b29ba	0.15152636
43	0x3e0facad	0.14030714
44	0x3e44d074	0.19220144
45	0x3e8c7151	0.27430204
46	0x3dce0a51	0.100605614
47	0xbd9f725a	-0.07785483
48	0x3e5c984c	0.21542472
49	0x3e322167	0.17395554
50	0xbd3ad775	-0.045615632
51	0x3dca4741	0.09876872
52	0x3d812ad7	0.06306999
53	0x3e462b6f	0.19352506
54	0x3d8c4bc7	0.06850391
55	0xbd72d0df	-0.059281226
56	0xbb722e86	-0.0036954
57	0x3e0c9b97	0.13731228
58	0x3e1eeae6	0.15519294
59	0xbdaf4db7	-0.08559745
60	0xbbfde9ed	-0.0077488334
61	0xbd029aa8	-0.031885773
62	0xbd277444	-0.040882364
63	0xbdba7d1c	-0.09105894
64	0x3c6c4f6d	0.014423233
65	0x3d4924e0	0.049107432
66	0xbcd0e46d	-0.025499547
67	0x3d5a1ea7	0.05325189
68	0xba9a7e57	-0.001178692
69	0x3dae231a	0.08502789
70	0x3d9d6963	0.076861165
71	0x3e196ec0	0.14983654
72	0x3e364bb9	0.17802323
73	0x3d8c8dd7	0.06862991
74	0x3e035a6d	0.12827463
75	0x3e09de84	0.13463789
76	0xbd2edc6e	-0.042690687
77	0x3e7c4042	0.24633887
78	0x3ded5655	0.11588732
79	0xbd1809e5	-0.03711881
80	0x3db488cb	0.08815154
81	0x3de4ef54	0.11178461
82	0x3cdfef4a	0.027335782
83	0xbb8aaa0f	-0.0042316983
84	0x3e5376e1	0.20650817
85	0x3d752561	0.0598501
86	0xbd9d13b6	-0.07669775
87	0x3dfe5f69	0.12420542
88	0x3e0d0541	0.13771535
89	0x3d85986c	0.06523213
90	0x3df1c98f	0.118060224
91	0xbd9a02d0	-0.07520068
92	0x3e3c47c6	0.18386754
93	0xbd73e3aa	-0.05954329
94	0x3de1edd7	0.110316925
95	0x3c770774	0.015077461
96	0xbddb83db	-0.10718509
97	0x3e02f5cf	0.12789081
98	0x3e0960f1	0.13415886
99	0x3d15effc	0.03660582
100	0x3d8b8fe4	0.06814554
101	0xba9bf904	-0.0011899774
102	0x3e2c8e31	0.16851117
103	0xbc8ba1fd	-0.017045015
104	0xbd09d6d8	-0.033652157
105	0x3d325e7f	0.04354715
106	0x3e2d88a0	0.1694665
107	0x3ccc1c9b	0.024915984
108	0x3dbc5589	0.09196002
109	0x3d1f7150	0.038926423
110	0x3db3cca0	0.087792635
111	0xbdc8e286	-0.09808831
112	0x3da42220	0.08014321
113	0x3e474712	0.19460705
114	0x3ca42e8d	0.020041728
115	0x3dcd6f63	0.10031011
116	0xbb3c9bb1	-0.0028779323
117	0x3dd6f51e	0.10495971
118	0x3d4fd748	0.050742418
119	0x3e942b4f	0.28939292
120	0xbc0f40ec	-0.008743506
121	0x3d75b41b	0.059986215
122	0x3e360ef0	0.17779136
123	0xbd349090	-0.044083178
124	0x3e124f51	0.1428807
125	0x3dba356c	0.09092221
126	0x3dcbd396	0.09952466
127	0x3ca0b9d9	0.019619869
128	0x3e455e84	0.19274336
129	0x3e21e210	0.15808892
130	0x3d6deab8	0.058085173
131	0x3ce2cbe5	0.027685115
132	0xbc98d30b	-0.01865532
133	0x3bea8525	0.0071569853
134	0x3e41655a	0.18886319
135	0xbd9c6be1	-0.07637764
136	0x3d90344a	0.07041223
137	0x3e25e1ef	0.16199468
138	0x3db483bd	0.088141896
139	0x3d8a1a8f	0.06743347
140	0x3e1a14db	0.15047018
141	0x3e84fe6c	0.25975358
142	0x3d563392	0.052295275
143	0x3d7f272b	0.062293213
144	0x3cdcfb5b	0.026975324
145	0x3e660149	0.22461428
146	0x3ded2045	0.115784205
147	0x3deb2207	0.114810996
148	0x3e04e852	0.12979248
149	0x3e07685a	0.132234
150	0x3b7f75be	0.0038980092
151	0x3db149b1	0.08656634
152	0x3db7abd7	0.08968323
153	0x3cd1cc56	0.02561013
154	0x3de1ead7	0.1103112
155	0x3cfe6889	0.031055706
156	0x3dbdef72	0.09274186
157	0xbd5e5aab	-0.054285686
158	0x3ddb2e8d	0.10702238
159	0x3ca8c330	0.020600885
160	0x3cafee29	0.021475868
161	0x3d431d23	0.04763521
162	0x3d745ae8	0.059657007
163	0x3e10a992	0.14127186
164	0xba36fc5e	-0.00069803547
165	0x3d8e52fe	0.06949423
166	0x3ca61f2d	0.020278538
167	0x3df024de	0.11725782
168	0xbc1db394	-0.009625334
169	0x3d10e90c	0.0353785
170	0x3e4168ee	0.18887684
171	0x3dad4200	0.08459854
172	0xbae8c38a	-0.001775847
173	0x3e1d6edd	0.15374322
174	0x3def8c6e	0.11696707
175	0x3d3af9e5	0.045648474
176	0x3dc7859b	0.0974228
177	0xbcc372e0	-0.023858488
178	0x3cddd83b	0.027080646
179	0x3c4ba93d	0.012430486
180	0x3d537669	0.051626597
181	0x3e1000d7	0.1406282
182	0x3d472c25	0.048626084
183	0xbd53ca89	-0.051706824
184	0xbccd6de1	-0.025076808
185	0xbd6f5c20	-0.058437467
186	0xbba819a4	-0.0051300097
187	0xbd94b44b	-0.07260951
188	0x3e270775	0.16311438
189	0x3dbb047a	0.09131713
190	0x3caf4b20	0.021398127
191	0xbd209c4f	-0.039211567
192	0xbc8946bb	-0.01675736
193	0xbdb04ffd	-0.086090066
194	0x3d82c5dc	0.06385395
195	0x3d0466f6	0.032324754
196	0xbe01a549	-0.12660708
197	0x3d62f026	0.055404805
198	0x3d7c95ba	0.061666228
199	0x3d96ad1e	0.07357238
200	0x3d9fda43	0.07805302
201	0xbd91b3dd	-0.07114384
202	0xbd6c3814	-0.057670668
203	0x3d98704e	0.074432954
204	0xbd82abab	-0.06380399
205	0xbd89362b	-0.06699785
206	0x3d8ce1bb	0.06878992
207	0xbc4631f8	-0.012096874
208	0x3dd34aa9	0.10316975
209	0xbc85989b	-0.01630812
210	0x3d7db725	0.06194224
211	0x3dfdfcdf	0.12401747
212	0x3d75cce3	0.06000985
213	0xbd8373ae	-0.064185485
214	0xbdb3d36a	-0.087805584
215	0xbd31ae2c	-0.043378994
216	0xbc594988	-0.01326216
217	0xbdfc2850	-0.123123765
218	0xbdda7b9a	-0.106681064
219	0xbdd48a99	-0.10377998
220	0x3d808e11	0.06277097
221	0x3d1301ff	0.035890575
222	0x3cefc574	0.029268958
223	0xbd2d14ec	-0.04225628
224	0xbcb34958	-0.021885559
225	0xbd546ecc	-0.051863477
226	0xbdc7991e	-0.09746002
227	0xbdab04bf	-0.083505146
228	0x3dd03a6f	0.10167395
229	0xbda1d112	-0.07901205
230	0x3dc32d1a	0.09530087
231	0xbe0c9e57	-0.13732277
232	0x3d63549d	0.055500615
233	0x3d96e0f1	0.07367123
234	0x3dc4999e	0.09599613
235	0xbd104125	-0.035218377
236	0xbda17ad8	-0.07884759
237	0x3d86918e	0.06570731
238	0x3d3fbcb8	0.046810836
239	0xbbe50c8c	-0.006990021
240	0xbdcefd40	-0.10106897
241	0xbcd90b9c	-0.026494794
242	0xbb2777f3	-0.0025553673
243	0xbd794d20	-0.060864568
244	0xbc5097b8	-0.012731485
245	0xbdcf770a	-0.10130127
246	0xbc9a1f00	-0.01881361
247	0xbdc5a9cd	-0.096515276
248	0xbdb87ca7	-0.090081505
249	0xbc714689	-0.01472629
250	0x3dba9a88	0.09111506
251	0xbcf9585d	-0.030437643
252	0xbd816e3c	-0.06319854
253	0x3ce4aebd	0.027915353
254	0x3dc1414e	0.09436284
255	0x3d229bf2	0.039699502

sage.2.lin_root.weight f4 [64, 64]
0	0x3c8302b7	0.015992505
1	0x3d4bb8ae	0.04973667
2	0x3d52dbea	0.051479258
3	0x3d3b25e1	0.04569042
4	0xbc519538	-0.012791924
5	0x3c096ec4	0.008388225
6	0x3d5e9fae	0.0543515
7	0x3d95b3b9	0.0730967
8	0xbd8157b6	-0.06315558
9	0x3d511a51	0.051050488
10	0x3bb59392	0.0055412734
11	0xbba471ce	-0.0050184494
12	0x3d6b4101	0.05743504
13	0xbcdec4fc	-0.027193539
14	0xbe5be2af	-0.21473192
15	0x3dabbb79	0.08385367
16	0x3d2fa4ff	0.042881962
17	0x3d6dd66d	0.05806582
18	0xbd312195	-0.043244917
19	0x3d6d83d4	0.05798705
20	0x3d9e5be9	0.07732374
21	0x3db31bee	0.087455615
22	0x3c215a59	0.009848201
23	0x3c7cf81a	0.015440011
24	0x3d9ebe16	0.077511
25	0xbda6b00e	-0.081390485
26	0xb56e5dd3	-8.879844e-07
27	0xbd5e8e5c	-0.054334983
28	0xbd46f34c	-0.04857187
29	0xbb5f7de4	-0.0034102136
30	0xbd912b35	-0.07088319
31	0x3cb7148c	0.022348665
32	0xbd3ba79a	-0.045814134
33	0x3d273f33	0.040831756
34	0xbcc80c68	-0.024419978
35	0xbd1c9b09	-0.03823379
36	0xbdf3bb0a	-0.11900909
37	0x3d44422c	0.04791467
38	0x3cc566d5	0.024096886
39	0x3db1261d	0.08649848
40	0x3b1705c6	0.0023044213
41	0x3d78d44e	0.060749345
42	0x3cd2adc9	0.025717633
43	0xbd1b4b22	-0.03791345
44	0x3d266ef8	0.04063317
45	0xbc4e7a41	-0.01260239
46	0xbd067121	-0.032822732
47	0xbcdafb6d	-0.026731217
48	0xbc4723d2	-0.012154536
49	0x3cf94623	0.030428952
50	0x3cbf3520	0.023340762
51	0xbd642ef8	-0.055708855
52	0xbd87ab6b	-0.06624492
53	0x3c3b048f	0.011414661
54	0x3c5336d9	0.012891495
55	0x3c9726e2	0.018451158
56	0x3ccc5480	0.024942636
57	0x3d2a8215	0.041627962
58	0x3cc3d50f	0.023905305
59	0xbbeb56c0	-0.0071819723
60	0xbcef44ee	-0.029207673
61	0xbd9a6d77	-0.0754041
62	0x3c6b3a98	0.014357232
63	0x3c460368	0.012085773
64	0xbc7a7e2a	-0.015288869
65	0x3d9206b4	0.07130185
66	0x3c0d192b	0.008611958
67	0x3d8c92c5	0.068639316
68	0x3ce6a23f	0.028153537
69	0x3d45455d	0.048161853
70	0xbc6ae7e0	-0.01433751
71	0x3cde3ee6	0.027129602
72	0x3d3ef02f	0.046615776
73	0x3c377ee3	0.011199686
74	0x3c93385b	0.017971208
75	0xbd48a7c1	-0.048988108
76	0xbcd46f74	-0.025932051
77	0x3c88ec5e	0.016714271
78	0xbd80027f	-0.06250476
79	0x3d74571f	0.059653398
80	0x3d2f43ab	0.042789143
81	0x3d818bc1	0.06325484
82	0x3d9f1db9	0.07769341
83	0xbce6a252	-0.028153572
84	0xbd036998	-0.032083124
85	0xbbe662f1	-0.0070308377
86	0xbdb7cf35	-0.089750685
87	0x3d9ae2d8	0.07562798
88	0x3bb0a343	0.005390556
89	0xbd70062c	-0.058599636
90	0x3c08a1a3	0.008339318
91	0xbd013f92	-0.031554766
92	0x3b4873c8	0.003058659
93	0xbd53dcdc	-0.0517243
94	0x3d034427	0.032047417
95	0xbd28dd61	-0.04122675
96	0xbd85a53b	-0.06525656
97	0xbdd6b655	-0.10483996
98	0xbc21320d	-0.009838593
99	0x3dcb5800	0.09928894
100	0xbd4b8929	-0.049691353
101	0x3d05a4f6	0.032628022
102	0xbcb96b36	-0.02263413
103	0x3d75eeca	0.06004218
104	0x3c9225ce	0.017840292
105	0x3d83dce0	0.06438613
106	0x3d34cbd9	0.044139717
107	0xbd4a88b2	-0.04944677
108	0x3cbfe6d2	0.023425493
109	0x3ca19f65	0.019729326
110	0xbcd92ff8	-0.026512131
111	0xbdad07a0	-0.0844872
112	0x3bae1847	0.0053129527
113	0xbd301cdf	-0.042996284
114	0x3d5e0fb7	0.054214206
115	0x3d31f770	0.043448865
116	0xbcfeb7ee	-0.031093564
117	0x3d964f87	0.073393874
118	0x3ca39dea	0.01997276
119	0xbd36002c	-0.044433758
120	0xbcb8ef3a	-0.02257501
121	0x3c031f7a	0.00800311
122	0x3c50f851	0.012754516
123	0xbd109751	-0.035300557
124	0xb9b5516a	-0.00034583668
125	0xbd42e88c	-0.047585055
126	0xbc9a5fb9	-0.018844472
127	0xbcca0205	-0.024659166
128	0xbcde31b3	-0.027123308
129	0x3d827d38	0.0637154
130	0xbb13ee94	-0.0022572624
131	0x3b4d09a9	0.0031286275
132	0x3c0f3395	0.008740325
133	0xbc0e404a	-0.00868232
134	0xbd680594	-0.056645945
135	0xbd491600	-0.049093246
136	0xba8bbe3a	-0.001066155
137	0xbd4f0066	-0.05053749
138	0x3d007bad	0.031367946
139	0x3c4c8b55	0.012484391
140	0x3d902d32	0.0703987
141	0x3c072d57	0.008250556
142	0xbd82e66a	-0.06391604
143	0x3ce55612	0.027995143
144	0xbb90b285	-0.0044158124
145	0x3cbd7365	0.023126313
146	0x3ddb5079	0.10708708
147	0xb97f75ef	-0.00024362629
148	0x3d2e6145	0.042573232
149	0x3d922381	0.07135678
150	0xbd1a5bd6	-0.037685238
151	0x3bf5786c	0.007491162
152	0x3d868a06	0.06569295
153	0xbd04da2c	-0.032434627
154	0x3d638fff	0.055557247
155	0x3d9485a5	0.07252053
156	0x3d16fb99	0.036861036
157	0xbd417bc7	-0.047237184
158	0xbc78a5fd	-0.015176293
159	0xbc7b7620	-0.015347987
160	0xbc84d7eb	-0.016216239
161	0xbd9ae6d0	-0.07563555
162	0x3d90132f	0.07034909
163	0x3c2038ab	0.009779136
164	0xbd1bd43a	-0.038044192
165	0xba33f364	-0.0006864576
166	0x3dac1aa6	0.0840352
167	0x3d0247b8	0.031806678
168	0xbd3de943	-0.046365034
169	0x3cd6e49d	0.026232058
170	0xbcb5f917	-0.022213502
171	0x3d5d8147	0.054078367
172	0x3d4bcc2d	0.049755264
173	0x3d3817d0	0.044944584
174	0xbd928c70	-0.071556926
175	0xbe0e2b7e	-0.13883778
176	0xbb9e0634	-0.004822517
177	0x3c6fa5c1	0.014626921
178	0x3d512a2b	0.051065605
179	0xbcab7053	-0.020927584
180	0xbd69bad5	-0.057062943
181	0x3b8a2611	0.0042159637
182	0x3b58f9b8	0.0033107828
183	0x3b8afca6	0.004241544
184	0x3cb926db	0.022601536
185	0x3745b8d6	1.17851505e-05
186	0xbc134b70	-0.008990154
187	0xbdb25103	-0.08706858
188	0xbc847779	-0.01617025
189	0xbd5292be	-0.051409476
190	0xbb83cd38	-0.0040222667
191	0xbd25e27b	-0.04049919
192	0x3da6b514	0.08140007
193	0x3dabb47f	0.08384036
194	0xbd17ce91	-0.03706223
195	0x3a66ff21	0.0008811821
196	0x3dc3040e	0.09522258
197	0xbd835272	-0.064122096
198	0x3dc02790	0.09382546
199	0x3d755783	0.05989791
200	0xbc35f5cc	-0.011105966
201	0xbd3686cf	-0.044562157
202	0xbda5394f	-0.08067571
203	0x3d33b4bc	0.043873534
204	0x3d037a55	0.032099087
205	0xbda6f0d8	-0.08151406
206	0x3d02d33d	0.031939734
207	0x3d17275a	0.036902763
208	0xbe33789b	-0.17526476
209	0xbd57706e	-0.052597456
210	0xbdeac3c6	-0.11463122
211	0xbda92fda	-0.0826108
212	0x3d7ee499	0.062229726
213	0x3c4de8e3	0.012567732
214	0xbb3481e9	-0.0027543253
215	0x3d790747	0.060797956
216	0xbdc8a633	-0.09797325
217	0xbd2be6f0	-0.041968286
218	0x3db14c45	0.086571254
219	0xbd4afdc3	-0.049558412
220	0x3d4d7d38	0.050168246
221	0x39b61dd7	0.00034735978
222	0xbcbacd62	-0.022803012
223	0x3d8f9cd9	0.07012338
224	0x3d1ae691	0.03781754
225	0xbd1a2f7c	-0.03764294
226	0x3d8c8351	0.06860984
227	0xbd3c4299	-0.04596195
228	0x3d94f596	0.07273404
229	0xbd5eb42c	-0.054371044
230	0x3d737cdf	0.05944526
231	0xbdfb3092	-0.122651234
232	0x3b892784	0.004185619
233	0x3d20258b	0.039098304
234	0xbc2d1373	-0.010563719
235	0xba2a3de6	-0.0006494209
236	0x3d6f3586	0.058400653
237	0x3d71691c	0.05893813
238	0xbd94e873	-0.07270899
239	0x3d09b008	0.033615142
240	0xbd87c179	-0.06628699
241	0x3c8becb7	0.017080648
242	0x3d52fd87	0.051511314
243	0x3d9d098f	0.07667839
244	0xbc0edbbb	-0.00871938
245	0x3d6e2eed	0.05815022
246	0x3d9e7316	0.07736795
247	0xbcfbe843	-0.0307504
248	0x3d5b465b	0.053533893
249	0x3da14900	0.07875252
250	0xbd4e65b5	-0.050389964
251	0xbd5aa163	-0.053376567
252	0x3d0e6a3f	0.034769293
253	0x3c603d76	0.013686528
254	0xbd9e8185	-0.07739548
255	0x3dad5455	0.08463351

sage.2.lin_root.bias f4 [64]
0	0xbdd89f51	-0.10577262
1	0xbdcd2ede	-0.10018705
2	0xbd4b9ca4	-0.04970993
3	0x3d7db5a8	0.06194082
4	0xbccb3b03	-0.024808412
5	0x3df45044	0.11929372
6	0xbdb99ed9	-0.09063501
7	0x3dca7b6f	0.09886824
8	0x3d97f3ce	0.07419549
9	0x3ca56c33	0.020193195
10	0xbc2f9811	-0.010717408
11	0x3bc7988e	0.006091184
12	0x3dae0336	0.08496706
13	0xbdc6d3b3	-0.09708347
14	0xbd866256	-0.06561725
15	0xbe659a53	-0.22422151
16	0x3cf548ff	0.029942034
17	0xbde43867	-0.111435704
18	0x3c80119f	0.015633402
19	0xbdda4a06	-0.1065865
20	0xbc39960e	-0.01132728
21	0x3b560122	0.0032654484
22	0xbc55449a	-0.013016844
23	0x3ddbd2f0	0.107335925
24	0xbd9f7c34	-0.07787362
25	0xbe0017d6	-0.12509093
26	0xbe0e5d12	-0.13902691
27	0xbe3f0ad6	-0.18656477
28	0x3de5f944	0.11229184
29	0xbd68a960	-0.056802154
30	0xbe434e80	-0.19072914
31	0x3db53223	0.088474534
32	0xbe2668a7	-0.16250859
33	0xbe92429c	-0.28566444
34	0x3c35b802	0.011091234
35	0xbd316f27	-0.043318894
36	0x3cb9fd1f	0.022703705
37	0x3d35f1f9	0.044420216
38	0xbda417a4	-0.080123216
39	0xbe26d262	-0.16291192
40	0xbe6e0088	-0.2324239
41	0xbe1b76b5	-0.15182002
42	0xbe17ad84	-0.14812285
43	0xbe33753a	-0.17525187
44	0xbdab55d7	-0.08365982
45	0xbbf499d9	-0.007464629
46	0xbdd60f55	-0.10452143
47	0x3ce0f618	0.027461097
48	0xbdb9932b	-0.09061273
49	0x3ee16efe	0.44029993
50	0xbdfc2b39	-0.123129316
51	0x3d9bd18d	0.07608328
52	0x3d61f78b	0.055167716
53	0xbe25efda	-0.16204777
54	0xbe57cd9b	-0.21074526
55	0xbd6971c9	-0.05699328
56	0xbe6dbe08	-0.23217022
57	0xbe1095e1	-0.14119674
58	0x3e0c4f0e	0.13702032
59	0xbde33a87	-0.110951476
60	0x3d014692	0.03156144
61	0x3d228e50	0.0396865
62	0x3d404da0	0.04694903
63	0xbc8afaf6	-0.01696537

batch_norm.0.weight f4 [400]
0	0x40175c5d	2.3650124
1	0x40582e25	3.3778164
2	0x4052473d	3.285598
3	0x4044dd3c	3.076003
4	0x4033d68c	2.80997
5	0x401f9923	2.4937217
6	0x40108da7	2.2586458
7	0x4017d1b6	2.3721747
8	0x400cc6d1	2.1996348
9	0x3ffeb415	1.9898707
10	0x3ffbe14f	1.9678134
11	0x3fef5696	1.8698299
12	0x4001f64f	2.0306585
13	0x3fd50951	1.6643468
14	0x3fe9969f	1.8249091
15	0x3fd722d2	1.6807501
16	0x3fde9825	1.7390181
17	0x3fd50493	1.6642021
18	0x3fd4fd36	1.6639774
19	0x3fd43d7e	1.6581266
20	0x3fddb217	1.7319974
21	0x3fcf6217	1.620181
22	0x3fcaf161	1.5854913
23	0x3fcdb8af	1.6071986
24	0x3fd08329	1.6290027
25	0x3fdc09d9	1.7190505
26	0x3fd33912	1.6501791
27	0x3fceb0b7	1.6147679
28	0x3fc5712b	1.5425161
29	0x3fc759da	1.5574296
30	0x3fc91095	1.5708185
31	0x3fcbd8fb	1.5925592
32	0x3fc6860e	1.550966
33	0x3fcd429d	1.6035954
34	0x3fcfd21f	1.6235999
35	0x3fbf57af	1.4948634
36	0x3fc5359f	1.5406989
37	0x3fda548a	1.7057049
38	0x3fbad8c2	1.4597399
39	0x3fc13281	1.5093538
40	0x3fcdcaec	1.6077552
41	0x3fca297e	1.5793912
42	0x3fbfba64	1.4978757
43	0x3fc9fdfb	1.5780634
44	0x3fc2dffc	1.5224605
45	0x3fc0b4a8	1.5055132
46	0x3fb6bbe9	1.4276096
47	0x3fd3b910	1.6540852
48	0x3fd993ca	1.6998227
49	0x3fc65a66	1.5496337
50	0x3fc8cca6	1.5687454
51	0x3fc32aee	1.5247476
52	0x3fc0c6b7	1.5060643
53	0x3fbd1059	1.4770614
54	0x3fc497c8	1.535882
55	0x3fc900cf	1.5703372
56	0x3fc26718	1.5187712
57	0x3fd08f7d	1.6293789
58	0x3fc704a2	1.5548289
59	0x3fc144ee	1.5099161
60	0x3fc174dc	1.5113788
61	0x3fc54e95	1.5414606
62	0x3fc4c6ff	1.5373229
63	0x3fb6d281	1.4282991
64	0x3fc09ecd	1.5048462
65	0x3fd3879c	1.652576
66	0x3fb38aa3	1.4026684
67	0x3fb05fb0	1.3779202
68	0x3fb4b93e	1.4119031
69	0x3fa9eea7	1.3275956
70	0x3fbd6347	1.4795922
71	0x3fb0f70f	1.3825396
72	0x3fafcf73	1.3735183
73	0x3fbdc3b8	1.4825354
74	0x3fb465fd	1.4093624
75	0x3fb02536	1.3761356
76	0x3fb2a724	1.3957257
77	0x3fb2a40c	1.3956313
78	0x3fb4403c	1.4082103
79	0x3fbf0bb9	1.4925452
80	0x3fc14051	1.5097753
81	0x3fb49c25	1.4110152
82	0x3fbc61e1	1.471737
83	0x3fb462d8	1.4092665
84	0x3fc15961	1.5105401
85	0x3faeef2d	1.3666741
86	0x3fa26030	1.2685604
87	0x3fab525b	1.3384508
88	0x3fa4388c	1.2829757
89	0x3fa1244a	1.25892
90	0x3fadbff1	1.3574201
91	0x3fc10766	1.5080383
92	0x3fac460c	1.3458877
93	0x3f942a29	1.1575366
94	0x3fa92386	1.3213966
95	0x3fa0deff	1.2568053
96	0x3f9cc8e1	1.2248803
97	0x3f9d8cba	1.2308571
98	0x3fa52394	1.2901483
99	0x3fa4f7c1	1.2888108
100	0x3fa508b2	1.2893279
101	0x3f9ce262	1.2256587
102	0x3f9ca159	1.2236739
103	0x3fc00301	1.5000917
104	0x3fa3e4df	1.2804221
105	0x3fb647d6	1.4240673
106	0x3fa88161	1.3164483
107	0x3fa2ca99	1.2718078
108	0x3fa792b4	1.3091645
109	0x3faedb97	1.3660764
110	0x3fb6eb5b	1.4290575
111	0x3f9ea2fb	1.2393488
112	0x3f9c2e28	1.2201586
113	0x3fa58e44	1.2934041
114	0x3fa08049	1.253915
115	0x3f92cffa	1.146972
116	0x3fab4a58	1.3382063
117	0x3fa20409	1.2657481
118	0x3f960e5a	1.172313
119	0x3f93bcdc	1.154201
120	0x3f89a5a0	1.075367
121	0x3f91cbf0	1.1390362
122	0x3fa023cf	1.2510928
123	0x3f94dd48	1.163003
124	0x3fa5e452	1.2960303
125	0x3f88a4f6	1.0675342
126	0x3f8b1b45	1.0867697
127	0x3f8d1ade	1.1023824
128	0x3f8db73a	1.1071541
129	0x3f947be2	1.1600306
130	0x3f9f7cf9	1.2460014
131	0x3fa466ae	1.2843835
132	0x3fa4542f	1.2838191
133	0x3f932d3c	1.149818
134	0x3f91cd82	1.1390841
135	0x3f879a5d	1.0593983
136	0x3f794b75	0.97380763
137	0x3f699750	0.9124651
138	0x3f9c1aa2	1.2195628
139	0x3fb09dd3	1.3798164
140	0x3f949333	1.1607422
141	0x3f6a7788	0.9158864
142	0x3f6522ea	0.895064
143	0x3f7d84fb	0.9903104
144	0x3f996800	1.1984863
145	0x3f6753f2	0.90362465
146	0x3f936ab3	1.1516937
147	0x3f843357	1.0328168
148	0x3f91ccd0	1.1390629
149	0x3f99b761	1.2009088
150	0x3fa83d83	1.3143772
151	0x3f75b724	0.95982575
152	0x3f5c54ad	0.86066705
153	0x3f356afb	0.70866364
154	0x3f783b0f	0.96965116
155	0x3f6bfa5e	0.92178905
156	0x3f9270a1	1.1440622
157	0x3f81340a	1.0094006
158	0x3f5d9a99	0.8656402
159	0x3f84a797	1.0363644
160	0x3f83dd15	1.0301844
161	0x3f47ed2e	0.7809628
162	0x3f5fa09a	0.87354434
163	0x3f450bc6	0.7697109
164	0x3f76298d	0.9615715
165	0x3f83bc68	1.0291872
166	0x3f8431c3	1.0327686
167	0x3f840496	1.03139
168	0x3f6ed7c0	0.9329796
169	0x3f31a986	0.693993
170	0x3f71110a	0.94166625
171	0x3f7936b3	0.9734909
172	0x3f7321dc	0.9497354
173	0x3f5597f9	0.83435017
174	0x3f34dbca	0.7064787
175	0x3f6f1fb7	0.9340777
176	0x3f79f0dc	0.9763315
177	0x3f677c45	0.90423995
178	0x3f81b608	1.0133677
179	0x3f5beb10	0.8590555
180	0x3f0bfd92	0.5468379
181	0x3f6182bf	0.8809013
182	0x3f779cda	0.9672371
183	0x3f79c434	0.9756501
184	0x3f558892	0.83411515
185	0x3f80d663	1.0065426
186	0x3f3a6724	0.7281363
187	0x3f2d03df	0.6758403
188	0x3f378351	0.7168475
189	0x3f5e06b3	0.8672897
190	0x3f432242	0.7622415
191	0x3f2ab49e	0.6668185
192	0x3f2c63cb	0.6733977
193	0x3f17d08a	0.5930258
194	0x3f39767d	0.72446424
195	0x3f33f681	0.7029801
196	0x3f2a359d	0.6648806
197	0x3f2e1399	0.67998654
198	0x3f1abbe0	0.60442924
199	0x3f41765f	0.75571245
200	0x3f245e5e	0.6420649
201	0x3f32ff45	0.6992076
202	0x3f43ac1e	0.76434505
203	0x3f64b20f	0.89334196
204	0x3f0c068f	0.5469751
205	0x3f365fe0	0.71240044
206	0x3f2553ef	0.645812
207	0x3f010706	0.5040134
208	0x3ef34483	0.47513208
209	0x3f42912f	0.7600278
210	0x3f4a6e6d	0.79074746
211	0x3f21c127	0.6318535
212	0x3f29bed6	0.6630682
213	0x3f32695c	0.69692016
214	0x3f37d2c2	0.71805966
215	0x3f351c0d	0.7074593
216	0x3ec6ee6f	0.38853785
217	0x3f31be6d	0.6943119
218	0x3f1850c4	0.5949824
219	0x3f3cc7c1	0.737423
220	0x3f365f87	0.71239513
221	0x3f1cbe6c	0.6122806
222	0x3f028bcf	0.5099458
223	0x3eeac1ec	0.45851076
224	0x3f1fb274	0.6238167
225	0x3eea6032	0.45776516
226	0x3f166a99	0.58756405
227	0x3ef443e1	0.47708037
228	0x3ee4d0c7	0.44690534
229	0x3ead2df8	0.33824134
230	0x3eda5ef6	0.42650574
231	0x3ef903fc	0.48635852
232	0x3f01d4c9	0.5071531
233	0x3ee5cf51	0.44884732
234	0x3eca0b3a	0.3946169
235	0x3eaa98c7	0.33319685
236	0x3f03286f	0.5123357
237	0x3ee289be	0.44245714
238	0x3effbbac	0.4994787
239	0x3eb8475b	0.3599194
240	0x3ee7b98b	0.45258746
241	0x3ee6810a	0.45020324
242	0x3edc42be	0.4301967
243	0x3ed7a389	0.42116955
244	0x3ef08d9a	0.46983033
245	0x3e9b9164	0.30384362
246	0x3e6d7b28	0.23191512
247	0x3ed07615	0.4071509
248	0x3eda1568	0.42594457
249	0x3f0197fd	0.5062254
250	0x3f0e3b4e	0.5555924
251	0x3ef9afb3	0.4876686
252	0x3ec2208a	0.3791545
253	0x3ec5942e	0.38589615
254	0x3ecfc412	0.40579277
255	0x3eea02fa	0.45705396

batch_norm.0.bias f4 [400]
0	0xc018e8a3	-2.389199
1	0xbffe90ae	-1.9887903
2	0xbfb96e49	-1.4486781
3	0xbf75ad4b	-0.9596755
4	0xbf4e0592	-0.8047725
5	0xbf184ef3	-0.59495467
6	0xbf176ec7	-0.5915341
7	0xbec90d5c	-0.39268005
8	0xbe11d5dc	-0.14241737
9	0xbe959b1d	-0.29219905
10	0xbe426361	-0.18983223
11	0xbd390781	-0.045173172
12	0xbdc71918	-0.09721583
13	0xbc4a4b51	-0.012347058
14	0xbd01381b	-0.031547647
15	0x3d810a7f	0.0630083
16	0x3c8f0b29	0.017461376
17	0x3e0b2b45	0.13590725
18	0x3e57b4f3	0.2106512
19	0x3e8789af	0.26472232
20	0x3e3d369b	0.18477862
21	0x3e2dc0ba	0.1696805
22	0x3e88aa18	0.2669227
23	0x3e914ba2	0.28378016
24	0x3e6702f8	0.22559726
25	0x3e92c857	0.28668472
26	0x3e90a5ae	0.28251404
27	0x3e338313	0.1753047
28	0x3ec1143a	0.37710744
29	0x3e958dcf	0.29209754
30	0x3e82297a	0.2542227
31	0x3e9e9308	0.3097155
32	0x3e901e4c	0.28148115
33	0x3e4f45bf	0.2024145
34	0x3e7b8a3f	0.24564455
35	0x3ed5e43f	0.417757
36	0x3ecd8440	0.4013996
37	0x3ec0d62d	0.37663403
38	0x3ebebb77	0.372524
39	0x3eb78a77	0.35847828
40	0x3ec6b9ff	0.3881378
41	0x3ee42a6f	0.44563624
42	0x3ebca6f6	0.3684613
43	0x3ec39b85	0.3820459
44	0x3eaaeb15	0.33382478
45	0x3ee6f011	0.4510503
46	0x3ebd9549	0.37027958
47	0x3e90c272	0.2827335
48	0x3eae033f	0.33986852
49	0x3ebfdc4c	0.3747276
50	0x3eb4917f	0.35267255
51	0x3ec515b2	0.38493115
52	0x3ebff67a	0.37492734
53	0x3edbf3c8	0.42959428
54	0x3e72a844	0.23697
55	0x3eb647f9	0.35601786
56	0x3e9bfe46	0.30467433
57	0x3ef0c11e	0.47022337
58	0x3ece3269	0.40272835
59	0x3e878892	0.26471382
60	0x3edba4f6	0.42899293
61	0x3e898359	0.26858023
62	0x3eb0a110	0.3449788
63	0x3eb09dbe	0.34495348
64	0x3eabdcf6	0.33567017
65	0x3ebb4b9a	0.36581117
66	0x3e8e1fde	0.27758688
67	0x3ebbce29	0.36680725
68	0x3ea1045f	0.31448647
69	0x3e86090d	0.2617878
70	0x3eaf4b9f	0.34237382
71	0x3e94f572	0.2909351
72	0x3ea396e8	0.3195107
73	0x3e9911ee	0.29896492
74	0x3ece58e9	0.40302208
75	0x3ec1f11f	0.37879273
76	0x3ea6aeea	0.32555324
77	0x3e949545	0.29020134
78	0x3eb6ae6b	0.35679945
79	0x3eb479f1	0.35249284
80	0x3ed555bd	0.41666976
81	0x3ec6f0a0	0.38855457
82	0x3ed06c35	0.40707555
83	0x3eb9df2d	0.36303082
84	0x3eb745ca	0.35795432
85	0x3ec2a147	0.3801367
86	0x3ea2719c	0.31727302
87	0x3ea59f5a	0.32348138
88	0x3e880edf	0.26573846
89	0x3e926cd1	0.28598645
90	0x3e8bfe1a	0.27342302
91	0x3eba0b40	0.36336708
92	0x3ea18e86	0.3155405
93	0x3e873ca4	0.26413453
94	0x3ea3a3d5	0.3196093
95	0x3e6f948f	0.23396514
96	0x3e8cde80	0.27513504
97	0x3dfca271	0.12335671
98	0x3e9618d1	0.29315808
99	0x3e69618c	0.22791117
100	0x3e65d1bd	0.2244329
101	0x3e8726dc	0.26396835
102	0x3e8d0d2d	0.27549115
103	0x3eac3cb2	0.33640057
104	0x3e901730	0.2814269
105	0x3e7da4e5	0.24769934
106	0x3e761071	0.2402971
107	0x3e826396	0.25466603
108	0x3e5566a7	0.2083994
109	0x3e8eff78	0.27929282
110	0x3e8891e8	0.26673818
111	0x3e11d77a	0.14242354
112	0x3e50b5f2	0.20381907
113	0x3e6b28d7	0.22964798
114	0x3e80f3a2	0.25185877
115	0x3e69ffa5	0.22851427
116	0x3e8d851d	0.2764062
117	0x3e250f22	0.16119054
118	0x3e26f930	0.16305995
119	0x3e81696e	0.2527575
120	0x3e5b5051	0.21417357
121	0x3e7aca40	0.24491215
122	0x3e8d5553	0.2760416
123	0x3dda3b87	0.10655885
124	0x3e0bae54	0.1364072
125	0x3dd7565a	0.10514517
126	0x3dd813eb	0.10550674
127	0x3e2498e2	0.16073945
128	0x3e556b37	0.2084168
129	0x3e6c2d36	0.23064122
130	0x3e89ba4d	0.2689995
131	0x3e8777aa	0.26458484
132	0x3e7b9942	0.24570182
133	0x3e1ca4e5	0.15297277
134	0x3e312f0b	0.17303102
135	0x3e1908db	0.14944784
136	0x3df48b70	0.11940658
137	0x3d8378d5	0.06419531
138	0x3e5776b0	0.2104137
139	0x3e5ce8fc	0.21573251
140	0x3e545ee4	0.20739323
141	0x3e12d7f7	0.14340197
142	0x3e138be3	0.14408831
143	0x3e3bd84f	0.18344234
144	0x3e71b823	0.23605399
145	0x3e3076c4	0.17232805
146	0x3e24878f	0.16067336
147	0x3df44281	0.11926747
148	0x3e35d857	0.17758308
149	0x3e44f6a1	0.19234706
150	0x3e21fa3c	0.15818113
151	0x3de07a39	0.10960812
152	0x3d696b57	0.056987133
153	0x3d676b49	0.0564988
154	0x3dbc39ae	0.09190689
155	0x3daa56aa	0.08317311
156	0x3e65eb1d	0.2245297
157	0x3cce54d9	0.025186943
158	0x3d4ecdf2	0.050489374
159	0x3e0ac0d6	0.13550124
160	0x3e1f2cae	0.15544388
161	0x3dcd8e4a	0.10036905
162	0x3d95e533	0.07319107
163	0xbccb9c89	-0.024854915
164	0x3de65611	0.112468846
165	0x3db090dd	0.086213805
166	0x3def2aca	0.11678083
167	0x3e361c57	0.17784248
168	0x3d1cad1d	0.03825103
169	0x3dd2f21b	0.10300084
170	0x3e30da23	0.17270713
171	0x3d9e1111	0.07718099
172	0x3e0c767b	0.13717072
173	0x3df5b856	0.1199805
174	0xbbc25e88	-0.005931679
175	0x3d117a6e	0.03551715
176	0x3d9e0f15	0.077177204
177	0x3c57a3d2	0.013161616
178	0x3e292d77	0.1652125
179	0x3d6a8148	0.0572522
180	0xbcaaac70	-0.020834178
181	0x3dc636c8	0.096784174
182	0x3ce927cb	0.028461358
183	0x3e156624	0.14589745
184	0x3dabba13	0.083851
185	0xbb9c757d	-0.004774748
186	0x3d784489	0.060612235
187	0x3d4f4a54	0.050607994
188	0x3d0332fa	0.032031037
189	0x3daf316c	0.08554348
190	0x3dd20618	0.102550685
191	0xbd0aaca7	-0.03385606
192	0xbc952913	-0.018208062
193	0xbca15968	-0.019695953
194	0xbda35e24	-0.0797694
195	0x3c89900c	0.01679232
196	0x3c19466b	0.009355168
197	0x3c029873	0.007970917
198	0xbc143dd3	-0.009047943
199	0xbd7fd1e6	-0.062456034
200	0x3cbb5f61	0.022872629
201	0x3d7511d9	0.059831474
202	0x3d0cca61	0.03437269
203	0xbdcffa81	-0.10155202
204	0x3aa38e6c	0.0012478358
205	0x3d566a24	0.052347317
206	0xbc1baf7f	-0.009502291
207	0x3c96cae0	0.018407285
208	0x3c42de28	0.0118937865
209	0x3cf84c13	0.030309713
210	0x3da65385	0.08121399
211	0x3c8aed7f	0.01695895
212	0x3b7be390	0.0038435198
213	0xbd275547	-0.04085281
214	0x3c752642	0.014962735
215	0xbd8945fc	-0.067028016
216	0xbd26a4c1	-0.040684465
217	0xbd873d35	-0.06603471
218	0xbd210377	-0.039309945
219	0xbcdf38b5	-0.02724872
220	0xbceb7087	-0.02874018
221	0xbd72c349	-0.05926827
222	0xbdd09b37	-0.10185855
223	0xbd4b6c79	-0.049663994
224	0xbc2eee6b	-0.01067696
225	0xbd38cbbe	-0.04511618
226	0xbdb481d2	-0.08813824
227	0xbddf3e48	-0.10900551
228	0xbb2dc700	-0.0026516318
229	0xbd87baf2	-0.06627454
230	0x3c0223e7	0.00794313
231	0xbd749078	-0.05970809
232	0xbd035085	-0.03205921
233	0xbd8c3b3a	-0.06847234
234	0x3bdaf1d7	0.0066816616
235	0xbd78ce78	-0.06074378
236	0x3d14c39c	0.03631936
237	0xbe0bb234	-0.13642198
238	0xbd5406e0	-0.05176437
239	0xbd5f90ca	-0.05458144
240	0xbd1315ad	-0.035909344
241	0x3c2384d8	0.009980403
242	0xbe2073ca	-0.1566917
243	0xbe15132c	-0.14558095
244	0xbe17224b	-0.14759175
245	0xbea47f8d	-0.32128564
246	0xbe0c8e19	-0.13726081
247	0xbaef9660	-0.0018279068
248	0xbda026cf	-0.07819902
249	0xbdc6555d	-0.096842505
250	0xbdb0e162	-0.08636738
251	0xbdc5da8d	-0.09660826
252	0xbd8f7833	-0.07005348
253	0xbdb8f614	-0.09031311
254	0x3c0e76d6	0.008695325
255	0xbbe6771f	-0.0070332433
