Saves/ecal_deep_r0.1.pth (torch, 202070 bytes, 54 tensors)

sage.0.lin_rel.weight f4 [16, 3]
00000000: 4000 53be 3469 30be cc63 c73d aae4 02bf
00000010: 42e2 1fbf 48a8 5bbe ce37 bf3e 8fe4 dabe
00000020: fdff b03e 87ac 3e3f b340 c93e 625d 8abb
00000030: 28e0 b33c 6e85 0abc dbdf 223e c44d 123f
00000040: 2715 9cbe 3dd0 ed3e ee73 153f 4041 fe3c
00000050: 5764 15c0 e4c8 9c3e d798 df3d 9f47 a33e
00000060: e36e bb3e 5f0c c93d 1907 003f c234 91be
00000070: 78b2 b03d 773f c33e 5119 8f3e 1e66 9bbe
00000080: bf66 f13e 2e63 e43d c4f2 003d 90f1 cf3d
00000090: 6026 9ebe cae1 113f 05c7 963b 7020 ce3e
000000a0: 0a5f 193f aef1 dcbd 383c 21bc d940 643e
000000b0: 224a 1bbe 30e0 023f f8d7 7d3e 08b6 9f3e
-0.20605564 -0.17227632 0.097358316 -0.51130164 -0.6245462 -0.21450913 0.37347263 -0.427525
0.34570304 0.74482006 0.39307174 -0.004222558 0.021957472 -0.008454664 0.15905707 0.5714991
-0.30484888 0.46447936 0.5838002 0.031036973 -2.3342493 0.30622017 0.10917824 0.3189058
0.36608037 0.09816813 0.5001083 -0.28360564 0.0862779 0.38134357 0.27949002 -0.30351347
0.47148702 0.111517295 0.03148152 0.10153496 -0.30888653 0.5698515 0.0046013617 0.40259123
0.59910643 -0.10788284 -0.009841017 0.22290362 -0.15164998 0.5112333 0.24789417 0.31193566

sage.0.lin_root.weight f4 [16, 3]
00000000: 3032 85be b00c 703d e2d4 38be 4765 d03e
00000010: 96b5 073f f45f 4abd effe a83c 9153 33be
00000020: d47a 4fbe 39ef 3fbf 0969 c9be 9a67 80ba
00000030: 3c1e 76bd 2a28 673e 97b6 84be 5059 b5bc
00000040: 2cd1 0abe 3def 083f 1764 c33d f117 c3bc
00000050: 6cd1 45be 581a d03e 6373 6a3e d5d9 40be
00000060: 3cdc 69be e25c f3bd 7e0d 72be 09db 343e
00000070: ced4 11bf 1cc4 87be dfb4 d53e 60a8 bf3e
00000080: 55e0 873e 34ed 25be b1d7 1c3e 3ada 14be
00000090: e5ef 9e3e a320 12bf f6a9 84b8 0587 d4be
000000a0: b955 13bf e743 a93e 7283 353e 618e 3e3d
000000b0: 3465 743d b880 b53e d9f9 193e f5d0 c7be
-0.26014853 0.05860585 -0.18049958 0.40702268 0.53011453 -0.049407914 0.020629374 -0.17512347
-0.20261699 -0.749744 -0.39337948 -0.0009796501 -0.060087427 0.22573915 -0.25920555 -0.022137314
-0.13556355 0.5349005 0.09540575 -0.023815127 -0.1931817 0.406451 0.22895579 -0.18833096
-0.22837919 -0.1188295 -0.2363796 0.1766168 -0.5696534 -0.26516807 0.41739556 0.37433147
0.2653834 -0.16203767 0.15316655 -0.14536372 0.310424 -0.5708105 -6.325908e-05 -0.41509262
-0.5755268 0.33059618 0.17725924 0.0465225 0.059666827 0.35449767 0.15036716 -0.3902661

sage.0.lin_root.bias f4 [16]
00000000: 557c 0c3f 7736 053f 4cf3 dbbe 56eb 5b3b
00000010: 57ca 08bf 92ec cb3d f59a a6be 8069 4abd
00000020: 019b ab3e 92b8 193f 86fc 463c e64f 093f
00000030: 9b51 36ba 6592 ba3c 1b81 9c3b c019 93bd
0.54877216 0.5203623 -0.42959058 0.003355702 -0.53433746 0.099572316 -0.32540098 -0.04941702
0.33516696 0.60047257 0.012145167 0.5363754 -0.0006954909 0.022774884 0.0047761328 -0.07182646

sage.1.lin_rel.weight f4 [64, 16]
00000000: 65c0 ec3d 204a 79bd 9296 6dbd 9725 a03e
00000010: 1ab5 7ebe 8457 18be cba9 c13d 79d2 783d
00000020: 8816 7c3d 85b6 043e c4be 613e 0aea 4e3d
00000030: 2738 bc3e c3bd 2a3d fc6b 373d 0352 4f3d
00000040: 7464 133e aaea 58bd 0c04 453e 7d03 7e3d
00000050: 8834 debd c7e5 353e 6006 14be 6da9 463e
00000060: 05e6 4b3e fd4f 04be 60ea 23bd c246 903d
00000070: a1c6 75bd 4761 1f3e 624c 8dbc 05b1 8b3d
00000080: 6653 bdbc d97c 3ebe 6c15 2ebe 616b 9ebd
00000090: 77af 8a3d 9078 493d d25c 4a3d 564b 363e
000000a0: abac 863d bd8e 51be 2013 8a3c 0663 313e
000000b0: 970a ef3d 4433 333e 8ebd 013e 4d8e 433e
000000c0: 389e e7bd c935 693e 39d2 10be 96e1 40be
000000d0: b0c2 d4bd 2b9c 06bd f553 12be 9e6d 153e
000000e0: 5e5e ab3d 54de 5d3d b7d0 9bbd cdc7 683c
000000f0: f682 643e 54c5 023e c239 063d 2a2a bf3d
00000100: 057d 0ebe 89c6 34be 1bf1 8d3e aaad 7ebd
00000110: ff4a 573e 419d 0d3e 04e3 46be e6e1 2dbe
00000120: 6f70 a2bd 6208 09be e064 e43d d4bd 763d
00000130: 6ac7 07be 9274 17be 3e76 6abd a2bf e93c
00000140: 2f66 08bd cec9 28be 2141 95bd 2c08 f8bd
00000150: ec7b 3abe d11b 243e 1b3e 1d3e 0c27 e03d
00000160: bb39 3a3e 97d6 4bbd 4fe3 053e 17b7 b93d
00000170: 6a6a 08be f74c 25be bc76 72be 5ffd 4c3e
00000180: 8a0b 07be d9f3 c13d 70bf 793e 6065 963d
00000190: c42d a6bd cb83 a8be 4c66 033e 6dbd 3f3c
000001a0: 268a 89bd aa62 913d eaaf 7dbc f8b1 1a3e
000001b0: 14ac 20be 69b7 1b3e c77e 0ebe 1ece acbc
000001c0: b22f f83d 517f a1bc b11a 41be f513 36bd
000001d0: 1da5 333e f176 043e 06e5 2bbe 4736 033e
000001e0: d2b3 54bd d359 25be f59b 523d 0db1 24be
000001f0: 982a 693e b8ac 4f3d 82c7 a73d 8b96 633e
00000200: a917 57bd b119 6bbd d398 883d ccb0 123e
00000210: 5bc9 5e3e 1d05 5a3d 5f47 8e3d e5cc 50be
00000220: abee 1f3d 0033 e83d 9c0d 823e c98b 453d
00000230: 836f c4bd e90a 003e 5154 463e aa39 04bd
00000240: 9c20 963e 15d4 183e 86a4 21be 6415 ffbd
00000250: 8277 8d3e b776 ff3d 1dda d13d 3d02 cd3d
00000260: 294f 8cbd 9827 16be 35a1 9c3d 3e31 2e3e
00000270: fd37 8d3d 18de e7bd 97af 0dbe fc86 573e
00000280: 173c ba3d 6faa 73be 5ac6 08be 6381 12be
00000290: e824 133d 3550 f73d e3bb ebbd 9e39 cc3d
000002a0: 4af5 e6ba 38b3 af3d 4374 4e3d 7f8b 373d
000002b0: 7aac 4cbe 3925 08be fa03 293e d9d4 353e
000002c0: 3138 58be 1947 23be 6056 253d 0157 8ebc
000002d0: e919 a83d 680f ecbd ab95 5b3d 042e 0e3e
000002e0: 7ae2 023e f1de 1e3e 8f3d 90bc 08f3 403e
000002f0: 341f 113e 7455 a3bd cefc 3fbe cb03 173d
00000300: d766 e93d 8ab4 283c f43e 8e3d 362e 603d
00000310: 587a ec3d 315e 0bbe f7c0 ad3a 69ee 593e
00000320: 49fa 273e f872 cbbd b884 a0bd 4413 eb3d
00000330: 87a7 16be b072 40bd 4e8f 803e b904 d53d
00000340: d56b 18be eb8f 153e 772a bfbd 5e4a 62be
00000350: 4aaa 8b3d a10a e2bc ab99 4ebb c5ea 82bd
00000360: 49ba 04be eb82 5b3c 8f0a 143e f436 093e
00000370: 48b3 53be c07b 6b3e c357 213c 4df7 793e
00000380: 1cb7 063e 19bd f73d 180a 29be f901 eb3a
00000390: 1626 893e b219 24be 0c4e 633e 6840 743d
000003a0: ec46 6fbd dea4 003e 6cc3 033e 199d 483e
000003b0: 1b71 d43c ab07 6c3e bce8 3bbe af06 843e
000003c0: a813 c4bd f58c 41be b14d ebbd 5baa 2e3e
000003d0: dc2a 36be 56a6 debc 40b2 27bd fdde 34bd
000003e0: 13fd 0fbe 1c42 98bd f56e 373d 1121 1b3e
000003f0: 1447 33be acae 313d 5dda 5bbe 3246 923d
0.11560134 -0.060861707 -0.058004923 0.3127868 -0.24873772 -0.14877135 0.094562136 0.060747597
0.061544925 0.1296025 0.22045428 0.050516166 0.3676159 0.041684877 0.044780716 0.05061532
0.14393789 -0.052958168 0.19239825 0.062015045 -0.10849863 0.17763434 -0.14455557 0.19400568
0.19911964 -0.12921138 -0.04001844 0.07044746 -0.06000388 0.15564452 -0.017248336 0.06820873
-0.023111057 -0.18602313 -0.1700036 -0.07735325 0.067717485 0.049187243 0.049404927 0.17802176
0.065759026 -0.20464607 0.016854823 0.1732293 0.11671942 0.17500025 0.12669966 0.19097252
-0.11309475 0.22774424 -0.14142694 -0.18836054 -0.10388696 -0.032863777 -0.1428984 0.14592597
0.083676085 0.054167107 -0.076081686 0.0142077925 0.22315583 0.12770587 0.032769926 0.09334214
-0.13914879 -0.1765386 0.2772301 -0.062177338 0.21024702 0.13829519 -0.19422537 -0.16980705
-0.07931601 -0.13382104 0.11152053 0.060239628 -0.13259664 -0.14790562 -0.05724167 0.02853376
-0.033300575 -0.16483232 -0.07287813 -0.12110934 -0.18211335 0.16026236 0.15355723 0.109449476
0.18186085 -0.049765196 0.13074993 0.09068125 -0.13321844 -0.16142641 -0.23678106 0.20018528
-0.13187996 0.094703384 0.24389434 0.073435545 -0.08114198 -0.3291305 0.12831992 0.0117028775
-0.06715803 0.07098897 -0.015483836 0.15106952 -0.15690643 0.15206684 -0.13915549 -0.021094378
0.12118472 -0.01971403 -0.18857838 -0.044452626 0.17543454 0.12935998 -0.16786584 0.12813674
-0.051929303 -0.16147546 0.051418263 -0.16083165 0.22770154 0.050701827 0.0819235 0.22225396
-0.0525128 -0.057397548 0.06669774 0.14325255 0.21756499 0.053227533 0.06947207 -0.20390661
0.03904597 0.113378525 0.25401008 0.048229013 -0.09591582 0.12504162 0.19368102 -0.032281555
0.29321754 0.14924653 -0.15785417 -0.12455252 0.2763024 0.12473815 0.1024668 0.100101925
-0.06851036 -0.14663541 0.07647935 0.17010972 0.068954445 -0.11321658 -0.13836513 0.21047586
0.090934925 -0.23795484 -0.13356915 -0.1430717 0.03592387 0.12075845 -0.11510446 0.09971927
-0.0017620709 0.08579105 0.050403845 0.04481077 -0.1998767 -0.1329545 0.16505423 0.17756976
-0.21115185 -0.1594509 0.040365577 -0.017375471 0.08208067 -0.11526376 0.05360953 0.13884741
0.12781706 0.15514733 -0.017607478 0.18842709 0.1417206 -0.07975283 -0.18748781 0.03686885
0.11396568 0.01029695 0.06945601 0.05473157 0.11546773 -0.1361015 0.001325636 0.21282353
0.1640407 -0.09934038 -0.07837814 0.11478284 -0.14712344 -0.046984375 0.25109333 0.104012914
-0.14884885 0.14605682 -0.093342714 -0.22098681 0.068195894 -0.027592959 -0.0031524699 -0.06392435
-0.12961687 0.0133979125 0.14457153 0.13399869 -0.20673859 0.22996426 0.009847584 0.24410744
0.13155788 0.120966144 -0.16507757 0.0017929665 0.2678687 -0.16025427 0.22197741 0.059631735
-0.058417246 0.12562892 0.12867516 0.19591178 0.02593284 0.230498 -0.183505 0.2578635
-0.09574062 -0.18901427 -0.11489428 0.17057173 -0.17789787 -0.027178925 -0.040941477 -0.04415797
-0.14061384 -0.07434484 0.04478355 0.15149333 -0.17507583 0.04337947 -0.21470018 0.07142295

sage.1.lin_root.weight f4 [64, 16]
00000000: e35d b53d 03c3 02be 0db6 01be 08a1 23be
00000010: 67e0 ef3d bcfa 59be adcf 133e abbe 44be
00000020: a603 243e fb3f fd3d 00ab 09be c381 1abe
00000030: e0e5 2cbe 5568 533e b801 edbd 288e 8f3d
00000040: 750c 07be 4b14 06bd 0f96 5ebd 4ce2 bfbd
00000050: 1892 703e 99ec 28be 13a5 5abe 4522 c63c
00000060: 5801 51be 2f45 07be 8854 47be 1c50 413e
00000070: a94b 123e b841 1a3e 0a42 01be 777d 5c3e
00000080: bde2 803e 2dd5 da3d cd7a d4bc f741 043e
00000090: 43df cd3d b745 00bc 2831 1b3e 564b 0ebe
000000a0: 0ec3 ee3d 16c2 2ebe dac7 8c3e 9299 7ebd
000000b0: 2a6c 1fbe 3db6 20be 6856 133e df43 623d
000000c0: 9b1f 0ebe 5391 993d 3c3a 443d 0efc dcbe
000000d0: 2c5c 4fbe 1486 7c3e 186d e2bd f90d 89bd
000000e0: 497c 903c 5cb4 203d 8c3d c63e 8bce eebe
000000f0: f9d6 ea3c 3327 7a3d 0736 91be 2590 34bd
00000100: c5d9 25be e947 8c3c da9a 41bd f44c febd
00000110: 2b77 eb3d bf25 d03d 67a7 79bd 96af a53d
00000120: 380a 6cbd 2d4c 02bd 650f 803e 55ca 3b3e
00000130: f3bf 533e 132e 073e b253 253e 8100 31be
00000140: 214d a8bd 1cc4 94be 4ba4 8a3d bde6 d43c
00000150: db70 6abe 85c2 1d3e 0a56 27bd 4c0c 38be
00000160: 970b e4bd cfa4 153d d4e7 4c3c 2150 05bf
00000170: 98dc eb3c 9762 fcbd fa64 c5bc cd57 db3d
00000180: 5bdc e7bb 9c73 333e 99b0 7dbc 70a6 d4be
00000190: c063 babe 57d3 f53d 5dd2 a1bd 8a81 833e
000001a0: 5ed3 73be dda0 81be 705d bb3b f2d3 1abe
000001b0: 0928 413e f931 83bd 05ce 163d b3e3 83be
000001c0: fd3e 42be 429a 4dbd 1fc3 38be fb6d e6bd
000001d0: 0ca4 9bbc 0558 88be d77a 72be 195f 72be
000001e0: a7b5 5fbe b9aa d7bc 57de d1bd f3e5 833d
000001f0: 45f2 f3bd b423 693e d0b8 d53d c753 e1bd
00000200: bc8d a2bd b4df d73b cd92 35be 4252 94bd
00000210: bb36 80be 7731 483e f1e6 4c3e 4057 a03e
00000220: 9f8d efbc 65f1 093e b4a3 14be cc8f cdbe
00000230: 6524 5abe 1c16 623e a9de 90be db3b 463d
00000240: acc6 393e c68c 39be bb4d f2bd 7ba3 87be
00000250: a76f 5fbc af03 4e3e 9766 7ebc d931 38be
00000260: b6e8 453e 5f50 10be 200a 81bd 15da aa3d
00000270: b74d 21bb 10c8 3f3e 8507 85be 3141 42be
00000280: 43e9 4d3d 5dca 0ebe e0d2 603e 531d 033e
00000290: 5bb9 c1bd f63b 733e 4116 23be 8117 d6bd
000002a0: 5639 833d f513 de3d 5203 36bc 76ec f73d
000002b0: 8d92 26be f52f 5abe e4f3 333d b1cd 223e
000002c0: d39a fd38 11e7 2d3d d06c 4dbc 7982 1d3e
000002d0: 3d87 3a3e 0658 803e aa27 2cbe 2e96 af3d
000002e0: e71b 363e f627 353e bdfc 273d 3925 21be
000002f0: 90e1 7dbe d330 593e b614 0c3d cf94 5a3e
00000300: 4bd2 4f3d 0842 fbbd 2ab9 2e3d 2394 dcbd
00000310: 7136 2f3e e972 b3bd 0ca3 57bd 326b cdbd
00000320: 252e 573d 124c 923b f576 efbd 0895 2c3e
00000330: 942e d1bd e6a4 7abe 305b 34bd 26bf 78bd
00000340: 294b d33d 2db7 2a3d bb94 583e fab2 293e
00000350: 4623 04be 814b 5b3d 2a8c e53d f456 3e3e
00000360: f835 123e 4549 853d 9c0f a53d cf0b 96be
00000370: 36ad 463e 83b8 443d e21a a63c a7d5 44be
00000380: 0b48 6ebd f201 58bd bb51 18be 9e79 7b3e
00000390: a0c2 ae3e 6822 4ebe b831 383e da94 6bbe
000003a0: 98d2 5cbe 9861 453e 8bdb c23d 5641 723e
000003b0: 6f2b 4f3e 5470 9c3c acdb 3e3e 0ccc a53c
000003c0: 45ad bdbd 045b 9abd 8c56 813e 7854 02bd
000003d0: 07f4 24be 7e31 30be 90e6 08bd cc14 88be
000003e0: 7dbc cd3d 79fe 323e 82dc 873e b46b bf3d
000003f0: 4660 033e 6dcb 5cbe 06e8 9ebd 6bc0 43be
0.08855798 -0.12769704 -0.12667103 -0.15979397 0.11712723 -0.21287054 0.14434691 -0.19213359
0.16017017 0.12365719 -0.13444138 -0.15088563 -0.16884565 0.20645268 -0.115725935 0.07009536
-0.13188346 -0.032734197 -0.054342326 -0.093693346 0.2349323 -0.16496505 -0.21352033 0.024186263
-0.20410669 -0.13209985 -0.1946584 0.18878216 0.14286675 0.15064132 -0.12622848 0.21532236
0.25172988 0.10685191 -0.025937462 0.12915789 0.100523494 -0.007829121 0.1515547 -0.13895926
0.116582975 -0.17066225 0.27496225 -0.062158175 -0.15568605 -0.15694518 0.1438843 0.05524051
-0.13879244 0.074984215 0.0479071 -0.43161052 -0.20250005 0.24660522 -0.11055964 -0.06692118
0.017637389 0.039234504 0.38718832 -0.46641955 0.02866696 0.06107254 -0.28361532 -0.04408278
-0.16196354 0.017124133 -0.04726682 -0.124170214 0.11497339 0.101634495 -0.060950663 0.08090131
-0.057626933 -0.031810928 0.25011745 0.18338902 0.20678692 0.1320117 0.16145208 -0.17285348
-0.08217836 -0.2905587 0.06769618 0.02598893 -0.22894613 0.15406235 -0.040853538 -0.17973441
-0.11135023 0.036534127 0.012506444 -0.5207539 0.02879171 -0.12323492 -0.024096001 0.10710106
-0.007075829 0.1752457 -0.015483999 -0.41533232 -0.36404228 0.120032005 -0.07901452 0.25684768
-0.23811099 -0.2531804 0.0057179257 -0.15119913 0.18862928 -0.06406016 0.03681757 -0.25759658
-0.1896934 -0.05019594 -0.18043183 -0.11251446 -0.018999122 -0.26629654 -0.23679672 -0.2366909
-0.21846639 -0.026326524 -0.10247486 0.06440344 -0.119114436 0.22767526 0.10435641 -0.110023074
-0.0793719 0.006587947 -0.17731781 -0.07242252 -0.25041756 0.1955012 0.20009972 0.31316566
-0.029242335 0.13470991 -0.14515573 -0.4014877 -0.21302946 0.22078747 -0.28294876 0.048396926
0.18142194 -0.18120107 -0.11831232 -0.26491913 -0.01363746 0.20118593 -0.015527389 -0.17987765
0.19327053 -0.14093159 -0.06300759 0.08342377 -0.0024612972 0.18728662 -0.259823 -0.18970181
0.050271284 -0.13944383 0.21955442 0.12804155 -0.09459182 0.23753342 -0.15926458 -0.10453702
0.0640742 0.1084365 -0.01110919 0.12105648 -0.16266842 -0.21307357 0.043933764 0.15898778
0.00012092818 0.04245669 -0.01253815 0.15381803 0.18215652 0.25067157 -0.16812006 0.085735664
0.17784081 0.17691025 0.041012514 -0.15736856 -0.24793077 0.21210031 0.03419944 0.21345828
0.05073766 -0.12268454 0.042657055 -0.10770442 0.17110611 -0.08762152 -0.052645728 -0.100302115
0.05253424 0.0044646347 -0.11692611 0.16853726 -0.10213962 -0.24476966 -0.044032276 -0.06072917
0.1031707 0.041678596 0.21150486 0.1657218 -0.12904081 0.053538803 0.11208375 0.18587857
0.142784 0.06508116 0.08059618 -0.29305884 0.19402012 0.048027527 0.02027649 -0.19222127
-0.058174174 -0.05273623 -0.14874928 0.24558112 0.34132862 -0.20130312 0.17987716 -0.23006001
-0.2156471 0.1927551 0.09514531 0.23657736 0.20231412 0.019096531 0.18638486 0.020238899
-0.09261564 -0.07536891 0.25261343 -0.031818837 -0.16108714 -0.1720638 -0.033423007 -0.26578367
0.10045717 0.17479886 0.26535422 0.093467146 0.12829694 -0.21561976 -0.07759099 -0.1911637

sage.1.lin_root.bias f4 [64]
00000000: 5770 8b3e 8c1d 7a3e 74df 203e a3dd bb3e
00000010: dc3a c23c 8958 06bd aa4f 823e 67c0 96be
00000020: e3ac e23e e05a 1f3e 56ed 72bd 4547 84be
00000030: 1e05 b2bd 29f8 ea3d 2d28 893d 3113 483e
00000040: fbfb 74bd 9edc 663e 113b 25be 00ae 453d
00000050: 398a 0e3d f872 763e dfc7 47be f3e7 293e
00000060: b209 103d 8e8b a5be 95bf 0bbe 8d80 38bb
00000070: 7bd7 633e 62b2 9c3d 5ca6 70be f050 833d
00000080: eb9c e23c e78e ce3c ff1a cb3e 20d6 953e
00000090: 5825 0a3e 2af1 64bc 65d8 8fbc c2bf 7ebe
000000a0: cee9 f9bd 0c29 1c3e d91d 553d a179 ad3e
000000b0: 117a 9cbd a32d 543d b1fd c4be fa15 c83e
000000c0: 1129 193d 64a5 c43d 9343 00be 653d ad3d
000000d0: 1ee7 39bc eba3 e03c 94b2 553c cadd 563e
000000e0: 3890 013c 4305 ee3d 4740 803e 8700 21be
000000f0: ae71 dabd d5cb 113f b1eb febd bdde 8b3d
0.27234146 0.24425334 0.1571024 0.36692533 0.023709707 -0.032799277 0.25451404 -0.29443666
0.44272527 0.1556201 -0.059308372 -0.25835624 -0.08692382 0.11473114 0.06697116 0.19538571
-0.05981062 0.22545096 -0.16135813 0.048261642 0.03479979 0.24067295 -0.19509839 0.16592388
0.035165496 -0.32333034 -0.13647301 -0.0028152794 0.22250168 0.07651211 -0.23500961 0.06411922
0.027662715 0.025214626 0.39669034 0.29264927 0.13490808 -0.013973514 -0.01755924 -0.24877837
-0.12202798 0.15250033 0.052030418 0.33881858 -0.0764047 0.051801335 -0.384748 0.39079267
0.03739268 0.09601858 -0.12525778 0.08458976 -0.011346607 0.027421912 0.013043065 0.20983043
0.00790792 0.11622097 0.2504904 -0.15722857 -0.10666214 0.5695165 -0.12447298 0.06829593

sage.2.lin_rel.weight f4 [64, 64]
00000000: c176 f83c 8387 e3bd a11c fe3c 12f8 d8bd
00000010: 8ebc 2bbd 4441 723d d79e 903c e82b e5bd
00000020: 111a fe3d 48bb 2a3d f346 a23d 6497 7e3a
00000030: 2a48 f23c dbfb 91bd 0c38 4b3c b558 01be
00000040: 8fdc 643d 5e73 64bd 898e 59bd 2f49 babb
00000050: a75a 93bd cab6 493d 53b1 c43b fdb0 053e
00000060: 553c db3d 972f 07bd 6bea 603d 20cc 923d
00000070: 314b 2bbd fcf2 7f3c e476 c1bc 646a 623d
00000080: 48ee dabc 0f92 c6bc 51de edbd d802 363d
00000090: f258 39bd c08e 563d f677 13be 67bc d03b
000000a0: ac7a 74bd 58c9 b3bc ef2e ef3d efd3 8a3d
000000b0: 2336 14ba 66cb bfbd 732d cabb a0e1 e13c
000000c0: 997a bcbd f16b e83d e080 0d3b c885 09be
000000d0: 6bfb d0bd 773b 983d 183d 9dbd eea4 07bd
000000e0: 5e17 293c b425 a4bd 5eec 10bc 7bfe e93d
000000f0: fde8 a63d bf88 08be 396d a63d dc3d 3bbd
00000100: 8679 ecbd b6ed 753d a449 89bd b7e3 a13d
00000110: 3167 51bd 925d 87bd 14b4 d4bc 5e09 b73d
00000120: 6785 88bd f70c e03c 435e 533d f4e0 c4bd
00000130: 47dd dc3c ba40 7a3d f79d 903d 85f0 01be
00000140: 2dfb 7cbd d2cd 483c 0b7c 65bd f665 47bd
00000150: f60a abbb bb0a f2bd 5c94 b4bd 01bd ae3c
00000160: 37c6 cbbd 8379 d53c 3350 ecbc ed9a 563d
00000170: bee7 12bc 4b3c 10bd 4b90 10bd 0d94 83bc
00000180: dc34 0fbe b19b 90bd bb36 dbbb ca13 91bd
00000190: 4086 a23d 99e1 4dbd 9ade 233d 0b47 dbbc
000001a0: a0e1 c2bd 96bd ad3d fba7 d53d 05b7 033d
000001b0: 7190 a23d 58d7 943d 74f3 e73c 931d 7bbd
000001c0: 88d8 47bd 1aff e53d d872 7ebd bed2 be3c
000001d0: 7cdd 83bd 39b3 30bd 6179 8abc c20c 5cbd
000001e0: a36a 8f3d 2a6b 06be 82ad ab3d 5b2d b03d
000001f0: eccd 47bd 03ed f0bd cb05 c13d 3be6 903b
00000200: c820 a5bd df3e c13d b2c7 e8bd 033c c13b
00000210: 5a1a 22bd eae1 b73c b287 ed3d 5782 053e
00000220: 18b3 ae3d e766 903c 0f5f 33bd 4e70 eabc
00000230: 16e5 9d3d e63b b2bd df08 edbc b82f c0bd
00000240: c5ce 253d 194b be3d b385 ebbc 32b6 9bbd
00000250: 986c e2bd 3446 c3bd 9839 edbd 4e81 063d
00000260: 42ea 91bd f53c 92ba d72c 913c 9d23 bdbd
00000270: ce95 af3c b48a db3d c285 5cbd 9fdf e1ba
00000280: a1ad debd d0bc 92bd a884 aabc 26e7 e3bd
00000290: 0831 d33d 0003 d5bd a1a5 f63d df2c d4bd
000002a0: f107 703d 3226 02be 8601 df3d 7589 5cbc
000002b0: a59d 8f3c 1595 803d d736 47bd f45c 1b3c
000002c0: 4e31 173d 3ac7 ad3d 146c 34bc bdde 8a3d
000002d0: d457 8cbd 49fe 8b3b 52d3 0e3c 9b13 02be
000002e0: 69b2 63bd 7972 ac3d f58a e13d 81fe 913d
000002f0: de2c 7abc 3bc6 39bd 8f36 bc3d 92d0 11bd
00000300: df17 f83d 6dff 81bd 8621 f3bc 943e e53d
00000310: ae14 72bc d965 04be e858 893d fcab cc3d
00000320: 898d 463d 3464 b9bd ce84 1cbd f8b1 5bbc
00000330: daa8 9d3d 26d2 403d 7b88 fa3d b777 173d
00000340: 7274 c8bd 05f5 443d 92fd b13d 2941 aebc
00000350: 3b3b 22bd 36eb fcbc 326a 59bb 108e 273d
00000360: 202c d73d 7466 93bd ba2b 5bbb 8576 b7bd
00000370: fc67 0fbc e401 bf3d a692 41bc 689c eb3d
00000380: d32d e4bd be23 17bd 263c b5bd 67b2 053e
00000390: a22e 823d 54f3 32bc b5ba e2bb 6ccb 48bd
000003a0: e350 93bd 7e38 943d 59db 1bbd ef14 bebd
000003b0: 3c19 b8bd d2ff c4bd d19f e63d 6a37 173d
000003c0: 07f7 e53c 896d c03d c9f8 a73d aa89 80bd
000003d0: fb5e 6f3b 3bf4 fdbd 4797 1cba d925 65bd
000003e0: d1c5 a03b d7a8 bdbd 70fd ba3c a4d5 febc
000003f0: 7aab 473c 3281 09be 7582 2ebb f7f7 d73d
0.030330064 -0.11109831 0.03101951 -0.10594191 -0.041927867 0.059144273 0.017653866 -0.11190015
0.124073155 0.04168251 0.07923689 0.000971189 0.029575426 -0.07128116 0.012403499 -0.12631495
0.055874404 -0.055774085 -0.053114448 -0.0056849937 -0.07195025 0.049246587 0.006002584 0.13055797
0.10704867 -0.03300437 0.05491106 0.0716784 -0.041819755 0.015621897 -0.023616262 0.055277243
-0.02672495 -0.024239568 -0.11614669 0.044436306 -0.04525084 0.05238223 -0.1440123 0.0063701156
-0.0596873 -0.021946594 0.11678874 0.067787044 -0.0005653819 -0.09364967 -0.0061699688 0.027573407
-0.09203071 0.11348713 0.0021591708 -0.1342994 -0.10204204 0.07433217 -0.07677668 -0.033116274
0.010320513 -0.08015004 -0.008845417 0.114254914 0.08149908 -0.13333414 0.08126301 -0.04571329
-0.11546616 0.060041152 -0.06703499 0.07904761 -0.0511238 -0.06609644 -0.025964774 0.089373335
-0.066660695 0.027349932 0.051603567 -0.09613219 0.026960982 0.061096884 0.070613794 -0.12689407
-0.061762977 0.012256103 -0.0560265 -0.048681222 -0.0052198125 -0.11818453 -0.0881736 0.021330358
-0.09949916 0.026058918 -0.028846836 0.052393842 -0.008966384 -0.03521375 -0.03529386 -0.016061807
-0.13985008 -0.07060946 -0.006689874 -0.070838526 0.079357624 -0.050263975 0.04000721 -0.026767274
-0.09515691 0.08483426 0.1043243 0.032156963 0.07937706 0.07267636 0.02831433 -0.0613075
-0.048790485 0.112302974 -0.062121242 0.02329385 -0.06438729 -0.04313967 -0.016903581 -0.053723104
0.07002761 -0.13126817 0.08382703 0.08602401 -0.048780367 -0.117639564 0.09424933 0.004421977
-0.08062893 0.0943582 -0.11366214 0.0058970465 -0.039575912 0.022446591 0.115981475 0.13038002
0.08530253 0.017627193 -0.043791827 -0.028618004 0.0770971 -0.08702831 -0.028934894 -0.09384102
0.040480394 0.092916675 -0.028750276 -0.076031104 -0.11055869 -0.095348746 -0.11583251 0.03283816
-0.07124759 -0.0011157083 0.017721577 -0.09235308 0.021433737 0.10719815 -0.0538385 -0.0017232782
-0.10872961 -0.071649194 -0.020815209 -0.111280724 0.10312086 -0.10400963 0.1204331 -0.10360121
0.058601324 -0.12709883 0.108889624 -0.013460507 0.017531225 0.06278435 -0.048636284 0.009482611
0.036912255 0.08485265 -0.011012096 0.06780765 -0.068526894 0.0042722565 0.008717375 -0.12702791
-0.055590067 0.084202714 0.11012832 0.07128621 -0.015269486 -0.045355063 0.09190094 -0.0355993
0.12113928 -0.06347547 -0.029679071 0.111935765 -0.014775438 -0.12929477 0.06706411 0.09993741
0.048474822 -0.09052315 -0.03821259 -0.01340913 0.076982215 0.047075413 0.12233063 0.036979403
-0.09787835 0.04808523 0.08690943 -0.021271305 -0.039607268 -0.030873876 -0.003317487 0.040906966
0.10506463 -0.07197276 -0.003344281 -0.08958153 -0.008752819 0.093265325 -0.011814749 0.115044415
-0.11141553 -0.03689932 -0.08849363 0.13056336 0.06356551 -0.010922272 -0.00691923 -0.049022123
-0.07193162 0.072373375 -0.038050983 -0.092813365 -0.08989188 -0.09619106 0.11260951 0.03691808
0.028071893 0.09395892 0.08201749 -0.06276257 0.0036525119 -0.12400099 -0.000597347 -0.055944297
0.004906394 -0.09260719 0.022825927 -0.031107731 0.012186879 -0.1342819 -0.0026628051 0.105453424

sage.2.lin_root.weight f4 [64, 64]
00000000: 91d5 67bc cc24 5cbc 1e6a 0c3d 5ffb 863c
00000010: 0699 b43d 99e5 f23c 62c9 b63d 7ebf bf3d
00000020: fe06 323d 073e 2fbd 8d54 34bd cc93 02be
00000030: efaa 10bd 3230 cabc 86ea c7bd e747 0bbe
00000040: 04ad e53d cfae 7e3d 61e1 cbbd d993 803d
00000050: 5b22 023e 9cde 013e e046 ae3d f40b 4dbd
00000060: 6c40 bfbd 9920 f83d e4d6 a6bd 9fbc 0cbd
00000070: 819c cdbd 93b4 f93d 2b5e cbbd af75 0b3c
00000080: 9862 763d 683b a5bc 887c 95bc 2cd6 96bd
00000090: 895f fa3d 03c7 b53d 0e84 ddbc b969 503c
000000a0: 4e42 14be 6d7d 943d 8dca 9abd 8998 df3c
000000b0: cd63 843c 9ffc e8bd 17c5 d03d 97fd 663d
000000c0: f419 073d 32ff 34bc e10c 68bd f8ab e2bd
000000d0: d8df 75bd e664 093d cf12 9bbd 25b6 513d
000000e0: 19e2 b33d 727d e6bd a181 0bbd f6fe 5ebd
000000f0: 54c4 5cbd eadd 1ebb 7544 02bd bdff 2fbd
00000100: cadc 2c3d 517a 953d db33 0c3d 3462 903d
00000110: ed20 f5bc a1ca efbb db15 243d f2ce b6bd
00000120: d6b4 473b ae01 a8bc 793f 3fbc 83b3 aa3d
00000130: 7bb7 8e3c 5ef2 55bd 5213 a2bd 6634 03be
00000140: 9684 293d 3e43 46bc bfe7 dbbd a675 8b3c
00000150: 8ed3 8cbc 5512 9a3c 10d6 553d 3fe8 993d
00000160: 317c 6b3d 00e1 eb3d c6d1 8c3c 019f 543d
00000170: 143e 073d 296f 383d 5cca fb3c c0ea b7bc
00000180: e460 b9bd 5791 c6bd 3e95 adbd 84a4 14bd
00000190: a47b d9bc b680 1a3d bbdc 20be 5420 793c
000001a0: a75d 7b3d 8d27 d6bd 8a43 91bd fe7a dd3d
000001b0: 85c1 ad3d 95b1 a2bb 23e5 aeb9 ecbf f1bd
000001c0: b71f fbbd 25c3 a53d 9049 c13d 0415 423d
000001d0: cef6 cfbd 20f7 05bd 139a 55bd 26e2 ae3d
000001e0: 098f 02bd c0e5 7f3c ff8e f5bd 3b86 e6bd
000001f0: 9a60 de3d 4116 03bd 3e75 923d cf28 c5bd
00000200: 75e9 d8bd 7a4e 9ab9 a392 9c3c c74f f4bd
00000210: 36be ec3d 8d38 b1bd d16d 363d 332e da3c
00000220: 9cfa f9bd 400b c8bd efa1 ef3d c8b8 cdbd
00000230: e9b7 bfbd 5967 d93b 6c28 c8bd 7873 91bd
00000240: 54d3 d3bb 2942 bebd 116d a8bd 8b6e e6bd
00000250: d2ca 72bd 63d9 c83d 5efd d83d fbd2 4a3d
00000260: cdde 013d dd69 c83d 896c 02be 9077 d0bd
00000270: b4c6 f8bc 2b3f dd3d 6065 cdbd d036 c13d
00000280: 92a0 aa3d b555 5b3d b695 8f3d 9c23 883d
00000290: 9672 973d 585e 10bd 29ea 4cbc d609 a53d
000002a0: 51b0 edbd 322c e43c badd 51bd 4ea3 b03c
000002b0: 7024 a43d d0de ddbd 7ff7 04bd 7cd9 27bd
000002c0: 49d4 ef3d 6863 4bbd 7615 efbd 9f01 043d
000002d0: 1387 d1bd e2fb 06bd dbd8 e3bd 974a 623d
000002e0: 3929 2a3d f590 bebd f84b 043d b945 4e3c
000002f0: 8bc3 1abd 7200 acbd 4a7d d53d 0431 e03c
00000300: 2b02 1e3d 6db2 9f3c 4c92 9e3d e2a4 843c
00000310: 8832 623d 9c8c 02be 2a9d dc3d 240c 21bc
00000320: 5cdc c23d 434e 033e 5c28 373d 3553 61bd
00000330: eef9 9e3d cdf8 b9bd 57e9 b83d 652e 28bd
00000340: 2dc4 97bc 5a23 bfbd c055 d9bd 639c 01bd
00000350: efc5 843d f507 b43d bacb a23c 4a23 a13d
00000360: 08e6 1b3d 7c1f cfbd 089a 013d a6d2 86bc
00000370: 2e40 ae3d 1342 bcbd 1861 0cbb b9fa d73c
00000380: 4e45 483d 944b 673d 8107 f53b 50e1 763c
00000390: 5886 a9bd 905f adbd a578 833d 1552 e93c
000003a0: 84a9 4d3d f4ca d23c 9cf3 4a3d 0abf 703b
000003b0: 0ae0 43bd 7ee0 293d c739 ae3d 67d6 fa3c
000003c0: 5f1c cabd b76a 023c 0c8e 07be fe33 12bd
000003d0: f20d f3bd 0b0c ffbd 913f 733d 4c65 8f3d
000003e0: d767 913d f2d1 573c 5fee 283d ebd8 bd3c
000003f0: a76c 2ebd 4c57 01bd 4a74 b23d f48a a2bd
-0.014150039 -0.013436507 0.03428089 0.016477285 0.088182494 0.029650496 0.089251295 0.09362696
0.0434637 -0.042783763 -0.044025946 -0.12751693 -0.035319265 -0.024681184 -0.09761529 -0.13601647
0.11214641 0.06217843 -0.09955097 0.062782 0.12708418 0.12682575 0.08509612 -0.050060228
-0.09338459 0.121155925 -0.08146456 -0.03435957 -0.100396164 0.12192645 -0.099300705 0.008511945
0.06015262 -0.020169929 -0.018247858 -0.07365069 0.12225253 0.08875849 -0.027040508 0.012720519
-0.14478418 0.072504856 -0.07558165 0.027294414 0.01616087 -0.11376309 0.10193842 0.056394186
0.032983735 -0.011047171 -0.056652907 -0.11067957 -0.060027927 0.03354349 -0.07571947 0.051199097
0.08783359 -0.112543955 -0.03405917 -0.05444237 -0.05389817 -0.0024241158 -0.031803567 -0.0429685
0.04220275 0.07298721 0.03422914 0.07049981 -0.029922927 -0.0073178564 0.040059905 -0.089261904
0.0030472777 -0.020508613 -0.011672848 0.083350204 0.017421475 -0.052233092 -0.07913841 -0.12812957
0.04138621 -0.012100993 -0.107375614 0.017023873 -0.01719072 0.01880757 0.0522061 0.075150006
0.057491485 0.11517525 0.017189872 0.05190945 0.033018187 0.045027886 0.03073614 -0.022450805
-0.090516835 -0.0969569 -0.08475731 -0.036289707 -0.026548214 0.037720405 -0.15709202 0.0152054615
0.06136861 -0.104567625 -0.0709296 0.108144745 0.084841765 -0.004965017 -0.00033358586 -0.11804184
-0.122619085 0.080938615 0.09437859 0.047383323 -0.10154496 -0.03270638 -0.05214889 0.08539228
-0.03187469 0.0156187415 -0.11990165 -0.11256071 0.10858269 -0.032003645 0.071512684 -0.09626924
-0.105914034 -0.00029431639 0.01911289 -0.11929279 0.11559717 -0.08653364 0.044538323 0.026633358
-0.12206003 -0.09767771 0.11700808 -0.1004501 -0.0936125 0.0066346345 -0.09773335 -0.07102102
-0.0064644013 -0.09289963 -0.08223928 -0.11251553 -0.059275456 0.09807088 0.10595201 0.049517613
0.03170662 0.09785817 -0.12736715 -0.10179055 -0.030368187 0.10803064 -0.10029101 0.09434283
0.083314076 0.053548533 0.07010977 0.06647417 0.073949024 -0.035246223 -0.012507 0.08058517
-0.11605895 0.027853105 -0.051236846 0.021562245 0.080147624 -0.10833514 -0.032462593 -0.040978894
0.11710412 -0.049655348 -0.11674015 0.03222811 -0.102308415 -0.032955058 -0.11125346 0.055246916
0.04154322 -0.09304992 0.032299012 0.012589865 -0.03778414 -0.083985224 0.104242876 0.027367122
0.038576286 0.01949426 0.07742748 0.016191904 0.05522397 -0.1274895 0.10772164 -0.009829555
0.095146865 0.12822823 0.044716224 -0.055010993 0.07762514 -0.09080658 0.09028881 -0.04105987
-0.018526161 -0.09332915 -0.10612059 -0.031643283 0.06483065 0.0879058 0.019872535 0.07868059
0.03806117 -0.10113427 0.031641036 -0.016457867 0.08508335 -0.0919229 -0.0021420177 0.026364671
0.04889422 0.05646856 0.007477701 0.015068367 -0.08277577 -0.08465493 0.064194955 0.028481523
0.05021049 0.025731541 0.04954873 0.0036734962 -0.047821082 0.041473858 0.08507114 0.030619813
-0.098686926 0.007960013 -0.1323778 -0.035694115 -0.11867894 -0.12453469 0.059386794 0.07001743
0.07099884 0.013172613 0.041242953 0.023174724 -0.042584088 -0.031577393 0.08713587 -0.079366595

sage.2.lin_root.bias f4 [64]
00000000: f12e adbd 8f26 81bd 53da cd3d 3b4f d6bd
00000010: 6df3 dd3d 6907 dbbc 5207 60bd a0bd 1fbd
00000020: 6af4 103d a33e 5abd 62af 81bc bbd3 3d3d
00000030: 5572 02be 98f1 433d 74c7 d73c 38f2 21bc
00000040: 795b 203e b3f6 c93d 5d8a b83d 441a 523c
00000050: d3ac 8dbd ebf3 6e3e 84a5 d43c 5b41 a1bc
00000060: a895 c03d d8e7 c0bd 6e1a c4bd 0838 ca3d
00000070: 0f89 75b8 c9bd e63c 2093 ae3d 7e31 d63d
00000080: 6d65 a3bd 8161 8b3d e889 353d 3892 1bbd
00000090: 0b65 8a3d 1007 4bbc af23 a03b 6aa1 27bd
000000a0: 70f6 a9bd f662 fabc 1af8 81bb 5d59 bc3d
000000b0: b63d 91bd 55d2 f1bd 30e2 c23d 1e4a 5d3d
000000c0: a60c 00be 7752 0d3b 0262 1d3e 6245 80bd
000000d0: 9b67 08bd a418 473d 7a41 483b 0f63 b0bc
000000e0: cbe5 0dbd 8590 70bd e421 f6bd 1f62 ba3d
000000f0: 8fdf 683d 8270 c83c 63f3 7b3c 1bc5 d6bc
-0.08456219 -0.063061826 0.10051408 -0.10464331 0.108374454 -0.026736932 -0.05469448 -0.0389992
0.03538934 -0.05328239 -0.0158307 0.0463445 -0.12738927 0.047837824 0.026340224 -0.00988441
0.15659894 0.09861507 0.09010766 0.012823645 -0.06917729 0.23335235 0.02595783 -0.019684484
0.09403545 -0.09419221 -0.095753536 0.09873968 -5.8540198e-05 0.028166668 0.085241556 0.10458659
-0.0797833 0.06805707 0.04432097 -0.037981242 0.06757554 -0.012391821 0.0048870663 -0.04092542
-0.08298957 -0.030564766 -0.0039663436 0.09196732 -0.070918486 -0.11807696 0.09515798 0.05402576
-0.12504825 0.0021564045 0.15369418 -0.06263234 -0.03330193 0.048607484 0.0030556605 -0.02153161
-0.034642976 -0.058731575 -0.12018183 0.09100746 0.056853827 0.02446771 0.015377852 -0.026217034

lin.0.weight f4 [16, 16]
00000000: 60e2 d8bd 967a 2cbe b8c4 783e 52da 23be
00000010: f042 003e 906b 0fbe f0c4 c4bc c431 68be
00000020: 1c14 863d 1893 6dbd 9869 6bbd 04de 82bd
00000030: 9e70 68be c8bd 2f3e 40fa 073e 4642 61be
00000040: fd56 b33d 5486 9dbc 642e 893d 25b3 283d
00000050: 3cce 6fbe 9553 1c3c e74b 60bc 4aa5 093e
00000060: 2578 36bc 31bb c1bd 00fb 93bd 3aa1 59bd
00000070: bc0d 8e3d ed3f ad3a e064 d1bd 7ab6 bebd
00000080: a76f 193e 2e24 7b3a d8ca c5bd 0797 e8be
00000090: b03e c0bc 7b1b 053e 74d3 6ebe f89d 163b
000000a0: fed5 fcbd 56ee 08bd 781b 113e c36e d43c
000000b0: 8f9b 08bf d295 da3d 4388 2d3e ae64 70bd
000000c0: 6305 c83d dc92 32be 2751 4b3e e4be bebd
000000d0: 4043 1dbd aca9 17bc 1021 53bd 8f4e 2c3e
000000e0: 1776 32be fa5a 513d abc7 e03d c64b 52bb
000000f0: a7bd c6bd be7f 113d 5622 6cbd 1842 c0bd
00000100: d068 e4bc 02f4 00be 09a8 6fbe bbd3 2bbf
00000110: 2a10 49be 952e 46bd 3740 36bd 603c 073e
00000120: 54a4 f9bb 7592 3c3e 2a4b 13bd 4b74 e53d
00000130: 57f9 43bf 4da7 b93e 89ed 93bc d1d7 0ebd
00000140: faca 3b3e a435 aa3e 6a92 25be f00f 3e3f
00000150: dac3 393e 26ac 1c3d 435a e63e 5b34 6c3c
00000160: 0f3b 19be a311 2cbd 16f9 ce3d da0d b03d
00000170: 2bf6 513f 2c6c 4cbe b434 5a3d 2304 a03c
00000180: 170b 95bd fe7b 173e c057 84bc f859 ea3d
00000190: 88e6 2bbe b572 46be 1d65 27be 9475 15be
000001a0: 447e b73d 4b64 a23d 726e 183e 0793 b3bd
000001b0: f4da 0abe 9f48 ffbd fab8 0b3e b20c ae3d
000001c0: 04b1 9dbd 2242 9e3e da3d 3cbd bb84 363f
000001d0: d4c4 de3d 9970 403d 4397 cc3e f1b7 28bd
000001e0: fc23 5fbd 4e95 07bc 3375 843d b0e2 703e
000001f0: 11b9 423f 2175 9cbe 16c5 0b3e 4cc9 91bd
00000200: 129f 60be 9789 783d 807d b2bb a76f 343e
00000210: a83c 51be 215a d8bd 03ab 653c 1a57 60be
00000220: b726 0fbe 4177 adbd 78e1 3dbe 884e 3c3d
00000230: c1d0 4d3e 10d5 4abe 404e 883d 4d3f 563e
00000240: b8a4 b5bd 9461 86bd 189b 553e b822 14bd
00000250: 7a2f 6cbe 427f 28be c85a eebd 963a 1c3e
00000260: b802 11be 9071 4f3d 34ef e0bd 4619 68be
00000270: 0641 363e 9a7f 3abe 80dd 5e3d 4054 ebbb
00000280: 273d 2f3b d33d 2d3d ccec 3dbe 898e 5c3d
00000290: e69e 43be b3b9 d13c 8559 7e3c c83c 063e
000002a0: 8c8c 773e 91a6 edbd 4290 03be f4ae fabd
000002b0: 9409 503d 0d5b 6fbd 39df bb3d 98b0 38be
000002c0: 0590 43be f31e b3bd ad48 85bd e7ed dbbf
000002d0: e468 0a3e f11e b5bd a9a7 b0be 2133 2a3e
000002e0: a8c2 b43e 203d cc3e d4bd eebd 4689 f23c
000002f0: feea f1bf 3c68 813f 6c58 b13e 8b34 c7bd
00000300: eda5 5d3c 61b9 98bd 9286 b5bd e198 6fbd
00000310: d461 083e aed8 493b 9497 e6bc e26e 6ebd
00000320: 73ab a0bd 4553 8e3c c943 023e 6ab6 3a3e
00000330: f51d 32bd 78cd a73d a580 333d 5c19 b1bd
00000340: de7b 21bd 3369 2cbb 0aa8 1c3e b060 88bc
00000350: 7825 ac3d edb0 ab3d 0889 70bd 2fce ab3b
00000360: d88e 2a3e 91aa fc3d 8cdc 2fbe 32c6 44be
00000370: ebd3 053c 7814 74be 4897 c5bd 0da9 483e
00000380: 2c8d 4abd f1b9 0bbe aaae 59be d102 36bf
00000390: a050 57bc 0f8c 22bd 9ebc 47bd 2428 14bd
000003a0: 9c8b fc3d 34a4 443e 8198 d7bc 78f3 373d
000003b0: 40f1 52bf 70ae a03e 570b 4b3e b1ee 353c
000003c0: 4c2b a8bd c011 f73c 8c38 9cbd 787b 0fbe
000003d0: 4e39 78be d4ab d6bd 4cbd 4f3e c0c0 043e
000003e0: 1aa8 75be d09c 60bd fcd3 e4bd 6cd8 11be
000003f0: 30ba c4bc 74b6 5fbe daeb 473e 88f3 ce3d
-0.105900526 -0.16843638 0.24293792 -0.16001251 0.12525535 -0.14005876 -0.024019688 -0.22675234
0.06546804 -0.058001608 -0.05747375 -0.06390002 -0.2269921 0.1716224 0.13279057 -0.21997938
0.08756826 -0.019229092 0.066983014 0.04118647 -0.23418516 0.009541412 -0.0136899715 0.13441959
-0.011137043 -0.09459532 -0.07225609 -0.053132273 0.069362134 0.0013217904 -0.102243185 -0.093121484
0.14983998 0.00095802813 -0.0965783 -0.45427725 -0.023467392 0.12998764 -0.2332285 0.002298234
-0.12345503 -0.03343042 0.14170635 0.025931722 -0.53362364 0.10673107 0.16946511 -0.058689766
0.097666524 -0.17438835 0.19855176 -0.09313753 -0.038394213 -0.0092567615 -0.051545203 0.16826843
-0.1742786 0.051112153 0.10975584 -0.0032088622 -0.09704142 0.035522215 -0.057649933 -0.093876064
-0.02788201 -0.12593082 -0.23403944 -0.6711995 -0.19635072 -0.048384268 -0.044494834 0.13206625
-0.0076184664 0.18415244 -0.035960354 0.11203822 -0.7655234 0.36260453 -0.018057602 -0.034873787
0.18339148 0.3324405 -0.16169134 0.7424307 0.18141118 0.03825011 0.4499074 0.014416779
-0.14963935 -0.042009007 0.10106103 0.08596392 0.8201625 -0.1996314 0.053272918 0.019533223
-0.07277506 0.14793393 -0.016155124 0.114429414 -0.1678716 -0.19379695 -0.16347165 -0.14595634
0.0895963 0.079292856 0.14885882 -0.087682776 -0.13560086 -0.12465023 0.13644782 0.08498515
-0.07699779 0.3090983 -0.045957424 0.7129628 0.10877386 0.04698238 0.39959154 -0.041191045
-0.054477677 -0.008275343 0.064676665 0.23523974 0.7606364 -0.30558112 0.13649401 -0.071184725
-0.2193568 0.06067809 -0.0054470897 0.17620717 -0.20433295 -0.10564066 0.014017823 -0.21908227
-0.13979612 -0.084700115 -0.18543041 0.04597333 0.20099165 -0.1980784 0.0665555 0.20922585
-0.08869308 -0.0656158 0.20859945 -0.036165923 -0.23064986 -0.16454795 -0.11638409 0.15256724
-0.14161193 0.05064541 -0.109831244 -0.22665891 0.17798242 -0.18212739 0.054410458 -0.0071816742
0.002673933 0.04229529 -0.18547362 0.05384687 -0.19103584 0.025601244 0.015524273 0.13109124
0.24174708 -0.11604036 -0.12847999 -0.12240401 0.050790384 -0.058436442 0.09173436 -0.18036115
-0.19097908 -0.087461375 -0.065080024 -1.7181977 0.13516575 -0.08843792 -0.34502915 0.16621067
0.3530476 0.39890385 -0.116573006 0.029606473 -1.8899839 1.0109935 0.34637773 -0.09726819
0.013528329 -0.07457233 -0.08863558 -0.058495406 0.13318568 0.0030799317 -0.02814845 -0.058211215
-0.07845201 0.01737369 0.1272117 0.18233648 -0.0434856 0.08193487 0.043823857 -0.08647415
-0.03942477 -0.002630782 0.15298477 -0.016647667 0.08405584 0.08383355 -0.058724433 0.005243085
0.16656053 0.123372205 -0.17173976 -0.1921623 0.008168201 -0.23835933 -0.09647995 0.19595738
-0.04945104 -0.1364515 -0.21258035 -0.7109805 -0.013141781 -0.03968435 -0.048763864 -0.036171094
0.12331316 0.19203264 -0.026317837 0.044909924 -0.8239937 0.31383085 0.19828545 0.011104272
-0.08211383 0.030159831 -0.07627973 -0.14011943 -0.2424061 -0.10481992 0.20287055 0.12964153
-0.23989907 -0.054837048 -0.11173245 -0.14242715 -0.024014562 -0.21846944 0.19523564 0.10105044

lin.0.bias f4 [16]
00000000: 58db f2bd d86c ea3d a9d7 d0bd 2a0f 883d
00000010: d434 82bd dad3 5cbe ea64 87be 6742 4ebe
00000020: 157d ecbd 38e1 fabd a06c ab3d 4d4e e3bd
00000030: 55bb b3bc 0b47 10be f22d 84bd 58c7 07be
-0.11858243 0.114465415 -0.10197384 0.06643517 -0.063577324 -0.2156519 -0.2644418 -0.20142518
-0.11547295 -0.12249988 0.08370328 -0.11098919 -0.021939913 -0.140896 -0.06454076 -0.13259637

lin.1.weight f4 [64, 64]
00000000: 471f f9bd b144 a0bc 6b6e 6abd 16f3 ecbc
00000010: 17ad cbbd 8a67 b33c dbe1 4d3d 52da 593d
00000020: c847 f5bd cb41 be3d 35ac d03d caab 01bd
00000030: ec54 79bd 59e5 da3a 022a e1bd 196e ba3d
00000040: dc0f b0bd 09c6 ecbd 67b7 6c3d 1d06 ffbb
00000050: 965d d33d 875f b5bd e9ac 31bd 585e 8b3c
00000060: 9ea5 d3bd caf3 7bbc 6cff 00be f3d7 9bbd
00000070: 035c ae3d 96e2 113c cb01 5f3d 59b3 733c
00000080: 7651 923d ff56 593d fb37 28be ee7b a43d
00000090: 44c7 eb3d b0bc f33d 9ec0 c4bd e814 82bd
000000a0: 194a bebd 06f2 ccbd f2af b33c f9b0 49bd
000000b0: 664b b23d c9d5 8abd b755 4bbd 8baf b13d
000000c0: 2c65 4abc 07f4 db3c b583 a83d 78f2 79bd
000000d0: 8028 ffbc e1f8 9fbd 601a c03d 936b c03d
000000e0: a27e 20bd 77bc d03d 9c23 8e3d 4074 49bd
000000f0: cc57 d63d 11cf 38be 2d27 1fbd 7426 be3d
00000100: a0ef f4bb 7cc5 143d 897e 2c3c cd82 b2ba
00000110: 0391 bebd 44d7 cfbc a000 e8bc 291f ff3c
00000120: f637 58bd 3ac0 3d3d 5414 8cbd 4877 32bd
00000130: dfd4 073d 74ca 9a3c a1ac 24bd 940c dabd
00000140: cdb0 4ebd 268b 7c3d 30e7 9d3d f3de 2d3c
00000150: b1be d93c d856 debd 82d5 113d 2a66 113d
00000160: e710 dc3d 52c6 d4bd 917f fdbd 57f7 18bc
00000170: 9c3c 5f3d 9598 de3d 64f2 29bd d5ea 8bbd
00000180: 1945 85bd 6b08 8f3c 6aa1 ebbc 8654 50bd
00000190: aa72 0ebd 58e9 8b3d 11fd a53b dbee 71bc
000001a0: e2c8 7d3d 67df 133d 0238 00be f529 a0bc
000001b0: f6fd b9bd 55bb a8bd bc41 f2bd d77e 2f3d
000001c0: 6515 b53d 7a6c d03d e801 aa3b 05c6 5ebc
000001d0: bbfb 61bd b501 f43c f526 7d3d fb5f cebd
000001e0: e28c 863d 1776 853d f212 a1bd 89bb 95bc
000001f0: d4d5 423d 99f7 69be 49ca 1dbd 483b febd
00000200: 2e93 0ebe 4730 e23c a014 a6bd 25ad 4d3e
00000210: 82df 3cbd 140d 9f3b 4576 953e a4dd a5bc
00000220: 7486 263e d7ef d13d 55e0 e7bd 612a b73c
00000230: df8a 563e 8a86 cfbc c464 00be d872 933d
00000240: b29c 7b3e d078 73bd ef47 463d 66ff e53d
00000250: 4928 16be afe8 efbd 53cf 963d 8331 703d
00000260: be3c aa3c dcbc 83bd 7a5a 063c 0c80 c4bd
00000270: 6622 973d d202 91bd 5dbe 993b c773 2dbe
00000280: 9b33 993d a42f acbd 4405 7e3e 304f 483d
00000290: 879f 953e 21f6 6ebd 3e7b ddbd b1d7 cbbd
000002a0: 53e8 433d b042 dc3d 307c e63d f655 c23c
000002b0: f154 40bd 42af bc3c 1449 1fbe 2d4c b43e
000002c0: 397d bd3d 4bee 263d 8f6c 50bd f608 ca3d
000002d0: fd6c dd3d 276a 0dbd 0c91 3fbd b1e4 293d
000002e0: 27a2 8e3b f554 f13c ba4a 053e 5459 ea3d
000002f0: 0312 db3b afca 83bc 3fe1 40bd 0ffe 8cbc
00000300: a224 b3bd f458 cb3b 8796 69bd 797e 463d
00000310: 20a1 a23d 37c2 28bd 3012 d43c 8a05 b43d
00000320: a8f8 e3bd c3e5 a9bc bb6b c0bd f287 86bd
00000330: e882 ed3b 31b0 aabd 156c 1c3c 0925 85bd
00000340: 2711 3fbe 079c 1dbe 18da e5bd 6e24 6b3d
00000350: 54c3 e4ba 0a7b 403d 1e55 fd3d 1cfe a83d
00000360: 6988 1d3d 1f20 39be 660b d93d 2cf1 23bd
00000370: 302a 63bd 6247 423c 9172 cbbd c8e1 e73b
00000380: e3dd 1dbe b8f5 7d3d fe73 9ebd 6e86 ee3c
00000390: cec2 daba 855a a9bd 37bf 133d 407c cfbd
000003a0: 7918 9dbc 26f7 a4ba 5c5e 6c3c df55 933d
000003b0: 2f61 133d 6af6 b53d 3139 40bd 10d2 ad3d
000003c0: a17c 873d befc 893d 0e87 0a3d 9bc2 913b
000003d0: 7d99 9bbd 96ed 86bd e3ad 19bc b890 acbd
000003e0: 7784 00be 9117 81bd 2d87 ffbd 277b aa3d
000003f0: 9303 d83d 4e51 123e dcda 03bd 73ff fdbd
-0.12164169 -0.019564005 -0.05723421 -0.028924506 -0.09945124 0.021899957 0.05026422 0.053186722
-0.11976582 0.09289893 0.10189096 -0.03165797 -0.060872003 0.0016700431 -0.109943405 0.09103031
-0.08596775 -0.1156121 0.057792094 -0.007782711 0.103205845 -0.08856111 -0.04337779 0.01701276
-0.10334323 -0.015377948 -0.12597436 -0.076095484 0.085136436 0.00890412 0.05444507 0.014874303
0.07144444 0.05306148 -0.16427605 0.0803145 0.11512616 0.11901224 -0.09607051 -0.06351644
-0.09291477 -0.100071 0.021934483 -0.04924104 0.08705787 -0.067790575 -0.04964229 0.0867606
-0.012353223 0.02684976 0.08228246 -0.06102225 -0.031147242 -0.07811142 0.09380031 0.09395518
-0.039183266 0.10192197 0.06940386 -0.04918313 0.10465965 -0.1804774 -0.03885572 0.09284678
-0.0074748546 0.03632115 0.010528215 -0.0013619304 -0.093050025 -0.025371201 -0.02832061 0.031142788
-0.052787744 0.0463259 -0.06839815 -0.043570787 0.033161994 0.018895365 -0.040203694 -0.1064693
-0.05046158 0.06165614 0.07710111 0.010612237 0.026580187 -0.10856408 0.035604008 0.035497822
0.10745411 -0.10389389 -0.12377847 -0.009336314 0.05450116 0.108689465 -0.041490927 -0.068319
-0.0650732 0.017460069 -0.028763492 -0.050861858 -0.03477732 0.06831616 0.0050655683 -0.01476642
0.061959155 0.036101725 -0.12521365 -0.019551257 -0.09081642 -0.08238856 -0.11828944 0.042845573
0.08841971 0.1017694 0.0051882155 -0.013597016 -0.05517171 0.02978597 0.06180473 -0.100769006
0.0656984 0.065166645 -0.07864942 -0.0182779 0.047567204 -0.22848357 -0.038522992 -0.12413651
-0.13923332 0.027610911 -0.08109403 0.2008558 -0.04611159 0.004853854 0.29191795 -0.020247288
0.16262227 0.10250824 -0.11322085 0.022359075 0.20951413 -0.025332708 -0.12538439 0.07199639
0.24571493 -0.059441388 0.048408445 0.11230354 -0.14663805 -0.11714303 0.07363763 0.058640968
0.020780917 -0.064325064 0.008200282 -0.095947355 0.07379608 -0.07080616 0.0046918825 -0.16938697
0.07480546 -0.08407524 0.24806696 0.048903644 0.29223272 -0.058340196 -0.10814522 -0.09953249
0.047828984 0.10754907 0.11254156 0.02372263 -0.046956006 0.023032788 -0.15555221 0.35214368
0.092524 0.040754598 -0.05088478 0.098649904 0.108118035 -0.034525063 -0.046769187 0.041477863
0.004352826 0.029459456 0.13016787 0.11442819 0.006685497 -0.016087858 -0.04708981 -0.017210988
-0.087472215 0.0062056724 -0.05702832 0.048460457 0.079408884 -0.041200843 0.025887579 0.08790119
-0.11131412 -0.020739442 -0.09395548 -0.06568898 0.0072482713 -0.08334387 0.009547253 -0.065012045
-0.18658887 -0.15391551 -0.11223239 0.05740779 -0.0017453232 0.04699234 0.123697504 0.082515925
0.03846017 -0.1807866 0.10597877 -0.04002492 -0.055460155 0.011857839 -0.09933961 0.007076476
-0.15416674 0.062001914 -0.077369675 0.029116835 -0.0016690136 -0.08269218 0.03607103 -0.10131121
-0.019176709 -0.0012585863 0.014426794 0.07194113 0.035981353 0.088848904 -0.046929542 0.08487332
0.06615568 0.0673766 0.033820204 0.0044482476 -0.07597635 -0.06588285 -0.009379837 -0.084260404
-0.12550531 -0.06303323 -0.124769546 0.08324271 0.10547557 0.14288828 -0.032191142 -0.12402239

lin.1.bias f4 [64]
00000000: 47b5 c33d 060a cc3d 61dc 0ebe ed7c dabc
00000010: 665e 8cbd da8a 573e 4186 55bd 87d6 c4bc
00000020: e6e4 db3c b898 a8bd 08c1 f13d 6350 083e
00000030: c160 4b3d 9597 fbbd 7ae9 8fbd 8b1a c5bd
00000040: 53db 873c a59f 06bd 8d7f 2b3d 80cd a93d
00000050: 4249 c2bd 82df 0e3d e1f2 d73d 9ef8 26bc
00000060: b2c1 5abb ab97 7e3d 0376 803d a391 dfbc
00000070: 6c64 92bd ad18 8ebd 1bb0 353e 715f afbd
00000080: 884b eb3d f3bb 4d3d bdb8 d6bc aef1 08be
00000090: d3ba 1cbd 790d 413d eebb d53d a541 f03d
000000a0: 4178 7f3d 8b9c 24bd a495 513d 8838 963d
000000b0: 78ef 713d 24a9 c0bc 9020 163d 5887 dfbc
000000c0: be2b 7b3d 268a 983d 61c7 b03d d9e6 84bd
000000d0: 7fb5 1d3d c687 c33c 5b8f 893d 51f5 e3bd
000000e0: b8ef 0f3d 5cee ddbd 859d c23d ff9e 0e3d
000000f0: 87d2 973d 4ab8 d33d 5192 e13d 802c 3c3d
0.0955606 0.09962849 -0.13951255 -0.026670897 -0.068539426 0.21049061 -0.052129988 -0.024028076
0.026842546 -0.08232254 0.11804396 0.13311915 0.04965282 -0.12284771 -0.07026954 -0.09624203
0.016584074 -0.032867093 0.04186969 0.08291149 -0.09486629 0.034881122 0.10544372 -0.010191111
-0.0033379612 0.06215636 0.06272509 -0.027291125 -0.0714806 -0.069383 0.1774296 -0.08563126
0.11489016 0.05022807 -0.026211137 -0.13373443 -0.038264107 0.04713199 0.10436235 0.11731271
0.062370542 -0.040188354 0.0511681 0.07335001 0.059066266 -0.023518153 0.036652148 -0.027286217
0.061321013 0.07448225 0.086317785 -0.06489343 0.038503166 0.023868453 0.06716796 -0.11130775
0.035140723 -0.10836479 0.09502701 0.0348196 0.07413202 0.10337885 0.11014236 0.045940876
