Saves/ecal_ep_60_r0.1.pth (torch, 164139 bytes, 46 tensors)

sage.0.lin_rel.weight f4 [16, 3]
0	0xbc551e65	-0.013007735
1	0x3c35856b	0.011079173
2	0x3e051fb8	0.13000381
3	0x3e4950a6	0.19659671
4	0xbecd012a	-0.4003995
5	0x3e3a6bcf	0.18205188
6	0xbce5f2bb	-0.028069844
7	0x3d3274ad	0.043568302
8	0xbe0bc5f1	-0.13649727
9	0xbe59fedf	-0.21288632
10	0xbc50bc73	-0.012740242
11	0xbc6d7ce0	-0.014495105
12	0x3e0f7a2b	0.14011447
13	0x3eddf794	0.4335295
14	0xbc4dc866	-0.012559986
15	0x3ec3b88a	0.3822673
16	0x3dd7d9a5	0.10539559
17	0xbfa3f577	-1.2809285
18	0xbe2afecf	-0.16698764
19	0x3e0494d0	0.12947392
20	0x3e3822a0	0.17981958
21	0xbd891c41	-0.06694842
22	0x3d36fdc5	0.044675607
23	0xbf53577a	-0.82555354
24	0x3bbe8af5	0.005814905
25	0xbdb27324	-0.087133676
26	0xbddac39c	-0.10681841
27	0xbf042b16	-0.51628244
28	0x3f1f5136	0.62233293
29	0xbc8142ee	-0.015778985
30	0xbd76271a	-0.060095884
31	0xbbfd1d46	-0.007724437
32	0xc032fb9c	-2.796607
33	0xbd3acae3	-0.045603644
34	0xbc4d7968	-0.012541153
35	0xc02dde67	-2.7166994
36	0x3f2179f1	0.6307669
37	0x3e9781dd	0.29591265
38	0x3b327342	0.0027229344
39	0x3d3f5f5d	0.046721805
40	0x3cad3d72	0.021147463
41	0x3d768a1c	0.060190305
42	0xbf2b3375	-0.6687539
43	0x3dd8ce80	0.10586262
44	0xbc09de7b	-0.00841486
45	0x3e51eaa1	0.2049966
46	0xbdc58979	-0.096453615
47	0xbccb03fd	-0.024782175

sage.0.lin_root.weight f4 [16, 3]
0	0x3cf97351	0.030450495
1	0x3e16d099	0.14728011
2	0x3f0190c5	0.50611526
3	0xbe7800aa	-0.24219003
4	0xbe892626	-0.26786917
5	0x3e8ab989	0.27094677
6	0xbc41cef9	-0.011829131
7	0xbec60e17	-0.38682625
8	0xbeb3b210	-0.35096788
9	0x3ef9e840	0.48810005
10	0x3d93d8f5	0.07219116
11	0x3d0b547a	0.03401611
12	0xbe1320de	-0.14368007
13	0xbf0e9033	-0.5568878
14	0x3cbc4a1d	0.022984559
15	0xbea36f39	-0.31920794
16	0x3e4cd2b6	0.20002255
17	0xbf34bbf4	-0.70599294
18	0xbe24607b	-0.1605243
19	0x3eaac943	0.33356676
20	0xbe243f27	-0.16039716
21	0x3e896d11	0.26841024
22	0xbdacd2ae	-0.084386215
23	0xbf5a3ddc	-0.8525064
24	0xbc8eeff6	-0.017448407
25	0xbcb86562	-0.02250928
26	0xbe64319d	-0.22284551
27	0x3f12bc4c	0.5731857
28	0xbf2ee98f	-0.6832513
29	0x3cb69bf6	0.022291165
30	0x3edfca7b	0.43709168
31	0x3c028325	0.007965838
32	0xbf4856f2	-0.7825767
33	0xbe0242b7	-0.12720762
34	0x3e0d279a	0.13784638
35	0xbf1ca361	-0.61186796
36	0xbf347aca	-0.7049986
37	0xbe9f48ed	-0.31110325
38	0x3ceaeb67	0.028676702
39	0xbf0076f4	-0.5018151
40	0x3d280466	0.04101982
41	0xbd8987e1	-0.0671537
42	0x3f402181	0.7505112
43	0xbdc3c7cd	-0.09559593
44	0x3cb31797	0.021861834
45	0xbeeb564b	-0.45964274
46	0x3de73769	0.112898655
47	0x3c10cfc7	0.0088386005

sage.0.lin_root.bias f4 [16]
0	0xbcd9a2ea	-0.026566941
1	0xbebfbd05	-0.37448898
2	0x3eadbb7f	0.3393211
3	0xbd90dad4	-0.07072988
4	0x3e17aac3	0.14811234
5	0xbd713e58	-0.058897346
6	0xbef0f497	-0.47061607
7	0x3de2aa69	0.110676594
8	0x3e1da8aa	0.15396371
9	0x3db3daab	0.08781942
10	0x3c9ceb25	0.019155094
11	0x3e389624	0.18026024
12	0x3dfad657	0.12247913
13	0x3f0aaee5	0.5417312
14	0x3d31acc9	0.04337767
15	0x3e580059	0.21093883

sage.1.lin_rel.weight f4 [64, 16]
0	0xbd2fe70c	-0.042944953
1	0xbd0d96d5	-0.034567673
2	0xbe430cfb	-0.1904792
3	0x3de720e9	0.11285574
4	0xbe18163f	-0.14852236
5	0x3e58b9f5	0.21164687
6	0x3c8a2f2c	0.016868196
7	0x3d36d569	0.044637118
8	0x3d29fe7d	0.041502465
9	0x3dcb7482	0.099343315
10	0xbcc80f8a	-0.024421472
11	0xbc7dfaf2	-0.015501725
12	0x3ed5974b	0.4171699
13	0xbb84dcda	-0.004054648
14	0x3e0eb64c	0.13936728
15	0x3e3d9d03	0.18516926
16	0x3e3b580d	0.18295307
17	0xbcee3140	-0.029076219
18	0x3d88355d	0.06650803
19	0x3d872e4e	0.06600629
20	0xbd4f9aa2	-0.05068458
21	0xbd9ada72	-0.075611964
22	0x3eaec785	0.34136596
23	0xbe7fb48c	-0.24971217
24	0x3cfaf1a2	0.030632798
25	0x3e10f45a	0.14155713
26	0xbea63721	-0.32463935
27	0xbe40eb58	-0.18839777
28	0x3e5c9d02	0.21544269
29	0xbeb449d0	-0.35212564
30	0x3d250d06	0.040295623
31	0x3e28615c	0.1644339
32	0xbe4ddffd	-0.20104976
33	0x3cc48276	0.02398799
34	0xbe0eae0c	-0.13933581
35	0xbd333f71	-0.043761674
36	0xbe9eba0b	-0.31001315
37	0x3ddb20c1	0.10699607
38	0xbd673805	-0.05644991
39	0xbd86baa9	-0.06578571
40	0xbe0bef94	-0.1366561
41	0x3d97bbf0	0.07408893
42	0xbdf65153	-0.1202723
43	0x3daf6414	0.0856401
44	0x3e555548	0.20833313
45	0x3b7c5f47	0.0038508938
46	0x3cb09c52	0.021558914
47	0x3e7ec15d	0.2487845
48	0xbca6c306	-0.020356666
49	0xbceb74ed	-0.028742278
50	0xbb8593f7	-0.0040764767
51	0xbbd85293	-0.0066016405
52	0x3d5fcca8	0.054638535
53	0x3c8dec5d	0.01732462
54	0x3c307308	0.010769613
55	0xbb698d00	-0.003563702
56	0xbd8c831a	-0.06860943
57	0xbd6c7286	-0.057726406
58	0xbb9aa211	-0.004719027
59	0x3b64d87b	0.0034919071
60	0xbc0b536c	-0.008503776
61	0x3b246b5d	0.0025088408
62	0x3d50839c	0.050906762
63	0x3d881aa8	0.06645709
64	0x3e463442	0.19355872
65	0x3e35545b	0.1770796
66	0xbdeced61	-0.11568714
67	0x3de47b2a	0.11156304
68	0xbd8f6748	-0.07002121
69	0xbd492536	-0.049107753
70	0xbd9299e8	-0.071582615
71	0xbe290c73	-0.16508655
72	0x3d70e7b2	0.058814712
73	0x3e160af7	0.1465262
74	0xbe14ddb9	-0.14537705
75	0x3dcc8102	0.09985544
76	0xbc8570dc	-0.016289167
77	0xbe68c3fb	-0.2273101
78	0x3e704652	0.23464325
79	0x3dec8f24	0.115507394
80	0x3dd2b61a	0.10288639
81	0x3d31b74c	0.043387696
82	0x3dd7322f	0.10507619
83	0xbe395974	-0.1810053
84	0x3e07687a	0.13223448
85	0xbca4ef09	-0.020133512
86	0x3e87df60	0.2653761
87	0x3c98a324	0.018632479
88	0x3c7d64b2	0.015465902
89	0xbdb8ea69	-0.09029085
90	0xbe3d6118	-0.1849407
91	0xbe901849	-0.28143528
92	0xbd919009	-0.07107551
93	0xbe2494ac	-0.16072339
94	0xbeaa248e	-0.33231014
95	0x3e3e3046	0.18573102
96	0x3d1c3d96	0.03814467
97	0xbd2f9923	-0.042870652
98	0x3d82cb5f	0.06386446
99	0x3da98f2f	0.08279263
100	0x3e7c097c	0.24612993
101	0xbe27c961	-0.16385414
102	0x3e4a9a22	0.1978536
103	0x3d05031f	0.03247368
104	0x3d9ff326	0.07810049
105	0x3e629d68	0.22130358
106	0x3d8a0b94	0.067404896
107	0x3d3e4e2f	0.04646128
108	0xbedd6508	-0.43241143
109	0x3ccab93f	0.024746535
110	0xbe7e22f3	-0.2481802
111	0xbdce453d	-0.100718
112	0xbe06aef2	-0.13152674
113	0x3d072a24	0.032999173
114	0x3bfb95ee	0.007677785
115	0x3db1ea04	0.08687213
116	0x3d8e1f43	0.069395564
117	0x3b8dcd43	0.0043274476
118	0x3cba40fa	0.022736061
119	0x3b751d3e	0.0037401463
120	0xbd16dc26	-0.036831044
121	0xbbee2c57	-0.0072684693
122	0xbd15c035	-0.036560256
123	0xbd917d85	-0.07104019
124	0x3e675be6	0.2259365
125	0x3a347552	0.0006883937
126	0xbd65ec90	-0.056133807
127	0x3d2d364f	0.04228812
128	0x3e3d7037	0.18499838
129	0x3d739d86	0.059476398
130	0xbe198f8c	-0.14996165
131	0x3de9a9c0	0.1140933
132	0xbdca5688	-0.09879786
133	0xbda3e0e2	-0.08001877
134	0x3adf07f7	0.0017015924
135	0x3cbc1e2a	0.022963602
136	0x3dc65451	0.09684051
137	0x3d9110bc	0.0708327
138	0xbe83dba9	-0.25753525
139	0x3d880408	0.06641394
140	0xbd4f4c45	-0.050609846
141	0xbe82b78e	-0.25530666
142	0xbe8bd3e7	-0.27310106
143	0x3dad7cd6	0.08471076
144	0x3d9cb9be	0.07652615
145	0x3e32d104	0.17462546
146	0x3d400aac	0.046885177
147	0xbd4802fb	-0.048830967
148	0xbe06c004	-0.13159186
149	0xbe3ffe79	-0.18749417
150	0xbe0580d7	-0.1303743
151	0x3e0214a3	0.12703185
152	0xbd1f4112	-0.038880415
153	0x3bcf8182	0.006332577
154	0xbda0e8c8	-0.078568995
155	0x3c6f23c1	0.014595927
156	0xbd2bc912	-0.041939802
157	0xbe24e1d2	-0.16101769
158	0xbdec9e3a	-0.11553617
159	0x3d1c6783	0.038184654
160	0xbdb71763	-0.089400075
161	0xbd091d1b	-0.033475023
162	0x3d1a9b2d	0.037745643
163	0x3e4768e5	0.19473608
164	0x3e92a0ea	0.28638393
165	0xbcfb5c6d	-0.03068372
166	0x3e5727bf	0.21011256
167	0xbe926bfd	-0.28598014
168	0x3d67788d	0.05651145
169	0xbd7633e7	-0.06010809
170	0x3e48bc6a	0.19603124
171	0xbd9ce970	-0.07661712
172	0xbcaf58e9	-0.0214047
173	0x3c5916a4	0.013250027
174	0xbd0cdbc4	-0.034389272
175	0xbda9d701	-0.08292962
176	0xbd67b3d6	-0.05656799
177	0xbbe34622	-0.0069358507
178	0xbc98a338	-0.018632516
179	0xbd10e1ed	-0.03537171
180	0x3e2fdda9	0.171744
181	0x3e09dbf8	0.13462818
182	0x3d39a012	0.04531867
183	0xbe5db13b	-0.2164964
184	0xbd91ab14	-0.07112709
185	0xbe85d09f	-0.26135728
186	0xbe0a3906	-0.13498315
187	0x3dd18d5f	0.102320425
188	0x3d8ebdd0	0.069697976
189	0xbef45552	-0.47721344
190	0xbea6ae13	-0.32554683
191	0x3dcbf841	0.0995946
192	0xbd83012c	-0.06396708
193	0xbd20477b	-0.03913067
194	0xbdbddf72	-0.092711344
195	0x3d9dfb0a	0.077138975
196	0xbd696f48	-0.05699089
197	0x3db0a178	0.08624548
198	0xbc1f5546	-0.009724921
199	0x3ca7c77f	0.02048087
200	0xbc03f52b	-0.008054058
201	0x3dd04c06	0.1017075
202	0xbdb338dd	-0.0875108
203	0x3d8cb997	0.06871336
204	0x3e2fc774	0.17165929
205	0xbb9ecd66	-0.0048462627
206	0xbdae46cf	-0.085095994
207	0x3e1f7465	0.15571745
208	0xbd147c71	-0.03625149
209	0x3e8c7049	0.27429417
210	0xbcdda33e	-0.027055379
211	0x3e8b7a27	0.27241632
212	0x3d259d07	0.040432956
213	0x3dd1ae91	0.10238374
214	0x3e4a0f81	0.19732477
215	0xbeef2b6e	-0.46712822
216	0xbdcf7069	-0.101288624
217	0xbec8298d	-0.390942
218	0x3b8fa754	0.0043839607
219	0xbe49cefa	-0.19707862
220	0x3e46d7b6	0.19418225
221	0xbe41ab6c	-0.18913049
222	0xbd5eb871	-0.054375116
223	0x3e5cdd3a	0.21568766
224	0x3e14773c	0.1449861
225	0x3da8d5c0	0.082438946
226	0x3e852b98	0.26009822
227	0xbdc8c7d2	-0.09803738
228	0x3e2bc0df	0.16772793
229	0xbde703dc	-0.11280033
230	0xbac199b7	-0.0014770542
231	0xbe10ac60	-0.14128256
232	0xbd646a55	-0.05576547
233	0x3e80251a	0.25028306
234	0x3c0ba722	0.008523734
235	0x3e20692c	0.1566512
236	0xbcb98a2a	-0.02264889
237	0xbde3482c	-0.1109775
238	0x3e5421d6	0.20716032
239	0xbe6eee23	-0.2333303
240	0x3dbe4cc9	0.09291989
241	0x3d55ccfd	0.052197445
242	0x3e2102a1	0.15723659
243	0x3dc71265	0.09720305
244	0x3e0ec229	0.13941254
245	0xbcbe3e61	-0.023223104
246	0x3d202bad	0.039104152
247	0xbd78bafb	-0.060725193
248	0xbd810983	-0.06300642
249	0xbda767f6	-0.08174126
250	0x3e1d3b4c	0.15354651
251	0xbd620a08	-0.055185348
252	0xbea2b0dd	-0.3177556
253	0x3cdbb8ff	0.026821611
254	0xbe8485b5	-0.2588326
255	0xbb9b4ca0	-0.004739359

sage.1.lin_root.weight f4 [64, 16]
0	0x3f824504	1.0177312
1	0x3ce47daa	0.027891953
2	0xbf23f4d1	-0.64045435
3	0x3d4e84bd	0.050419558
4	0xbeeb8408	-0.4599917
5	0x3e00e878	0.1258868
6	0xbe702eea	-0.23455396
7	0x3dc18c01	0.09450532
8	0xbfacee0f	-1.351015
9	0xbf191d65	-0.5981048
10	0xbbc53137	-0.0060178298
11	0xbec74f70	-0.38927794
12	0xbf3e6c9e	-0.74384487
13	0xbc6e5f5c	-0.014549103
14	0xbd9ba7ea	-0.076003864
15	0xbedf3325	-0.43593708
16	0xbecbe4f8	-0.39823127
17	0xbd20bdbf	-0.039243456
18	0x3ead4a5c	0.33845794
19	0xbd54d56f	-0.05196136
20	0x3db5355f	0.0884807
21	0xbf130bb3	-0.57439727
22	0xbe9bacd2	-0.3040529
23	0x3eeee6c7	0.46660444
24	0x3d86bc98	0.0657894
25	0xbe42c1ca	-0.19019237
26	0x3f2c6e73	0.6735603
27	0x3e37d37b	0.17951767
28	0xbea493df	-0.32144067
29	0x3e327e96	0.17431101
30	0xbc91cfea	-0.017799336
31	0xbed80600	-0.42192078
32	0xbd838df9	-0.064235635
33	0xbe542c4f	-0.20720027
34	0x3e617737	0.22018133
35	0xbec32757	-0.3811595
36	0x3f2adbbb	0.6674153
37	0xbe08e3bb	-0.13368122
38	0x3dccdbfb	0.100028954
39	0x3e161f4e	0.1466038
40	0xbe983670	-0.29729033
41	0x3d1f1eda	0.03884778
42	0xbe8f8cb9	-0.2803705
43	0x3d0df8d4	0.03466113
44	0xbb3c95d7	-0.0028775835
45	0xbca604d3	-0.020265972
46	0xbeb57a42	-0.35444838
47	0xbc47489d	-0.012163308
48	0xbe668295	-0.2251075
49	0x3e6b9aa6	0.23008212
50	0xbb8562dd	-0.0040706233
51	0xbe2214b1	-0.15828206
52	0xbf1d2e84	-0.613991
53	0xbf12bb8f	-0.5731744
54	0xbd94d0f8	-0.0726642
55	0x3bcddf96	0.006282757
56	0x3f229635	0.6351045
57	0xbdfb0a75	-0.12257854
58	0xbe0da784	-0.13833433
59	0x3e1fcbf0	0.1560514
60	0xbefff67a	-0.49992734
61	0xbb6f104e	-0.0036478224
62	0x3e0f4bc4	0.13993746
63	0xbdd6a3e3	-0.10480478
64	0x3dfe8e69	0.12429506
65	0xbd382e41	-0.044965986
66	0xbe44353f	-0.19160937
67	0x3c0384df	0.008027284
68	0x3defb1d0	0.11703837
69	0x3d97d639	0.074139066
70	0xbe0743bf	-0.13209437
71	0xbdb36c45	-0.08760885
72	0x3c4377d4	0.011930425
73	0x3daa5c46	0.08318381
74	0xbea0cb3b	-0.31405053
75	0x3e320f65	0.17388685
76	0x3e8448b0	0.25836706
77	0x3da7cdba	0.08193536
78	0xbe1f2ba8	-0.15543997
79	0x3e9355f7	0.28776523
80	0xbf082f60	-0.5319729
81	0xbe0191b4	-0.12653238
82	0x3ec7994e	0.3898415
83	0x3dbe6732	0.09297027
84	0x3e81d32f	0.25356433
85	0xbefd3c19	-0.49459913
86	0xbe9cf112	-0.30652672
87	0x3e93cd28	0.2886746
88	0x3ed3dfef	0.41381785
89	0x3d2645e6	0.040594004
90	0x3f081cb9	0.5316883
91	0x3e8de669	0.27714851
92	0xbebe838d	-0.3720974
93	0x3e1ddc5c	0.15416092
94	0xbe933fbe	-0.2875957
95	0xbed8e388	-0.42361093
96	0x3f39d4cd	0.72590333
97	0x3d670af5	0.056406934
98	0xbf03df80	-0.5151291
99	0x3e2358e3	0.15951876
100	0xbf289fac	-0.6586864
101	0x3dbe1d13	0.09282889
102	0xbe8886e0	-0.266654
103	0xbd766294	-0.060152605
104	0xbee2a6df	-0.44267938
105	0x3cb3c932	0.021946523
106	0x3da5a8fd	0.080888726
107	0xbeb1b18d	-0.34705773
108	0xbe6b8e07	-0.23003398
109	0x3da33e3e	0.07970856
110	0x3f5c19d9	0.8597694
111	0xbed392d5	-0.4132296
112	0x3f4c6eee	0.79856765
113	0xbe1adee9	-0.15124096
114	0xbf3da9bc	-0.7408712
115	0x3f0ed758	0.5579734
116	0xbfca738a	-1.581651
117	0x3f871edb	1.0556291
118	0xbde248c8	-0.11049038
119	0x3e6f5f89	0.23376288
120	0x3d69d29a	0.05708561
121	0xbf32b92f	-0.6981382
122	0x3e41c667	0.1892334
123	0xbf39175b	-0.7230126
124	0xbe9fbcd2	-0.31198746
125	0x3ce76b5a	0.028249431
126	0xbe376658	-0.17910135
127	0xbf2d0b1d	-0.6759508
128	0xbeb4e247	-0.35328886
129	0xbd11f41d	-0.035633195
130	0x3f1936a7	0.5984902
131	0xbd7dd1f0	-0.06196779
132	0xbd907771	-0.07054032
133	0xbee546c5	-0.44780555
134	0xbe177ea5	-0.14794405
135	0x3ecacb35	0.3960816
136	0xbd98116c	-0.07425198
137	0x3cd305b3	0.025759554
138	0x3f2b8ac5	0.6700862
139	0x3e0f919c	0.1402039
140	0xbe7c92d8	-0.24665391
141	0x3d9f2589	0.07770831
142	0xbe407052	-0.18792847
143	0xbec283fe	-0.37991327
144	0xbe4d7d2b	-0.20067279
145	0xbd0cdfe1	-0.034393195
146	0x3d758a56	0.05994638
147	0xbcacfe61	-0.021117391
148	0x3d7a669d	0.061133016
149	0xbd3a30f7	-0.045456853
150	0xbde94eb1	-0.11391962
151	0x3ed7081d	0.41998377
152	0x3e7d19e6	0.2471691
153	0xbd45471f	-0.04816353
154	0x3ea4811c	0.32129753
155	0x3d369ac7	0.0445812
156	0xbe8b5754	-0.27215064
157	0xbcaed8d7	-0.021343632
158	0xbe3a67dc	-0.18203682
159	0xbdf27bb9	-0.118400045
160	0xbe051b84	-0.12998778
161	0x3e8d77d8	0.27630496
162	0xbe05e3ed	-0.13075228
163	0x3e42a2e0	0.19007444
164	0x3c466d68	0.012111045
165	0xbdddd7ab	-0.10832151
166	0x3ed6679a	0.41875917
167	0xbdd42d16	-0.10360162
168	0xbe19e317	-0.15028034
169	0xbe44693d	-0.1918077
170	0x3e6324da	0.22182027
171	0xbca1e90f	-0.019764451
172	0xbcc3b36f	-0.023889272
173	0xbebf6f68	-0.37389684
174	0x3daca327	0.08429556
175	0x3d454114	0.048157766
176	0xbec51403	-0.3849183
177	0xbe3829bc	-0.1798467
178	0x3e9995c8	0.29997087
179	0xbdf3f28a	-0.11911495
180	0x3e487f3d	0.19579788
181	0xbeff0828	-0.4981091
182	0xbe113a4f	-0.14182399
183	0x3ee00358	0.4375255
184	0x3e2ab598	0.16670835
185	0x3dc9cd25	0.09853581
186	0x3ee4bc49	0.446749
187	0x3e8abbd3	0.27096424
188	0xbeaf4583	-0.3423272
189	0x3e88032d	0.26564923
190	0xbdf8c9d9	-0.121478744
191	0xbf3b3876	-0.7313303
192	0x3e3f2774	0.18667394
193	0xbe2dafdb	-0.16961615
194	0x3e87e1c7	0.26539442
195	0x3b34563d	0.0027517222
196	0x3f1518ad	0.5824078
197	0xbc2e4e46	-0.010638779
198	0xbe4d5169	-0.20050587
199	0x3dd83ef3	0.105588816
200	0xbe3ff754	-0.18746692
201	0x3df88cc9	0.12136228
202	0x3e84651a	0.25858384
203	0x3d628d62	0.055310614
204	0xbd6a0cdf	-0.05714118
205	0x3d6c31c5	0.05766465
206	0xbe92cf1c	-0.28673637
207	0xbe24780b	-0.16061418
208	0xbe8552bd	-0.26039687
209	0xbe898de9	-0.2686608
210	0x3f00339a	0.5007874
211	0xbdab7389	-0.08371646
212	0x3e094dd8	0.13408601
213	0xbef3abe9	-0.47592095
214	0xbe9744af	-0.2954459
215	0x3ec3c2de	0.3823461
216	0x3aca346d	0.0015427001
217	0xbe887dba	-0.26658422
218	0x3f0c7a19	0.54873806
219	0x3ea9b15a	0.3314312
220	0xbea66d0a	-0.32505065
221	0x3e40a1fd	0.18811794
222	0xbe12488f	-0.14285491
223	0xbed4201b	-0.41430745
224	0x3e3d779c	0.18502659
225	0x3e8fa6f8	0.28057075
226	0xbd569fd4	-0.052398518
227	0xbe0d9e96	-0.13830027
228	0xbce2a10b	-0.027664682
229	0xbd1e3a76	-0.03862997
230	0xbd2b604e	-0.04183989
231	0xbdbceaff	-0.092245094
232	0xbe21d2d2	-0.15803078
233	0xbe3d6137	-0.18494116
234	0x3cad952a	0.021189291
235	0x3e5034ac	0.20332593
236	0xbd518985	-0.05115654
237	0xbe1aaeb5	-0.15105708
238	0x3dd44a0a	0.10365684
239	0xbe9e86f8	-0.30962348
240	0x3e769dd3	0.24083643
241	0xbe025a13	-0.12729673
242	0x3dbbf4c5	0.091775455
243	0xbde782c0	-0.113042355
244	0x3e7c4aed	0.24637957
245	0xbd8d3741	-0.068953045
246	0x3d67d3db	0.056598525
247	0xbe08daaf	-0.13364671
248	0xbeaaf7e2	-0.33392245
249	0x3e21cd88	0.1580106
250	0xbdfedb47	-0.124441676
251	0x3e08a21e	0.13343093
252	0xbe2dd8f0	-0.16977286
253	0x3c8fe46a	0.017564971
254	0x3e416497	0.18886028
255	0xbe933377	-0.28750202

sage.1.lin_root.bias f4 [64]
0	0x3ee2f070	0.44324064
1	0xbecc46e0	-0.39897823
2	0x3ece889b	0.40338597
3	0x3f7e4b15	0.99333316
4	0x3eb8ac15	0.36068788
5	0x3f2862b3	0.65775603
6	0x3e9ec76a	0.31011516
7	0x3f25ed5c	0.64815307
8	0x3f2a166b	0.6644046
9	0x3f2347f5	0.6378167
10	0x3eedf097	0.46472618
11	0xbe57a8bb	-0.2106046
12	0x3e562540	0.20912647
13	0xbef19189	-0.47181347
14	0x3f2452df	0.6418895
15	0xbe891a26	-0.26777762
16	0x3e846880	0.25860977
17	0x3f3f5573	0.7473976
18	0x3e98a92c	0.29816568
19	0x3e542682	0.20717815
20	0xbec4fa93	-0.38472423
21	0x3f06e516	0.5269331
22	0x3f523de5	0.82125694
23	0xbe9b50d1	-0.30335096
24	0xbe5ec040	-0.21753025
25	0x3e499dc1	0.19689085
26	0xbe4e454b	-0.2014362
27	0xbe87beee	-0.26512855
28	0xbe2b8071	-0.16748215
29	0xbe29e58d	-0.16591473
30	0x3f8f5148	1.119668
31	0x3dc9abce	0.09847222
32	0x3f595ca8	0.8490701
33	0x3ee8fb29	0.4550412
34	0x3f2e18e8	0.68006754
35	0xbe8d2e80	-0.2757454
36	0x3f880f98	1.0629759
37	0xbdde329c	-0.10849497
38	0x3eba672c	0.3640684
39	0x3e818768	0.2529862
40	0xbe69ee18	-0.22844732
41	0xbd772b8c	-0.060344264
42	0x3f7bd3e4	0.98370194
43	0x3f68d243	0.90945834
44	0x3f50dfe9	0.8159166
45	0x3f8b0d42	1.0863421
46	0x3f34e003	0.70654315
47	0xbe625b1e	-0.22105071
48	0x3e3de9ff	0.18546294
49	0xbe87ddc2	-0.26536375
50	0x3f4d97bd	0.8030966
51	0x3f5050ba	0.8137318
52	0x3f7ca388	0.9868703
53	0xbee30910	-0.44342852
54	0x3f7299ef	0.94766134
55	0xbeace36e	-0.33767265
56	0x3f57dd38	0.8432193
57	0x3f17cf09	0.59300286
58	0x3f958696	1.1681697
59	0x3de8c588	0.11365801
60	0x3f0aafbd	0.54174405
61	0x3e315a5b	0.17319624
62	0xbd1cebff	-0.038311
63	0x3f99f415	1.2027613

sage.2.lin_rel.weight f4 [64, 64]
0	0xbd484ba0	-0.048900247
1	0xbd85bad9	-0.06529779
2	0x3d9e0b6a	0.07717021
3	0xbde54ea1	-0.11196638
4	0x3e1ff1a8	0.15619528
5	0x3d10f6a5	0.03539147
6	0xbd83ce92	-0.064358845
7	0x3da1ed51	0.07906593
8	0xbc0ce278	-0.008598916
9	0xbd434a03	-0.047678005
10	0x3beb666b	0.00718384
11	0x3e2cfc8d	0.16893215
12	0x3bc261cf	0.00593207
13	0x3d81bb75	0.06334583
14	0x3de563cf	0.112006776
15	0x3d86892e	0.06569134
16	0x3d95f3f4	0.07321921
17	0x3dcb9951	0.09941352
18	0x3b4dd958	0.0031410065
19	0x3db2bb63	0.087271474
20	0xbd2a85c2	-0.041631468
21	0x3da91ab9	0.0825705
22	0xbde9b7ed	-0.11412034
23	0x3d6de03c	0.058075175
24	0x38c8c798	9.5739204e-05
25	0x3d573662	0.052542098
26	0x3cb22834	0.021747686
27	0xbd7190b0	-0.058975875
28	0x3d65a801	0.056068424
29	0x3e1e6f17	0.15472065
30	0x3a06da2b	0.0005144204
31	0xbd866d81	-0.06563855
32	0xbc81b10c	-0.015831493
33	0x3dd7ce90	0.105374455
34	0xbe0cd5e2	-0.13753465
35	0x3de7a9ee	0.113117084
36	0xbd65385c	-0.05596195
37	0xbd5e1bfb	-0.054225903
38	0xbcc3d8fe	-0.02390718
39	0x3ce33400	0.027734756
40	0xbd717cee	-0.058957033
41	0xbdd05abc	-0.10173556
42	0x3d81f5e7	0.0634573
43	0x3dc30828	0.0952304
44	0xbd09b7f5	-0.0336227
45	0xbe1dd4c0	-0.15413189
46	0xbd215283	-0.03938533
47	0x3dbaa6d1	0.09113849
48	0xbcfcd30d	-0.030862356
49	0x3c1de746	0.009637659
50	0xbdd28ed3	-0.10281148
51	0xbd14b6f3	-0.036307286
52	0x3d46d6a1	0.04854453
53	0x3dd677df	0.10472082
54	0x3d36a0df	0.044587012
55	0xbcc212a2	-0.023690525
56	0xbde3177e	-0.11088465
57	0x3c2a0f32	0.010379599
58	0xbd3d1cd6	-0.04617008
59	0x3cf8507d	0.030311817
60	0xbd9ebf48	-0.07751328
61	0xbc1ee661	-0.009698481
62	0x3dff9b2d	0.12480769
63	0xbd1f628b	-0.038912337
64	0xbb5a2578	-0.0033286493
65	0xbbcb5f91	-0.0062064608
66	0x3dd60852	0.10450806
67	0xbac6754b	-0.0015141157
68	0xbc2962ec	-0.010338526
69	0x3d20c08d	0.03924613
70	0x3d86a558	0.065745056
71	0x3daeac40	0.08528948
72	0x3dc44ca1	0.09584928
73	0x3dff2d41	0.124598034
74	0xbd7d6a96	-0.061869226
75	0x3e235007	0.15948497
76	0xbd879ecf	-0.06622087
77	0x3e0f025e	0.13965747
78	0x3de5ba6d	0.112171985
79	0xbd58779e	-0.05284845
80	0xb9c3ed8e	-0.0003737029
81	0x3bca1770	0.0061673447
82	0xbd9f4fe1	-0.077789076
83	0x3d1c35b1	0.03813714
84	0xbdb52316	-0.08844583
85	0xbd1cc3dc	-0.038272724
86	0xbe29d2f1	-0.16584374
87	0x3c833bfa	0.01601981
88	0x3baaf896	0.005217622
89	0x3d333f3d	0.04376148
90	0x3d02113b	0.031754714
91	0x3e05b689	0.13057913
92	0x3d8f9ffb	0.07012936
93	0xbd3095f0	-0.04311174
94	0x3e0bea77	0.1366366
95	0x3d78b610	0.060720503
96	0x3c7b1bcf	0.015326454
97	0x3ca621d6	0.020279806
98	0xbc3f736f	-0.011685236
99	0xbd580b52	-0.05274517
100	0xbcc87c75	-0.024473408
101	0x3dfc2c5f	0.123131506
102	0xbc5b7483	-0.013394478
103	0x3d7bff48	0.061522752
104	0x3d9a2186	0.07525925
105	0xbd2d90a4	-0.04237427
106	0xbd7e60c1	-0.06210399
107	0xbdc5c4b1	-0.096566565
108	0x3bb91970	0.0056487843
109	0x3c2d6bbe	0.01058477
110	0xbd4d811e	-0.050171964
111	0xbca76165	-0.020432184
112	0x3dc245ee	0.09485994
113	0x3dd9ec5d	0.10640786
114	0xbdfe4a80	-0.124165535
115	0x3db56467	0.08857041
116	0xbd96fb35	-0.07372133
117	0x3db39160	0.087679625
118	0x3da599a5	0.08085946
119	0x3e141795	0.14462121
120	0xbd25b6f1	-0.04045767
121	0x3cf66c7d	0.030081028
122	0x3cd337d9	0.025783466
123	0x3cdd9fb9	0.0270537
124	0x3d8a01ed	0.067386486
125	0x3d411e81	0.04714823
126	0x3d962a9a	0.07332344
127	0xbd1c312c	-0.03813283
128	0x3d909507	0.07059675
129	0xbd2a1b55	-0.041529972
130	0xbb25e0d0	-0.0025311
131	0x3dc19a45	0.09453253
132	0xbd15aff1	-0.036544744
133	0xbdb4de21	-0.0883143
134	0x3d89b322	0.0672362
135	0x3de4d4a7	0.11173373
136	0xbbef3cb3	-0.007300937
137	0xbdba3568	-0.09092218
138	0x3c2ab386	0.010418778
139	0x3d5dd6cf	0.054159936
140	0x3ce2164b	0.02759852
141	0xbdad031b	-0.08447858
142	0xbd279146	-0.040910028
143	0xbb37deeb	-0.0028056453
144	0x3d899ce6	0.06719379
145	0xbcba5a0d	-0.022748018
146	0x3b6c811d	0.00360877
147	0x3d99a8b9	0.075028844
148	0xbda85f07	-0.0822125
149	0xbcc8c4e5	-0.02450795
150	0x3d0fcf43	0.03510977
151	0x3d25015b	0.040284496
152	0xbcb139b4	-0.02163396
153	0x3d06a56f	0.032872614
154	0xbbd62a4d	-0.0065358044
155	0x3d897b1c	0.067129344
156	0x3d015da3	0.03158344
157	0xbce81f46	-0.028335225
158	0xbcc53c9f	-0.024076758
159	0xbd68d397	-0.056842413
160	0x3e0944f8	0.13405216
161	0xbdc70c85	-0.09719185
162	0xbd5dfb88	-0.054194957
163	0xbcbcfa77	-0.02306865
164	0xbd4dd4de	-0.050251834
165	0xbd814d3b	-0.06313559
166	0xbd8e4d23	-0.069483064
167	0xbdc49b4f	-0.09599935
168	0x3c66d71e	0.014089374
169	0x3d0a9bc3	0.033839952
170	0xbd5af6d1	-0.05345804
171	0x3b7ac05f	0.0038261635
172	0x3dea21ff	0.114322655
173	0xbda916cf	-0.082563035
174	0xbda5265e	-0.080639586
175	0xbd28645c	-0.041111335
176	0x3ce4e27f	0.027940033
177	0x3dc885c1	0.097911365
178	0x3de508ef	0.111833446
179	0x3d1277ad	0.035758663
180	0xbdf35735	-0.11881868
181	0x3d20531a	0.03914175
182	0x3d5ddf6d	0.054168154
183	0x3d1c5824	0.038169995
184	0x3da3f9ed	0.08006654
185	0x3db16e33	0.08663597
186	0x3d809221	0.06277872
187	0x3d313de8	0.04327193
188	0xbd19407e	-0.03741502
189	0xbcb6ff31	-0.022338482
190	0x3cb7bd9a	0.022429276
191	0xbdfaa36a	-0.122382
192	0xbdd5b481	-0.10434819
193	0x3e043390	0.12910295
194	0xbd889b66	-0.06670265
195	0xbcb65e63	-0.022261804
196	0x3d25bb97	0.040462103
197	0x3dc6c5ec	0.09705719
198	0xbe07e52d	-0.13271017
199	0xbd801a79	-0.06255049
200	0xbdb86fc3	-0.09005692
201	0xbca61123	-0.020271843
202	0x3de1afe9	0.1101988
203	0x3dc7bc83	0.09752753
204	0xbdd06aaf	-0.10176598
205	0x3dd047e5	0.10169963
206	0xbddd8e46	-0.10818152
207	0xbb8f3485	-0.0043702745
208	0xbcef982a	-0.029247362
209	0xbcc4ba9d	-0.024014765
210	0x3da27a6f	0.079335086
211	0x3c74c3d3	0.014939266
212	0x3df73175	0.1206998
213	0xbd21b021	-0.03947461
214	0x3d8419e8	0.06450254
215	0xbda5d448	-0.0809713
216	0x3df04aca	0.11733015
217	0x3cd10317	0.025514169
218	0x3dedb958	0.11607617
219	0x3d12dfe3	0.035858046
220	0x3d9c56b6	0.07633726
221	0xbda71d4e	-0.08159886
222	0xbc5d1a7b	-0.013495083
223	0xbd9083ac	-0.070563644
224	0xbdc9491d	-0.098283984
225	0x3da9040f	0.08252727
226	0xbd3fd852	-0.04683716
227	0xbcf4e070	-0.029892176
228	0xbdc33544	-0.09531644
229	0xbdd0ec86	-0.10201363
230	0x3dbabb53	0.091177605
231	0x3d5dc104	0.054139152
232	0x3e044df4	0.12920362
233	0x3d7d2be4	0.061809435
234	0x3cc76d38	0.024344072
235	0x3dde37c6	0.10850482
236	0xbd854210	-0.06506741
237	0x3bb1ec50	0.005429782
238	0x3dbdd941	0.092699535
239	0x3ba158aa	0.0049238997
240	0xbda6097d	-0.081072785
241	0xbd634eec	-0.055495188
242	0xbe0bd40f	-0.13655113
243	0x3d2aa92c	0.04166524
244	0x35c7a61a	1.4874997e-06
245	0x3d570c1d	0.052501787
246	0xbdea33db	-0.11435672
247	0xbda83aaa	-0.08214314
248	0x3c8f0968	0.01746054
249	0x3dc4223c	0.09576842
250	0xbdc60c25	-0.09670285
251	0x3bc63321	0.0060485755
252	0xbc4d8339	-0.012543493
253	0x3c49ec39	0.012324386
254	0x3dda6474	0.10663691
255	0xbc7cfdda	-0.015441382

sage.2.lin_root.weight f4 [64, 64]
0	0x3d8584d5	0.06519476
1	0x3de66001	0.1124878
2	0xbdbfe069	-0.09368975
3	0x3c971d30	0.018446535
4	0xbc81749d	-0.015802676
5	0xbbb8a4d9	-0.0056348857
6	0xbd816321	-0.063177355
7	0xbb6c8b9b	-0.0036093954
8	0xbd91e007	-0.07122808
9	0x3d9a5fa2	0.07537772
10	0xbd92e844	-0.071732074
11	0xbcf6e498	-0.030138299
12	0xbdbe0e22	-0.09280039
13	0xbca11487	-0.019663109
14	0xbccf89f5	-0.025334338
15	0x3d124565	0.03571071
16	0x3c822be1	0.015890064
17	0x3cfe9b18	0.031079814
18	0x3c2180b3	0.009857344
19	0xbd81cf78	-0.063384
20	0xbd3178ba	-0.043328024
21	0xbcf076b8	-0.029353485
22	0x3d9aac8c	0.07552442
23	0x3dca0042	0.098633304
24	0x3d4f7bbb	0.050655108
25	0xbd09402a	-0.033508457
26	0x3b8537b4	0.004065478
27	0xbd470dd2	-0.048597164
28	0x3cf2bfa1	0.029632391
29	0x3e02d6ce	0.12777254
30	0xbc7b1d58	-0.01532682
31	0xbd14b0b9	-0.03630135
32	0xbdc4174d	-0.09574757
33	0xbd923ceb	-0.071405254
34	0x3d8e1002	0.06936647
35	0x3dae6654	0.08515611
36	0xbc94094c	-0.01807084
37	0x3da28d1e	0.07937072
38	0xbca91029	-0.020637589
39	0x3de5a096	0.1121227
40	0xbd381ed3	-0.04495127
41	0x3da87e6a	0.082272366
42	0xbda7038f	-0.081549756
43	0x3c47b301	0.012188674
44	0xbcec37bf	-0.028835176
45	0xbd382d3c	-0.044965014
46	0xbd0a2b91	-0.033732954
47	0x3c29c6ae	0.01036231
48	0x3c5ad291	0.013355867
49	0xbd9787e6	-0.073989674
50	0xbdce052a	-0.10059579
51	0x3daaef22	0.08346392
52	0xbdfd6fa1	-0.12374807
53	0xba235dc7	-0.00062319305
54	0x3d0304b9	0.031986926
55	0x3dab8d4b	0.08376559
56	0xbd72e957	-0.05930456
57	0xbd779d06	-0.060452484
58	0xbae69719	-0.0017592638
59	0x3c1f5063	0.0097237555
60	0xbc85b948	-0.0163237
61	0x3d4ec7a2	0.050483353
62	0xbc800a33	-0.015629863
63	0x3d3d9840	0.046287775
64	0x3d23d3a0	0.039996743
65	0x3d0110ef	0.03151029
66	0xbddb5e95	-0.107113995
67	0x3d244986	0.04010918
68	0x3e146524	0.14491707
69	0x3e01cb36	0.12675175
70	0xbd5c6835	-0.053810317
71	0xbdae493a	-0.085100606
72	0x3cfac979	0.030613648
73	0x3dc66913	0.0968801
74	0xbd58c757	-0.05292448
75	0xbd157d9d	-0.036496747
76	0xbc9ae4a8	-0.01890786
77	0x3cdcdf82	0.026962046
78	0xbc54f315	-0.012997408
79	0xbc23acd4	-0.009989936
80	0x3de3f4ed	0.111307
81	0xbd19202d	-0.0373842
82	0x3dc297d1	0.09501613
83	0xbd208fb8	-0.03919956
84	0x3d9f58af	0.07780587
85	0x3d2b3400	0.041797638
86	0xbdf42be2	-0.119224325
87	0xbc6ad338	-0.014332585
88	0x3dc5685e	0.09639047
89	0x3e1ce776	0.1532267
90	0xbd81a120	-0.0632956
91	0xbc0cd2d9	-0.008595192
92	0xbd19ab09	-0.037516627
93	0x3d5dc144	0.05413939
94	0x3d55e16a	0.052216925
95	0xbbb4041b	-0.0054936535
96	0xbe0a861a	-0.13527718
97	0x3d869ffb	0.065734826
98	0xbd4be3e7	-0.04977789
99	0x3d63c248	0.055605203
100	0xbde51e5b	-0.111874305
101	0x3da87074	0.08224574
102	0xbdb5a2b0	-0.08868921
103	0x3b12bb82	0.0022389595
104	0x3ce8f5be	0.028437492
105	0xbd46bb17	-0.048518267
106	0xbcd40b83	-0.025884395
107	0xbd8624fa	-0.065500215
108	0xbdb95c66	-0.09050827
109	0x3c2814f4	0.010258902
110	0xbcb4ab3b	-0.022054305
111	0xbd9227ae	-0.071364745
112	0xbd0f4218	-0.03497514
113	0x3e127376	0.14301857
114	0xbcbea579	-0.023272263
115	0xbc953b89	-0.018216865
116	0x3cbe9ba9	0.023267584
117	0xbc9d8699	-0.01922922
118	0x3cc6e818	0.024280593
119	0x3debbc09	0.11510474
120	0x3b2663de	0.0025389115
121	0x3cc93ed3	0.02456609
122	0xbdb53235	-0.08847467
123	0xbd619c4b	-0.055080693
124	0xbd5bae2c	-0.0536329
125	0x3cfe3438	0.03103076
126	0x3d8e5919	0.06950588
127	0xbd6616c0	-0.05617404
128	0x3c5178dd	0.012785164
129	0xbca42f5d	-0.020042116
130	0x3c6d9a30	0.014502093
131	0x3dda4f86	0.10659699
132	0x3db7b454	0.08969942
133	0x3d014d10	0.031567633
134	0xbd3acee9	-0.04560748
135	0xbac644d5	-0.0015126715
136	0xbd952e18	-0.07284182
137	0x3d1ab852	0.037773438
138	0xbc8eb34d	-0.017419482
139	0x3de7db53	0.1132113
140	0xbd2c6aac	-0.042093918
141	0xbb6170e8	-0.0034399573
142	0xbe0be2cd	-0.13660736
143	0x3d48a17d	0.048982132
144	0xbd45e625	-0.048315186
145	0x3df23099	0.118256755
146	0x3d1500ba	0.036377646
147	0xbe19af21	-0.15008213
148	0xbd62cf7b	-0.05537365
149	0xbc90e7b0	-0.017688602
150	0xbd609995	-0.054833967
151	0x3da8abc9	0.082358904
152	0x3d0482f1	0.032351438
153	0xbd809b0d	-0.062795736
154	0x3dceae3b	0.100918256
155	0xbdcc4438	-0.09973949
156	0x3d123eb2	0.035704322
157	0xbdf630e2	-0.120210424
158	0xbd0f6db9	-0.03501675
159	0xbd172f1e	-0.03691017
160	0xbdb4c9a7	-0.08827525
161	0xbdb00c7a	-0.0859613
162	0xbdba8411	-0.09107221
163	0xbb7ff3f2	-0.0039055315
164	0x3d2c5b44	0.042079225
165	0xbc59c611	-0.013291852
166	0xbd8fb42e	-0.070167884
167	0x3d8ac8db	0.067765914
168	0xbd26eb45	-0.040751714
169	0x3d3f74e0	0.04674232
170	0xbc46fbc1	-0.012144984
171	0xbcbf17c3	-0.02332676
172	0x3de10167	0.109865956
173	0x3b692438	0.0035574567
174	0x3dc3e1d8	0.09564561
175	0xbccdcff3	-0.025123572
176	0xbd0f6294	-0.03500612
177	0x3cb57d1a	0.02215438
178	0x3d141ed3	0.03616221
179	0xbdc685b3	-0.0969347
180	0xbd8b8950	-0.068133
181	0xbd4472fb	-0.047961216
182	0x3ca3fd4a	0.020018239
183	0xbdb55773	-0.0885457
184	0x3dd4a446	0.10382895
185	0x3dd3088e	0.10304366
186	0x3d5b32fc	0.05351542
187	0x3d24d414	0.040241316
188	0x3d7d8b4b	0.06190042
189	0x3d065006	0.03279116
190	0x3dab5fff	0.08367919
191	0x3cf9c007	0.030487074
192	0x3d3cc3fe	0.04608535
193	0x3dec02ff	0.11524009
194	0x3db79291	0.08963502
195	0x3dcd6ff5	0.1003112
196	0x394bca7d	0.00019435021
197	0x3d7d21af	0.0617997
198	0x3da1e500	0.079050064
199	0x3de4e56f	0.111765735
200	0x3d8451f2	0.06460942
201	0xbdba15c3	-0.09086182
202	0xbddc477d	-0.10755823
203	0x3db9435b	0.0904605
204	0xbd97bd2d	-0.07409129
205	0x3cae8433	0.021303272
206	0xbcb7026f	-0.022340028
207	0x3bc9cb17	0.0061582434
208	0xbda3f45c	-0.08005592
209	0x3d719f67	0.05898991
210	0x3d0f8a4f	0.03504401
211	0x3cf2b004	0.029624946
212	0xbd5023bc	-0.05081533
213	0x3b89f69e	0.0042103073
214	0xbdd7d56b	-0.10538753
215	0x3d890ede	0.06692289
216	0x3de009ef	0.10939395
217	0xbc358143	-0.011078182
218	0xbbae3e29	-0.0053174687
219	0xbbe61a1b	-0.007022155
220	0xbb196e0f	-0.0023411547
221	0xbd962fe2	-0.07333352
222	0x3d54eaa8	0.0519816
223	0xbced87a0	-0.028995335
224	0xbe187f91	-0.14892413
225	0x3d8eb03f	0.0696721
226	0xbd9b75b2	-0.07590808
227	0x3e1d3f5c	0.15356201
228	0xbd9ebdf3	-0.07751074
229	0x3abb3122	0.001428161
230	0xbd4f24c1	-0.05057216
231	0x3c825f87	0.015914692
232	0xbcecb09e	-0.028892811
233	0x3cdea444	0.027177937
234	0xbd895323	-0.0670531
235	0x3cd6b71d	0.026210362
236	0xbdc40492	-0.09571184
237	0x3d22c17e	0.03973531
238	0xbe07718f	-0.13226913
239	0xbd0e309d	-0.03471433
240	0xbd0d162b	-0.03444497
241	0x3c3e8ae1	0.011629791
242	0xbd1fe9e1	-0.039041404
243	0x3df12ec0	0.11776495
244	0xbdccdd4d	-0.10003147
245	0x3c8b2a9d	0.016988093
246	0xbd34c9b0	-0.044137657
247	0x3cfee3f0	0.031114548
248	0xbd180f78	-0.037124127
249	0x3d8d8448	0.06909996
250	0xbd54b07c	-0.05192612
251	0x3dbcd134	0.0921959
252	0x3d6bb4b3	0.057545375
253	0xbb6811fe	-0.0035411115
254	0x3dda7d0f	0.10668384
255	0x3dbb2fdd	0.091399886

sage.2.lin_root.bias f4 [64]
0	0x3ca755aa	0.02042659
1	0xbde34ed1	-0.110990174
2	0x3d45fe3a	0.048338152
3	0xbbeb1cef	-0.00717508
4	0xbe056a24	-0.1302877
5	0x3d240e82	0.0400529
6	0xbddb0556	-0.10694377
7	0x3d2163d1	0.039401833
8	0xbdce7a9b	-0.10081979
9	0x3daf9fab	0.08575376
10	0x3dabd470	0.083901286
11	0x3dbbcfc1	0.09170485
12	0xbd9d9308	-0.076940596
13	0xbd0d999e	-0.03457033
14	0x3db25466	0.08707504
15	0x3c0cdcaa	0.008597532
16	0xbd21b241	-0.039476637
17	0x3dc18e9b	0.09451028
18	0x3e186999	0.14884032
19	0x3c17045c	0.009217348
20	0xbdbc035f	-0.091803305
21	0x3d4cb01e	0.049972646
22	0x3d1621c4	0.036653295
23	0xbddfc5c3	-0.10926392
24	0x3d361f75	0.044463594
25	0xbc31b0a1	-0.010845334
26	0x3d85e41c	0.06537649
27	0xbd8a938f	-0.06766426
28	0x3e836615	0.2566382
29	0x3d001cbf	0.031277414
30	0xbdb2efaa	-0.087371185
31	0x3db962ee	0.090520725
32	0xbcca06f4	-0.024661519
33	0xbcf5fbe6	-0.030027341
34	0x3ddcf6a1	0.10789228
35	0x3da4dc13	0.08049788
36	0x3ca22cae	0.019796696
37	0x3d827b9e	0.06371234
38	0xbd9e0a4e	-0.07716809
39	0xbd81eee3	-0.06344392
40	0xbdf15a7c	-0.11784837
41	0x3ce58c39	0.028020965
42	0x3dd1d1d1	0.102450974
43	0x3ce99494	0.02851323
44	0xbab0f6c5	-0.0013501277
45	0x3cb2e34e	0.021836903
46	0xbd868350	-0.065680146
47	0x3ceda32c	0.02900847
48	0xbc931252	-0.017953072
49	0x3dbd17d2	0.09233059
50	0xbe10ed7b	-0.14153092
51	0xbdf8d8db	-0.12150737
52	0x3e479183	0.19489102
53	0x3d6be671	0.057592813
54	0xbccfd648	-0.025370732
55	0x3d6a3be6	0.05718603
56	0xbdb29fd4	-0.08721891
57	0xbdc151eb	-0.09439453
58	0x3e2c85f7	0.16847979
59	0x3db5ef4b	0.08883532
60	0x3dc69058	0.096955
61	0x39c2a65b	0.00037126508
62	0xbbae426d	-0.005317977
63	0x3c82b790	0.01595667

batch_norm.0.weight f4 [400]
0	0x3fe29b6a	1.7703679
1	0x3fc305ef	1.5236186
2	0x3fb695a8	1.4264421
3	0x3fb03445	1.3765951
4	0x3facf2d5	1.3511606
5	0x3faafbe5	1.3358122
6	0x3faa4713	1.330294
7	0x3fa94e4d	1.322702
8	0x3fa98d7a	1.32463
9	0x3faa88de	1.3323019
10	0x3faad4fe	1.334625
11	0x3fab3b2a	1.337743
12	0x3fabb757	1.3415326
13	0x3fac7b8b	1.3475202
14	0x3facadea	1.3490574
15	0x3fad32b1	1.3531095
16	0x3fae0e52	1.359812
17	0x3faf287a	1.3684227
18	0x3faf5e0a	1.3700573
19	0x3faf38f8	1.368926
20	0x3fb034d8	1.3766127
21	0x3fb0edea	1.3822606
22	0x3fb1570a	1.3854687
23	0x3fb18b54	1.3870645
24	0x3fb265c0	1.3937302
25	0x3fb2a7fc	1.3957515
26	0x3fb38474	1.4024796
27	0x3fb3e753	1.405497
28	0x3fb490d4	1.4106698
29	0x3fb59305	1.4185492
30	0x3fb523e8	1.4151583
31	0x3fb55f93	1.4169792
32	0x3fb560cd	1.4170166
33	0x3fb66c0c	1.4251723
34	0x3fb65da3	1.4247326
35	0x3fb61718	1.4225798
36	0x3fb658a8	1.4245806
37	0x3fb67531	1.4254514
38	0x3fb68f23	1.4262432
39	0x3fb72244	1.4307332
40	0x3fb80e46	1.4379356
41	0x3fb74d09	1.4320384
42	0x3fb7f94d	1.4372956
43	0x3fb78f89	1.4340678
44	0x3fb87017	1.4409207
45	0x3fb7ae06	1.4349983
46	0x3fb81d3d	1.4383923
47	0x3fb8ea9f	1.4446601
48	0x3fb8b616	1.4430568
49	0x3fb8c331	1.4434568
50	0x3fb8d775	1.4440752
51	0x3fb8c871	1.443617
52	0x3fb8d09b	1.4438661
53	0x3fb92196	1.4463375
54	0x3fb8ffde	1.4453084
55	0x3fba0497	1.4532651
56	0x3fb998a3	1.4499706
57	0x3fb8e69c	1.4445376
58	0x3fb9575d	1.4479786
59	0x3fb9253f	1.4464492
60	0x3fb935b5	1.4469515
61	0x3fb9d8da	1.4519303
62	0x3fb9a3ce	1.4503114
63	0x3fb9932c	1.4498038
64	0x3fb9e3c6	1.4522636
65	0x3fba7745	1.4567648
66	0x3fb94a61	1.4475824
67	0x3fb99f59	1.4501754
68	0x3fb9c6d9	1.4513808
69	0x3fb96973	1.4485306
70	0x3fba4b50	1.4554234
71	0x3fba04fc	1.4532771
72	0x3fba59df	1.4558676
73	0x3fba3368	1.4546938
74	0x3fb983e1	1.4493371
75	0x3fb9b27e	1.4507596
76	0x3fb9749f	1.4488715
77	0x3fb94538	1.4474249
78	0x3fb92101	1.4463197
79	0x3fb91594	1.445971
80	0x3fb93f4e	1.4472444
81	0x3fb933df	1.4468955
82	0x3fb8d328	1.443944
83	0x3fb84726	1.4396713
84	0x3fb86f04	1.4408879
85	0x3fb7bacc	1.4353881
86	0x3fb83411	1.439089
87	0x3fb781d9	1.4336501
88	0x3fb73fa2	1.4316294
89	0x3fb6b739	1.4274665
90	0x3fb698b8	1.4265356
91	0x3fb6acf8	1.4271536
92	0x3fb69186	1.426316
93	0x3fb62339	1.4229499
94	0x3fb5bce8	1.4198275
95	0x3fb66d92	1.4252188
96	0x3fb4e6da	1.413295
97	0x3fb540a9	1.4160358
98	0x3fb44e08	1.4086313
99	0x3fb4468d	1.408403
100	0x3fb39cf3	1.4032272
101	0x3fb3e6da	1.4054825
102	0x3fb3750f	1.4020098
103	0x3fb387c1	1.4025804
104	0x3fb3c085	1.4043127
105	0x3fb2bccc	1.3963866
106	0x3fb21b0e	1.3914506
107	0x3fb289b1	1.394827
108	0x3fb21317	1.3912076
109	0x3fb19c10	1.3875751
110	0x3fb11249	1.3833705
111	0x3fb082a8	1.3789873
112	0x3fb0a447	1.3800133
113	0x3fb04bf3	1.3773178
114	0x3fb0121c	1.3755527
115	0x3fafa846	1.3723228
116	0x3faf3f37	1.3691167
117	0x3fae1db3	1.3602813
118	0x3fae1297	1.3599423
119	0x3fadf9cd	1.3591858
120	0x3face2f7	1.3506764
121	0x3fad0e9b	1.3520082
122	0x3fabf525	1.3434187
123	0x3fab4a39	1.3382026
124	0x3fab56f7	1.3385915
125	0x3faae969	1.3352481
126	0x3faaaa7a	1.3333275
127	0x3fa9dec4	1.3271108
128	0x3fa93c05	1.3221442
129	0x3fa945bb	1.3224405
130	0x3fa92e67	1.3217286
131	0x3fa8915c	1.316936
132	0x3fa81195	1.3130366
133	0x3fa7a82c	1.3098197
134	0x3fa6eb98	1.3040648
135	0x3fa65be2	1.299679
136	0x3fa60fda	1.2973588
137	0x3fa592c0	1.293541
138	0x3fa4bbec	1.2869849
139	0x3fa3d215	1.2798487
140	0x3fa342b6	1.2754734
141	0x3fa31288	1.274003
142	0x3fa1d5e8	1.2643404
143	0x3fa1d231	1.264227
144	0x3fa0a2e9	1.2549716
145	0x3fa00c31	1.250372
146	0x3f9feea2	1.24947
147	0x3f9e9c54	1.2391458
148	0x3f9e3d97	1.2362546
149	0x3f9d292a	1.2278187
150	0x3f9caa81	1.2239534
151	0x3f9bc8c8	1.2170649
152	0x3f9ae4d5	1.2101084
153	0x3f9ab494	1.2086358
154	0x3f99ed60	1.2025566
155	0x3f990a91	1.195635
156	0x3f98890c	1.1916823
157	0x3f974edd	1.1820942
158	0x3f968890	1.1760426
159	0x3f959aa4	1.1687818
160	0x3f95249e	1.16518
161	0x3f93b6d5	1.1540171
162	0x3f938362	1.152447
163	0x3f923ee1	1.1425439
164	0x3f914cd8	1.1351576
165	0x3f9055d2	1.127619
166	0x3f8fa8ba	1.1223366
167	0x3f8f1141	1.117714
168	0x3f8de4eb	1.1085485
169	0x3f8cbcb8	1.0995092
170	0x3f8c645e	1.096813
171	0x3f8bb710	1.0915241
172	0x3f8adcdf	1.0848655
173	0x3f89908d	1.0747238
174	0x3f883205	1.0640265
175	0x3f874a7d	1.0569607
176	0x3f868a91	1.0511037
177	0x3f84b963	1.0369076
178	0x3f8467bd	1.0344158
179	0x3f834c28	1.0257616
180	0x3f82c886	1.0217445
181	0x3f81cb9a	1.0140259
182	0x3f80bc6e	1.0057504
183	0x3f7ee76d	0.9957188
184	0x3f7c4e90	0.98557377
185	0x3f79c49c	0.9756563
186	0x3f793ab8	0.9735522
187	0x3f767152	0.96266663
188	0x3f73b895	0.95203525
189	0x3f70ee8d	0.94114
190	0x3f708073	0.93946
191	0x3f6d7074	0.92749715
192	0x3f6a94c9	0.9163328
193	0x3f698d50	0.9123125
194	0x3f663d68	0.8993745
195	0x3f6408e5	0.8907607
196	0x3f62bf46	0.8857311
197	0x3f6086b9	0.8770557
198	0x3f5dc524	0.8662894
199	0x3f5c13fa	0.8596798
200	0x3f598fd9	0.8498512
201	0x3f55fa48	0.83585024
202	0x3f5598ab	0.8343608
203	0x3f52a6b8	0.8228564
204	0x3f4fd8e7	0.8119034
205	0x3f4e8289	0.8066793
206	0x3f4bd278	0.79618025
207	0x3f496c18	0.7868056
208	0x3f4858f7	0.7826075
209	0x3f461c4f	0.77386945
210	0x3f4387a5	0.7637885
211	0x3f41d330	0.7571287
212	0x3f3ff660	0.74985313
213	0x3f3d4de7	0.73946995
214	0x3f3bb718	0.73326254
215	0x3f388f7d	0.72093946
216	0x3f36d5e1	0.71420103
217	0x3f3502dc	0.7070749
218	0x3f3444f3	0.7041771
219	0x3f30ff62	0.69139683
220	0x3f2ee656	0.68320215
221	0x3f2d6d88	0.67745256
222	0x3f2aa8f4	0.6666405
223	0x3f27ae54	0.6550038
224	0x3f258fc9	0.64672524
225	0x3f24421d	0.6416338
226	0x3f23326d	0.6374882
227	0x3f218593	0.63094443
228	0x3f1f539b	0.62236947
229	0x3f1e597c	0.6185529
230	0x3f1b7ef5	0.60740596
231	0x3f193557	0.59847015
232	0x3f16dbed	0.5892933
233	0x3f13c380	0.57720184
234	0x3f12f4a8	0.57404566
235	0x3f115e8a	0.5678488
236	0x3f0f1dd1	0.5590487
237	0x3f0e0b60	0.55486107
238	0x3f0caf79	0.5495525
239	0x3f0a7163	0.54079264
240	0x3f08ded6	0.5346502
241	0x3f06a85f	0.52600664
242	0x3f041884	0.5159991
243	0x3f01b51f	0.50666994
244	0x3f02090d	0.5079506
245	0x3efe270e	0.4963917
246	0x3efaa5f7	0.48954746
247	0x3ef97d94	0.4872862
248	0x3ef3310e	0.47498363
249	0x3ef31c59	0.47482565
250	0x3ee41f21	0.44555
251	0x3eeb4b3c	0.45955837
252	0x3ee93113	0.45545253
253	0x3edf2e39	0.43589953
254	0x3ee1d93b	0.44111046
255	0x3eda4d93	0.4263731

batch_norm.0.bias f4 [400]
0	0xbe8c3d5e	-0.2739057
1	0xbe648fd0	-0.22320485
2	0xbe1c8350	-0.15284467
3	0xbdc907e1	-0.09815956
4	0xbd48f094	-0.04905756
5	0xbc1278d9	-0.008939945
6	0x3ca560dc	0.020187788
7	0x3d4011cc	0.046891972
8	0x3d889b8b	0.066702925
9	0x3db4af85	0.0882254
10	0x3dd44497	0.10364645
11	0x3df023da	0.11725588
12	0x3e06dae0	0.13169432
13	0x3e12050e	0.1425974
14	0x3e2076ab	0.15670268
15	0x3e2832d4	0.1642564
16	0x3e2df740	0.1698885
17	0x3e3435fc	0.17598718
18	0x3e41f8de	0.18942592
19	0x3e49d84b	0.19711415
20	0x3e5006db	0.20315115
21	0x3e53d08b	0.20685022
22	0x3e5b3493	0.21406774
23	0x3e5cbaf6	0.21555695
24	0x3e63ebb5	0.22257884
25	0x3e6a8f62	0.22906259
26	0x3e6f4804	0.23367316
27	0x3e6fcf47	0.23418914
28	0x3e758edf	0.23980282
29	0x3e78b66c	0.24288338
30	0x3e80ceba	0.2515772
31	0x3e7cc575	0.24684699
32	0x3e7f065c	0.2490477
33	0x3e80ece1	0.25180724
34	0x3e7fd0e7	0.24982034
35	0x3e81654f	0.25272605
36	0x3e842021	0.25805762
37	0x3e820d04	0.25400555
38	0x3e81d6a9	0.25359085
39	0x3e844925	0.25837055
40	0x3e828ec0	0.25499535
41	0x3e819200	0.25306702
42	0x3e80cc90	0.2515607
43	0x3e7cbc23	0.24681143
44	0x3e7a1f6d	0.2442605
45	0x3e79d268	0.2439667
46	0x3e783d29	0.24242081
47	0x3e716e5d	0.23577257
48	0x3e6a0adf	0.2285571
49	0x3e6e164e	0.23250696
50	0x3e6637c9	0.22482218
51	0x3e63e1c5	0.22254093
52	0x3e5f5878	0.21811092
53	0x3e5babf0	0.21452308
54	0x3e537333	0.20649414
55	0x3e5079cf	0.20358966
56	0x3e41e247	0.18933974
57	0x3e4094a3	0.188067
58	0x3e38faaa	0.18064371
59	0x3e2fd48b	0.17170922
60	0x3e28c334	0.16480714
61	0x3e1d2592	0.15346363
62	0x3e1b78d3	0.1518281
63	0x3e113798	0.14181364
64	0x3e0698d9	0.13144244
65	0x3e00bdad	0.12572356
66	0x3de7d0dd	0.113191344
67	0x3dd7019a	0.10498352
68	0x3dcec3bc	0.10095927
69	0x3dae4d80	0.08510876
70	0x3d9e2bd6	0.07723205
71	0x3d88d21f	0.066807024
72	0x3d652bc6	0.05594995
73	0x3d35b177	0.044358697
74	0x3d11f61d	0.035635103
75	0x3cc74c55	0.02432839
76	0x3c58f3f5	0.013241758
77	0x3be3d947	0.0069533917
78	0xbb8fc09e	-0.0043869754
79	0xbc260e48	-0.010135241
80	0xbcb43b57	-0.022000952
81	0xbd15143e	-0.036396258
82	0xbd306b51	-0.043071095
83	0xbd6d470d	-0.057929087
84	0xbd86c30d	-0.06580172
85	0xbd9e7848	-0.077377856
86	0xbdb3f602	-0.08787157
87	0xbdc31058	-0.09524602
88	0xbddc05d8	-0.10743302
89	0xbdee5b26	-0.11638479
90	0xbe006801	-0.12539674
91	0xbe0def14	-0.13860732
92	0xbe16d52f	-0.1472976
93	0xbe212f69	-0.15740742
94	0xbe290bc3	-0.16508393
95	0xbe320049	-0.17382921
96	0xbe3b94e4	-0.18318516
97	0xbe4232bb	-0.18964665
98	0xbe4dfb2a	-0.20115343
99	0xbe56bfd3	-0.20971613
100	0xbe5e159c	-0.21687931
101	0xbe693f0c	-0.22777957
102	0xbe6f69de	-0.23380229
103	0xbe77263d	-0.2413568
104	0xbe810f23	-0.2520686
105	0xbe86bea3	-0.2631732
106	0xbe8b1b19	-0.2716911
107	0xbe8d9bcb	-0.27657923
108	0xbe92ebdb	-0.28695568
109	0xbe968677	-0.29399464
110	0xbe9bef01	-0.30455783
111	0xbe9f38ec	-0.31098115
112	0xbea4c67c	-0.32182682
113	0xbea8d61c	-0.32975852
114	0xbead40a3	-0.33838376
115	0xbeb113ab	-0.34585318
116	0xbeb64e65	-0.35606685
117	0xbeba08fe	-0.36334985
118	0xbebd61b1	-0.36988595
119	0xbec180af	-0.3779349
120	0xbec840f8	-0.39112067
121	0xbecb35ab	-0.39689383
122	0xbecc80f7	-0.39942142
123	0xbed300da	-0.41211587
124	0xbed72936	-0.4202363
125	0xbeda9236	-0.42689675
126	0xbee1025c	-0.43947113
127	0xbee55b88	-0.44796395
128	0xbee8766f	-0.45402858
129	0xbeee0908	-0.46491265
130	0xbef1ab2b	-0.47200903
131	0xbef4a121	-0.47779182
132	0xbef7b508	-0.48380303
133	0xbeff884b	-0.4990867
134	0xbf010016	-0.50390756
135	0xbf0414a2	-0.51593983
136	0xbf0616d6	-0.52378595
137	0xbf07bd13	-0.5302288
138	0xbf096ce5	-0.53681785
139	0xbf0cd3ea	-0.55010855
140	0xbf0e8fa2	-0.55687916
141	0xbf0fad54	-0.5612385
142	0xbf12e8cc	-0.5738647
143	0xbf15d40f	-0.585267
144	0xbf17ac76	-0.5924753
145	0xbf19483a	-0.59875834
146	0xbf1d6a6d	-0.6149052
147	0xbf1e3f70	-0.6181555
148	0xbf21b94c	-0.63173366
149	0xbf233f7e	-0.63768756
150	0xbf25677b	-0.64611024
151	0xbf280a06	-0.65640295
152	0xbf2af00d	-0.6677254
153	0xbf2ceacb	-0.67545766
154	0xbf2dfa77	-0.67960304
155	0xbf313547	-0.6922192
156	0xbf3403be	-0.7031821
157	0xbf35ec10	-0.7106333
158	0xbf38eff2	-0.7224113
159	0xbf399afb	-0.72502106
160	0xbf3c0692	-0.73447526
161	0xbf3f1be2	-0.7465192
162	0xbf40b67c	-0.7527845
163	0xbf43fccc	-0.7655761
164	0xbf44c30b	-0.7686011
165	0xbf47eedd	-0.7809885
166	0xbf4b5c41	-0.79437643
167	0xbf4cd678	-0.80014753
168	0xbf4e1d7e	-0.8051375
169	0xbf50492c	-0.8136165
170	0xbf51c14f	-0.8193559
171	0xbf552022	-0.83252156
172	0xbf569077	-0.83814186
173	0xbf58bc7a	-0.8466259
174	0xbf5b2876	-0.85608613
175	0xbf5dfd3f	-0.8671455
176	0xbf5fca2a	-0.8741785
177	0xbf616d5d	-0.880575
178	0xbf63cd36	-0.88985
179	0xbf65ae27	-0.8971886
180	0xbf66ffbc	-0.9023397
181	0xbf68e55b	-0.9097497
182	0xbf6b09b1	-0.9181166
183	0xbf6d5f4b	-0.9272353
184	0xbf709a14	-0.93985105
185	0xbf717108	-0.94313097
186	0xbf728fd8	-0.9475074
187	0xbf742528	-0.95369196
188	0xbf760414	-0.9609997
189	0xbf77951c	-0.967119
190	0xbf79aab5	-0.97526103
191	0xbf7c6e8c	-0.9860618
192	0xbf7b35e5	-0.9812911
193	0xbf7e6438	-0.9937167
194	0xbf803ffe	-1.0019529
195	0xbf812fde	-1.0092733
196	0xbf81db69	-1.0145084
197	0xbf8265a0	-1.0187263
198	0xbf838edf	-1.0277976
199	0xbf848f37	-1.0356206
200	0xbf84a768	-1.0363588
201	0xbf85e50f	-1.0460528
202	0xbf863465	-1.048474
203	0xbf86c1c3	-1.0527881
204	0xbf878c12	-1.0589621
205	0xbf8917c7	-1.0710381
206	0xbf884d78	-1.0648642
207	0xbf8a6d1e	-1.081455
208	0xbf8a1dcd	-1.0790344
209	0xbf8afde2	-1.0858729
210	0xbf8b84ad	-1.0899864
211	0xbf8c10c3	-1.0942615
212	0xbf8c0aae	-1.0940759
213	0xbf8cea53	-1.100901
214	0xbf8d048d	-1.1017014
215	0xbf8edac0	-1.1160507
216	0xbf8f2225	-1.1182295
217	0xbf8e43b4	-1.1114411
218	0xbf904bbe	-1.1273115
219	0xbf904efd	-1.1274105
220	0xbf8fe4fb	-1.1241754
221	0xbf91f919	-1.1404144
222	0xbf913721	-1.1344949
223	0xbf9147eb	-1.1350073
224	0xbf926b40	-1.143898
225	0xbf91e580	-1.1398163
226	0xbf928e66	-1.1449707
227	0xbf937338	-1.1519537
228	0xbf93763f	-1.1520461
229	0xbf93b869	-1.1540653
230	0xbf934906	-1.150666
231	0xbf948b17	-1.1604947
232	0xbf94d664	-1.1627927
233	0xbf9479ad	-1.1599633
234	0xbf943d32	-1.1581175
235	0xbf94df8d	-1.1630722
236	0xbf95f837	-1.1716374
237	0xbf94589c	-1.1589541
238	0xbf954866	-1.1662719
239	0xbf9673f6	-1.1754138
240	0xbf967310	-1.1753864
241	0xbf95b7a8	-1.1696672
242	0xbf953f34	-1.1659913
243	0xbf9328b4	-1.1496797
244	0xbf95ab88	-1.1692972
245	0xbf95f45a	-1.1715195
246	0xbf96a53a	-1.1769173
247	0xbf95dc9f	-1.1707953
248	0xbf959b48	-1.1688013
249	0xbf966925	-1.1750838
250	0xbf9244e1	-1.142727
251	0xbf9575e7	-1.1676606
252	0xbf96e632	-1.1789
253	0xbf924430	-1.1427059
254	0xbf976f1e	-1.1830785
255	0xbf91f5cd	-1.1403137
