Saves/ecal_ep_60_angle.pth (torch, 164192 bytes, 46 tensors)

sage.0.lin_rel.weight f4 [16, 3]
0	0xbe70f908	-0.23532498
1	0x3b138846	0.0022511645
2	0xbcc17d9c	-0.023619466
3	0x3e1ef3de	0.15522715
4	0xbd0e01cf	-0.034669694
5	0x3d1f254d	0.038853932
6	0xbe277961	-0.16354896
7	0xbef0e201	-0.47047427
8	0xbeee4983	-0.4654046
9	0xbd80de54	-0.06292406
10	0xbe0148e7	-0.12625466
11	0xbd8f5c8e	-0.07000075
12	0xbe1766ea	-0.14785352
13	0x3c9b5f19	0.018966245
14	0x3ed4da8b	0.41572985
15	0xbd7e7062	-0.062118895
16	0x3ca48f5b	0.020087888
17	0x3f5605cb	0.8360259
18	0xbe855523	-0.26041517
19	0x3d9018ac	0.07035956
20	0x3daa62cf	0.083196275
21	0xbd1f407c	-0.038879856
22	0xbbc98a52	-0.0061505223
23	0x3eec42f5	0.46144834
24	0xbde4ba50	-0.11168349
25	0xbcaddb4a	-0.02122273
26	0xbd7759a7	-0.060388234
27	0x3d80472b	0.06263574
28	0x3eadec9e	0.33969587
29	0xbc9ab5a6	-0.018885445
30	0xbd1d0112	-0.0383311
31	0xbcef71b9	-0.029229032
32	0x3e95e96d	0.29279652
33	0xbad4ca3e	-0.0016234589
34	0xbce1fcbf	-0.027586339
35	0x3df7a000	0.120910645
36	0x3e585010	0.21124291
37	0xbed761bd	-0.42066756
38	0x3de2b25e	0.11069177
39	0x3e27430f	0.16334175
40	0x3d054425	0.03253569
41	0xbbd58c7b	-0.0065169907
42	0xbeb2013a	-0.3476656
43	0x3de3bc17	0.1111986
44	0x3daba1d1	0.083804734
45	0xbe8561eb	-0.26051268
46	0xbe7af684	-0.24508101
47	0x3da5c66d	0.08094487

sage.0.lin_root.weight f4 [16, 3]
0	0x3f528f1f	0.82249635
1	0x3c9ca044	0.01911939
2	0x3dece714	0.11567512
3	0xbf002469	-0.5005556
4	0x3d23564c	0.03987722
5	0xbd5d661c	-0.054052457
6	0x3f063f64	0.52440476
7	0xbea806be	-0.32817644
8	0x3e8a5a41	0.27021983
9	0x3de1453d	0.10999534
10	0x3f5e3c30	0.8681059
11	0x3c58ef13	0.0132405935
12	0x3eeedacd	0.46651307
13	0xbd6c00e5	-0.05761804
14	0x3f3c124f	0.73465437
15	0x3d9bc280	0.07605457
16	0xbd4b3d59	-0.049619053
17	0x3f697323	0.9119131
18	0x3f2f1119	0.68385464
19	0xbdd44d79	-0.10366339
20	0x3dc18301	0.09448815
21	0xbe859720	-0.26091862
22	0x3f33c9ea	0.7022997
23	0x3f4ff6fd	0.8123625
24	0x3e2c2242	0.16809943
25	0x3e7afcc4	0.24510485
26	0x3e3c4006	0.18383798
27	0xbe621d3a	-0.22081462
28	0xbf2056ff	-0.62632746
29	0x3c71c6d9	0.014756882
30	0xbd97e3f7	-0.07416528
31	0x3f48cb04	0.7843478
32	0x3ee72979	0.4514883
33	0x3c09a34d	0.00840075
34	0x3f8141bb	1.0098184
35	0x3e4c7bce	0.19969103
36	0xbe640979	-0.22269239
37	0x3f51bfb4	0.8193314
38	0xbd560ca4	-0.05225815
39	0xbf0ea1a0	-0.5571537
40	0xbd687daf	-0.056760486
41	0xbdb21108	-0.08694655
42	0x3f82b816	1.0212429
43	0xbda4addf	-0.08040976
44	0xbf01cf89	-0.507073
45	0x3ed7503f	0.4205341
46	0x3f29a866	0.6627258
47	0xbd6ddd29	-0.058072243

sage.0.lin_root.bias f4 [16]
0	0xbd9c4c1f	-0.076317064
1	0x3eae0790	0.33990145
2	0xbf0626d6	-0.5240301
3	0xbe05b55d	-0.13057466
4	0x3d2530f0	0.040329874
5	0x3e1dbed2	0.15404823
6	0x3c2b6813	0.010461825
7	0x3eec123c	0.46107662
8	0xbee040b2	-0.4379936
9	0x3ece72e7	0.4032204
10	0x3e92a595	0.28641954
11	0x3e48ddde	0.19615886
12	0x3a3c7bbc	0.0007190069
13	0x3ec50099	0.38477018
14	0xbdf0e25e	-0.11761926
15	0xbdad5d56	-0.08465068

sage.1.lin_rel.weight f4 [64, 16]
0	0x3dece8f1	0.115678675
1	0xbecc72c2	-0.39931303
2	0xbc52700a	-0.012844095
3	0xbcd97687	-0.026545776
4	0x3df4cdaf	0.119532935
5	0xbb046541	-0.0020201954
6	0x3e14db0b	0.14536683
7	0x3c3ed9d1	0.011648611
8	0x3bf1c55c	0.0073782634
9	0xbf04fe98	-0.5195098
10	0xbb5b4801	-0.0033459666
11	0xba75bebf	-0.00093744317
12	0x3d023ee7	0.03179827
13	0xbe642532	-0.22279814
14	0xbe5adfad	-0.21374388
15	0xbd5270b2	-0.051377006
16	0x3c87fc73	0.01659987
17	0xbdc4bcbd	-0.096063115
18	0xbc8d32bc	-0.017236106
19	0xbc168b4f	-0.009188487
20	0xbd8fa8ff	-0.07014655
21	0xbc1f62d1	-0.0097281495
22	0x3c7f3edf	0.0155789545
23	0x3c925bac	0.017865978
24	0x3d2e3121	0.04252732
25	0x3d8ff96d	0.07029996
26	0xbbaa3599	-0.0051943776
27	0x3baed137	0.005334999
28	0xbc9c5303	-0.019082552
29	0xbe1209ec	-0.14261597
30	0xbd178c41	-0.03699899
31	0x3d810f06	0.063016936
32	0x3c87e788	0.016589895
33	0x3d82cf80	0.06387234
34	0xbccdb739	-0.025111781
35	0x3d30d95a	0.043176033
36	0xbd357f23	-0.0443107
37	0xbc568473	-0.013093102
38	0x3c75313d	0.014965353
39	0xbb8f71d6	-0.004377584
40	0xba8705b2	-0.001030138
41	0x3de0169d	0.10941813
42	0x3bcb769d	0.006209208
43	0xbc1f1c50	-0.00971134
44	0x3d853dd1	0.06505931
45	0x3dabb030	0.083832145
46	0x3e1bc6d9	0.15212573
47	0x3ce339f9	0.027737604
48	0xbd2e479e	-0.04254877
49	0xbd47372f	-0.04863661
50	0x3d3ba809	0.045814548
51	0xbde6b566	-0.11265068
52	0x3d4f9e2b	0.05068795
53	0xbd697ea4	-0.05700554
54	0x3e44e0ba	0.19226351
55	0x3c304da5	0.010760699
56	0xbd00d309	-0.03145126
57	0xbe1257df	-0.14291333
58	0x3cd70ac0	0.026250243
59	0x3c455fe3	0.012046787
60	0x3c134275	0.008988013
61	0xbd162989	-0.036660705
62	0xbe2ac79d	-0.16677709
63	0x3d8d45d7	0.068980865
64	0xbcbb8b93	-0.022893703
65	0xbd84bab2	-0.06480922
66	0x3c130e1a	0.00897553
67	0x3bf1ef23	0.0073832436
68	0xbaac12c8	-0.0013128156
69	0xbd2be103	-0.041962635
70	0x3d025710	0.03182131
71	0x3b79d1cd	0.0038119436
72	0x3b68bc02	0.0035512452
73	0x3d424434	0.047428325
74	0x3c10ff43	0.008849922
75	0x3b2caacb	0.0026346918
76	0xbcb85219	-0.022500085
77	0xbe338ec8	-0.17534935
78	0xbd898464	-0.06714705
79	0x3ced46a8	0.028964356
80	0x3e12c5aa	0.14333215
81	0x3deecf68	0.11660653
82	0x3e490db2	0.1963413
83	0xbdfad244	-0.12247136
84	0xbe13b410	-0.14424157
85	0xbd49f70e	-0.049307875
86	0xbe2939e6	-0.16525993
87	0x3d46fd05	0.048581142
88	0x3e1a5399	0.15070952
89	0xbedcc91c	-0.43122184
90	0x3d22254c	0.03958635
91	0xbeb0b905	-0.3451616
92	0x3e2a7bb4	0.16648751
93	0xbcba32b4	-0.022729255
94	0x3ed22dcc	0.41050565
95	0x3e7cd0fe	0.24689099
96	0x3de16815	0.1100618
97	0xbe73c7fe	-0.2380676
98	0xbdabeee3	-0.083951734
99	0xbdbd24c7	-0.0923553
100	0x3e0c220c	0.13684863
101	0xbdd36e0c	-0.10323724
102	0x3e047235	0.12934192
103	0xbcaf072a	-0.02136572
104	0x3c98ac21	0.018636765
105	0xbe3f5e98	-0.18688428
106	0x3b32a32e	0.0027257907
107	0xbc82d5ab	-0.015971025
108	0xbdd748cf	-0.10511934
109	0xbe395e4d	-0.18102379
110	0x3d37ccfe	0.04487323
111	0x3e27099d	0.16312261
112	0xbdee2dcd	-0.116298296
113	0xbe2f64b9	-0.17128266
114	0x3e71a241	0.23597051
115	0xbe0e9c72	-0.13926867
116	0x3e9391b5	0.28822103
117	0xbdc3540c	-0.09537515
118	0xbde68851	-0.11256469
119	0xbd9df945	-0.0771356
120	0x3e9ac870	0.30231047
121	0xbdbfb27c	-0.09360215
122	0xbe2446b4	-0.16042596
123	0xbed0e221	-0.40797523
124	0x3e147303	0.14496998
125	0x3e0818d6	0.13290724
126	0x3e44d375	0.1922129
127	0xbdd25f1c	-0.10272047
128	0x3d6328f1	0.055458967
129	0x3c0e3910	0.008680597
130	0x3bbef093	0.0058270185
131	0xbb93ef9d	-0.004514648
132	0xbc970c40	-0.018438458
133	0xbcf35ff1	-0.029708834
134	0x3d0d3437	0.034473624
135	0x3c0e6c97	0.008692882
136	0xbd4a2149	-0.04934815
137	0xbbd2efa0	-0.006437257
138	0x3c0d0257	0.008606515
139	0x3c5d66c3	0.01351327
140	0x3c3f51a2	0.011677178
141	0xbdb77ca7	-0.089593224
142	0x3d94f517	0.0727331
143	0x3cd4ba88	0.025967851
144	0x3c6a71b5	0.014309336
145	0xbd817cca	-0.0632263
146	0x3d21bc2f	0.039486106
147	0x3c752574	0.014962543
148	0xbd2be573	-0.041966867
149	0xbd41ff25	-0.047362465
150	0xbd4a505d	-0.049393047
151	0xbce322c8	-0.027726546
152	0x3b75b222	0.0037490209
153	0x3e43b2da	0.19111195
154	0x3c8d9fa7	0.017288042
155	0x3c441c33	0.011969614
156	0x3c95700e	0.018241908
157	0xbd6be717	-0.05759343
158	0x3d5e21d8	0.054231495
159	0x3bd6fc48	0.006560836
160	0xbe71eff2	-0.23626688
161	0xbc918721	-0.01776463
162	0x3d6fad38	0.058514804
163	0x3d3d5bb1	0.046230022
164	0xbe923979	-0.28559473
165	0xbd2935a3	-0.041310918
166	0xbed5278e	-0.4163174
167	0xba44da04	-0.00075092935
168	0x3cac969e	0.021067914
169	0xbe93d895	-0.28876176
170	0x3d732916	0.059365354
171	0xbd25a508	-0.04044059
172	0xbe533a07	-0.20627604
173	0x3dd42f45	0.103605784
174	0x3d5a1fed	0.053253103
175	0xbdeb17e4	-0.11479166
176	0x3e408145	0.18799312
177	0xbec50b06	-0.38484973
178	0x3eb10aa3	0.34578428
179	0x3e0a1f71	0.13488556
180	0x3ed89460	0.423007
181	0xbe01c6b1	-0.12673451
182	0x3e5fa51f	0.21840332
183	0xbee53579	-0.4476736
184	0x3e50292d	0.20328207
185	0xbd29be73	-0.041441392
186	0xbeba9690	-0.36442995
187	0xbf1c424c	-0.6103866
188	0x3d9842ad	0.074345924
189	0xbec2a786	-0.38018435
190	0x3d45e1cb	0.048311036
191	0xbc0ddf20	-0.008659154
192	0xbe93d321	-0.28872016
193	0x3e4b4d47	0.19853698
194	0x3cd2107b	0.025642624
195	0xbd964143	-0.073366664
196	0xbd075f4c	-0.033049867
197	0x3d96f068	0.073700726
198	0xbe44ee55	-0.19231541
199	0x3c79897e	0.015230535
200	0xbca90987	-0.020634426
201	0xbd933702	-0.07188226
202	0x3cfdf7ce	0.031001952
203	0xbbab1e23	-0.0052220984
204	0x3d29ae12	0.041425772
205	0x3e93d79a	0.28875428
206	0xbe3e6f29	-0.18597092
207	0x3bea00de	0.0071412167
208	0x3e0c0980	0.13675499
209	0x3de65174	0.11246005
210	0x3cfa645b	0.030565431
211	0xbe3fa1c1	-0.18714048
212	0xbe234294	-0.15943366
213	0xbe131528	-0.14363539
214	0x3e097496	0.1342338
215	0x3da4ef9c	0.08053514
216	0x3e2244ab	0.15846507
217	0x3d6d2b8e	0.057902865
218	0x3d8912c8	0.06693035
219	0xbd6e3c0c	-0.058162734
220	0xbd52fa05	-0.05150797
221	0x3e3c296a	0.18375173
222	0xbd330094	-0.043701723
223	0x3e39a078	0.1812762
224	0xbcba2654	-0.022723354
225	0xbd60e82c	-0.054908916
226	0x3ca0502d	0.01956948
227	0x3c8b2ea1	0.016990008
228	0x3d72e52d	0.05930059
229	0xbdd5b10d	-0.104341604
230	0x3d96a279	0.07355208
231	0xbad394cb	-0.0016142366
232	0x3d411ec6	0.04714849
233	0x3dc86b3d	0.09786079
234	0x3b7ed00b	0.0038881327
235	0x3b6af924	0.0035854066
236	0x3c98f791	0.018672736
237	0x3cfaeb53	0.03062979
238	0x3d8df51d	0.06931517
239	0x3d779b70	0.06045097
240	0xbd435d76	-0.047696553
241	0x3dd78ebb	0.105252706
242	0x3dc515ac	0.09623274
243	0x3bb37d2e	0.005477569
244	0x3d8a0b3f	0.06740426
245	0x3cd44de6	0.025916051
246	0xbcf4375f	-0.02981156
247	0x3c802138	0.01564084
248	0x3c0e38ca	0.008680532
249	0x3d92bb82	0.071646705
250	0x3ceae685	0.028674373
251	0x3d10fb89	0.035396133
252	0xbc8635bf	-0.01638305
253	0x3de79eb1	0.11309565
254	0x3d8c9192	0.06863703
255	0xbdd11c15	-0.10210434

sage.1.lin_root.weight f4 [64, 16]
0	0xbe25ee61	-0.16204216
1	0x3f27b450	0.6550951
2	0x3f9f6c37	1.24549
3	0x3f3bf886	0.7342609
4	0xbf3f1dff	-0.74655145
5	0xbe8d541a	-0.27603227
6	0xbf850c5f	-1.03944
7	0xbf20af67	-0.6276764
8	0x3fa7dd54	1.3114419
9	0x3f77836b	0.966849
10	0xbf34872c	-0.70518756
11	0xbf20db1e	-0.62834346
12	0x3f8a4e58	1.0805159
13	0x3f3d6244	0.73978066
14	0x3f5b7a4f	0.85733503
15	0x3efaee09	0.4900973
16	0x3da098c9	0.078416415
17	0x3e2ea716	0.17055926
18	0x3de7ce94	0.113186985
19	0x3c264f66	0.010150766
20	0x3d01cd6e	0.031690054
21	0x3e7af925	0.24509104
22	0xbe2283a8	-0.15870535
23	0xbdb270d6	-0.08712928
24	0xbe274de0	-0.163383
25	0xbf050807	-0.51965374
26	0x3c5354c6	0.0128986295
27	0xbd0f18ab	-0.034935635
28	0x3d4cc55e	0.04999291
29	0x3e4bc653	0.19899873
30	0x3e0debc6	0.13859472
31	0xbe933c04	-0.28756726
32	0x3ea48a78	0.32136893
33	0xbef08bbc	-0.4698161
34	0xbea7117b	-0.32630524
35	0xbe2a98e4	-0.16659886
36	0x3eacc83d	0.3374652
37	0xbe102204	-0.14075476
38	0x3eabee8e	0.3358044
39	0x3d578b51	0.052623097
40	0xbe969686	-0.29411715
41	0xbea4fb9b	-0.3222321
42	0x3ca5b2f9	0.020226942
43	0x3db52434	0.08844796
44	0xbf053ba6	-0.5204414
45	0xbf00bf77	-0.5029215
46	0xbd305e90	-0.04305893
47	0xbce6ee6e	-0.028189864
48	0x3c42730c	0.01186825
49	0x3dae5056	0.085114166
50	0x3e998b9e	0.29989332
51	0x3ebc2419	0.3674629
52	0xbe1f8e22	-0.15581563
53	0x3d6030ad	0.05473392
54	0xbe73b5b5	-0.23799784
55	0xbe060404	-0.1308747
56	0x3f052c82	0.5202104
57	0x3f243701	0.6414643
58	0xbe4a46d7	-0.19753586
59	0xbe23cded	-0.15996523
60	0x3f1b5aee	0.6068562
61	0x3e4ef7aa	0.20211664
62	0x3ee2d2e3	0.4430152
63	0x3e4293bc	0.19001669
64	0x3d21407b	0.039368134
65	0xbb15a83f	-0.0022835878
66	0xbd09f0f4	-0.033677056
67	0xbd2ffd98	-0.042966455
68	0xbd9bf627	-0.07615309
69	0x3d0deb87	0.034648445
70	0xbe3de9bd	-0.18546195
71	0xbcfe5633	-0.031046962
72	0xbd6d3722	-0.057913907
73	0xbedb818d	-0.42872277
74	0xbd44e3c4	-0.048068777
75	0xbce576f2	-0.02801082
76	0x3d74bdab	0.059751194
77	0x3e3e1d5b	0.18565886
78	0x3e4fddb3	0.20299415
79	0xbe469ec1	-0.19396497
80	0x3d800132	0.06250228
81	0xbd2629cb	-0.0405672
82	0x3ddb2fee	0.10702501
83	0xbd273190	-0.04081875
84	0x3d9cfcd2	0.07665409
85	0xbe2dee42	-0.1698542
86	0x3e12987e	0.14315984
87	0x3e9ae30a	0.30251342
88	0xbe9f5f22	-0.31127268
89	0x3de611dc	0.11233875
90	0xbd8ad50d	-0.067789175
91	0x3e48dd45	0.19615658
92	0xbe9e7e07	-0.30955526
93	0xbe09c210	-0.13452935
94	0xbde21239	-0.11038632
95	0xbccb1edf	-0.024794994
96	0xbe35e3a7	-0.17762624
97	0x3d92fe36	0.07177393
98	0x3ebb90d8	0.36633945
99	0x3e8bd9f8	0.27314734
100	0xbe11d034	-0.1423958
101	0x3e38aa96	0.18033823
102	0xbe8a72b3	-0.27040634
103	0xbddd1e0c	-0.107967466
104	0x3eaa5232	0.33265835
105	0xbf184041	-0.59473044
106	0xbe9b7a9d	-0.30366984
107	0xbe4195c1	-0.18904783
108	0x3eafd98f	0.34345672
109	0x3c9aaf3b	0.018882385
110	0xbe287ad6	-0.16453108
111	0xbd9cef16	-0.076627895
112	0xbeba6784	-0.364071
113	0x3ee9d48f	0.45669982
114	0xbe4789cd	-0.1948616
115	0x3da09b73	0.078421496
116	0xbf0f28af	-0.55921453
117	0xbe835e36	-0.25657815
118	0xbe38f194	-0.18060905
119	0x3df007ef	0.11720263
120	0x3d20b5de	0.039235942
121	0x3eba2472	0.3635593
122	0x3e013a53	0.12619905
123	0x3df0c050	0.11755431
124	0xbd4b4f2b	-0.049636047
125	0x3e0ab1c9	0.13544382
126	0xbee5e230	-0.4489913
127	0xbe47df6e	-0.19518825
128	0xbeebac5f	-0.46029946
129	0x3e478ada	0.19486561
130	0x3e54a1a4	0.20764786
131	0xbe0051a4	-0.12531143
132	0xbd1b5b70	-0.037929
133	0x3f2d2b07	0.6764378
134	0xbebdeb6f	-0.37093684
135	0xbdc1e202	-0.09466936
136	0x3eeed7b3	0.4664894
137	0xbf50650b	-0.8140418
138	0xbe1d3806	-0.15353402
139	0xbe66a8f1	-0.22525384
140	0x3df86908	0.12129408
141	0x3e1a1a22	0.15049031
142	0xbeec7d53	-0.46189365
143	0xbf0d4aa6	-0.5519203
144	0x3ec0af8e	0.37633938
145	0xbf167c9d	-0.58783895
146	0xbe3ddc33	-0.1854103
147	0xbc6c1a76	-0.014410606
148	0x3f22d34a	0.6360365
149	0x3f8201e2	1.0156825
150	0x3e1d6301	0.15369798
151	0x3dafd9d1	0.08586467
152	0x3d253e5f	0.040342685
153	0xbfa2f6cf	-1.273157
154	0xbe0e536d	-0.13899012
155	0xbdc47607	-0.095928244
156	0x3e16f44c	0.1474163
157	0xbf4bed7a	-0.79659235
158	0x3e068d99	0.13139953
159	0x3e0a18f0	0.13486075
160	0xbe715212	-0.23566464
161	0x3cc0d4a2	0.023538891
162	0x3dd1abba	0.10237832
163	0x3e14b865	0.14523466
164	0xbeb5a0cf	-0.3547425
165	0xbf1438bd	-0.57899076
166	0xbdd5c4fe	-0.10437964
167	0x3cb36055	0.02189652
168	0xbda7afe4	-0.08187845
169	0x3cd41efa	0.025893677
170	0xbd84b467	-0.064797215
171	0x3dd6a110	0.10479939
172	0xbdc84ca1	-0.09780241
173	0x3d88bbec	0.06676468
174	0x3eab9688	0.33513284
175	0xbb7485b0	-0.003731113
176	0xbf70ffec	-0.94140506
177	0x3f3110a9	0.69166046
178	0xbe99ad82	-0.30015188
179	0xbe900d60	-0.28135204
180	0xbf75c424	-0.9600241
181	0xbf88ee74	-1.069777
182	0xbf80b454	-1.0055032
183	0x3dc95b7d	0.09831903
184	0xbe597188	-0.21234715
185	0x3f01cea4	0.50705934
186	0x3e436e0c	0.19084948
187	0x3e080176	0.13281807
188	0xbec86720	-0.39141178
189	0x3f5aba8b	0.8544089
190	0xbf535dcf	-0.82565016
191	0xbee93af8	-0.45552802
192	0x3f0dc0ef	0.5537252
193	0xbf33f60f	-0.7029733
194	0xbeaceaba	-0.33772832
195	0x3f00a66f	0.5025396
196	0x3e84915c	0.2589215
197	0xbe23e5b6	-0.16005597
198	0x3f019e8d	0.50632554
199	0x3d0da5e0	0.03458202
200	0xbda04a92	-0.07826723
201	0xbf23ad35	-0.6393617
202	0xbd4c88f1	-0.049935285
203	0x3d43a589	0.04776529
204	0xbea4ee91	-0.32213262
205	0xbeeb461c	-0.45951927
206	0x3e7f8f06	0.24956903
207	0x3ed3d9b1	0.41377023
208	0x3ea03f43	0.31298265
209	0x3dfd0eb7	0.12356322
210	0x3ccd2df6	0.02504633
211	0xbd800e2e	-0.062527046
212	0x3e0bfa76	0.13669762
213	0x3d7c2f8f	0.061568793
214	0xbe2b1a2e	-0.16709206
215	0xbe8f02f8	-0.27931952
216	0xbe443843	-0.19162087
217	0x3df5fa99	0.12010688
218	0x3d84260d	0.0645257
219	0xbe49af40	-0.19695759
220	0x3e5d9868	0.2164017
221	0xbe5ac566	-0.21364364
222	0x3e9dea02	0.30842596
223	0x3dc17d23	0.09447696
224	0x3efed554	0.4977213
225	0xbf69c658	-0.91318274
226	0xbed2824e	-0.4111504
227	0xbea794ff	-0.32730862
228	0x3ef728f9	0.48273447
229	0x3f4eb845	0.80749923
230	0x3ee7e513	0.45291957
231	0x3de1fca6	0.11034517
232	0xbf032a89	-0.5123678
233	0xbf374295	-0.7158597
234	0x3da55086	0.08071999
235	0x3c505380	0.01271522
236	0xbf15b35a	-0.58476794
237	0xbf6d8d09	-0.9279333
238	0xbf386ec4	-0.72044015
239	0xbe8b6d67	-0.27231905
240	0xbebf99de	-0.3742208
241	0x3d519c71	0.051174585
242	0xbec3da08	-0.38252282
243	0xbeb59132	-0.35462338
244	0x3d1182ee	0.035525255
245	0x3e40c3c6	0.18824682
246	0xbee1031b	-0.43947682
247	0xbe5f5fbe	-0.21813866
248	0xbe765b33	-0.24058227
249	0xbfd48aff	-1.6604918
250	0xbe8a8e53	-0.2706171
251	0xbed4077c	-0.4141196
252	0xbe77341c	-0.24140972
253	0xbde56d09	-0.112024374
254	0xbf040d43	-0.51582736
255	0xbed7727a	-0.42079526

sage.1.lin_root.bias f4 [64]
0	0x3fab84b2	1.339987
1	0x3f0dd53a	0.5540348
2	0x3d281ae3	0.041041266
3	0x3f7f5263	0.9973509
4	0x3f04a119	0.51808316
5	0x3e640bc9	0.2227012
6	0x3ee674dc	0.45011032
7	0xbdb00046	-0.08593802
8	0x3eac708a	0.3367961
9	0x3eb96da6	0.36216468
10	0x3ee18a39	0.44050768
11	0xbec7a302	-0.38991553
12	0x3e989bb7	0.298063
13	0xbe40bfdc	-0.18823189
14	0x3e5e023f	0.21680544
15	0x3efc5b7c	0.49288547
16	0x3f664458	0.89948034
17	0x3f285c8c	0.65766215
18	0xbe49dad4	-0.19712383
19	0x3e11dfed	0.14245577
20	0x3f94514b	1.1587309
21	0x3ea4c179	0.32178858
22	0x3d06649e	0.0328108
23	0x3e8c6b49	0.27425602
24	0xbe0fa140	-0.14026356
25	0x3f90e3b6	1.1319492
26	0x3e8af433	0.27139434
27	0x3f077e8e	0.5292748
28	0xbd8cf5bf	-0.0688281
29	0xbe5b1328	-0.21394026
30	0xbe124ec1	-0.14287855
31	0xbe292be8	-0.16520655
32	0x3eabbe61	0.33543685
33	0xbe536d62	-0.20647195
34	0x3f7cbf6e	0.987296
35	0xbdcaa919	-0.09895534
36	0x3f820f85	1.0160986
37	0x3c4a30d0	0.012340739
38	0x3f136eb2	0.5759078
39	0x3f8d9394	1.1060662
40	0x3d136f62	0.035994895
41	0x3f2884d2	0.6582767
42	0x3e3c1285	0.1836644
43	0xbe250f0f	-0.16119026
44	0xbdd1c838	-0.10243267
45	0xbe1f5dbe	-0.15563104
46	0x3db30633	0.08741417
47	0x3e010586	0.12599763
48	0xbe361e3e	-0.17784974
49	0x3ee1e66c	0.4412111
50	0x3da1116c	0.07864651
51	0x3d2d565c	0.042318687
52	0x3f447075	0.76734096
53	0x3ec4c533	0.384317
54	0xbea6e3d5	-0.32595697
55	0x3ed1485e	0.40875524
56	0x3eb43ab5	0.3520104
57	0xbddea298	-0.10870856
58	0xbe04a70a	-0.12954345
59	0xbe1e85ea	-0.15480772
60	0xbe41e0fa	-0.18933478
61	0xbe15d760	-0.1463294
62	0x3ecab0d1	0.39588025
63	0x3f3ec3a3	0.7451727

sage.2.lin_rel.weight f4 [64, 64]
0	0x3dee985d	0.11650155
1	0x3e0109d6	0.12601408
2	0xbca1a47d	-0.019731754
3	0x3e43feea	0.19140211
4	0x3d9011ac	0.07034621
5	0x3d003210	0.031297743
6	0xbe36b865	-0.17843778
7	0xbda01147	-0.078157954
8	0x3d64659f	0.055760976
9	0xbd2707a7	-0.040778782
10	0xbdc3360b	-0.09531792
11	0xbe13e820	-0.14444017
12	0x3d96268c	0.07331571
13	0xbd212dd6	-0.039350353
14	0x3deaf427	0.114723496
15	0x3c8a7d30	0.016905397
16	0x3e39cae8	0.18143809
17	0xbc95ac46	-0.018270623
18	0xbd522f42	-0.0513146
19	0xbdc7066e	-0.09718023
20	0x3cbb8890	0.022892267
21	0xbd38a43f	-0.045078512
22	0xbd33f47c	-0.04393433
23	0x3c4b883b	0.012422617
24	0xbe09cd76	-0.13457283
25	0x3d94dda1	0.07268835
26	0xbe3e520b	-0.18585984
27	0xbdd36597	-0.10322111
28	0xbe1071bb	-0.14105885
29	0x3cafb760	0.021449745
30	0xbe1f03c4	-0.1552878
31	0x3cd9aee5	0.026572654
32	0xbdfcbeac	-0.12341055
33	0xbd3f9287	-0.0467706
34	0xbd93d7e6	-0.07218914
35	0xbe2defe2	-0.1698604
36	0xbdfdb308	-0.12387663
37	0xbdd22c31	-0.10262335
38	0xbe3fc475	-0.18727286
39	0x3e0a1315	0.13483842
40	0xbd863d54	-0.06554666
41	0x3dae6c47	0.08516746
42	0x3db9b3e4	0.090675145
43	0xbdf5483e	-0.1197667
44	0xbdcb979f	-0.09941029
45	0xbdb02824	-0.08601406
46	0xbe1fc1c1	-0.15601255
47	0xbc2ec7f8	-0.010667793
48	0xbdf6d3f8	-0.120521486
49	0xbd0c60ad	-0.034271885
50	0xbe2738c5	-0.1633025
51	0xbddd1a05	-0.107959785
52	0x3de84d61	0.11342884
53	0xbd9d17b7	-0.07670539
54	0xbe0aab1f	-0.1354184
55	0xbd545a42	-0.05184389
56	0xbe1e5579	-0.15462293
57	0xbe75caa6	-0.24003085
58	0xbc29cb56	-0.0103634205
59	0xbe344967	-0.17606126
60	0xbda5692c	-0.080767006
61	0xbdafe6bd	-0.08588932
62	0x3ce108a1	0.027469935
63	0xbcd293cf	-0.025705246
64	0xbdffcd76	-0.124903604
65	0xbd91ba1b	-0.07115575
66	0xbd7c54e9	-0.061604414
67	0xbdfcbfd6	-0.12341277
68	0x3d812027	0.06304961
69	0xbdba77c7	-0.09104877
70	0xbd96cc97	-0.07363241
71	0x3dd5b2bb	0.10434481
72	0xbdf0fe86	-0.117672965
73	0xbcc22240	-0.023697972
74	0xbd683ac0	-0.056696653
75	0xbc9caad2	-0.019124422
76	0xbd5179a1	-0.051141385
77	0x3cd06db5	0.025442937
78	0xbd5cb999	-0.053887937
79	0x3d914687	0.0709353
80	0xbe005641	-0.12532903
81	0xbd5ea8f6	-0.054360352
82	0x3dd2b6d9	0.10288782
83	0xbd410902	-0.04712773
84	0xbde2de38	-0.11077541
85	0x3ce4547d	0.027872318
86	0x3d495e0d	0.04916196
87	0x3d105c5d	0.035244334
88	0xbd6fe9c9	-0.058572564
89	0xbd2dba62	-0.042414077
90	0x3db742a2	0.08948256
91	0xbcd096bc	-0.0254625
92	0x3be0702c	0.0068493094
93	0x3d823551	0.063578255
94	0xbd4b84ff	-0.04968738
95	0x3d7870e2	0.06065453
96	0xbd8a7f39	-0.06762547
97	0x3d90c675	0.07069103
98	0x3d06c99a	0.032907106
99	0x3d26ae16	0.040693365
100	0x3d682556	0.05667623
101	0x3dbe015e	0.092776045
102	0x3de17c50	0.11010039
103	0x3ca211c7	0.019783868
104	0x3cd4d8b1	0.025982233
105	0xbd8fbea4	-0.07018784
106	0xbd8b8736	-0.06812899
107	0x3d8bdc18	0.06829089
108	0x3d09a943	0.033608686
109	0x3c3e8109	0.011627444
110	0xbac1a5c2	-0.0014774131
111	0xba1beae3	-0.00059477816
112	0xbdad76a2	-0.08469893
113	0xbc81212d	-0.01576289
114	0x3debae90	0.115079045
115	0x3d891dd4	0.066951424
116	0xbc2d7b0d	-0.01058842
117	0x3d8e9759	0.06962461
118	0xbdee3a3d	-0.11632202
119	0xbd993a93	-0.07481875
120	0x3caa0829	0.020755844
121	0xbb38b388	-0.002818318
122	0x3da7f781	0.082015045
123	0x3d9b5cd8	0.07586068
124	0x3cb38a13	0.021916425
125	0xbc46fe52	-0.012145596
126	0xbd474862	-0.048653014
127	0x3d80911f	0.0627768
128	0xbdfb9178	-0.12283605
129	0x3d89a829	0.06721527
130	0xbce474c3	-0.027887708
131	0xbd862010	-0.06549084
132	0xbcb25a54	-0.021771587
133	0x3c594c25	0.013262783
134	0xbcdbe528	-0.026842669
135	0xbd527c25	-0.051387925
136	0xbc3a0ec8	-0.011356063
137	0xbdac9f86	-0.08428864
138	0x3d3d6676	0.046240292
139	0xbcadb55c	-0.021204643
140	0xbcfce840	-0.030872464
141	0xbd7716e3	-0.06032456
142	0xbdb98991	-0.09059442
143	0xbdbd573e	-0.09245156
144	0xbc82bef5	-0.015960196
145	0x3c485fff	0.0122299185
146	0x3da7b43c	0.08188674
147	0xbd47ef4e	-0.048812203
148	0xbd9e8042	-0.07739307
149	0xbd948f49	-0.07253892
150	0x3dd37295	0.10324589
151	0xbdb5ef10	-0.08883488
152	0xbd14e4cc	-0.03635101
153	0x3d460049	0.048340116
154	0x3d81ea2d	0.063434936
155	0xbd527b4a	-0.05138711
156	0xbc1b9b59	-0.009497487
157	0x3dab9523	0.08378055
158	0x3d82f854	0.06395021
159	0x3db15d33	0.086603545
160	0xbbfc6548	-0.0077025034
161	0x3e0fffae	0.14062378
162	0xbd222b10	-0.03959185
163	0xbdac691e	-0.08418487
164	0x3cc54562	0.024080936
165	0x3d273101	0.04081822
166	0x3cb54ce5	0.022131393
167	0x3d2e7f9c	0.042602167
168	0x3e0914c1	0.13386823
169	0x3c9ceda2	0.01915628
170	0xbdbff85b	-0.09373542
171	0x3e044365	0.12916334
172	0xbd75e14b	-0.06002931
173	0x3e0d0f56	0.13775381
174	0x3cf0276a	0.02931567
175	0xbd9dc493	-0.07703509
176	0xbc5b29c8	-0.013376661
177	0x3da3af3b	0.07992407
178	0xbd6f686b	-0.05844919
179	0x3e06ffc6	0.13183507
180	0xbc577d7a	-0.013152475
181	0x3bb59154	0.005541006
182	0x3d7234ab	0.05913226
183	0xbd1cd54c	-0.038289353
184	0x3c87e927	0.016590668
185	0x3d3b819e	0.04577791
186	0x3caec437	0.021333797
187	0x3cd45447	0.025919093
188	0xbc4d4e60	-0.012530893
189	0x3dc87cdf	0.09789442
190	0xbd999cfd	-0.07500646
191	0x3ce82aa7	0.02834065
192	0xbdd69831	-0.10478247
193	0xbc4daa05	-0.012552743
194	0x3c5b4bd4	0.013384778
195	0xbd3df068	-0.046371847
196	0xbe1dc987	-0.15408908
197	0x3d35b6b6	0.0443637
198	0x3d6ec46f	0.058292802
199	0x3c86476f	0.016391484
200	0x3b986c0f	0.0046515535
201	0xbd945cf6	-0.072442934
202	0xbd13daf4	-0.03609748
203	0xbca7317b	-0.020409336
204	0xbdfbd5a7	-0.1229661
205	0x3de8646d	0.1134728
206	0xbdb3a997	-0.08772581
207	0x3caae785	0.02086235
208	0xbe2461c8	-0.16052926
209	0x3c20f611	0.009824292
210	0x3de42e75	0.111416735
211	0x3d3dd934	0.04634972
212	0x3c8e21ee	0.017350163
213	0xbd4a9c80	-0.049465656
214	0xbd190537	-0.03735849
215	0xbda94dbc	-0.0826678
216	0xbd991692	-0.07475008
217	0xbd9e7944	-0.07737973
218	0xbd6ed490	-0.058308184
219	0x3d8a7623	0.06760814
220	0xbc2fbd2b	-0.0107262535
221	0x3d395683	0.04524852
222	0xbc2c15cd	-0.010503245
223	0xbddf4337	-0.10901492
224	0x3b803e74	0.003913695
225	0x3de788bd	0.11305378
226	0xbd8a28f0	-0.067460895
227	0x3e109df0	0.14122748
228	0x3dc280ce	0.09497224
229	0xbda2441d	-0.07923148
230	0x3dd7f8cd	0.10545502
231	0xbd866aeb	-0.06563362
232	0x3de58995	0.11207882
233	0xbdb7973f	-0.08964395
234	0xbca0c1e3	-0.019623702
235	0x3db6e8c8	0.08931118
236	0xbd8871ec	-0.06662354
237	0xbd671f43	-0.056426298
238	0x3d22b9a5	0.039727826
239	0x3d774d52	0.060376473
240	0x3df45e5e	0.119320616
241	0x3d977e3e	0.07397126
242	0x3d8d16a0	0.06889081
243	0x3dc16a7a	0.09444137
244	0xbdf1f5aa	-0.11814435
245	0x3dd4ba24	0.10387066
246	0x3e169455	0.14705022
247	0xbd2566cb	-0.040381234
248	0x3d5fb52f	0.05461615
249	0x3d870c5e	0.06594156
250	0x3d336847	0.04380062
251	0x3781b0b1	1.5460277e-05
252	0x3da181c1	0.07886077
253	0x3df40b89	0.11916263
254	0xbd077738	-0.03307268
255	0xbd766da3	-0.06016315

sage.2.lin_root.weight f4 [64, 64]
0	0x3a1456cd	0.0005658686
1	0x3cdb3914	0.026760615
2	0xbd77d1e2	-0.060502894
3	0x3e3926f5	0.18081267
4	0x3d7195eb	0.058980864
5	0xbe27db9b	-0.16392367
6	0xbd8e9125	-0.06961278
7	0x3ca5ae8b	0.02022483
8	0xbcf40129	-0.02978571
9	0xbda49679	-0.08036513
10	0xbddab395	-0.10678784
11	0xbe1c7e1e	-0.15282485
12	0x3d803ead	0.062619545
13	0xbdf206fb	-0.11817738
14	0x3da8e23f	0.08246278
15	0xbd7086f9	-0.05872247
16	0x3dabeaf6	0.083944246
17	0x3e09e7ae	0.13467285
18	0xbe0556bc	-0.13021368
19	0xbde5184f	-0.11186277
20	0x3d861f01	0.06548882
21	0x3d5b335f	0.05351579
22	0xbe1a3e89	-0.15062918
23	0xbc3b6abb	-0.011439021
24	0xbdf843da	-0.12122317
25	0x3e1382cf	0.14405368
26	0xbdf5a8e5	-0.11995105
27	0xbdb396a0	-0.08768964
28	0xbe377c1e	-0.1791844
29	0xbdf1bd94	-0.11803737
30	0x3c28a49e	0.010293154
31	0xbd0ea3fe	-0.034824364
32	0xbdb89085	-0.0901194
33	0x3c4d754e	0.012540175
34	0xbd024b45	-0.031810064
35	0xbe484476	-0.19557366
36	0xbd8c387f	-0.06846713
37	0xbe5a5328	-0.21320784
38	0x3bfd2284	0.007725062
39	0x3e1aacba	0.15104952
40	0xbe2cb948	-0.16867554
41	0x3c86ce5c	0.016455822
42	0xbd120c92	-0.03565652
43	0x3d2c9f68	0.04214421
44	0x3c748ff5	0.0149269
45	0x3cdf3c63	0.027250474
46	0xbcb7111c	-0.022347026
47	0xbe1c9be7	-0.15293847
48	0x3ac1b52a	0.0014778723
49	0x3d8314db	0.06400462
50	0xbdd6c67d	-0.104870774
51	0xbe0bce97	-0.13653027
52	0x3d12dde6	0.03585615
53	0xbda5cd1c	-0.08095762
54	0xbda23d5f	-0.07921862
55	0x3da0d5a2	0.07853247
56	0xbda2d96d	-0.07951627
57	0xbdf2109f	-0.118195765
58	0x3b08e3d2	0.0020887745
59	0xbd1e592e	-0.038659267
60	0xbcb0fda1	-0.021605315
61	0xbd962d84	-0.073329
62	0xbd05ad9a	-0.032636262
63	0xbae4e890	-0.0017464329
64	0x3d953c83	0.07286932
65	0xbd2c0573	-0.041997384
66	0xbc3c2d81	-0.011485458
67	0x3d39fbfa	0.04540632
68	0xbd8b65ec	-0.068065494
69	0xbd925864	-0.071457654
70	0xbb90f13e	-0.0044232896
71	0xbb8052bb	-0.0039161122
72	0x3caac32c	0.020845018
73	0xbd8d3c77	-0.068962984
74	0xbca90222	-0.0206309
75	0x3dd68559	0.10474653
76	0x3d8f7638	0.0700497
77	0x3d0abe0c	0.03387265
78	0xbd398956	-0.04529699
79	0xbdb91562	-0.090372816
80	0xbd468a4b	-0.04847173
81	0x3ce26d36	0.027639966
82	0x3cec2d17	0.028830094
83	0xbd2cd964	-0.042199507
84	0xbde9677a	-0.1139669
85	0x3d8ec77c	0.069716424
86	0xbdd4ee94	-0.10397068
87	0xbb8f847e	-0.004379808
88	0xbd42c145	-0.047547597
89	0xbd69a063	-0.057037722
90	0x3d45d247	0.04829624
91	0x3d98ec63	0.07466962
92	0x3ca705f9	0.02038859
93	0x3dd90088	0.105958045
94	0xbd5b96f9	-0.053610776
95	0x3ddcd619	0.107830234
96	0x3d5d6ae6	0.054057024
97	0xbddc9e40	-0.10772371
98	0x3d90e007	0.0707398
99	0x3daf9576	0.08573429
100	0xbc86d3dc	-0.016458444
101	0xbcb39586	-0.021921884
102	0xbd3c7ada	-0.046015598
103	0xbbdd82c9	-0.0067599756
104	0xbd982115	-0.07428185
105	0xbdd6d42b	-0.104896866
106	0xbd6be24d	-0.057588864
107	0xbc013185	-0.0078853415
108	0x3dc57d4f	0.09643041
109	0xbdb2e603	-0.087352775
110	0xbd84eca0	-0.06490445
111	0xbcfe7fda	-0.031066824
112	0xbd1a3af9	-0.037653897
113	0xbbc2df2b	-0.005947014
114	0x3dc2245a	0.0947959
115	0x3d946d96	0.07247464
116	0xbc44cd1c	-0.0120117925
117	0xbc465f28	-0.012107648
118	0x3dfecefe	0.124418244
119	0xbdb2a602	-0.0872307
120	0xbbc29ad4	-0.005938867
121	0xbc41e181	-0.0118335495
122	0xbd13aaff	-0.036051746
123	0x3cfc2d2e	0.030783262
124	0xbd0352c1	-0.032061342
125	0x3db7b945	0.08970884
126	0xbdfc9d33	-0.12334671
127	0x3d2a8cc9	0.04163817
128	0xbd0291b5	-0.03187724
129	0xbd12df0d	-0.03585725
130	0x3acd02b9	0.001564107
131	0x3d203ce9	0.03912059
132	0xbe091843	-0.13388161
133	0xbdc51c82	-0.09624578
134	0x3de8b442	0.113625064
135	0xbd825c99	-0.06365318
136	0xb9da5d45	-0.0004164969
137	0xbbda7077	-0.006666239
138	0x3d7d8db9	0.061902735
139	0x3c2f8101	0.010711909
140	0xbd636c9d	-0.055523504
141	0x3dd7de53	0.10540452
142	0xbbca8a0c	-0.0061810073
143	0xbd7c42cc	-0.06158714
144	0x3d0886e4	0.033331767
145	0xbdb1cadc	-0.086812705
146	0x3bbfbf24	0.005851643
147	0xbdad014d	-0.08447514
148	0xba02a096	-0.00049830356
149	0x3d8ea8b1	0.06965769
150	0xbd735c21	-0.059414033
151	0xbdb3294f	-0.08748113
152	0x3e00b046	0.12567243
153	0xbd87c6ca	-0.06629713
154	0x3db998fd	0.09062383
155	0x3d96b045	0.073578395
156	0x3e03b8f0	0.12863517
157	0xbddf0b56	-0.10890834
158	0xba9eb2fc	-0.0012107785
159	0x3dface5e	0.12246393
160	0x3d211b4f	0.039332684
161	0x3da22d52	0.079188004
162	0x3c4699c6	0.012121623
163	0xbd14637c	-0.03622769
164	0x3da8f929	0.082506485
165	0x3ddd1b91	0.107962735
166	0x3b936932	0.0044986242
167	0xbdf51692	-0.119671956
168	0x3dfd200b	0.12359627
169	0xbd03aff6	-0.03215023
170	0xbdebdb9c	-0.115164965
171	0xbb6f6fd7	-0.0036535168
172	0x3d508dd0	0.050916493
173	0xbd493765	-0.049125094
174	0xbd36f0d3	-0.04466326
175	0xbc8751a0	-0.016518414
176	0xbd993e0f	-0.0748254
177	0x3dda1fa2	0.10650565
178	0x3bbc24dd	0.005741699
179	0xbd88bf59	-0.06677122
180	0xbd8d4060	-0.06897044
181	0x3d9b5259	0.07584066
182	0xbd6d1c93	-0.05788858
183	0xbd420f59	-0.047377918
184	0x3d104ac1	0.03522754
185	0x3c3ffb08	0.011717565
186	0xbd9745e8	-0.073863804
187	0xbdb0d770	-0.086348414
188	0xbd04ebac	-0.032451317
189	0xbd9bda3b	-0.076099835
190	0x3db6f598	0.08933562
191	0xbcfd28bd	-0.030903215
192	0x3da41917	0.08012598
193	0xbd230100	-0.039795876
194	0x3c9cfd80	0.019163847
195	0xbd7637a6	-0.060111664
196	0xbcc0d755	-0.023540178
197	0x3dba8c27	0.09108763
198	0x3c5a4cba	0.013323957
199	0x3df1f34e	0.11813985
200	0x3d4b580a	0.049644507
201	0xbce6e475	-0.028185109
202	0xbd082186	-0.033235095
203	0x3c5bc39a	0.013413334
204	0x3d392393	0.04519994
205	0x3d4e70f1	0.050400678
206	0xbdca1ad5	-0.09868399
207	0xbcacdde7	-0.021101905
208	0x3cd017db	0.025402
209	0xbd556462	-0.052097686
210	0x3dafca54	0.08583513
211	0x3d864d3a	0.065576985
212	0xbd944a22	-0.07240702
213	0xbd84edd6	-0.06490676
214	0x3d4cd876	0.05001112
215	0xbd1c67f2	-0.038185067
216	0xbd1039ff	-0.03521156
217	0xbddb1215	-0.10696808
218	0x3db269d4	0.08711591
219	0x3ce460dc	0.027878217
220	0x3da02bc0	0.07820845
221	0x3d9c4940	0.07631159
222	0x3d6f912e	0.058488064
223	0xba86f02e	-0.0010294968
224	0xbdcbe3a9	-0.09955532
225	0x3cb765ab	0.022387346
226	0xbdca9ba1	-0.09892965
227	0x3d19de62	0.037565596
228	0x3d93f53b	0.072245084
229	0xbcba5d8a	-0.022749681
230	0x3d868e04	0.06570056
231	0xbcb20bec	-0.0217342
232	0x3d395dce	0.045255475
233	0xbcb8e180	-0.022568464
234	0xbdef2eb0	-0.11678827
235	0xbd688ef1	-0.056776945
236	0x3cf4a79f	0.029865084
237	0xbc1ed038	-0.009693198
238	0xbc96dd48	-0.018416062
239	0xbc27a526	-0.010232246
240	0xbcf72dbd	-0.030173177
241	0x3ce6c5ea	0.028170545
242	0xbd159fc3	-0.036529314
243	0xbd0bd420	-0.034137845
244	0xbc0e8b37	-0.008700184
245	0x3d3fde21	0.046842698
246	0xbdb28b96	-0.0871803
247	0xbd942d51	-0.07235206
248	0x3c55435a	0.013016546
249	0xbd9bb2b4	-0.07602444
250	0xbdeb64c0	-0.11493826
251	0x3deebabc	0.116567105
252	0x3d9fae4e	0.07796918
253	0xbc8d8179	-0.017273651
254	0xbd0642a2	-0.03277839
255	0x3ccf0884	0.025272615

sage.2.lin_root.bias f4 [64]
0	0x3ee792a8	0.45229077
1	0xbbd28a66	-0.00642519
2	0x3c80f691	0.015742572
3	0xbd262de5	-0.040571112
4	0x3e61479f	0.21999978
5	0x3ee518bc	0.44745433
6	0x3d3a738a	0.045520343
7	0x3e87a7ed	0.26495305
8	0x3e6aa685	0.22915085
9	0xbddcc9bf	-0.107806675
10	0x3d7eb408	0.06218341
11	0x3d094eb3	0.03352232
12	0x3d2dc585	0.042424697
13	0x3e21991d	0.15781064
14	0xbddd0bd9	-0.107932754
15	0xbe018701	-0.12649156
16	0xbdf596df	-0.11991667
17	0xbde015eb	-0.109416805
18	0x3d932a20	0.07185769
19	0xbde643c1	-0.11243392
20	0xbdccac02	-0.099937454
21	0xbe0d3e00	-0.13793182
22	0xbe159837	-0.14608847
23	0x3d2039ff	0.03911781
24	0xbbd865a7	-0.006603915
25	0x3d329b3d	0.043605078
26	0xbd95f1ec	-0.073215336
27	0xbd8d6d37	-0.06905597
28	0x3bd818a4	0.0065947343
29	0xbe0596cc	-0.13045806
30	0x3d1c9928	0.038232
31	0xbda86858	-0.08223027
32	0xbcc97b3a	-0.024594892
33	0x3dbfd4ec	0.093667835
34	0xbdb205b1	-0.08692492
35	0x3d92f765	0.07176093
36	0xbddef026	-0.108856484
37	0x3e8ac5e4	0.27104104
38	0xbe512f67	-0.20428239
39	0xbe5f9681	-0.21834756
40	0xbdaf8386	-0.08570008
41	0xbe1dd1a9	-0.1541201
42	0xbd93f8f8	-0.072252214
43	0xbc1b8d9f	-0.009494214
44	0xbd1e644a	-0.03866986
45	0x3d26cfa3	0.04072536
46	0xbde44083	-0.11145117
47	0x3bcc89ad	0.006241998
48	0xbd31feea	-0.043455996
49	0xbdb381d1	-0.08764995
50	0xbdbfd0f5	-0.09366027
51	0xbdc3f465	-0.09568099
52	0xbdc57d24	-0.09643009
53	0xbd78b325	-0.06071772
54	0x3d2e775e	0.042594306
55	0xbe01a014	-0.12658721
56	0x3a713982	0.000920199
57	0xbde991bf	-0.11404752
58	0xbdc37683	-0.09544089
59	0x3d64491b	0.05573378
60	0xbe1162d3	-0.14197855
61	0x3d8e9bef	0.06963336
62	0x3d3e89eb	0.046518248
63	0x3b0d35b0	0.0021546893

batch_norm.0.weight f4 [400]
0	0x400d0119	2.203192
1	0x3ff761a3	1.9326671
2	0x3fe67c2e	1.8006647
3	0x3fddb6c6	1.7321403
4	0x3fd86b19	1.6907684
5	0x3fd506af	1.6642665
6	0x3fd2670b	1.6437696
7	0x3fd15fbe	1.6357343
8	0x3fcf9981	1.6218721
9	0x3fcec1fd	1.615295
10	0x3fcdd219	1.6079742
11	0x3fcd583b	1.6042551
12	0x3fccc126	1.5996444
13	0x3fcc4a93	1.5960258
14	0x3fcbd912	1.592562
15	0x3fcbb5f2	1.59149
16	0x3fcc3dc8	1.5956354
17	0x3fcba965	1.591107
18	0x3fcb803b	1.5898508
19	0x3fcb620f	1.58893
20	0x3fcb6e4e	1.5893037
21	0x3fcb8174	1.5898881
22	0x3fcbc9ac	1.592092
23	0x3fcbe2ee	1.5928628
24	0x3fcc1c64	1.5946164
25	0x3fcbc949	1.5920802
26	0x3fcb8185	1.5898901
27	0x3fcc5f69	1.5966617
28	0x3fcc0c60	1.5941277
29	0x3fccad7f	1.5990447
30	0x3fcc3f6b	1.5956854
31	0x3fcc2b38	1.5950689
32	0x3fccad5a	1.5990403
33	0x3fcc70ef	1.5971965
34	0x3fcc65b6	1.596854
35	0x3fccd690	1.6002979
36	0x3fcc9788	1.5983744
37	0x3fcc9a01	1.5984498
38	0x3fccd1fb	1.6001581
39	0x3fcd0161	1.6016046
40	0x3fcceade	1.6009176
41	0x3fccd8e8	1.6003695
42	0x3fcccaa6	1.5999343
43	0x3fcd3843	1.6032795
44	0x3fcd1b62	1.6023982
45	0x3fccecdf	1.6009787
46	0x3fcd1467	1.6021851
47	0x3fccf1c0	1.6011276
48	0x3fcd2dcd	1.6029602
49	0x3fcda180	1.6064911
50	0x3fcd5966	1.6042907
51	0x3fcd1823	1.6022991
52	0x3fcd34cc	1.6031737
53	0x3fcd81b7	1.6055211
54	0x3fcd7e4b	1.6054167
55	0x3fcdd27f	1.6079863
56	0x3fcd2ac3	1.6028675
57	0x3fccd070	1.600111
58	0x3fcd9c93	1.6063408
59	0x3fcd31b6	1.6030796
60	0x3fcd6814	1.6047387
61	0x3fcdad7e	1.6068571
62	0x3fcd9b82	1.6063082
63	0x3fcdb267	1.6070069
64	0x3fcd492f	1.6037959
65	0x3fcdaf42	1.606911
66	0x3fcda407	1.6065682
67	0x3fcd2716	1.6027553
68	0x3fcd1bcf	1.6024112
69	0x3fcd4834	1.603766
70	0x3fcd23d0	1.6026554
71	0x3fcd5ccc	1.6043944
72	0x3fcd7454	1.6051126
73	0x3fcce267	1.6006593
74	0x3fcc7733	1.5973877
75	0x3fcc70ac	1.5971885
76	0x3fcc4afe	1.5960386
77	0x3fcc624c	1.5967498
78	0x3fcba8d5	1.5910898
79	0x3fcbc566	1.5919616
80	0x3fcbb1d8	1.5913649
81	0x3fcbbe9a	1.5917542
82	0x3fcb15b6	1.5866001
83	0x3fcafc29	1.5858203
84	0x3fcacd9a	1.5843995
85	0x3fca69d9	1.5813552
86	0x3fc9e8bd	1.5774151
87	0x3fca25e0	1.5792809
88	0x3fc96bc8	1.5736017
89	0x3fc98e7a	1.5746605
90	0x3fc93749	1.5719997
91	0x3fc9070e	1.5705278
92	0x3fc8d5f1	1.569029
93	0x3fc81d1d	1.5633885
94	0x3fc7e3e0	1.5616417
95	0x3fc78ee9	1.5590488
96	0x3fc6f9e9	1.5545017
97	0x3fc69e41	1.5517045
98	0x3fc67964	1.5505795
99	0x3fc5cf55	1.5453898
100	0x3fc5c81f	1.5451697
101	0x3fc4ca6f	1.5374278
102	0x3fc4c172	1.5371535
103	0x3fc460d0	1.5342045
104	0x3fc40b11	1.5315877
105	0x3fc44de0	1.5336266
106	0x3fc3a041	1.5283281
107	0x3fc33909	1.5251781
108	0x3fc2fcda	1.5233414
109	0x3fc290c2	1.5200427
110	0x3fc1be3c	1.513618
111	0x3fc196d6	1.5124156
112	0x3fc10381	1.5079194
113	0x3fc0a2ba	1.504966
114	0x3fc02c0d	1.5013443
115	0x3fbf6810	1.4953632
116	0x3fbf6066	1.4951293
117	0x3fbecd93	1.4906486
118	0x3fbecc65	1.4906126
119	0x3fbe2e09	1.4857799
120	0x3fbdee13	1.483828
121	0x3fbd52b4	1.4790864
122	0x3fbc71d1	1.4722234
123	0x3fbbec03	1.46814
124	0x3fbb4f2a	1.4633534
125	0x3fbabe65	1.4589354
126	0x3fba3b9b	1.454944
127	0x3fb9d88d	1.4519211
128	0x3fb95cbf	1.4481429
129	0x3fb87d0e	1.4413164
130	0x3fb851c3	1.4399952
131	0x3fb80875	1.4377581
132	0x3fb6c680	1.4279327
133	0x3fb67ac9	1.4256221
134	0x3fb63b9d	1.4236943
135	0x3fb55c87	1.4168862
136	0x3fb485fd	1.410339
137	0x3fb418e4	1.4070096
138	0x3fb3b7e2	1.4040492
139	0x3fb30470	1.3985729
140	0x3fb1fec7	1.3905877
141	0x3fb1601f	1.3857459
142	0x3fb0dd90	1.3817616
143	0x3fafefa5	1.3745009
144	0x3faf6913	1.3703941
145	0x3fae5aa7	1.3621415
146	0x3fad9cfb	1.3563532
147	0x3faca007	1.3486336
148	0x3fac2e2d	1.3451592
149	0x3fab5268	1.3384523
150	0x3faabff3	1.3339828
151	0x3fa9a3c1	1.3253099
152	0x3fa8c13b	1.3183969
153	0x3fa8511c	1.3149753
154	0x3fa7432a	1.3067372
155	0x3fa6be0c	1.3026748
156	0x3fa5797e	1.2927701
157	0x3fa4deec	1.288053
158	0x3fa42008	1.2822275
159	0x3fa3699b	1.2766603
160	0x3fa23f54	1.2675576
161	0x3fa15c5d	1.2606312
162	0x3fa03e51	1.2519017
163	0x3f9f1c0a	1.2430432
164	0x3f9e99f7	1.2390736
165	0x3f9d3bc7	1.2283868
166	0x3f9cc8ae	1.2248743
167	0x3f9bd139	1.2173225
168	0x3f9a271a	1.2043183
169	0x3f996e6e	1.1986825
170	0x3f986194	1.1904778
171	0x3f972775	1.1808916
172	0x3f9688fb	1.1760553
173	0x3f94f609	1.1637584
174	0x3f93e273	1.1553482
175	0x3f92ec06	1.1478279
176	0x3f920b22	1.1409647
177	0x3f90d4f0	1.1314983
178	0x3f8fb675	1.1227556
179	0x3f8eaa3f	1.1145705
180	0x3f8e68db	1.1125749
181	0x3f8cb0d2	1.0991461
182	0x3f8bc841	1.0920488
183	0x3f8a4106	1.0801094
184	0x3f894889	1.0725261
185	0x3f888d8f	1.06682
186	0x3f87b458	1.0601912
187	0x3f86468e	1.0490282
188	0x3f84fc20	1.0389442
189	0x3f832ca0	1.0247993
190	0x3f82496c	1.0178657
191	0x3f8127b6	1.0090244
192	0x3f7f1799	0.9964538
193	0x3f7dfeeb	0.992171
194	0x3f7a981f	0.9788837
195	0x3f7948b7	0.9737658
196	0x3f768a6c	0.96304965
197	0x3f74d95e	0.95644176
198	0x3f7199cb	0.94375294
199	0x3f6fe24f	0.93704695
200	0x3f6d8f42	0.9279672
201	0x3f6b9568	0.9202485
202	0x3f684df4	0.9074395
203	0x3f66b626	0.90121686
204	0x3f64a0b9	0.89307743
205	0x3f61d048	0.88208437
206	0x3f5f6cf7	0.8727564
207	0x3f5d53fa	0.86456263
208	0x3f5b8189	0.8574453
209	0x3f587dac	0.8456676
210	0x3f56f041	0.8396035
211	0x3f543932	0.82899773
212	0x3f51d86b	0.8197085
213	0x3f50116f	0.812766
214	0x3f4e2de0	0.8053875
215	0x3f4b6267	0.79447025
216	0x3f499481	0.78742224
217	0x3f467c03	0.77532977
218	0x3f4534ab	0.7703349
219	0x3f41dc80	0.7572708
220	0x3f3ff553	0.7498371
221	0x3f3d3bf0	0.7391958
222	0x3f3b8df6	0.7326349
223	0x3f39366e	0.7234868
224	0x3f36a25e	0.713415
225	0x3f352f12	0.7077495
226	0x3f338c4f	0.7013597
227	0x3f3240be	0.6963004
228	0x3f2ebf6f	0.68260854
229	0x3f2d440a	0.67681944
230	0x3f2afbb6	0.6679033
231	0x3f2a049e	0.66413295
232	0x3f26cceb	0.6515643
233	0x3f2498ea	0.6429583
234	0x3f2274db	0.6345956
235	0x3f218003	0.63085955
236	0x3f1f20ce	0.6215943
237	0x3f1c478f	0.6104669
238	0x3f1a8429	0.6035791
239	0x3f196f9a	0.59935915
240	0x3f17e1b1	0.5932875
241	0x3f14ed84	0.5817492
242	0x3f130ef0	0.5744467
243	0x3f10c753	0.56554145
244	0x3f102b94	0.56316495
245	0x3f0de6a1	0.55430037
246	0x3f0b8d28	0.5451226
247	0x3f0a4582	0.5401231
248	0x3f08242d	0.531802
249	0x3f077234	0.52908635
250	0x3f053e66	0.5204834
251	0x3f0328e1	0.5123425
252	0x3f027598	0.50960684
253	0x3f0024b6	0.50056016
254	0x3efc5a6f	0.49287745
255	0x3ef89380	0.48550034

batch_norm.0.bias f4 [400]
0	0x3f80856e	1.004072
1	0x3f537d0c	0.8261268
2	0x3f3ed97d	0.7455061
3	0x3f32cf04	0.6984713
4	0x3f2c2d54	0.67256665
5	0x3f26ebf8	0.6520381
6	0x3f23ed5d	0.6403406
7	0x3f219f8e	0.63134086
8	0x3f1f4708	0.6221776
9	0x3f1d0da1	0.6134892
10	0x3f1b723c	0.6072118
11	0x3f1aa47e	0.60407245
12	0x3f19c314	0.6006329
13	0x3f18f232	0.5974456
14	0x3f1762b5	0.5913499
15	0x3f1706e3	0.58994883
16	0x3f1690cf	0.5881471
17	0x3f15008c	0.5820396
18	0x3f1436be	0.5789603
19	0x3f1406ff	0.57823175
20	0x3f1358e8	0.57557535
21	0x3f1315cc	0.57455134
22	0x3f128328	0.5723138
23	0x3f125384	0.57158685
24	0x3f11e1e5	0.5698531
25	0x3f11ce24	0.5695517
26	0x3f0f34e7	0.559401
27	0x3f10977b	0.5648114
28	0x3f0f085a	0.5587212
29	0x3f0edda7	0.55806965
30	0x3f0e0319	0.55473477
31	0x3f0ce5db	0.5503823
32	0x3f0e03a0	0.5547428
33	0x3f0beafe	0.54655445
34	0x3f0b3d7c	0.5439069
35	0x3f0ab1df	0.5417766
36	0x3f097d53	0.53706855
37	0x3f0933f0	0.53594875
38	0x3f089b30	0.533618
39	0x3f07a375	0.5298379
40	0x3f064feb	0.52465695
41	0x3f04999c	0.5179689
42	0x3f043301	0.51640326
43	0x3f0303c8	0.51177645
44	0x3f016e9a	0.5055939
45	0x3f00221e	0.5005206
46	0x3efcb913	0.4935995
47	0x3ef8bfa9	0.48583725
48	0x3ef679ed	0.48139897
49	0x3ef311c5	0.47474495
50	0x3ef0f9ea	0.4706567
51	0x3eec4dbf	0.46153066
52	0x3ee9607a	0.45581418
53	0x3ee4757c	0.44620883
54	0x3ee1e28f	0.44118163
55	0x3edbddd0	0.42942667
56	0x3ed66211	0.41871694
57	0x3ed17719	0.40911177
58	0x3ecef58e	0.40421718
59	0x3ec9990e	0.39374584
60	0x3ec368ed	0.3816599
61	0x3ebfddd1	0.3747392
62	0x3ebb61d2	0.36598068
63	0x3eb5f74c	0.35540235
64	0x3eaf00c8	0.34180284
65	0x3eaa7d75	0.3329884
66	0x3ea6321d	0.32460108
67	0x3e9e6f19	0.30944136
68	0x3e9a877a	0.30181485
69	0x3e95c500	0.29251862
70	0x3e8e9d71	0.27854493
71	0x3e888248	0.26661897
72	0x3e83412b	0.25635657
73	0x3e76ef5c	0.24114746
74	0x3e684d51	0.22685744
75	0x3e605ea0	0.21911097
76	0x3e52bdd2	0.20580223
77	0x3e49844f	0.19679378
78	0x3e3b7e3e	0.18309876
79	0x3e3103a5	0.17286547
80	0x3e203980	0.15646935
81	0x3e17708e	0.1478903
82	0x3e094678	0.13405788
83	0x3dfa5cd0	0.12224734
84	0x3de311e9	0.110874005
85	0x3dc4657f	0.09589671
86	0x3dae239a	0.08502884
87	0x3d98001c	0.07421896
88	0x3d7ef58c	0.06224589
89	0x3d54835f	0.051883098
90	0x3d293794	0.04131277
91	0x3cf98022	0.030456606
92	0x3c94c4fc	0.018160336
93	0x3bacdf81	0.005275667
94	0xbb21d8f3	-0.0024695962
95	0xbc56762a	-0.013089696
96	0xbcbd690d	-0.023121381
97	0xbd1126a9	-0.03543726
98	0xbd300f6f	-0.04298347
99	0xbd61819c	-0.055055246
100	0xbd824c7f	-0.06362247
101	0xbd941fb9	-0.07232613
102	0xbdaa55b9	-0.083171315
103	0xbdbf44e6	-0.09339313
104	0xbdd3690d	-0.10322771
105	0xbde13275	-0.10995952
106	0xbdf55942	-0.11979915
107	0xbe077bd7	-0.13230835
108	0xbe1260f9	-0.14294805
109	0xbe1902ea	-0.14942518
110	0xbe228fde	-0.15875193
111	0xbe2c32d4	-0.16816264
112	0xbe3725a3	-0.17885451
113	0xbe41459d	-0.18874212
114	0xbe4a57f9	-0.19760121
115	0xbe559e52	-0.20861176
116	0xbe5bf0b4	-0.2147854
117	0xbe64aecc	-0.22332305
118	0xbe69e435	-0.2284096
119	0xbe78128c	-0.24225825
120	0xbe7e3d77	-0.24828134
121	0xbe84081f	-0.25787446
122	0xbe88f1cf	-0.26746985
123	0xbe8d7622	-0.2762919
124	0xbe92630a	-0.28591186
125	0xbe970c4e	-0.29501575
126	0xbe9bf1ed	-0.30458012
127	0xbe9f7a7f	-0.31148145
128	0xbea46107	-0.32105276
129	0xbea9641d	-0.33084193
130	0xbeadc0ca	-0.3393615
131	0xbeb0f5d1	-0.34562543
132	0xbeb84ec6	-0.359976
133	0xbebbda72	-0.36690098
134	0xbec0aa75	-0.37630048
135	0xbec552b3	-0.38539657
136	0xbeca81e2	-0.39552218
137	0xbeceb4f4	-0.4037243
138	0xbed30b46	-0.41219538
139	0xbed72c6b	-0.42026076
140	0xbedd9367	-0.43276522
141	0xbee1361d	-0.43986598
142	0xbee637f0	-0.44964552
143	0xbeeac9d7	-0.45857117
144	0xbef05367	-0.4693863
145	0xbef6c560	-0.4819746
146	0xbefb3d64	-0.49070275
147	0xbefeef44	-0.4979192
148	0xbf020ad4	-0.5079777
149	0xbf04734a	-0.5173842
150	0xbf0709c3	-0.5274927
151	0xbf0a0a8c	-0.53922343
152	0xbf0c5c1d	-0.54828054
153	0xbf0e7129	-0.5564142
154	0xbf1119ae	-0.5667981
155	0xbf13b7e8	-0.57702494
156	0xbf15be48	-0.5849347
157	0xbf189d9e	-0.59615505
158	0xbf1aef45	-0.60521346
159	0xbf1cf2b8	-0.6130786
160	0xbf1f0c1c	-0.6212785
161	0xbf213869	-0.629767
162	0xbf24f32e	-0.6443356
163	0xbf270d87	-0.65255016
164	0xbf286548	-0.6577954
165	0xbf2c0f07	-0.6721043
166	0xbf2e4c92	-0.6808559
167	0xbf302ac3	-0.6881525
168	0xbf31cea3	-0.6945593
169	0xbf34586f	-0.7044744
170	0xbf36ca61	-0.71402556
171	0xbf392ed8	-0.723371
172	0xbf3b91e8	-0.7326951
173	0xbf3e0f5c	-0.74242187
174	0xbf405105	-0.75123626
175	0xbf42a55c	-0.7603357
176	0xbf44a4b8	-0.7681384
177	0xbf451456	-0.76984155
178	0xbf48e175	-0.7846902
179	0xbf4a702f	-0.7907743
180	0xbf4c4e8d	-0.7980736
181	0xbf4f0c12	-0.8087779
182	0xbf5152af	-0.8176679
183	0xbf529651	-0.82260615
184	0xbf54899f	-0.83022493
185	0xbf55d941	-0.8353463
186	0xbf573f65	-0.8408111
187	0xbf5a622e	-0.8530606
188	0xbf5bc66e	-0.85849655
189	0xbf5e5814	-0.86853147
190	0xbf600c4d	-0.8751877
191	0xbf61a930	-0.88148785
192	0xbf62afc2	-0.88549435
193	0xbf656835	-0.8961213
194	0xbf675f5a	-0.9037987
195	0xbf68a544	-0.90877175
196	0xbf68fb46	-0.9100841
197	0xbf6b0e77	-0.91818947
198	0xbf6d0fb4	-0.92602086
199	0xbf6e1113	-0.92994803
200	0xbf6fa3fe	-0.9360961
201	0xbf700fa5	-0.9377387
202	0xbf72c6dd	-0.9483469
203	0xbf747b7d	-0.9550093
204	0xbf7653b2	-0.9622146
205	0xbf7771cb	-0.9665801
206	0xbf77fc04	-0.9686892
207	0xbf7914af	-0.97297186
208	0xbf7aac65	-0.97919303
209	0xbf7ce4bf	-0.9878654
210	0xbf7cfbb0	-0.98821545
211	0xbf7dd6a8	-0.99155664
212	0xbf7f1f97	-0.9965758
213	0xbf8022e8	-1.0010653
214	0xbf80a12b	-1.0049185
215	0xbf81724e	-1.0113008
216	0xbf81a6bd	-1.012901
217	0xbf824d2f	-1.0179805
218	0xbf83368e	-1.0251024
219	0xbf83662d	-1.0265557
220	0xbf835cc6	-1.0262687
221	0xbf847b2b	-1.0350088
222	0xbf83dea0	-1.0302315
223	0xbf8445a6	-1.0333755
224	0xbf859638	-1.0436468
225	0xbf855c72	-1.0418837
226	0xbf8630c4	-1.0483632
227	0xbf8644ca	-1.0489743
228	0xbf870894	-1.0549493
229	0xbf869e22	-1.0517008
230	0xbf86fc80	-1.0545807
231	0xbf874ba8	-1.0569963
232	0xbf867840	-1.0505447
233	0xbf872d4e	-1.0560701
234	0xbf879846	-1.0593345
235	0xbf87d30f	-1.0611285
236	0xbf886dac	-1.0658469
237	0xbf8709ef	-1.0549906
238	0xbf8832cc	-1.0640502
239	0xbf88375b	-1.0641893
240	0xbf895057	-1.0727643
241	0xbf8779e6	-1.0584075
242	0xbf8701ab	-1.0547384
243	0xbf883e4d	-1.0644013
244	0xbf87463f	-1.0568312
245	0xbf898a85	-1.0745398
246	0xbf86f35b	-1.0543016
247	0xbf894db0	-1.0726833
248	0xbf89708d	-1.0737473
249	0xbf89686e	-1.0734994
250	0xbf88c91f	-1.0686377
251	0xbf892696	-1.07149
252	0xbf887b55	-1.0662638
253	0xbf87c0ab	-1.0605673
254	0xbf883736	-1.0641849
255	0xbf879b35	-1.059424
