Saves/ecal_ep_60_r0.5.pth (torch, 146007 bytes, 42 tensors)

sage.0.lin_rel.weight f4 [16, 3]
000000 dc f6 d1 be 47 cc dd be 03 e0 e5 bc ec a8 35 bf
       -0.4100865 -0.43319914 -0.028060919 -0.7096088
000010 d2 70 1d 3d 79 5f 6b c0 88 7c 02 3f 63 8e 06 c0
       0.038437672 -3.6777022 0.5097127 -2.1024406
000020 17 dc 0b c0 77 92 80 bd 41 00 a8 be 3c 4d 06 3e
       -2.1853082 -0.06277936 -0.32812694 0.131154
000030 75 59 08 bf 02 22 ff bd 34 df 76 3e 07 f4 cb bd
       -0.532615 -0.12457658 0.24108583 -0.09958654
000040 8b b4 bd bd 1b 73 15 c0 ac 15 5b bf 95 42 7b 3f
       -0.092629515 -2.3351505 -0.85579944 0.9814847
000050 1d a5 85 bf 3a db b1 3e 2d 1e 29 3e fa 56 f6 bf
       -1.0441014 0.3473757 0.16515417 -1.9245293
000060 b9 ae 21 be 93 ed 46 b9 52 0b 0a 40 91 b2 da bd
       -0.15789308 -0.00018971255 2.156941 -0.1067859
000070 2c 38 f2 be 41 41 eb bf f7 9c 05 3e 0a 3a fa bd
       -0.4730848 -1.8379289 0.13048159 -0.12218101
000080 6e ab f6 bf d5 09 99 bb 53 65 d8 3e a2 06 83 3e
       -1.9271066 -0.0046703615 0.42264804 0.25590998
000090 7d 9b 82 3e 61 68 bc 3e fb ab cb bf 42 a1 e1 bd
       0.25509253 0.36798385 -1.5911859 -0.110170856
0000a0 c8 b8 29 be b9 66 13 40 a6 b4 13 bf f8 42 ec be
       -0.16574395 2.3031447 -0.5769752 -0.46144843
0000b0 9b 00 04 bf d4 8c 6f be 21 cb 59 3e f3 c7 86 be
       -0.51563424 -0.23393565 0.21268894 -0.26324424

sage.0.lin_root.weight f4 [16, 3]
000000 57 bf cf bc d4 c1 fd 3d 70 c2 95 3d 7b 70 95 3f
       -0.025359793 0.123904854 0.07312477 1.1674951
000010 90 12 a1 3c 08 28 a7 be 0c ff d0 be df f1 07 40
       0.019662172 -0.3264773 -0.40819585 2.1241376
000020 73 cc ac bd 79 9a de 3e f5 6d ca 3e 7c b3 79 3d
       -0.08437433 0.43477228 0.39537016 0.060962185
000030 29 8e 08 3f 2a a9 fb 3d 92 0d 49 3e 4c 13 07 3f
       0.5334192 0.12288125 0.19634083 0.5276382
000040 c5 a5 1b 3e 90 e9 28 be 92 fd 67 3f e3 fc 7b bf
       0.15199955 -0.16495347 0.9062129 -0.9843275
000050 0f 08 2f bc 96 80 ae 3e f8 15 1c be 5e 98 87 be
       -0.010683074 0.34082478 -0.15242755 -0.26483434
000060 dc 90 77 3e f3 1e 88 3c e0 35 ee 3e a1 10 82 3e
       0.24176353 0.01661632 0.46525478 0.25403312
000070 66 76 00 3f 9a b2 cf bd 9e 4c b0 be 14 4d b5 3d
       0.5018066 -0.101414874 -0.34433454 0.08852592
000080 68 3e 22 3d b1 ea fc be 12 11 b5 be 20 b5 8d 3e
       0.039610296 -0.49397805 -0.35364586 0.2767725
000090 ca 53 0b bf 0b 57 fd be 04 8d 02 bf 74 a6 bf 3e
       -0.54424727 -0.4948047 -0.5099642 0.3743168
0000a0 62 60 4b 3e 5c 2a ed 3e 68 c2 b2 be be 21 f4 3e
       0.19860986 0.4632138 -0.34913945 0.47681993
0000b0 29 42 c9 3b cf 35 b9 be 9b 0c b7 be 78 3b 90 3e
       0.00614192 -0.36173865 -0.35751805 0.2817037

sage.0.lin_root.bias f4 [16]
000000 7d c0 eb be 62 8e 0d be 28 32 3e 3c b9 b1 42 be
       -0.46045294 -0.13823846 0.011608638 -0.19013108
000010 51 e7 19 3c 12 45 40 be 0f 82 bc 3c 8e f2 9c be
       0.009393529 -0.18776348 0.023011236 -0.30653805
000020 77 47 0b 3d 55 f6 f7 bc a0 9a 21 3e 80 53 08 bf
       0.0340037 -0.030268827 0.15781641 -0.5325241
000030 8d 2f a3 3e 88 84 10 3e 92 ac d5 be 5b d2 a9 be
       0.31872216 0.14113057 -0.41733223 -0.331683

sage.1.lin_rel.weight f4 [64, 16]
000000 45 92 e0 3d c6 f6 17 be 8f 8c b4 3d aa a6 f2 bc
       0.10965399 -0.1484023 0.08815872 -0.029620487
000010 69 69 00 3e 31 5d 3b be 69 4f 86 be 1b 95 73 3e
       0.12540211 -0.18297268 -0.2623246 0.23787348
000020 65 b7 2b 3e a1 13 5a 3e 78 26 e6 3d 41 56 58 3e
       0.16769178 0.2129655 0.11237806 0.21126653
000030 f4 8e eb 3c 47 76 22 3e 20 d4 4e 3e 6c bb 1b 3d
       0.028754689 0.15865432 0.20198107 0.038020536
000040 3b a5 1b bd 04 04 8b 3d 3d 92 68 be 57 41 f8 bd
       -0.037999373 0.06787875 -0.22712035 -0.121218376
000050 6f 47 35 3e 46 c7 3b 3e 47 e5 4c be b3 38 2e 3d
       0.17703031 0.18337736 -0.20009337 0.04253454
000060 cc 17 04 be 96 1c c0 3d d7 da 12 bc fe 59 c2 3d
       -0.12899703 0.09380452 -0.008963308 0.09489821
000070 61 74 62 be 98 96 83 3e 9f 5f 43 be 9f eb 50 3e
       -0.22114708 0.2570083 -0.19079445 0.20402382
000080 c3 aa 7b be d3 07 65 be 8e 6f ac bd 56 db 38 3d
       -0.24576859 -0.22366266 -0.08419715 0.04513105
000090 d0 26 51 be dd 4c 28 3d 98 75 45 be bf 28 33 3d
       -0.20424962 0.041088928 -0.1928314 0.04374003
0000a0 70 15 6d 3e 6f 83 fc bd 27 31 a5 3c f9 58 cd 3b
       0.23152709 -0.123297565 0.02016504 0.00626671
0000b0 b5 5b ce bd 67 20 2b be 5b e6 df bd 1b 9b 51 3d
       -0.100760855 -0.1671158 -0.10932609 0.05117331
0000c0 63 3e 75 3c f6 75 c7 3d be 72 76 3e 73 8f c8 3d
       0.014968487 0.09739296 0.24067208 0.09792986
0000d0 df b6 c5 3d 61 d0 5c be 4c c2 3f 3e f9 99 31 3e
       0.096540205 -0.21563865 0.18726462 0.17343892
0000e0 58 93 1a be dc bf 0a 3e 70 b9 c7 3d 26 1a 2a 3e
       -0.1509527 0.13549751 0.09752166 0.16611537
0000f0 b5 10 54 bb 3c 86 3d 3d 48 c1 62 bc 7e c5 37 3d
       -0.003235859 0.046270594 -0.013840027 0.044866078
000100 e5 92 f6 3d 04 e8 ba bc 02 dc f7 bd 04 06 58 be
       0.12039737 -0.022815712 -0.1210251 -0.21096045
000110 5b 8b 9e bd 84 a8 33 be 26 13 33 be 80 c2 27 bc
       -0.07741424 -0.17544752 -0.17487773 -0.0102392435
000120 a5 07 6f 3e 53 3f 26 bd 19 30 ba 3c 32 3f a6 3d
       0.2334276 -0.040587734 0.022728013 0.08117522
000130 3d 3c 53 3e 86 fd 03 be 08 83 b5 bd d5 8d 52 3e
       0.20628448 -0.1288968 -0.08862883 0.20561917
000140 f8 f1 11 3c 09 fd 56 3e db db 29 3d 64 c5 19 3e
       0.0089077875 0.20994963 0.041469436 0.15016705
000150 1c f7 66 3c 25 d0 75 3e 95 f3 41 be fa eb c2 bd
       0.014097001 0.24005182 -0.18940575 -0.09517665
000160 0f dd 09 3d 65 ff c1 3c 14 e4 74 be 71 16 17 3d
       0.033658084 0.023681352 -0.2391513 0.036886636
000170 b2 fa b3 bd ad e4 7a 3e 8f 99 3c 3e c5 82 2e bd
       -0.08788051 0.24501295 0.18417953 -0.04260518
000180 3a 04 8f bd ec 19 69 3e 97 18 43 3e 46 57 85 bd
       -0.06983228 0.22763795 0.19052349 -0.06510787
000190 7b 9a b1 3d 21 5e 99 3d 10 0e 4d be 18 e5 32 3d
       0.08672043 0.07488657 -0.20024896 0.043675512
0001a0 53 59 5d be 01 14 66 3e b7 29 5e be 56 5d 41 be
       -0.21616106 0.22468568 -0.216956 -0.18883261
0001b0 83 34 5f 3e 39 8f 41 3e 4b 41 5f 3e e5 ee 1f 3e
       0.21797375 0.18902291 0.21802251 0.15618475
0001c0 43 6b 6d be a1 d2 3b 3e ad be f9 3c 3f fd 4a 3e
       -0.23185448 0.18342067 0.03048643 0.19823168
0001d0 23 fe 69 3e 1f 42 69 3e 8b bf 54 be ea 17 0a 3e
       0.22850852 0.2277913 -0.20776193 0.13485685
0001e0 f1 38 42 bd 9b b3 8f bb f0 23 79 be 54 3c eb bc
       -0.047417585 -0.0043854243 -0.24330115 -0.02871529
0001f0 a0 99 a6 3d f3 55 6b bd 26 43 95 bc 0c d3 84 3c
       0.081347704 -0.057455014 -0.018220495 0.016213916
000200 8e dc d7 3d ff e9 45 3d 22 28 93 3d ac ec 6d bd
       0.10540114 0.04831886 0.07185389 -0.058087036
000210 a8 b2 06 3e 29 8d 8a 3d b0 84 1f 3e cc af 8d 3d
       0.1315409 0.067652054 0.1557796 0.06918296
000220 97 09 d5 bd 1f 0e 3c 3e e2 32 40 3c 92 31 76 be
       -0.1040222 0.18364762 0.011730881 -0.24042347
000230 3b d2 d0 bd b4 41 29 bc 10 46 f3 bd e8 78 e1 bd
       -0.10196348 -0.010330606 -0.11878598 -0.11009389
000240 d9 c5 b9 3b 83 1b 64 3e 40 ab 87 3d 26 2a 08 3e
       0.005669337 0.2227612 0.0662446 0.13297328
000250 ec 9f f0 3d ac ee 4d bd 35 b6 64 be 6c d8 3c bd
       0.11749253 -0.050276443 -0.22335131 -0.046104833
000260 4e 25 a9 3d 8c 78 2b be 36 1d 68 be 27 bf 0f be
       0.082590684 -0.16745204 -0.22667393 -0.14037763
000270 3f 38 ab bd 97 31 4b 3e da 35 63 bd 1f e3 f9 3d
       -0.083603375 0.19843136 -0.05547128 0.12201523
000280 82 3e 73 bc 6e 41 12 be be 4f 14 3e 3e 2d b6 3d
       -0.014846446 -0.14282772 0.14483544 0.08895348
000290 ac 77 47 3e 4c 6f 6a 3e d8 e2 f4 3b 94 b1 6f 3e
       0.19479245 0.22894019 0.007473331 0.23407584
0002a0 c3 d3 4e bd 56 de c0 3d 2a 80 5c 3e c7 5d 17 3e
       -0.05049492 0.09417407 0.21533266 0.14781867
0002b0 a7 8c 83 3b c7 d6 3f 3e d2 c4 8c bd 8f b5 10 bd
       0.00401457 0.18734275 -0.06873478 -0.035329398
0002c0 3b c6 72 be 4e 9a 22 be 0d 90 58 be c2 89 3f be
       -0.23708431 -0.15879175 -0.21148701 -0.18704894
0002d0 76 39 66 3c 16 48 ab 3d 34 24 3a be 67 1f 02 be
       0.014051786 0.08363359 -0.18177873 -0.12707292
0002e0 4e 19 34 3d 1a cf 81 bc 73 8f ec 3d 0a b3 00 be
       0.043969445 -0.015845824 0.11550798 -0.12568298
0002f0 3e b4 69 3e 54 c8 3f 3d 5a 54 a4 3d aa 24 4a be
       0.22822663 0.046821907 0.08023901 -0.19740549
000300 0b 9f dd bd 51 5f 41 3d 16 1d 44 be 4b 75 0b be
       -0.10821351 0.04721004 -0.1915172 -0.13618962
000310 5e e3 6e 3e b0 3d 2a 3e ea 04 83 be d1 4e b7 3d
       0.23328921 0.16625094 -0.25589687 0.0895058
000320 81 35 c5 3d 12 58 dd 3d 3c 81 30 3e ba ce 4e be
       0.09629346 0.10807814 0.17236799 -0.20196047
000330 88 f6 6f 3d 67 2d 56 3e a8 c9 98 bd 02 14 a2 bd
       0.05858472 0.20915757 -0.07460338 -0.079139724
000340 6b ae 25 3d b1 05 28 bd 7f a9 8c 3c 4f d0 4e be
       0.04044954 -0.041021053 0.017170666 -0.20196651
000350 f9 55 0c 3e b1 b5 31 3e 98 31 1e be 39 58 fb bc
       0.13704671 0.17354466 -0.15448606 -0.030681716
000360 f5 f8 b8 bd 3c 2f 77 3e d3 49 98 3c a5 1f d7 3d
       -0.0903186 0.24139112 0.01858989 0.105040826
000370 67 2c 02 be e5 4d 7a 3d 20 7e ad bd 9a ac ad 3d
       -0.1271225 0.061109442 -0.08471322 0.08480187
000380 d5 e3 b9 3c 21 e6 1c be 29 84 2d 3e f2 61 0c be
       0.022691647 -0.15322162 0.16944946 -0.13709238
000390 4c 69 dd bd cc c9 91 3d e0 7a 99 bc 23 07 63 3d
       -0.108110994 0.07118568 -0.01873535 0.055426728
0003a0 4f bc 99 bd 6e 71 37 be 2e ef 12 be 37 9b 61 bd
       -0.0750662 -0.17914364 -0.14349052 -0.055079665
0003b0 e9 0d 18 bd 37 70 11 be 4f c2 a8 bd d4 c9 a8 bd
       -0.03712264 -0.14202963 -0.082401864 -0.08241621
0003c0 d5 ef 83 be 43 6e 33 be d9 74 2b 3e cf e7 56 3e
       -0.25768915 -0.1752253 0.16743793 0.20986865
0003d0 5b 66 71 3e c1 2d 01 3e e4 17 db bd ef 81 56 be
       0.23574202 0.1261511 -0.10697916 -0.20948003
0003e0 e7 ac 3e 3e 18 f9 20 bc 32 1c 2d 3e ff 26 0f be
       0.18620645 -0.009825014 0.16905287 -0.1397972
0003f0 59 3d 53 be ff b2 4b be 6a 45 b6 bb 8a 7e 1d 3e
       -0.20628871 -0.198925 -0.005562474 0.15380302

sage.1.lin_root.weight f4 [64, 16]
000000 3b aa 7d bd 15 a8 ce bd a8 73 13 3d 9b f8 7d bd
       -0.061929923 -0.10090653 0.03599897 -0.062004667
000010 c0 52 49 be f4 00 db 3d a9 96 c6 bd 15 27 7f be
       -0.19660473 0.10693541 -0.09696705 -0.24917252
000020 e1 e5 71 be 9c 20 66 3e 73 62 da bc 71 c0 2a 3e
       -0.23622848 0.22473377 -0.026658272 0.16674973
000030 0e 10 48 be f5 c6 ce bd a0 df 81 3e 10 6f 0f 3e
       -0.19537374 -0.10096542 0.25365925 0.1400721
000040 d0 7a 3e 3e cc 3c 2c be 48 3d e7 bd 80 01 e6 3c
       0.18601537 -0.16820067 -0.11290985 0.028076887
000050 0c 39 8d 3d d1 a9 75 bd 72 58 5c 3c d7 cf 1b 3e
       0.068956465 -0.059976403 0.013448821 0.15216003
000060 56 71 52 3e f8 b7 92 bd 0f b8 b2 3d 92 29 1d be
       0.20551047 -0.071639955 0.08726513 -0.15347889
000070 e9 1d 84 3e 19 2d 62 3e d4 ad bf bd d0 d5 d5 bd
       0.2580407 0.22087516 -0.09359327 -0.10441172
000080 a0 c3 b1 3d 9e 9f 63 bd 56 64 b2 bd 86 80 77 3e
       0.08679891 -0.055572145 -0.08710544 0.24170122
000090 06 e6 80 be 34 6a 50 3c bd 7a 15 3e 41 38 a3 3d
       -0.25175494 0.012720633 0.14597602 0.07969714
0000a0 74 5f 6d 3e 1b cd 0b be 0e 02 3f 3e ae a1 eb 3d
       0.23180944 -0.1365246 0.18653128 0.11505447
0000b0 f0 18 0b 3e e8 05 ea bd 71 40 01 3e 5e b6 7c be
       0.13583732 -0.11426908 0.12622239 -0.24678943
0000c0 52 fb 0b 3e 57 aa 5f 3e 5a 0d 5e 3e ed b7 41 be
       0.1367009 0.21842323 0.2168478 -0.18917818
0000d0 79 c3 36 3e 7f 58 6a 3e 9c c3 f7 bc cb 8c 6b 3e
       0.17848004 0.22885321 -0.030244641 0.23002927
0000e0 b6 32 68 3d fa 61 3b 3d 26 c0 b2 3d eb 63 2b 3e
       0.056688987 0.045747735 0.08728056 0.16737334
0000f0 1f 00 d0 bd 32 d8 0d be 64 b6 9c bd e2 15 16 be
       -0.10156273 -0.13852003 -0.07651976 -0.14656785
000100 eb 02 cb 3c a3 5f 7c 3e 60 c9 1d 3d 42 35 2d 3c
       0.024781665 0.24645858 0.038522124 0.01057178
000110 3b 39 55 bd 29 b9 72 be a4 e3 81 bd 04 bc 32 3d
       -0.052056532 -0.23703445 -0.06342247 0.043636337
000120 70 c4 92 bd 33 14 57 3e f1 cd c6 3d 1f 5a 75 bd
       -0.07166374 0.21003799 0.09707249 -0.0599004
000130 4a f0 86 3d 92 3f 3b be 81 f0 9b bd 2c 85 86 3d
       0.065888 -0.18285969 -0.07614232 0.06568369
000140 fa e4 e1 3b f4 c6 2d 3e 72 64 4f 3c 68 a2 b7 bd
       0.006893751 0.16970426 0.012658225 -0.089665234
000150 bf 0f 36 3e 1a 60 45 3e 91 bc d7 3d 37 73 3c 3d
       0.17779444 0.19274941 0.10534013 0.046008315
000160 e9 87 09 be dd 8e c2 3d a6 5b b8 bd 98 9e 38 be
       -0.13430752 0.09499905 -0.090018556 -0.18029249
000170 69 99 d4 bd e2 40 a6 bd 07 ad 46 bc ef 61 c3 bc
       -0.10380823 -0.08117844 -0.012126214 -0.02385041
000180 ac d4 47 3d 50 78 a7 bc d8 9b 90 3d b1 26 48 3e
       0.048786804 -0.020443112 0.07060975 0.1954601
000190 80 ca 87 3d 6c 80 09 3e 41 b3 44 be 59 de bd bd
       0.06630421 0.13427895 -0.19209005 -0.09270925
0001a0 ec 3a 7e be be 67 b0 bd d2 c1 6a be 23 2d 18 3e
       -0.24827164 -0.08613537 -0.22925499 0.14860968
0001b0 a1 74 17 be c5 2f 66 be fd 31 b2 bd f7 bf 9c 3d
       -0.14790584 -0.2247916 -0.08700941 0.07653802
0001c0 31 5f 55 3e aa 31 1c be 61 d2 0a 3e 6c b1 8a 3d
       0.20837094 -0.1525332 0.13556816 0.06772122
0001d0 c5 33 3a be 08 e9 b3 bd 65 49 03 3e 7a a8 e6 3c
       -0.18183811 -0.087846816 0.12820967 0.028156508
0001e0 1d 09 34 3d 06 ce 42 be d5 e1 73 3d be a4 56 3e
       0.043954004 -0.19023904 0.059541542 0.20961282
0001f0 87 7d 30 3e b3 3b 42 be 47 8a f2 3d ac 7c 6a 3e
       0.17235385 -0.18968086 0.118427806 0.22899121
000200 6a d3 47 3e 0d 7d 91 ba 90 d6 f5 3c f8 ca 6b bd
       0.19514242 -0.001109989 0.030009538 -0.057566613
000210 76 3d 93 3d 0a 9f 6c be 9d 49 65 bd 6c 31 a3 3c
       0.07189457 -0.23107544 -0.055978406 0.019921027
000220 5d 6c 08 be 59 49 44 be da 7d 68 be 5d da 3b be
       -0.13322587 -0.19168605 -0.22704259 -0.18345018
000230 5d c1 1c be cc 15 6f be 25 7e 4a be bf b5 0b be
       -0.15308137 -0.23348159 -0.19774683 -0.1364355
000240 dd 9a 00 3e 9f 7c 13 3e e0 68 15 be 21 cc 68 be
       0.12559076 0.14403008 -0.14590788 -0.22734119
000250 e9 4b 19 be e9 a8 27 be b1 9c 1f 3e d7 4d d4 3c
       -0.14970364 -0.16373028 0.15587117 0.025916023
000260 1a 7d ed bc 32 c6 00 bd 59 1f 2f bd 3c 97 2a be
       -0.028990317 -0.031439014 -0.042754505 -0.16659254
000270 ca aa d1 bd 2c e6 06 3e 16 ff 46 be 18 2d 77 3e
       -0.102376536 0.13173741 -0.19433245 0.24138296
000280 18 37 44 3e c6 87 70 be 4e 3c 12 3d b2 86 06 3e
       0.19161642 -0.23489293 0.035702042 0.1313732
000290 c3 ac af bd 08 aa 0c 3d 89 3c 59 3e 7f ac fa 3d
       -0.085778736 0.034341842 0.21214499 0.12239932
0002a0 76 cd 64 3e f9 13 fd 3d 4a 06 1d be 34 ef 00 be
       0.22344002 0.12357325 -0.1533443 -0.12591249
0002b0 b6 2c 59 be 97 ce 71 3d 9a 70 34 be c4 61 4d 3e
       -0.21208462 0.05903491 -0.17621079 0.20056826
0002c0 de d7 06 3e 97 fc 60 bd e2 76 1e 3e 3e 68 07 be
       0.13168284 -0.05492839 0.15475038 -0.13223359
0002d0 73 6e 2d 3e 44 78 17 be 71 8d 68 bc fb 3c b4 bd
       0.16936664 -0.14791971 -0.0141938785 -0.088006936
0002e0 26 1c 6b bc 24 b9 4f be 70 24 b4 3d 2c 27 d2 bd
       -0.014349973 -0.2028547 0.087960124 -0.10261378
0002f0 a6 4b 07 be 7e 72 1b 3e 9c 76 67 3e dd 93 e7 3d
       -0.13212451 0.15180394 0.2260384 0.113074996
000300 62 72 b8 3d d1 7f 6e 3e 4c 78 e6 bd 30 89 3d 3e
       0.09006192 0.23290946 -0.112534136 0.18509364
000310 4b c7 54 3e 74 46 b2 3d af 00 2f be a1 ae bf 3d
       0.20779149 0.08704844 -0.17090105 0.0935948
000320 8a be b9 bd 7a 65 5f be 55 dc 52 3e 6d 48 b6 3d
       -0.090695456 -0.21816054 0.20591862 0.08900533
000330 42 1c a7 bd 89 ab 17 3c 54 bf 55 be 0b 60 a1 bd
       -0.081596866 0.009257206 -0.20873767 -0.07879647
000340 46 34 e5 bd e8 97 6f bd f3 06 75 bd 6e 2b 89 bd
       -0.11191611 -0.05849448 -0.05982108 -0.06697737
000350 60 b8 50 be fd 2c df bc 5c 17 da bd 71 89 d7 bd
       -0.20382833 -0.027243132 -0.10648987 -0.10524262
000360 71 b7 44 3e d2 f0 8e 3d 2a fc 18 be 32 1a 1f be
       0.19210602 0.069795266 -0.14939943 -0.15537336
000370 3b a4 7c 3e 18 09 fe bd 17 61 70 3d 0f 47 a6 3d
       0.24672024 -0.12404078 0.058686342 0.08119022
000380 69 1b 27 be ae 76 1f 3d d5 cf ab 3e 62 de e2 3d
       -0.1631905 0.03893154 0.33557 0.110775724
000390 70 fa b5 bd aa 7c 20 3e 93 7a 33 3e 66 c6 12 be
       -0.08885658 0.15672556 0.17527227 -0.14333495
0003a0 c1 54 92 bc b4 cc 48 3e e9 a4 4d be 54 8e 48 3d
       -0.01786268 0.19609338 -0.2008244 0.04896386
0003b0 9a c9 82 ba 58 b6 25 3e b9 0d 69 bd c8 81 59 bc
       -0.0009978295 0.1618284 -0.056897853 -0.013275571
0003c0 fe fb 20 3e 2a de c9 3b 3e 33 06 3e 4d 03 51 3e
       0.15721127 0.006160517 0.13105485 0.20411415
0003d0 63 2e 13 be 90 2e 9b 3d d9 bf 9f bd c1 d1 5b be
       -0.14373164 0.075772405 -0.07800264 -0.21466734
0003e0 c4 e1 f8 3d 0a 52 bf bd 53 22 39 bd 02 02 55 be
       0.121524364 -0.093418196 -0.04519875 -0.20801547
0003f0 0d e5 77 3e 98 79 fc 3d f8 8f ed bd c2 05 53 3e
       0.2420847 0.1232788 -0.115997255 0.20607665

sage.1.lin_root.bias f4 [64]
000000 ae 48 e8 bd 63 14 dc 3d 64 37 8a bc de ce 4e 3d
       -0.113419876 0.10746076 -0.016872115 0.050490253
000010 eb 85 2e 3d d9 2e ac bc 1e c1 53 bc a9 18 4a be
       0.042608183 -0.021018432 -0.012924461 -0.1973597
000020 86 a2 47 be 56 98 49 bd d0 b9 17 be 9e d5 72 bd
       -0.19495592 -0.049217544 -0.14816976 -0.059285752
000030 f4 81 3f bd f6 1a 05 be 10 3b 7e be 59 96 d9 3d
       -0.046754792 -0.12998566 -0.24827218 0.1062438
000040 9b ad aa 3d 46 a8 5b 3e 27 c5 f4 bd ab df 14 bd
       0.08333894 0.2145091 -0.11951666 -0.03634612
000050 28 d7 61 3e e2 05 3a 3e 1d 0c 79 3e f3 a8 84 bc
       0.22054732 0.18166307 0.24321027 -0.016193843
000060 55 f9 1d 3e 6c 7b db 3f f7 07 b1 3a ba 5c b6 3d
       0.15427144 1.714704 0.0013506402 0.08904405
000070 c7 a2 62 be 4b 1a 13 be 98 d5 e6 3d 08 e7 3b 3d
       -0.22132407 -0.14365499 0.112712085 0.045874625
000080 1f a9 b8 bc 5e 91 aa bd d6 c4 3c 3e 13 fd 20 bd
       -0.02254158 -0.08328508 0.18434462 -0.03930385
000090 e7 3c 81 bd d7 c1 7c be b1 a0 2c 3e a8 5c 49 be
       -0.06310444 -0.24683319 0.16858174 -0.19664252
0000a0 f7 e6 f7 bd 4b e1 b7 bd 4b 33 c6 3d 82 e4 63 3e
       -0.121046 -0.08978518 0.09677752 0.22255138
0000b0 a0 a0 70 3e 73 b6 4d 3e 36 a9 20 be f9 01 49 be
       0.23498774 0.2008913 -0.15689549 -0.19629659
0000c0 1b eb a6 3e 66 a9 ca 3d b0 e7 00 be 31 df 55 be
       0.32601246 0.098955914 -0.12588382 -0.20885922
0000d0 65 c5 86 bd a5 6b 8e 3d a7 5f 65 bb d5 b3 41 be
       -0.06580619 0.06954125 -0.003499964 -0.18916257
0000e0 15 63 03 be 80 d8 87 bd c2 d8 2f bd 63 57 e2 3e
       -0.12830766 -0.06633091 -0.042931326 0.44207296
0000f0 f8 27 80 3e e0 a5 4a 3c 30 2a 1d be d7 de 08 3e
       0.25030494 0.012368649 -0.15348125 0.13366257

sage.2.lin_rel.weight f4 [64, 64]
000000 71 dd 4e bd 3e 6d 3c 3a bb bc b8 3d 4f 37 c9 3d
       -0.05050415 0.0007187909 0.090203725 0.098250024
000010 92 e3 be bc c1 ea ce 3d 70 f3 7a bc ba d3 ba 3d
       -0.023301873 0.101033695 -0.015316829 0.09122415
000020 cc e8 f1 bd 1e 79 8c 3d 5d 1b 11 bd 9c ef de bc
       -0.118119806 0.06859039 -0.035426486 -0.027213864
000030 97 6b 3c bd 52 5a d8 bd d1 6c d1 3d 9c cb 3e bd
       -0.046001043 -0.10564102 0.10225833 -0.046580896
000040 f2 b4 d4 3d 20 2c 8b bd a7 d5 b7 bd 7d 58 8b bd
       0.10386075 -0.067955256 -0.08976298 -0.06803987
000050 ea f2 a9 bc 09 b9 5e bd 7c 1e 2c bd ed 2e fa bd
       -0.020745713 -0.054375682 -0.04202126 -0.12215982
000060 4e 38 e8 3d 30 c5 25 bd bb 5d c2 bc 29 d4 de 3d
       0.11338864 -0.040471256 -0.023726335 0.1088031
000070 91 84 4f bc fb 3e b5 bc 21 65 e1 bc 0c d9 58 3d
       -0.012665884 -0.022124758 -0.027514042 0.052941367
000080 07 4e a9 bd aa c5 a1 3d 2b 02 9e 3d ed 40 f7 bc
       -0.08266836 0.078990296 0.07715257 -0.030182326
000090 74 a4 60 3d cf 93 52 3c e9 6b 55 bd 0c 3d 84 bd
       0.054844335 0.012852623 -0.052104864 -0.06456956
0000a0 f0 85 ab bb 19 a1 59 3d 59 87 39 bd 4b 21 43 bd
       -0.0052344725 0.05313215 -0.045295093 -0.047639173
0000b0 97 88 bd bd 76 4f 3c 3d 10 b8 4e bd 7f 06 24 3c
       -0.09254568 0.045974217 -0.050468504 0.010011314
0000c0 8f 26 c7 3d a3 df bf bc 43 2b 3a 3d f7 64 ac 3d
       0.09724151 -0.023422068 0.045451414 0.08417695
0000d0 b4 d0 a2 3d d8 8a 18 bd 0a 93 26 3d 26 c2 9f 3d
       0.07949963 -0.037241787 0.04066757 0.07800703
0000e0 d9 b7 64 bc 66 4a 41 3d 4e 4b ea bc d1 71 43 3d
       -0.013959848 0.047190093 -0.028600361 0.047715966
0000f0 a2 d3 98 bd aa b4 96 bd 31 b3 dd 3d 8b 1b 2f 3d
       -0.07462241 -0.07358678 0.10825194 0.042750876
000100 19 93 a0 bd 2c 87 ab 3d 16 41 ed bc 91 fc a8 3d
       -0.07840557 0.08375391 -0.0289617 0.08251298
000110 95 9c 97 3d 39 f2 e8 3d 7f a7 b5 3d b8 49 b3 3d
       0.074029125 0.11374325 0.08869838 0.08754295
000120 23 b1 d8 3d 34 22 75 3d 60 9f 85 bd 31 73 a1 3d
       0.10580661 0.05984707 -0.06524539 0.07883299
000130 ba 83 8c bb be c3 28 3d 91 ed a7 bd 41 f1 51 bd
       -0.004288164 0.0412023 -0.08199609 -0.05125547
000140 75 47 03 bd c6 31 2e bd 99 be 88 3d 48 d5 a7 3d
       -0.03205057 -0.042527936 0.066769786 0.08194977
000150 59 05 34 3c f4 63 e3 3b c1 1f 99 3d 29 a6 1d 3d
       0.010987603 0.0069394056 0.0747676 0.03848854
000160 0a f3 83 bc 3f a6 81 bd 0b 71 54 bd 0a 3f c3 3d
       -0.016107101 -0.06330537 -0.05186562 0.09533508
000170 60 e6 e3 bd b6 2a 48 3d d3 ae b9 bd 03 06 b2 3d
       -0.11127925 0.048868857 -0.09066548 0.08692553
000180 03 b1 68 bc 7d d0 16 bd c3 47 7c 3d 12 06 73 bd
       -0.014202359 -0.036819924 0.061591875 -0.05933196
000190 ec e8 94 bd fd eb 56 bc d3 74 b5 bc 4e 11 a4 3d
       -0.07270989 -0.013117787 -0.022150433 0.08011113
0001a0 4c ef d4 3a ef 55 25 3d 73 79 c6 ba 9b 6d a4 3d
       0.0016245632 0.040365156 -0.0015142396 0.08028718
0001b0 23 72 c9 3d da 9d 7e bd ad 1f f7 bd 0f 4d 86 bd
       0.09836223 -0.062162258 -0.120665886 -0.065576665
0001c0 8b 13 a0 bd 13 14 99 3d 8d 0c dc 3d 08 96 28 3d
       -0.078162275 0.07474532 0.10744581 0.041158706
0001d0 a4 f8 64 bd 47 70 b5 3d 58 0b 95 bd 40 2b 8d 3d
       -0.055901185 0.08859306 -0.07277554 0.06893015
0001e0 96 c6 aa bc 87 f9 dc bb d6 2f 91 3c 48 50 ac bd
       -0.020846646 -0.006743613 0.017723005 -0.0841375
0001f0 98 d3 83 3d 1f 09 bc bd 8d b8 26 3d 76 67 71 3d
       0.06436843 -0.09181427 0.040703345 0.05893656
000200 40 12 e8 3d 0f d7 73 3d b9 db 7b bd 4a c2 7d bd
       0.11331606 0.059531268 -0.06148884 -0.061952867
000210 b3 68 49 bd 9d 3c d1 3c bd 99 08 3d 80 7d 2b be
       -0.049172115 0.025541598 0.03334974 -0.16747093
000220 9f 69 01 be 91 d6 da bd 9d 37 a8 39 bc ca d5 3d
       -0.12637947 -0.106854565 0.00032084892 0.10439059
000230 a4 88 9b 3d 46 41 32 3d 7e a6 c6 bd 74 5c 83 3d
       0.075944215 0.04351928 -0.096997246 0.064141184
000240 49 d8 ac bd 51 cf 3f 3d a6 59 17 3d 69 e5 81 bd
       -0.084396906 0.04682857 0.03695073 -0.06342585
000250 73 07 15 be 82 2f c7 bd e1 0d 94 3d 2c c1 c9 bd
       -0.14553623 -0.09725858 0.0722921 -0.09851298
000260 43 3f 06 3e 5c 9c 9d 3e 8b 0f 56 bd 69 3a dd bd
       0.1311007 0.30783355 -0.052260917 -0.108021565
000270 e3 76 a4 bd 91 d2 e2 3c 49 ab c0 bc 0b 6e 72 bc
       -0.08030488 0.027688297 -0.023519175 -0.014796744
000280 fe 16 b4 bd ab 1c 89 bd 4f fd fa 3d 49 b1 ee bd
       -0.08793448 -0.06694921 0.12255346 -0.11654908
000290 c9 13 42 3c 35 57 01 be 2b ef 13 bd a8 5b 95 bd
       0.011845537 -0.12630923 -0.03611676 -0.07292873
0002a0 86 46 15 be 2c c7 b1 bd d9 c3 3c be 12 09 3c bd
       -0.14577684 -0.08680567 -0.18434085 -0.045907088
0002b0 0c 36 be 3d b6 ef 84 3d 21 c8 08 be ef 20 0c bc
       0.092876524 0.06491034 -0.13357593 -0.008552774
0002c0 f0 08 5e bd 85 9b a7 bc 55 bc c9 bd a8 50 33 bd
       -0.054207742 -0.0204599 -0.098503746 -0.04377809
0002d0 07 8f 8a bd 7c 72 79 3d 2a 4e 9e 3c fb 99 ed bd
       -0.067655616 0.060900196 0.01932438 -0.11601635
0002e0 33 5a 5b bd b5 78 39 3d 81 b2 eb 3c 5e 91 25 3d
       -0.053552818 0.04528113 0.02877164 0.040421836
0002f0 03 26 9f 3b 45 b4 90 3c 8e 60 c7 3c 61 00 a7 3d
       0.0048568263 0.017664084 0.024338033 0.08154369
000300 b5 48 5f bd fa 2e ad 3d 3b d3 5b 3d 78 d7 9e bc
       -0.0545127 0.08456226 0.053668242 -0.019389853
000310 e7 b9 18 bd dc 2f b5 bb 5f 88 9a bc f2 17 cd bc
       -0.037286665 -0.005529387 -0.018863855 -0.025035832
000320 ec 8e 3b 3d 14 17 f2 3c f0 fe a3 bd e0 fe ee bc
       0.045790598 0.02955202 -0.0800761 -0.029174268
000330 26 ad c9 3d db 62 47 3c 15 c3 15 bd 4a 18 dd 3d
       0.098474786 0.012169565 -0.036562998 0.107956484
000340 bb 68 83 bc 83 ee 90 bd ab 91 a4 bd cc 6b 61 3d
       -0.01604115 -0.070767425 -0.080355965 0.055034444
000350 a8 b7 e4 3d f9 a1 83 3d c4 1d 5d bd d8 84 31 bc
       0.11167842 0.06427378 -0.053983465 -0.010834895
000360 18 7c 27 bd 9a df d4 bd 95 0b 88 3d a4 23 cd 3d
       -0.04088983 -0.10394211 0.06642834 0.100165635
000370 bd 0e 0b bd 60 f3 52 bd 89 37 10 3d c6 8a fb bd
       -0.033949602 -0.05150163 0.035209212 -0.12282328
000380 db d6 de bc 93 f4 e4 bd 9d 02 5b bc f8 d5 05 3e
       -0.02720206 -0.11179461 -0.013367322 0.13069904
000390 55 3f 23 3c ce c9 a6 bd 08 5b e4 bd 53 1d 6a 3d
       0.00996383 -0.0814396 -0.11150175 0.057156872
0003a0 d6 91 ff bc 0f 65 d5 3c b2 4f bb bc f4 fa c1 bd
       -0.03119747 0.026049165 -0.02286515 -0.09471694
0003b0 da 4b 9c bd cc 3f ca bd cf 89 14 3c 0f c6 d2 bd
       -0.07631655 -0.098754495 0.009066059 -0.10291683
0003c0 06 74 80 bd 9e 74 9f 3d 1e e4 07 bd 60 6d 3e bd
       -0.0627213 0.07785915 -0.033176534 -0.046491027
0003d0 3a 67 53 3d e5 6a 21 bb 8c f1 b4 3d c7 e8 2a 3d
       0.051612116 -0.0024630364 0.08835134 0.0417259
0003e0 73 e5 83 3d 38 ba c9 bd 1c 9a 91 bd 74 98 a4 3d
       0.06440248 -0.098499715 -0.07109472 0.080368906
0003f0 3b de d7 3d fe 12 18 bd 20 65 e3 3d 1d 21 08 3e
       0.10540434 -0.037127487 0.111032724 0.13293882

sage.2.lin_root.weight f4 [64, 64]
000000 f4 fa ff 3c 65 7c 47 3d 37 b1 70 bd b1 12 95 bd
       0.031247593 0.048702616 -0.058762755 -0.07278956
000010 b1 24 53 3d 75 e4 a3 bd 76 7e 5e 3d d4 4b bd 3d
       0.051548664 -0.08002559 0.05431982 0.09242979
000020 10 c8 9f bd f8 dc 4e 3d 25 93 1f 3d 4d 15 86 bd
       -0.07801831 0.0505037 0.038958687 -0.065470316
000030 cc 2d 43 3d 9b bf a0 3d d1 6e 27 bd 53 89 4d bd
       0.047651097 0.07849046 -0.040877167 -0.05017979
000040 33 ee d0 bd 3f 38 d0 3d 61 c9 ef bc 29 f4 7e bd
       -0.10201683 0.10166978 -0.02927083 -0.062244568
000050 a2 74 2a bd eb 28 b6 3c d9 2f 20 bc 90 5b 27 3d
       -0.041615136 0.022236308 -0.009777033 0.040858805
000060 48 b6 90 bd 16 46 61 bd 04 4f 8e 3c 9c e0 19 bc
       -0.070660174 -0.05499848 0.017371662 -0.00939193
000070 2c fd 95 3d ca c2 2f 3d bd 74 b2 3d 6d 52 5e 3d
       0.07323679 0.042910375 0.08713672 0.054277826
000080 a2 3d f6 bb e0 29 cf bd 2f 50 26 3d 5e 55 f8 bd
       -0.0075146714 -0.10115409 0.040603813 -0.121256575
000090 a5 ee 7f bd 46 82 ec 3c 2a f9 6c bd 13 53 87 3d
       -0.06248345 0.028870713 -0.05785481 0.06607642
0000a0 67 09 ab 3c fa 76 56 bd 46 f4 88 3c a0 6c a4 bd
       0.020878507 -0.05235956 0.016718041 -0.08028531
0000b0 1d dc dd 3c 2d b1 c8 3d 01 9d b0 3c 46 80 56 3d
       0.027082497 0.097994186 0.02155924 0.052368425
0000c0 57 d1 e0 3c 3f c8 58 bd 6f f8 cb bb bd 52 5f bc
       0.027443571 -0.052925345 -0.006224684 -0.013630566
0000d0 f5 49 bd bd 5e 36 ff 3d 22 c9 29 3d 97 06 9c bd
       -0.09242622 0.124615416 0.04145158 -0.076184444
0000e0 1d 80 11 3d 7a ee dd bd 0f 40 a5 bc dd 5f af 3d
       0.03552257 -0.108365014 -0.020172147 0.08563206
0000f0 d9 1c 8b 3d 08 26 aa 3d c6 86 2b 3d ee cf f5 bd
       0.06792612 0.08308035 0.041876577 -0.1200255
000100 d9 a3 f6 bc 5d b3 a6 3b 1a 81 9b 3d b8 be 5c 3d
       -0.030107426 0.0050872997 0.075929835 0.05389282
000110 db 93 15 bd 45 bb e7 3c 78 b7 93 3d 5b ba df 3d
       -0.03651796 0.02828754 0.07212728 0.10924216
000120 4d 7c 04 3d 97 33 fa 3d 24 00 dd 3d 9d 24 9f 3c
       0.032345105 0.12216871 0.107910424 0.019426638
000130 9d 90 ea 3d a8 80 ac 3d 9b b4 04 be c5 09 99 bb
       0.11453364 0.08422977 -0.1295952 -0.004670354
000140 bf 6f a1 3d c0 e5 78 3b 10 98 bf 3d d1 89 ae bd
       0.07882642 0.0037978739 0.093551755 -0.0852238
000150 67 7d c1 bd ea 65 30 3c aa 86 7d bd 1b d8 a2 bc
       -0.09447747 0.010766486 -0.061896004 -0.019878438
000160 15 77 66 3d 4b 28 65 bc b6 59 98 3d a0 2d b7 bd
       0.05626591 -0.013986657 0.07438986 -0.08944249
000170 8e 0f 00 3d 98 5d d5 bd a7 be 0c 3d bd ea 6a 3d
       0.031264834 -0.10418242 0.034361508 0.05735277
000180 e6 a6 e8 3d f6 13 e4 bd 3b 27 91 3b 13 c5 e5 3d
       0.11359958 -0.1113662 0.0044297255 0.112192295
000190 66 9e 84 bd 17 e4 84 3d 4c ea 8f bd 94 a2 ab 3d
       -0.064755246 0.06488817 -0.070271105 0.08380619
0001a0 dd d2 9e 3d 21 32 72 bc 5c ea b8 bd f4 b8 70 ba
       0.07755063 -0.0147824595 -0.090290755 -0.00091828336
0001b0 c2 15 46 bd 67 1b ca 3d 48 14 e2 3d a6 7b d0 3d
       -0.048360594 0.09868508 0.110390246 0.10179834
0001c0 0d 8d ea 3d e0 62 9b 3d 7b 29 84 bd 36 91 5a 3d
       0.114526846 0.07587218 -0.06453224 0.05336114
0001d0 6d a4 a3 bd 5f 5f 8c 3c 19 9d a4 3d de 71 32 bd
       -0.07990346 0.01713532 0.080377765 -0.043565623
0001e0 f3 2b 8f bd b1 93 1e bb 2b dc bb bd f3 e8 c8 3c
       -0.069908045 -0.0024196918 -0.09172853 0.024525141
0001f0 5c 49 7a 3b 45 46 6b bd b7 e6 bd bc 22 8d 01 3d
       0.0038190698 -0.05744006 -0.023181302 0.031628735
000200 08 2a c8 bd f0 74 a5 bc 00 35 53 bd 14 e0 12 3d
       -0.09773642 -0.020197362 -0.051564217 0.03585823
000210 cd 4e f5 bd 2f 1b 1c bc fa d7 ad 3b 81 c4 c3 bd
       -0.11977921 -0.009527965 0.0053052874 -0.095589645
000220 4e 11 b0 bc b2 5b 92 bc 65 ab f9 3d bd d6 f0 bc
       -0.021492627 -0.01786599 0.12190894 -0.02939927
000230 67 7b 7e bd 7a 74 50 bd bb 58 2f bd b3 a9 61 3c
       -0.062129404 -0.05089233 -0.04280923 0.01377337
000240 74 50 5d bd 04 a4 25 bd a9 9d c1 bd 70 f0 37 3c
       -0.054031804 -0.04043962 -0.094538994 0.011226758
000250 d6 7f d0 bd c6 50 e7 3d e0 d5 1d 3d 70 93 01 3b
       -0.10180633 0.11294703 0.038534045 0.0019771717
000260 c5 3b b8 bc 2c de 52 3e f1 8a fa bd e2 df 05 3d
       -0.022489438 0.20592564 -0.12233532 0.032684214
000270 02 58 97 bc cd 34 70 bd 4a d5 a0 bd 3f 53 20 be
       -0.018474583 -0.058644105 -0.07853182 -0.15656756
000280 66 b5 44 bd 25 64 82 3d 87 cf a5 bd 28 a8 c9 3c
       -0.048024558 0.06366757 -0.08096223 0.024616316
000290 20 75 88 bd 3c f1 08 be 01 5d cd 3d a6 d5 f7 bd
       -0.06662965 -0.13373274 0.10027505 -0.12101297
0002a0 64 05 50 3d 1d 70 a9 3c 26 0c 20 3d ff 88 5f 3d
       0.05078639 0.020683343 0.039074086 0.05457401
0002b0 cd d8 8a bd 55 45 3d bc 7f 8e d3 bd 9f de e1 bd
       -0.06779633 -0.011552175 -0.10329913 -0.1102879
0002c0 d8 8b 0c 3e af bf e9 bc d2 f6 97 bc 2b 58 e2 3c
       0.13725221 -0.028533785 -0.01855031 0.027629932
0002d0 6f da c3 bd a3 a1 c2 3d db 56 60 bd 69 48 e8 bc
       -0.09563147 0.09503486 -0.05477033 -0.02835484
0002e0 b5 ab b0 bc 10 4d c3 bd 62 d4 54 39 28 68 89 3d
       -0.021566251 -0.09536183 0.00020297014 0.06709319
0002f0 df b6 9c bd f7 2d a6 bd 02 b7 08 be 1e d9 a2 bd
       -0.076520674 -0.08114236 -0.13351062 -0.07951568
000300 6a f6 01 3d 30 cc 5d 3d b3 b5 ec 3d e0 9c ff 3d
       0.03172914 0.054149806 0.11558094 0.124810934
000310 9b 59 bd bd 74 bd cc bd 36 7c 87 bc e2 af 95 bd
       -0.092456065 -0.09997073 -0.01653872 -0.073089376
000320 f6 ff ba bd 0d 67 af bd 3c 2d c5 bc b0 5d 24 3d
       -0.09130852 -0.08564577 -0.024069421 0.04012841
000330 e2 44 d8 3d d5 10 d6 3d 84 e7 16 bd c0 02 fe bd
       0.10560013 0.10452429 -0.036841884 -0.12402868
000340 86 7c f2 bd 54 19 f0 bb c3 ee d5 3c 0d f8 c5 bd
       -0.11840157 -0.007327238 0.026114827 -0.096664526
000350 47 31 16 3e ec aa 76 bc 45 53 a8 3d 93 1f d2 3b
       0.14667235 -0.015055399 0.082190074 0.0064124553
000360 a9 3c ea bd 02 8b 7c 3d 02 1a 8a 3d fa 81 a7 3d
       -0.11437351 0.061656006 0.06743242 0.08179088
000370 0d 73 4c b9 ee a3 89 3d f1 32 cb 3d 5a 7f 6d 3a
       -0.00019497816 0.0672072 0.09921826 0.00090598094
000380 76 63 04 3e 6c b3 bd bd e6 ba 7d 3d a3 e7 fd 3d
       0.12928566 -0.09262738 0.06194582 0.12397697
000390 11 34 51 bd d7 ed 8f bd 42 56 1f 3d 89 88 ad bd
       -0.051075045 -0.07027786 0.03890062 -0.08473308
0003a0 c3 d3 05 3e f6 8c 66 3c d1 9d 65 ba f5 38 3b 3d
       0.13069062 0.014071694 -0.0008759173 0.045708615
0003b0 c5 da 38 bd 29 d8 cf 3d 83 5e 79 3d 2a 77 39 3d
       -0.04513051 0.10148651 0.06088115 0.04527966
0003c0 7d f4 00 be 92 df 46 bc 74 7f 9d 3c fa e6 81 bb
       -0.12593265 -0.012138264 0.019225813 -0.003964302
0003d0 c3 dc 37 3d 84 cf 68 3c fd 42 96 bd fe dd e1 3d
       0.04488827 0.014209632 -0.07336996 0.1102867
0003e0 0e 76 8e 3c 9c 7b 27 3d b5 8c 91 bc 54 e0 db ba
       0.017390277 0.040889367 -0.01776729 -0.0016775229
0003f0 07 36 96 3d b2 ef 2c 3d c7 4c 0d 3d 33 ff a6 3d
       0.07334524 0.04222078 0.03449705 0.08154144

sage.2.lin_root.bias f4 [64]
000000 78 7e ae 3d ec e3 17 bd 11 5c 3a 3d 62 1c 2a 3d
       0.08520216 -0.037082598 0.045497958 0.041530974
000010 56 f8 8d bd 26 49 c5 bd 53 fd 05 3d 69 75 f7 bd
       -0.06932132 -0.096330926 0.032712292 -0.12082941
000020 fc 99 97 3c a7 70 06 3e fe 79 e2 3c 03 eb af 3d
       0.018506043 0.13128911 0.027646061 0.08589747
000030 3c 19 d8 bd 33 7c 0b bd 40 2e bc bd 07 be 93 bd
       -0.10551688 -0.034053992 -0.09188509 -0.07213979
000040 17 fa e3 3d 0d fa c8 bc d3 df a2 bc 2a 11 b6 bc
       0.11131685 -0.024533296 -0.019882118 -0.022224981
000050 60 d3 9f 3c c9 72 b8 3d 8e fb 02 bc 3c 8f b8 3d
       0.019509971 0.090062685 -0.007994546 0.09011695
000060 03 b8 7f bd 4d 68 47 3d 7a 61 61 3d 5c ec 93 3d
       -0.062431347 0.048683453 0.0550246 0.07222816
000070 40 7a c9 bd 8d 97 bb bc f4 61 e5 bd 2f bc 6d 3d
       -0.098377705 -0.022899413 -0.11200324 0.058040794
000080 7b c2 d0 3d ec 9c 1a be 33 31 11 bd 8e f0 66 bc
       0.10193344 -0.15098923 -0.03544731 -0.014095439
000090 75 b3 e2 3d e2 b3 ed bd 92 b4 1f 3d d9 de 02 3e
       0.11069385 -0.116065755 0.038990565 0.12780322
0000a0 83 60 f7 3d aa 37 a0 bd a0 73 55 bd 92 a5 a1 3d
       0.12078955 -0.07823117 -0.05211222 0.07892908
0000b0 d5 af 96 3c 45 54 ff 3d 16 fa a3 3d 18 ee 96 3c
       0.01839439 0.12467245 0.080066845 0.018424079
0000c0 3c 39 4b 3d 47 0e 80 bc ab 3a 5b 3d ea df f9 3d
       0.04961513 -0.015631808 0.053522747 0.12200911
0000d0 3f 73 7e 3e 6f ac 46 3c 6c 9a 27 3d f4 c6 af 3c
       0.2484865 0.012126072 0.040918753 0.021457173
0000e0 7e f0 84 bd 48 59 0c be 4a 60 9f bd 2d 19 8c bd
       -0.06491183 -0.13705933 -0.077820376 -0.068407394
0000f0 f7 39 d1 bc 61 05 0a bd 08 76 55 bd 44 b4 3c bc
       -0.025540335 -0.033696536 -0.052114516 -0.011517588

batch_norm.0.weight f4 [400]
000000 2e 71 50 40 9d 90 27 40 eb ed 12 40 8a 4f 07 40
       3.256908 2.6182015 2.2957714 2.1142297
000010 d9 22 01 40 c4 4d f6 3f 73 a3 ee 3f 71 8e e7 3f
       2.017752 1.9242482 1.8643631 1.8090345
000020 50 15 e2 3f ff 04 df 3f 60 81 db 3f 90 43 d8 3f
       1.7662754 1.74234 1.7148857 1.6895618
000030 7a cc d5 3f 4b e6 d2 3f 47 a7 d0 3f 03 c3 cd 3f
       1.6703026 1.647653 1.6301049 1.6075138
000040 8e 95 cc 3f b7 10 cb 3f 97 4a c9 3f ad e3 c7 3f
       1.598314 1.5864476 1.5725888 1.5616356
000050 10 c7 c5 3f ac e7 c3 3f bd 88 c3 3f c9 b5 c2 3f
       1.5451374 1.5305076 1.5276104 1.5211726
000060 fd 0f c1 3f 3c f1 bf 3f e0 a5 bd 3f 04 3b be 3f
       1.5083004 1.4995494 1.4816246 1.486176
000070 b1 b1 bc 3f 7f 7c ba 3f 73 ed b9 3f 62 d0 b9 3f
       1.4741727 1.4569243 1.4525589 1.4516718
000080 0e 3c ba 3f 27 59 b8 3f 35 e2 b7 3f 04 9e b7 3f
       1.4549577 1.4402207 1.4365908 1.4345098
000090 67 26 b6 3f 26 8a b5 3f 85 d5 b4 3f b3 d2 b4 3f
       1.423047 1.4182785 1.4127661 1.41268
0000a0 68 b9 b2 3f c1 f5 b1 3f bb 6e b1 3f a0 86 af 3f
       1.3962831 1.3903123 1.3861917 1.3712959
0000b0 a9 82 af 3f 67 50 b0 3f bc dc ae 3f dd e7 ad 3f
       1.3711749 1.3774537 1.3661113 1.3586384
0000c0 7f d9 ac 3f fb 7b ad 3f e1 8e ab 3f 42 c6 aa 3f
       1.3503875 1.3553461 1.3402978 1.3341753
0000d0 82 07 aa 3f 7a 55 a9 3f 39 23 a8 3f 8e 3e a7 3f
       1.3283541 1.322921 1.3135749 1.3065965
0000e0 e7 ef a6 3f 38 c7 a6 3f a4 87 a5 3f d9 70 a5 3f
       1.3041962 1.3029547 1.2932019 1.2925063
0000f0 bd 84 a4 3f ea c9 a4 3f ef ce a2 3f e5 91 a2 3f
       1.2853009 1.2874119 1.2719401 1.2700773
000100 40 67 a0 3f 50 2a a1 3f 6c 58 a0 3f 69 4b 9f 3f
       1.2531509 1.2591038 1.2526984 1.2444888
000110 ed f6 9e 3f 1b 88 9e 3f 4a 7c 9c 3f db 33 9b 3f
       1.2419106 1.2385286 1.222543 1.21252
000120 ef a6 9a 3f a5 d6 9a 3f 6d e2 99 3f 1a 48 99 3f
       1.2082194 1.2096754 1.2022225 1.1975129
000130 f9 8c 98 3f 3b a2 97 3f bd b3 96 3f 96 73 96 3f
       1.1918021 1.1846384 1.1773602 1.1754024
000140 82 d0 95 3f f8 80 94 3f a9 e2 94 3f 04 ea 93 3f
       1.1704257 1.1601858 1.1631671 1.1555791
000150 a1 b3 92 3f 46 8e 91 3f 14 a4 90 3f b9 a0 8f 3f
       1.1461068 1.1371543 1.1300073 1.1220924
000160 68 d8 8e 3f a0 e6 8d 3f 24 07 8e 3f e2 11 8e 3f
       1.1159792 1.1086006 1.1095929 1.1099207
000170 53 1a 8c 3f 7b 97 8b 3f d6 df 8a 3f 13 fa 89 3f
       1.0945534 1.0905603 1.0849559 1.0779442
000180 4b 6f 8a 3f db 67 89 3f 8c fc 88 3f 1f 3c 88 3f
       1.0815214 1.0734819 1.0702071 1.0643348
000190 d0 23 87 3f 18 60 87 3f b2 8d 85 3f eb d4 84 3f
       1.0557804 1.05762 1.0433867 1.0377477
0001a0 32 5b 84 3f 59 6c 84 3f b6 48 85 3f 16 bc 82 3f
       1.0340331 1.0345565 1.0412815 1.0213649
0001b0 43 2c 82 3f 32 00 82 3f fb e8 80 3f 48 be 80 3f
       1.0169758 1.015631 1.00711 1.0058069
0001c0 5d 1d 7e 3f d2 49 7d 3f ad 91 7d 3f 04 1f 7c 3f
       0.99263555 0.98940766 0.9905041 0.98484826
0001d0 bb 28 7b 3f e7 b8 7a 3f 52 da 77 3f e0 ff 77 3f
       0.98109025 0.9793839 0.96817505 0.9687481
0001e0 ad a1 76 3f 5a e7 76 3f 5b 86 74 3f dc c6 74 3f
       0.9634045 0.96446764 0.9551751 0.95615935
0001f0 81 51 71 3f 65 2f 70 3f 9e 72 71 3f d1 db 6d 3f
       0.9426499 0.9382232 0.94315517 0.9291354
000200 f0 2a 6c 3f 8f c4 6c 3f 32 6f 6b 3f 54 70 6b 3f
       0.9225302 0.92487425 0.91966546 0.91968274
000210 89 fd 67 3f f6 53 67 3f 45 78 67 3f 0b e5 65 3f
       0.9062124 0.9036249 0.9041789 0.89802617
000220 c4 9c 63 3f cd 3c 62 3f 39 54 60 3f d4 c3 5d 3f
       0.8891108 0.88374025 0.87628514 0.86626935
000230 1b a5 5e 3f 7d a1 5d 3f a3 49 5c 3f a9 91 5d 3f
       0.8697068 0.86574537 0.8604986 0.86550385
000240 6c 26 59 3f eb c9 59 3f 4b 57 57 3f fc fc 52 3f
       0.8482425 0.8507373 0.84117573 0.82417274
000250 dd 92 51 3f 71 11 52 3f 49 df 53 3f 94 e1 4f 3f
       0.8186472 0.82057863 0.8276258 0.8120358
000260 00 e8 4f 3f d4 2c 4e 3f cd d5 4d 3f 04 90 4c 3f
       0.8121338 0.8053715 0.8040436 0.7990725
000270 db 1b 49 3f 6e f0 49 3f b1 19 48 3f 60 a8 46 3f
       0.7855813 0.7888249 0.781642 0.7760067
000280 5a 94 45 3f 7b 6c 44 3f 14 4b 40 3f 69 0d 40 3f
       0.7717949 0.7672803 0.7511456 0.7502046
000290 62 56 3e 3f 30 f8 3c 3f 48 a2 3c 3f 60 78 3c 3f
       0.7435056 0.73816204 0.7368512 0.7362118
0002a0 3b ed 39 3f 7e ea 37 3f a4 37 37 3f d6 e8 34 3f
       0.7262761 0.7184218 0.71569276 0.7066778
0002b0 69 51 34 3f 75 80 30 3f 7e dc 30 3f e6 0d 2e 3f
       0.7043672 0.6894601 0.69086444 0.6798996
0002c0 c8 ac 2b 3f 31 60 2d 3f 54 45 29 3f 3f 49 29 3f
       0.6706052 0.677249 0.6612141 0.6612739
0002d0 89 8e 29 3f c1 48 26 3f ae 2f 25 3f 44 58 23 3f
       0.66233116 0.64954764 0.6452588 0.6380656
0002e0 ca a3 21 3f c4 a5 20 3f 33 f6 1f 3f 9c e8 1c 3f
       0.6314055 0.6275294 0.62485045 0.61292434
0002f0 25 42 1e 3f 03 78 1b 3f 11 b6 1a 3f bd 12 18 3f
       0.6181968 0.6073 0.6043406 0.5940359
000300 06 27 16 3f 8b 6e 15 3f 37 b2 12 3f 2c 28 12 3f
       0.58653295 0.583718 0.57303184 0.5709255
000310 e7 05 13 3f c1 e7 10 3f 4e a7 0d 3f 4e 67 0c 3f
       0.5743088 0.5660363 0.5533341 0.5484513
000320 24 86 0c 3f 99 72 0b 3f 1f 85 06 3f 6c 76 07 3f
       0.5489218 0.5447174 0.52546877 0.5291507
000330 8b f6 06 3f a4 f1 03 3f f2 b4 05 3f 20 b8 01 3f
       0.52719945 0.5154059 0.52229226 0.5067158
000340 5f 09 fe 3e 5c a6 fd 3e 94 8f 00 3f 73 fa fb 3e
       0.49616525 0.49540985 0.5021908 0.49214515
000350 13 fd f6 3e 0a 00 f9 3e 54 33 f2 3e e9 4c ee 3e
       0.48239955 0.48632842 0.47304785 0.46543053
000360 05 c2 ed 3e b8 e2 ec 3e 09 cc e4 3e 47 b3 e7 3e
       0.46437088 0.46266723 0.44686916 0.45253965
000370 cc d8 e1 3e 28 c3 de 3e 4e 6c de 3e 83 09 d9 3e
       0.44110715 0.43508267 0.43442005 0.4239007
000380 9f ad d6 3e 6e 69 d4 3e 73 21 d1 3e ec 10 cd 3e
       0.41929337 0.41486686 0.40845832 0.40051973
000390 d9 19 cc 3e 2c b4 ce 3e 36 67 cd 3e 29 05 cd 3e
       0.3986347 0.40371835 0.40117806 0.40043
0003a0 cf f3 c6 3e 78 23 c6 3e 09 66 bf 3e 47 22 c2 3e
       0.38857886 0.38698936 0.37382534 0.37916777
0003b0 9d ec bd 3e 5b 9c b6 3e a5 e0 b8 3e 5e f0 b2 3e
       0.37094584 0.35666165 0.3610889 0.3494901
0003c0 74 0f b5 3e d8 56 b3 3e bd c8 b2 3e 1b 3c b2 3e
       0.35363352 0.35027194 0.34918776 0.34811482
0003d0 82 d6 ad 3e 12 c3 ab 3e 6c 21 ab 3e c0 89 a5 3e
       0.3395272 0.33547264 0.33423936 0.32331657
0003e0 83 d3 a4 3e 0f 96 a4 3e 09 aa a3 3e 2b 8f a0 3e
       0.3219262 0.32145736 0.31965664 0.31359228
0003f0 78 f9 b7 3e 7d 90 a0 3e 67 4c 9d 3e 7c 67 98 3e
       0.35932517 0.31360236 0.30722353 0.29766452

batch_norm.0.bias f4 [400]
000000 9b 65 fa 3e 2b 52 fd 3e fc 0d 00 3f f5 1f 00 3f
       0.48905644 0.49476752 0.5002134 0.5004876
000010 20 35 04 3f c5 da 02 3f 8a 35 04 3f 76 fd 08 3f
       0.5164356 0.51115066 0.51644194 0.5351175
000020 cb e8 04 3f ca b6 07 3f d6 6e 0b 3f 2b 23 0c 3f
       0.51917714 0.5301329 0.54466 0.5474116
000030 12 3d 0c 3f 7c 55 0e 3f 40 4b 0e 3f 06 e4 0e 3f
       0.54780686 0.5559919 0.5558357 0.55816686
000040 1a f6 0f 3f 47 ca 10 3f 0e 58 11 3f 75 4a 10 3f
       0.56234896 0.5655865 0.56774986 0.5636361
000050 4b 72 11 3f 8a b5 11 3f 47 cb 14 3f d0 d9 14 3f
       0.5681502 0.5691763 0.58122677 0.58144855
000060 67 5d 14 3f 22 db 16 3f 38 b8 13 3f 83 41 15 3f
       0.5795502 0.5892812 0.5770297 0.5830309
000070 c6 e0 18 3f ca 8b 16 3f 83 ac 17 3f 7e 5f 15 3f
       0.5971798 0.5880705 0.59247607 0.58348835
000080 d8 75 16 3f 9d de 17 3f 9d 63 16 3f 8c 6d 17 3f
       0.58773565 0.59324056 0.5874575 0.5915153
000090 1a fe 16 3f c6 15 17 3f 79 4c 17 3f 79 f1 16 3f
       0.5898148 0.590176 0.59101063 0.5896221
0000a0 8a 07 16 3f e9 40 15 3f 13 3d 17 3f a3 39 16 3f
       0.58605254 0.5830217 0.59077567 0.58681697
0000b0 a7 d1 14 3f b7 df 14 3f 8c 2e 14 3f e1 a4 15 3f
       0.58132404 0.5815386 0.57883525 0.5845471
0000c0 d9 1a 13 3f b5 de 10 3f 2f da 11 3f 68 2e 11 3f
       0.5746284 0.56589824 0.56973547 0.56711435
0000d0 91 c7 10 3f f8 c3 0f 3f fa 34 11 3f e0 68 0e 3f
       0.56554514 0.561584 0.5672146 0.55628777
0000e0 ad 59 0d 3f 44 09 0b 3f 40 c4 0c 3f de c4 0a 3f
       0.5521496 0.54311013 0.54986954 0.54206645
0000f0 50 38 09 3f 65 7e 09 3f c5 14 08 3f 87 0f 07 3f
       0.5360155 0.5370849 0.5315669 0.5275807
000100 48 d1 05 3f 2c 3b 07 3f 9d d8 03 3f fd 77 00 3f
       0.5227246 0.52824664 0.515024 0.5018309
000110 f5 86 01 3f 7d b5 fe 3e 90 4f fd 3e 84 8a fd 3e
       0.50596553 0.4974784 0.49474764 0.49519742
000120 9c 74 f8 3e 1c bf f5 3e c1 7e f5 3e f9 d3 f0 3e
       0.48526466 0.47997367 0.47948268 0.47036722
000130 c2 a5 f3 3e 46 e7 ee 3e c2 5b e9 3e bb 9d e6 3e
       0.475874 0.46660823 0.45577818 0.45042214
000140 74 b4 e5 3e a4 fe e1 3e f3 8e de 3e 4f 3c dc 3e
       0.44864237 0.44139588 0.43468437 0.43014762
000150 7b 71 dd 3e 3c 46 d9 3e d7 ef d5 3e 14 6f d2 3e
       0.4325064 0.42436397 0.41784546 0.4110037
000160 7b 63 d4 3e 64 b7 d1 3e 28 30 ce 3e 1f b5 cc 3e
       0.41482148 0.40960228 0.40271115 0.39981934
000170 34 4d cb 3e 9c 1b c9 3e 41 9d c6 3e 28 ee c2 3e
       0.3970734 0.39278877 0.3879185 0.38072324
000180 4f 89 c2 3e 59 ad bf 3e 36 5f bd 3e 34 6c bd 3e
       0.37995383 0.3743694 0.36986703 0.36996615
000190 0c 0f bc 3e 95 df b7 3e 37 d7 b5 3e a2 40 b6 3e
       0.3673023 0.35912767 0.35515758 0.35596186
0001a0 16 0d b4 3e 65 03 b6 3e f9 9a b1 3e 21 05 af 3e
       0.35166234 0.35549465 0.34688547 0.341836
0001b0 58 5b aa 3e 9e d3 aa 3e 58 ce a8 3e e5 8e a8 3e
       0.33272815 0.33364576 0.32969928 0.3292152
0001c0 16 5a a4 3e b1 e7 a2 3e c5 16 a5 3e fb ec 9f 3e
       0.3209998 0.31817392 0.32243934 0.3123549
0001d0 01 3c 9f 3e 38 99 9a 3e 83 08 98 3e 48 97 9a 3e
       0.31100467 0.30195022 0.29693994 0.30193543
0001e0 55 55 97 3e a3 ae 95 3e 68 56 91 3e be 8f 93 3e
       0.2955729 0.292348 0.28386235 0.28820604
0001f0 c6 71 8f 3e d5 27 90 3e 58 3f 8d 3e c4 b9 8d 3e
       0.2801649 0.2815539 0.2758739 0.2768079
000200 ec 3b 88 3e fc 78 84 3e c8 4c 85 3e a9 b8 85 3e
       0.26608217 0.25873554 0.26035142 0.26117447
000210 0c ed 80 3e 6d ef 7d 3e eb a9 73 3e 43 76 78 3e
       0.25180852 0.24798365 0.23795287 0.24263863
000220 bc fc 76 3e c3 fa 6f 3e a2 27 70 3e be a0 6c 3e
       0.24119848 0.23435502 0.23452619 0.23108193
000230 d5 63 63 3e 3e 32 60 3e 7f f6 5f 3e a0 ee 5d 3e
       0.22206052 0.21894166 0.21871375 0.2167306
000240 e8 82 5a 3e 07 b7 4a 3e 49 c2 4b 3e 24 f0 49 3e
       0.21339 0.19796382 0.19898333 0.19720513
000250 8c d1 46 3e 0c 07 44 3e f9 de 43 3e 32 dc 40 3e
       0.19415873 0.19143313 0.19128026 0.18833998
000260 66 88 3a 3e c4 2b 35 3e f5 7f 39 3e ff 65 32 3e
       0.18216094 0.17692477 0.18115218 0.17421721
000270 2b c5 2c 3e ab 9a 25 3e c7 f4 26 3e 77 b8 25 3e
       0.16872089 0.16172282 0.16304313 0.16183649
000280 f6 48 1f 3e f4 55 14 3e be c2 18 3e 7e 60 0e 3e
       0.15555176 0.14485914 0.14918038 0.13903996
000290 91 18 13 3e 80 6a 0b 3e b9 47 06 3e 64 be f6 3d
       0.1436484 0.13614845 0.13113298 0.12048033
0002a0 98 8c fd 3d f6 39 04 3e 65 35 ee 3d 95 ec f4 3d
       0.12380332 0.12912735 0.11631278 0.11959187
0002b0 2f 84 eb 3d 5c 2d e5 3d e7 cc db 3d 67 dd bf 3d
       0.114998214 0.11190292 0.107324414 0.09368401
0002c0 3e 65 cd 3d f6 bc be 3d f9 1b c8 3d fc 8b b7 3d
       0.10029076 0.09313385 0.0977096 0.08962247
0002d0 d4 47 b1 3d 08 71 b0 3d aa 8f b7 3d 2e 58 a8 3d
       0.08656278 0.08615309 0.089629486 0.08219944
0002e0 8a dc a9 3d b2 0e 94 3d 0e 8d 9e 3d 2f 8f a2 3d
       0.082940176 0.072293654 0.07741748 0.07937466
0002f0 13 9e 8b 3d b2 f2 7c 3d 51 ca 78 3d 9d 2d 6e 3d
       0.0681726 0.06175489 0.06073982 0.05814897
000300 3b 7c 53 3d 97 9a 66 3d 3e 25 55 3d e2 fd 50 3d
       0.051632147 0.056299772 0.05203747 0.05102337
000310 bf dd 36 3d 93 31 2a 3d 78 1d 39 3d 48 de 24 3d
       0.044645067 0.041551184 0.04519412 0.040251046
000320 0a b8 17 3d 4d 06 14 3d 1b f4 cf 3c cb b4 e0 3c
       0.037040748 0.03613882 0.025384953 0.027429959
000330 97 20 af 3c 1d bb 09 3d e0 64 d4 3c 9d e4 b2 3c
       0.021377845 0.03362571 0.025927007 0.021837527
000340 96 01 94 3c e4 29 98 3c 7e 36 6e 3c b9 ae bb 3c
       0.018067162 0.018574663 0.014539359 0.022910463
000350 59 0f 9b 3c 86 71 af 3b 03 2f c4 3a b2 c4 6e 3b
       0.018928217 0.005354109 0.0014967624 0.0036433158
000360 e1 eb 90 3b a3 1e f2 38 cb 58 16 3c 3a b4 03 3b
       0.00442265 0.00011545166 0.009176443 0.0020096437
000370 c7 9b 2b 3c 1f 72 dd 3a f8 63 0c 3a 7d eb 58 bb
       0.010474152 0.0016894973 0.00053554727 -0.0033099346
000380 a5 a8 ac 3b 17 6f 6f bb 0a ca 05 bb 1c 77 00 bc
       0.0052691274 -0.003653472 -0.0020414614 -0.007840898
000390 f0 9c 83 bc d6 36 18 bc 46 3f 8f bc ad 01 a9 bc
       -0.016066045 -0.009290418 -0.017486226 -0.020630682
0003a0 a6 e1 b6 bc cb 41 96 bc a0 eb 83 bc 7f 91 b0 bc
       -0.022324394 -0.01834192 -0.016103566 -0.021553753
0003b0 3c 4e 4c bc c4 b6 72 bc fe de d6 bc 12 e2 80 bc
       -0.012469824 -0.0148140825 -0.026229378 -0.015732799
0003c0 8c 70 a6 bc e8 5d 0c bd e9 bf 2a bd 04 0e 04 bd
       -0.020317338 -0.034269243 -0.041686926 -0.03223993
0003d0 83 0d d7 bc b2 f7 d1 bc 1a 6f be bc 0c 11 05 bc
       -0.02625156 -0.025630806 -0.023246337 -0.00812174
0003e0 e9 bf 0b bd e1 06 d8 bc 07 1f c6 bc 76 e5 36 bd
       -0.034118567 -0.026370468 -0.024184717 -0.044652425
0003f0 41 82 6f bc cd 3c fb bc c2 b0 d8 bc fd 48 0c bd
       -0.014618457 -0.03066864 -0.026451472 -0.034249295
