Saves/ecal_ep_60_r0.1.pth (torch, 146007 bytes, 42 tensors)

sage.0.lin_rel.weight f4 [16, 3]
0	0xbdf7c5fe	-0.12098311
1	0x3e1dd059	0.1541151
2	0xbdb667f1	-0.08906544
3	0xbf6f26b7	-0.9341845
4	0xbe493e8c	-0.19652766
5	0xbda5aedd	-0.08089993
6	0x3eceebe1	0.40414336
7	0xbeaeea7c	-0.34163272
8	0xbd53e5cf	-0.051732834
9	0x3f0a9ed7	0.5414862
10	0xbe16c2d7	-0.14722763
11	0xbf354de6	-0.7082199
12	0xbde0d657	-0.10978382
13	0xbb56fbee	-0.003280397
14	0xbdac6bc5	-0.08418993
15	0x3ee2c7be	0.44293016
16	0xbea00390	-0.31252718
17	0xbf8a1bc8	-1.0789728
18	0x3dda5f14	0.10662666
19	0xbe89fff3	-0.26953086
20	0x3eb58cf0	0.3545909
21	0xbe85e01b	-0.2614754
22	0xbdef934d	-0.11698017
23	0xbe07215e	-0.13196322
24	0x3e8fd938	0.28095412
25	0x3e9f1f0d	0.31078377
26	0xbd3c903d	-0.046035994
27	0xbdd07275	-0.10178081
28	0xbe8c9d1c	-0.27463615
29	0xbf07fa32	-0.5311614
30	0xbdcf8579	-0.1013288
31	0x3db6637e	0.089056954
32	0x3dd1d6e5	0.10246066
33	0x3f0fdcde	0.5619639
34	0x3e8eb8fd	0.2787551
35	0x3cd803d9	0.026369022
36	0x3e8a5d29	0.270242
37	0xbef8b7dd	-0.48577777
38	0xbe6bea24	-0.23038536
39	0xbd2e4e89	-0.042555366
40	0xbe73a54c	-0.23793525
41	0x3ef9f277	0.48817798
42	0x3d81777d	0.06321619
43	0x3e8adcb8	0.2712152
44	0xbdbea377	-0.09308522
45	0xbe49fdd2	-0.19725731
46	0xbdf43aef	-0.11925303
47	0xbe46a9ec	-0.19400758

sage.0.lin_root.weight f4 [16, 3]
0	0x3e10a45c	0.14125198
1	0xbf055d18	-0.52095175
2	0xbe0c6c7f	-0.13713263
3	0x3f5ce0f1	0.86280733
4	0xbecc08a1	-0.39850333
5	0xbe8f03e3	-0.27932653
6	0xbea336bb	-0.31877694
7	0x3ec04110	0.3754964
8	0x3e4a8b5c	0.19779724
9	0xbf6a3be8	-0.9149766
10	0x3df6fe81	0.120602615
11	0xbdf237e1	-0.11827064
12	0x3eb10a87	0.34578344
13	0x3c610d5d	0.013736096
14	0x3e18e028	0.14929259
15	0xbf5a7ef6	-0.85349977
16	0x3e989c99	0.29806975
17	0xbe6ffa27	-0.2343527
18	0x3eb8a6d2	0.36064774
19	0x3d5f981f	0.054588433
20	0x3dcd7166	0.10031395
21	0x3eebed80	0.46079636
22	0xbe03b8e3	-0.12863497
23	0xbe7ee50f	-0.24892066
24	0xbe841268	-0.25795293
25	0xbf226863	-0.6344053
26	0xbe100cc4	-0.1406737
27	0xbdbdda65	-0.09270171
28	0xbe8a7c99	-0.27048185
29	0x3e9a001f	0.30078217
30	0x3f0a4298	0.54007864
31	0xbca3c99d	-0.019993598
32	0x3ee81cac	0.45334375
33	0xbf2e5719	-0.6810165
34	0xbe9d5a37	-0.3073289
35	0x3e28ddd6	0.16490874
36	0xbe02e6d6	-0.1278337
37	0xbe349401	-0.17634584
38	0xbf07023f	-0.527378
39	0xbee0dcdf	-0.4391851
40	0x3e4dc0d6	0.20093092
41	0xbeb6c964	-0.35700524
42	0xbd1c6d92	-0.038190432
43	0xbf30d224	-0.6907065
44	0xbe3a7b26	-0.1821104
45	0x3f19fcf3	0.60151595
46	0x3e04c7a0	0.12966776
47	0xbeaa98f8	-0.3331983

sage.0.lin_root.bias f4 [16]
0	0x3e870ace	0.2637543
1	0x3ed45e89	0.41478375
2	0xbed63de2	-0.41844088
3	0x3e5faaea	0.21842542
4	0xbce7fe30	-0.028319448
5	0x3e74d0ba	0.23907748
6	0xbf12b963	-0.5731413
7	0x3dfb02b9	0.12256379
8	0x3e69e21a	0.22840157
9	0xbe27ff86	-0.16406068
10	0xbdc6381c	-0.09678671
11	0x3dec3d61	0.115351446
12	0xbf0b1cc5	-0.54340774
13	0xbe9853bc	-0.29751384
14	0x3e97f8e5	0.2968208
15	0xbd54454a	-0.05182389

sage.1.lin_rel.weight f4 [64, 16]
0	0x3e250e85	0.1611882
1	0xbd65b574	-0.05608125
2	0x3d668f8f	0.056289252
3	0xbd313ae5	-0.043269057
4	0x3e0782af	0.13233446
5	0x3e093c62	0.1340194
6	0x3d1c1e1d	0.038114656
7	0xbd17bd17	-0.037045565
8	0x3e22c6e6	0.15896186
9	0xbda00b85	-0.07814697
10	0xbcc70160	-0.024292648
11	0xbd23deab	-0.040007275
12	0x3e32dbe9	0.17466702
13	0xbe0684b7	-0.13136564
14	0xbe00fb1a	-0.12595788
15	0xbd85088e	-0.06495772
16	0xbbe3564e	-0.0069377786
17	0x3df6ae6a	0.120449856
18	0x3d5e16ef	0.05422109
19	0xbc2f5dd6	-0.010703525
20	0x3c61d6e7	0.013784147
21	0xbdbc03f0	-0.091804385
22	0xbe1709c5	-0.1474982
23	0xbe7f72ec	-0.24946183
24	0xbe2a7b90	-0.16648698
25	0xbd43e98f	-0.04783016
26	0xbe62a5aa	-0.22133508
27	0xbe5b2c2d	-0.2140357
28	0xbe2711fe	-0.16315457
29	0x3e1edc3b	0.15513699
30	0x3e3fee95	0.18743356
31	0xbd384a45	-0.044992704
32	0xbd16428a	-0.03668455
33	0xbdc01568	-0.09379083
34	0x3e505206	0.2034379
35	0x3e1dd738	0.1541413
36	0xbd3a6398	-0.045505136
37	0x3ddb9a94	0.10722843
38	0x3e9ea0fe	0.30982202
39	0x3d9096c1	0.07060004
40	0x3d85ca52	0.0653273
41	0xbc7482ca	-0.014923761
42	0xbd9c6274	-0.07635966
43	0xbe5dfd9d	-0.21678777
44	0xbe216dac	-0.15764493
45	0x3d07b95e	0.033135764
46	0xbe03f205	-0.12885292
47	0x3e79b20e	0.24384329
48	0xbd9277a2	-0.071517244
49	0xbd7510d0	-0.059830487
50	0x3da0c15d	0.07849381
51	0xbe1d6cc2	-0.15373519
52	0x3ca9b46d	0.020715917
53	0x3d8a4cbf	0.067529194
54	0x3eb8ff35	0.36132208
55	0xbe31736c	-0.17329186
56	0x3e1d5a32	0.15366438
57	0x3c1a9c0c	0.009436619
58	0x3d4e372b	0.05034558
59	0x3d1d2c23	0.03837217
60	0xbd938a18	-0.07204074
61	0x3e9c8573	0.30570564
62	0xbe6f7d4f	-0.23387645
63	0x3e3059d4	0.17221767
64	0x3e116da3	0.1420198
65	0x3d4f4df9	0.05061147
66	0x3e39e5ce	0.1815407
67	0x3d9e50ff	0.077302925
68	0x3cce13da	0.02515595
69	0xbd07068d	-0.03296523
70	0xbe0bd69d	-0.13656087
71	0x3d01151b	0.03151427
72	0x3d9cd92c	0.0765861
73	0x3e217419	0.15766944
74	0xbd39756c	-0.045277998
75	0xbe38a8ef	-0.18033193
76	0x3d01e326	0.031710766
77	0xbcbe5952	-0.02323595
78	0xbd3db144	-0.04631163
79	0x3d0e91b9	0.03480694
80	0x3ea1872a	0.31548434
81	0xbdd0ea3e	-0.10200928
82	0x3cb70441	0.022340896
83	0x3dc3c27c	0.09558579
84	0xbe4f4156	-0.20239767
85	0xba011c16	-0.00049251446
86	0x3d106479	0.03525207
87	0xbe185657	-0.14876686
88	0x3e36f688	0.17867482
89	0x3ea0b258	0.31386065
90	0x3c5901be	0.013245044
91	0x3da9986c	0.08281025
92	0x3e0a12fb	0.13483803
93	0xbe0848c3	-0.13309006
94	0xbe88635f	-0.26638314
95	0x3db20e0e	0.08694087
96	0xbd45eeb2	-0.04832334
97	0xbd6f077e	-0.058356754
98	0x3dd01b19	0.101614185
99	0xbc8191f2	-0.015816662
100	0xbda1aa46	-0.07893805
101	0xbd9f7ccb	-0.07787474
102	0x3d2b100f	0.04176336
103	0xbd70f8d6	-0.05883106
104	0x3d04de2d	0.032438446
105	0x3bc9c73c	0.006157784
106	0xbbed88ec	-0.0072489884
107	0x3df20cb0	0.11818826
108	0xbc00ad36	-0.007853797
109	0xbe09d73c	-0.13461012
110	0x3d55d701	0.052206997
111	0xbc7642c2	-0.015030565
112	0xbe1fbebc	-0.15600103
113	0xbc88f312	-0.016717467
114	0xbe32ab37	-0.17448126
115	0xbdcefd1e	-0.10106872
116	0xbe2958ee	-0.1653783
117	0xbe0439a6	-0.12912616
118	0xbd6ddfa9	-0.058074627
119	0xbc94544c	-0.018106602
120	0x3b1c3de0	0.0023840591
121	0x3db1608c	0.08660993
122	0xbc125711	-0.008931891
123	0xbde3ab47	-0.11116653
124	0xbe0d5af8	-0.13804233
125	0x3c63c29e	0.013901381
126	0x3c79b73d	0.015241441
127	0xbd58ccdb	-0.05292974
128	0xbc860f5f	-0.016364751
129	0x3dc10147	0.09424072
130	0xbe0ecfef	-0.13946508
131	0xbe369f3e	-0.17834184
132	0x3db8dc7b	0.09026428
133	0x3de6a718	0.11262339
134	0xbc1ffeaf	-0.009765311
135	0xb9872868	-0.00025779312
136	0xbd4f4da8	-0.05061117
137	0x3ea2c6cc	0.31792295
138	0x3d18f9a2	0.037347443
139	0xbcb9a8f9	-0.02266358
140	0x3e54db18	0.20786703
141	0x3ab42523	0.0013743978
142	0xbe976e4d	-0.2957634
143	0xbe8e6fea	-0.2781976
144	0x3c69c042	0.014267029
145	0xbd3648a4	-0.04450287
146	0xbe0e9ee6	-0.13927802
147	0x3d69c39f	0.057071324
148	0xbbccc86b	-0.0062494776
149	0xbc9f16fe	-0.019420143
150	0x3ccba3d6	0.024858397
151	0xbd1e2e5a	-0.038618423
152	0x3ca1caa6	0.01974995
153	0x3d29112a	0.041276135
154	0x3c3b3155	0.011425336
155	0x3db89837	0.09013408
156	0x3da84f4d	0.082182504
157	0x3d9d4c3a	0.07680555
158	0x3cfbc112	0.030731712
159	0x3cf90fb8	0.030403003
160	0xbd52b898	-0.051445574
161	0xbd1f117e	-0.03883504
162	0xbc9d1402	-0.01917458
163	0x3d433b6e	0.0476641
164	0x3dd38dbc	0.10329768
165	0x3e0a82ee	0.13526508
166	0xbcfbad5b	-0.03072231
167	0xbc4a9249	-0.012363979
168	0x3c9563ef	0.018236129
169	0x3c405c8c	0.011740815
170	0x395371d1	0.00020164928
171	0x3d1dae90	0.038496554
172	0xbd992984	-0.074786216
173	0x3d8923f8	0.066963136
174	0x3d692f39	0.0569298
175	0xbd15c23b	-0.036562186
176	0xbd5ae4c6	-0.05344083
177	0x3d767ea4	0.060179368
178	0x3db78cb3	0.08962383
179	0x3c0e548d	0.008687151
180	0x3d73822f	0.059450325
181	0x3d70d4c6	0.058796667
182	0x3dc2b278	0.095066965
183	0xbc8b63e5	-0.017015407
184	0x3d2a1c50	0.041530907
185	0xbe27a9bf	-0.16373347
186	0xbc101c53	-0.0087958155
187	0x3db87da3	0.09008338
188	0x3d5ee0e1	0.05441368
189	0x3d56af0b	0.052413028
190	0xbb863bc7	-0.0040964815
191	0x3cfce097	0.030868812
192	0xbcdd6267	-0.027024461
193	0xbd856e50	-0.06515181
194	0xbdc3f496	-0.095681354
195	0x3e7e6482	0.24843028
196	0x3cfafcf8	0.030638203
197	0x3da32da2	0.07967688
198	0xbe145974	-0.14487249
199	0xbb0e592f	-0.0021720638
200	0x3d4b0c83	0.04957248
201	0xbc876302	-0.016526703
202	0x3ccb65ef	0.02482888
203	0xb9b0aeea	-0.00033699657
204	0x3e29b370	0.16572356
205	0xbd51258d	-0.0510612
206	0x3c941e55	0.01808087
207	0xbb958a71	-0.0045636226
208	0xbe4df019	-0.20111121
209	0x3e407a46	0.18796644
210	0x3c746817	0.014917395
211	0x3c176ff0	0.009242997
212	0x3e1840c4	0.14868456
213	0xbe05ba56	-0.13059363
214	0x3e211320	0.15729952
215	0xbc3e1e91	-0.011603967
216	0xbe685689	-0.2268926
217	0x3e637977	0.22214304
218	0x3cff1cc6	0.03114165
219	0x3e049faf	0.1295154
220	0x3d5f38fd	0.054497708
221	0x3e864d4d	0.2623085
222	0x3dfc8b32	0.12331237
223	0xbe82b6aa	-0.25529987
224	0xbe506608	-0.20351422
225	0xbba7cd2d	-0.0051208944
226	0xbd900f36	-0.07034151
227	0xbe2f666a	-0.17128912
228	0xbe6bc407	-0.23023997
229	0xbd881255	-0.066441216
230	0xbc50dff2	-0.012748705
231	0x3e0da9dd	0.13834329
232	0x3c70bc2e	0.014693303
233	0x3db7dcc4	0.089776546
234	0x3d34944b	0.044086736
235	0x3d6a7cd5	0.057247955
236	0x3dfd13ba	0.12357278
237	0x3cc3b12a	0.02388819
238	0xbc9d70b0	-0.019218773
239	0xbd179dd5	-0.037015755
240	0x3d12dd2c	0.035855457
241	0xbcbb509a	-0.022865582
242	0x3c4abce6	0.012374138
243	0x3ce04cae	0.027380314
244	0x3c4b028e	0.012390746
245	0x3d0d0c2b	0.034435432
246	0x3d53d829	0.05171982
247	0xbcff4498	-0.031160638
248	0x3cb20980	0.021733046
249	0xbd59d732	-0.053183742
250	0x398a8d4c	0.00026426686
251	0x3d3f8c25	0.04676451
252	0x3d69ad53	0.05705006
253	0xbc25cfdf	-0.010120361
254	0xbcc3275f	-0.023822485
255	0x3cc3345b	0.023828676

sage.1.lin_root.weight f4 [64, 16]
0	0x3e30eeb4	0.17278558
1	0xbc667963	-0.014067027
2	0x3e1d2e6e	0.15349743
3	0x3e860fb8	0.26183867
4	0xbdad9c5f	-0.08477091
5	0x3d294911	0.041329447
6	0x3ddcdcb1	0.10784281
7	0x3e1f9231	0.15583111
8	0x3e59fd7d	0.21288104
9	0x3da97547	0.08274322
10	0xbebbb78a	-0.36663467
11	0x3e78d167	0.2429863
12	0x3e4f55e6	0.20247611
13	0x3eb8ff61	0.3613234
14	0x3e413ab8	0.18870056
15	0xbeb6a245	-0.35670677
16	0x3dcc7195	0.099826016
17	0x3deb52e1	0.11490417
18	0xbcf5104d	-0.029915
19	0x3e65d969	0.22446217
20	0xbe15939a	-0.14607087
21	0xbdfe20c8	-0.12408596
22	0x3d03d041	0.03218103
23	0x3ca3c3d6	0.019990843
24	0x3e31d037	0.17364584
25	0xbe0f5f3b	-0.14001171
26	0xbe64f2ef	-0.22358297
27	0x3e832c1b	0.25619587
28	0x3e0a7dd9	0.1352457
29	0x3e225d40	0.15855885
30	0x3e8c42f8	0.27394843
31	0xbdc4607b	-0.09588715
32	0x3e1725f6	0.14760575
33	0xbe09844f	-0.13429378
34	0x3d1e2c70	0.038616598
35	0x3e36e438	0.17860496
36	0x3e78af36	0.24285588
37	0xbd1f2f56	-0.038863502
38	0xbd8bcfe1	-0.06826759
39	0xbe45638b	-0.19276254
40	0x3def60a7	0.11688357
41	0xbdd39352	-0.103308335
42	0x3d70cbfc	0.058788285
43	0xbea0446d	-0.31302205
44	0xbdf3492c	-0.11879191
45	0xbe429d08	-0.19005215
46	0xbe8b98d6	-0.27265042
47	0xbdafe87c	-0.08589265
48	0xbe7976b4	-0.24361688
49	0x3d794ba7	0.060863163
50	0xbe1e0a5b	-0.15433638
51	0xbe8f6de6	-0.28013533
52	0x3d6ddff2	0.0580749
53	0x3d6f0acc	0.058359906
54	0x3e35a442	0.1773844
55	0xbd92d8cc	-0.07170257
56	0x3d081893	0.03322656
57	0x3e84b9df	0.25923058
58	0xbe892a59	-0.2679012
59	0xbe3dc50e	-0.18532202
60	0x3e8b3883	0.27191553
61	0xbda0aa4d	-0.07844982
62	0x3c3d1b9a	0.011542225
63	0x3daa91a0	0.08328557
64	0x3e10ed65	0.14153059
65	0x3d4d2211	0.050081316
66	0xbe9d8a04	-0.3076936
67	0xbf330a5a	-0.6993767
68	0x3e5cd085	0.21563919
69	0xbf40c25c	-0.7529657
70	0xbec79097	-0.389775
71	0x3e790fa1	0.24322368
72	0x3e22208c	0.15832728
73	0xbeec8023	-0.4619151
74	0x3e99fe2a	0.30076724
75	0xbea15bb8	-0.31515288
76	0xbedd6c69	-0.43246773
77	0xbe143db1	-0.14476658
78	0x3e5980f1	0.21240593
79	0x3dc78add	0.09743283
80	0x3db9a57a	0.09064765
81	0xbd818d67	-0.063257985
82	0xbd426b0b	-0.047465365
83	0xbe3f4b42	-0.18681052
84	0xbe6372a3	-0.22211699
85	0xbe946a74	-0.28987467
86	0xbe1d2fcd	-0.15350266
87	0xbd587881	-0.052849296
88	0xbd40b498	-0.047047228
89	0x3e84531f	0.25844666
90	0xbdb633c3	-0.088965915
91	0x3d772449	0.06033734
92	0x3e7d1138	0.247136
93	0x3da39301	0.07987023
94	0xbe9305c0	-0.28715324
95	0x3cc3b462	0.023889724
96	0x3f2276f7	0.63462776
97	0x3fb71707	1.4303902
98	0xbf4d5d4d	-0.8022049
99	0xbdfe8a45	-0.124287166
100	0xbeccc0c3	-0.39990816
101	0x3d851a50	0.06499159
102	0xbf8be011	-1.0927755
103	0x3fb3c343	1.4043964
104	0xbd466b1f	-0.048442002
105	0xbf514623	-0.81747645
106	0xbda114a3	-0.07865264
107	0xbf1f31d4	-0.62185407
108	0xbf720660	-0.9454098
109	0xbf462502	-0.7740022
110	0x3e4e1fe4	0.20129353
111	0x3e8013d4	0.25015128
112	0xbd773534	-0.060353473
113	0x3e556a0a	0.20841232
114	0xbe86837b	-0.26272187
115	0xbf9f3283	-1.243729
116	0x3f0f979b	0.56090707
117	0xbefe50dc	-0.49671066
118	0xbe50dd42	-0.20396903
119	0x3dc4255a	0.09577437
120	0xbedf302f	-0.4359145
121	0xbec9a472	-0.39383274
122	0x3eff46fa	0.49858838
123	0xbfcfbc2d	-1.6229302
124	0xbde01423	-0.10941341
125	0xbe41ebd6	-0.1893762
126	0xbf0512fb	-0.51982087
127	0x3f624a7b	0.883949
128	0xbe1c2f70	-0.15252471
129	0xbe48dbec	-0.19615144
130	0xbdbc92c8	-0.09207684
131	0x3e69180a	0.22763076
132	0xbd0f1191	-0.034928862
133	0x3df85f1f	0.12127518
134	0xbe7e8749	-0.24856295
135	0x3da9a808	0.082840025
136	0x3e226f69	0.15862812
137	0x3ddc8c68	0.10768968
138	0xbe0b34e2	-0.13594392
139	0x3e86ac7d	0.26303473
140	0xbdd2af25	-0.102873124
141	0xbe484b7b	-0.19560044
142	0x3dc08fe1	0.09402443
143	0x3e8793de	0.2648
144	0x3e16bd2f	0.14720605
145	0x3fa199c1	1.2625047
146	0xbe89c30d	-0.26906624
147	0x3dbd4417	0.09241503
148	0xbf2787b5	-0.6544145
149	0x3e9de13f	0.30835912
150	0xbe9ff8c0	-0.3124447
151	0x3eb899c1	0.36054805
152	0xbf174e81	-0.5910416
153	0xbee4ef77	-0.44713947
154	0xbf20385c	-0.62586
155	0xbf4151a6	-0.7551521
156	0xbec96e44	-0.39341938
157	0xbec7e8d5	-0.39044824
158	0x3abea81b	0.0014545949
159	0xbf24a453	-0.6431324
160	0xbd2aea6a	-0.04172746
161	0x3f9f1286	1.2427528
162	0xbfd055a1	-1.6276132
163	0xbf0836b0	-0.53208447
164	0xbf869b0f	-1.051607
165	0xbd3f1544	-0.04665114
166	0xbfb57fb1	-1.4179593
167	0x3f968d85	1.1761938
168	0xbf648035	-0.8925813
169	0xbfa74590	-1.3068104
170	0xbeaef8b4	-0.3417412
171	0xbfb9ede1	-1.452572
172	0xbfcc3a81	-1.5955354
173	0xbfc4d131	-1.537634
174	0xbf1cfc72	-0.613227
175	0xbd19f676	-0.03758856
176	0x3dbaa4c5	0.091134585
177	0x3f20a69b	0.6275422
178	0xbf21405a	-0.6298882
179	0xbe5d1d94	-0.21593314
180	0xbf0b96d4	-0.5452702
181	0xbc5007f0	-0.012697205
182	0xbf2e7290	-0.6814356
183	0x3f250639	0.6446262
184	0xbd731e2f	-0.059354957
185	0xbf23abb1	-0.63933855
186	0xbe294d52	-0.16533402
187	0xbf1e3fab	-0.618159
188	0xbf4a8cce	-0.791211
189	0xbf1770af	-0.59156317
190	0x3e423632	0.18965986
191	0xbea58cd1	-0.32333997
192	0x3eb31b0d	0.34981576
193	0x4014db31	2.3258784
194	0xbfeefc60	-1.8670769
195	0xbf7e167c	-0.9925306
196	0xbfea8bce	-1.8323915
197	0xbece61d8	-0.40309024
198	0xbfc9e3ee	-1.5772684
199	0x3fccb0b4	1.5991426
200	0xbfa2bf4b	-1.2714628
201	0xbff951d8	-1.9478102
202	0xbf824932	-1.0178587
203	0xbfaf1efc	-1.3681331
204	0xbffcb63b	-1.9743112
205	0xbff9c0e6	-1.9511993
206	0xbf19bb9a	-0.6005188
207	0xbf819a92	-1.0125296
208	0xbd7d8eab	-0.061903637
209	0x3df30f15	0.11868111
210	0xbe61ebb1	-0.22062565
211	0xbdf79739	-0.1208939
212	0x3d2ac1d7	0.041688766
213	0x3e1f7912	0.15573528
214	0x3dc8912a	0.09793313
215	0x3e0003a3	0.12501387
216	0xbe69e174	-0.2283991
217	0x3e477f29	0.19482102
218	0x3e553204	0.2081986
219	0xbe2edc4a	-0.17076221
220	0xbd3ce43f	-0.04611611
221	0xbe7fc048	-0.24975693
222	0x3d83e626	0.06440382
223	0x3e025d3c	0.12730879
224	0x3f8c0267	1.0938233
225	0x3fd2d676	1.6471698
226	0xbf3855e7	-0.72006077
227	0xbd71d0da	-0.059037067
228	0xbf30cf8f	-0.6906671
229	0x3c6f4718	0.014604352
230	0xbebeae4a	-0.37242347
231	0x3fc12a85	1.5091101
232	0x3f1d7494	0.6150601
233	0xbf040470	-0.5156927
234	0xbcb62ca1	-0.022238078
235	0xbe238e9d	-0.15972371
236	0xbf431cbc	-0.7621572
237	0xbeee609c	-0.46558082
238	0x3f7d878c	0.99034953
239	0x3e5e51cb	0.21710889
240	0x3d2f752e	0.04283636
241	0x3f82c5ac	1.0216575
242	0xbe583ef7	-0.21117769
243	0x3e30ff2e	0.17284843
244	0xbeebf575	-0.46085706
245	0x3e93c015	0.28857484
246	0xbeb1c08a	-0.34717208
247	0x3ede5d14	0.43430388
248	0xbf0a0566	-0.5391449
249	0xbdb35042	-0.08755542
250	0xbe31aeeb	-0.17351882
251	0xbf13c3db	-0.57720727
252	0xbee68f34	-0.4503113
253	0xbedcc090	-0.43115664
254	0xbd155279	-0.036455605
255	0xbf4904de	-0.7852305

sage.1.lin_root.bias f4 [64]
0	0x3f4136b8	0.7547412
1	0x3e321e60	0.173944
2	0x3e65f8c9	0.22458185
3	0x3e33ee94	0.17571479
4	0x3d357d80	0.04430914
5	0xbead6e5e	-0.33873266
6	0x3f671252	0.9026233
7	0x3f9cbd6f	1.224531
8	0xbe8c785a	-0.2743557
9	0x3ea02465	0.31277767
10	0x3f4551d0	0.7707796
11	0x3dd95fb8	0.1061396
12	0x3f5f83a4	0.8731024
13	0xbc694e2b	-0.014239828
14	0x3fd41c7d	1.6571194
15	0x3ed52c51	0.41635373
16	0x3f072f0e	0.52806175
17	0xbf019789	-0.5062185
18	0x3fc7a30a	1.559663
19	0x3c1a489c	0.0094167255
20	0x3e82a74f	0.2551827
21	0xbc0fc90b	-0.00877596
22	0x3f292955	0.6607869
23	0x3efffd5e	0.4999799
24	0x3f5e48d6	0.8682989
25	0x3f60c7e0	0.87804985
26	0x3fe26296	1.7686336
27	0x3e8d117a	0.27552396
28	0x3f8fdfa3	1.1240124
29	0x3e9c5dcc	0.3054031
30	0x3f4a453e	0.79011905
31	0x3f304cb7	0.6886706
32	0x3e8b5e2c	0.27220285
33	0xbdc2cbe4	-0.09511545
34	0x3f81fdc2	1.0155566
35	0x3f080b52	0.53142273
36	0x3e909472	0.28238255
37	0x3d9d7ea3	0.0769017
38	0x3facdf3d	1.3505627
39	0x3dfcd25e	0.12344812
40	0x3f23f99c	0.6405275
41	0x3fc82c45	1.563851
42	0x3f5b6610	0.8570261
43	0xbe5f4047	-0.21801864
44	0x3f35aa37	0.7096285
45	0xba53c1dd	-0.0008077899
46	0x3f409204	0.752228
47	0x3d39bf7d	0.045348633
48	0x3f0be44d	0.54645234
49	0xbe3d4ce9	-0.1848637
50	0x3f9cbba2	1.2244761
51	0x3f1ea7b2	0.6197463
52	0x3f1a8ca7	0.6037087
53	0xbe14530c	-0.14484805
54	0x3fa61749	1.2975856
55	0xbeba0e67	-0.36339113
56	0xbeaac73b	-0.33355126
57	0xbd5837ab	-0.052787464
58	0x3e4f3666	0.20235595
59	0x3eabbb73	0.3354145
60	0x3f2d64d2	0.67731965
61	0x3f582a8d	0.8443993
62	0x3e9ff302	0.31240088
63	0x3dbaaadd	0.09114621

sage.2.lin_rel.weight f4 [64, 64]
0	0xbd80c794	-0.062880665
1	0x3dc3d9dd	0.095630385
2	0x3d3f5cc9	0.046719346
3	0xbbbb12f1	-0.005709045
4	0xbceabaaa	-0.028653461
5	0xbdf1422d	-0.117802
6	0xbcd96ba2	-0.026540581
7	0xbc5bdb44	-0.013418976
8	0xbd850604	-0.06495288
9	0xbdafeafe	-0.08589743
10	0xbd4aeb0b	-0.04954056
11	0x3c99d111	0.018776448
12	0x3dad7fcb	0.0847164
13	0x3c671afb	0.014105554
14	0xbd59d2aa	-0.05317942
15	0xbc8082e5	-0.015687415
16	0xbd834d89	-0.06411273
17	0xbc3e12b7	-0.011601142
18	0x3da5d410	0.08097088
19	0xbdb62af3	-0.08894911
20	0xbd0f67e1	-0.035011176
21	0x3d88ac03	0.06673434
22	0x3c18dbd5	0.009329756
23	0x3d204a15	0.03913315
24	0xbbb0a7a8	-0.00539108
25	0xbc31fca3	-0.010863456
26	0x3cd9969b	0.026561072
27	0x3c7bed8f	0.015376463
28	0x3d11a784	0.035560146
29	0x3defdf49	0.1171251
30	0x3d5b72d7	0.053576317
31	0xbc02464c	-0.00795133
32	0xbdcaba50	-0.098988175
33	0x3daaf0e2	0.08346726
34	0x3d0f4b28	0.034983784
35	0xbd29d2fe	-0.041460983
36	0x3a80dd8e	0.0009831653
37	0xbdaf373e	-0.085554585
38	0xbd315ef4	-0.043303445
39	0x3d36efb7	0.044662204
40	0xbb897b17	-0.0041955817
41	0x3c3d7fea	0.011566142
42	0xbdadef18	-0.08492869
43	0xbd981c3f	-0.074272625
44	0xbda68e44	-0.08132604
45	0x3dce6349	0.10077531
46	0x3d85610a	0.06512649
47	0xbdab5cee	-0.08367334
48	0xbdc933d0	-0.098243356
49	0x3db3990b	0.08769425
50	0x3c669777	0.014074198
51	0xbd0b5ccc	-0.034024045
52	0xbd5dd458	-0.054157585
53	0x3ce12f74	0.027488448
54	0x3c0046b4	0.007829357
55	0x3dab9821	0.08378626
56	0xbe0727b2	-0.13198736
57	0x3d5954c6	0.053059362
58	0xbd30e1b3	-0.043183994
59	0x3dd95867	0.106125645
60	0x3d200e5b	0.03907619
61	0xbdb29179	-0.08719153
62	0x3d64d16a	0.055863775
63	0x3d2ba076	0.041901074
64	0xbca764d8	-0.020433828
65	0x3dc901e1	0.098148115
66	0xbe493125	-0.19647653
67	0xbe09161d	-0.13387342
68	0xbd28750b	-0.041127246
69	0xbe3271e7	-0.17426263
70	0x3e7637f5	0.24044783
71	0xbd8566e7	-0.06513768
72	0x3d4c071c	0.049811468
73	0x3e80d287	0.2516062
74	0x3e0872bc	0.13325018
75	0x3e1d87a7	0.15383779
76	0x3ec5a27a	0.38600522
77	0xbd95967e	-0.07304095
78	0x3dacf4c5	0.084451236
79	0xbe56cb08	-0.20975888
80	0xbe22a25f	-0.15882252
81	0xbd49bc62	-0.04925192
82	0x3e0f361f	0.1398549
83	0xbd8a614c	-0.06756839
84	0x3e389b1d	0.18027921
85	0xbe38b5e0	-0.1803813
86	0x3e524b75	0.20536597
87	0x3e851aaa	0.25996906
88	0x3e79e1cb	0.2440254
89	0x3dbc02e7	0.09180241
90	0x3e530acc	0.20609587
91	0xbe10dc05	-0.14146431
92	0x3ec61317	0.3868644
93	0x3dff44e0	0.12464309
94	0x3d964220	0.07336831
95	0xbdcf01c0	-0.10107756
96	0xbdaa3a89	-0.08311946
97	0xbe0b9693	-0.13631658
98	0x3ed1bde4	0.40965188
99	0xbc97ab05	-0.018514166
100	0xbe12842e	-0.14308235
101	0x3ca49100	0.020088673
102	0x3ece3cf0	0.40280867
103	0x3d38123f	0.044939276
104	0x3e2e4052	0.17016724
105	0x3e3e8365	0.1860481
106	0xbd796396	-0.06088599
107	0xbd53adaf	-0.05167931
108	0xbd2accfc	-0.041699395
109	0xbd9679a4	-0.0734742
110	0xbdb55cb8	-0.08855575
111	0xbd6a0930	-0.057137668
112	0x3be97b63	0.0071253045
113	0xbe530c2d	-0.20610113
114	0x3ee46c15	0.4461371
115	0x3ecde64e	0.4021477
116	0xbd547173	-0.051866006
117	0x3db6708f	0.089081876
118	0xbcd4d021	-0.02597815
119	0xbe0e2a2c	-0.13883275
120	0xbcd8a396	-0.026445191
121	0xbda7ae6e	-0.08187567
122	0x3d8d36b5	0.068952
123	0x3e994d0a	0.2994159
124	0xbdbbd0f0	-0.09170711
125	0x3d170219	0.036867235
126	0xbdeb3d4d	-0.114863016
127	0xbd70b94f	-0.058770474
128	0xbcd0024c	-0.02539172
129	0x3d861687	0.065472655
130	0xbdfdf55c	-0.12400314
131	0xbccefb8e	-0.025266435
132	0xbdad109c	-0.084504336
133	0xbd47561d	-0.04866611
134	0x3cdddc1f	0.027082501
135	0x3db5c13f	0.088747494
136	0x3ceaef72	0.02867863
137	0x3b4a37a4	0.0030855918
138	0xbc99620d	-0.018723512
139	0x3dbecf54	0.093168885
140	0x3d6fc41a	0.058536626
141	0x3b0dfca2	0.0021665473
142	0xbcf7c8c3	-0.030247098
143	0xbd0f8f3d	-0.035048712
144	0x3da092f1	0.07840527
145	0xbbff8792	-0.0077981437
146	0xbd7275c4	-0.05919434
147	0xbba56abf	-0.0050481255
148	0xbd465816	-0.04842385
149	0xbd47d3e3	-0.048786055
150	0x3b907636	0.004408623
151	0xbd92cad4	-0.07167593
152	0x3da96371	0.0827092
153	0xbdb83ca6	-0.08995943
154	0x3de017b3	0.1094202
155	0xbd95fdd8	-0.073238075
156	0xbd2c9d06	-0.042141937
157	0x3bcead26	0.006307262
158	0x3dca73a8	0.09885341
159	0x3c98b636	0.018641572
160	0x3c7db8ab	0.015485923
161	0xbdc90729	-0.09815819
162	0x3d818337	0.06323855
163	0x3dc0defa	0.094175294
164	0x3d2064d8	0.039158672
165	0xbcce15e9	-0.025156932
166	0x3e01cb66	0.12675247
167	0x3d6363fb	0.05551527
168	0xbca1919d	-0.019722754
169	0xbd895a9d	-0.06706736
170	0x3b37ac36	0.002802623
171	0x3d6a000e	0.05712896
172	0xbb44fa8c	-0.0030056564
173	0xbbc91423	-0.0061364337
174	0x3d72d729	0.059287224
175	0xbcfa8a6e	-0.030583587
176	0x3ca3bf7f	0.019988773
177	0x3ce83df5	0.028349856
178	0xbcd3edcd	-0.025870228
179	0x3cd1e005	0.025619516
180	0xbcfd0002	-0.030883793
181	0xbdc02734	-0.093824774
182	0xbd1990b4	-0.037491515
183	0xbcc6b6d6	-0.024257105
184	0x3c85a619	0.016314553
185	0x3b6b8999	0.003594017
186	0x3d230e28	0.039808422
187	0x3d11e369	0.035617266
188	0xbdcaa30c	-0.0989438
189	0x3cd0cbe1	0.025487842
190	0xbd6130d4	-0.054978207
191	0xbd84c238	-0.06482357
192	0x3d1ec291	0.03875977
193	0x3d3c12a8	0.04591623
194	0xbdb4d0a3	-0.08828857
195	0xbe0d98f7	-0.13827883
196	0xbdb9c11a	-0.09070034
197	0x3d28ad8c	0.041181132
198	0xbd812546	-0.063059375
199	0xbce6ad3c	-0.028158776
200	0xbb17aaae	-0.0023142505
201	0x3d97c67f	0.07410907
202	0x3cb7fc2d	0.022459114
203	0xbd9ea7dd	-0.07746861
204	0xbd812b9c	-0.06307146
205	0xbdac8eb5	-0.08425657
206	0x3dd73e77	0.10509961
207	0x3d75c07b	0.059998017
208	0x3bfa0747	0.007630262
209	0x3d2c99cc	0.04213886
210	0xbcf7cf31	-0.030250164
211	0x3daf0734	0.08546296
212	0xbd8af673	-0.06785288
213	0xbe06ccc5	-0.13164051
214	0x3d9bde93	0.07610812
215	0xbdc738ed	-0.097276546
216	0xbc34abe7	-0.011027313
217	0x3dec44db	0.11536571
218	0x3c26c8cd	0.010179711
219	0x3c2559e0	0.010092229
220	0xbbb5c15d	-0.0055467323
221	0x3b31b3d4	0.0027115243
222	0x3d630864	0.055427924
223	0x3d0b4b0c	0.034007117
224	0x3d269ed6	0.04067882
225	0xbd02a3b6	-0.03189441
226	0xbb12ec60	-0.0022418723
227	0x3dae8617	0.08521669
228	0x3c62bdf7	0.013839236
229	0x3cfc5072	0.030800078
230	0x3d6a9c68	0.057278067
231	0x3d653144	0.055955186
232	0x3da9b078	0.08285612
233	0x3c556a26	0.013025796
234	0x3e041253	0.12897615
235	0x3d4f0a2b	0.050546806
236	0x3d75fae2	0.060053714
237	0xbcebfd1e	-0.02880722
238	0xbdd6dd45	-0.104914226
239	0x3d37ed89	0.044904266
240	0xbcd0cafe	-0.02548742
241	0xbdb205eb	-0.08692535
242	0x3d8c78a9	0.068589516
243	0x3d484401	0.04889298
244	0x3cf70ce6	0.030157518
245	0xbdbb0e77	-0.09133618
246	0xbdb47bbe	-0.088126644
247	0x3d3c61a8	0.04599157
248	0x3dc838b9	0.09776444
249	0xbdf62683	-0.12019064
250	0x3c5ec58c	0.0135969035
251	0xbd9267fe	-0.07148741
252	0x3da30d23	0.0796149
253	0xbd2767fa	-0.040870644
254	0x3da7644a	0.081734255
255	0xbda94b84	-0.082663566

sage.2.lin_root.weight f4 [64, 64]
0	0xbda4ce74	-0.0804719
1	0x3dd8d25c	0.10586998
2	0xbd8041bd	-0.062625386
3	0x3dcae08c	0.0990611
4	0xbcdc1157	-0.026863737
5	0x3cca3625	0.024684021
6	0x3a0aa50b	0.00052888755
7	0x3db80f40	0.08987284
8	0x3d3aa040	0.045562983
9	0xbc0ba60b	-0.008523474
10	0x3da60278	0.081059396
11	0x3c7754e6	0.015095925
12	0xbd6648d5	-0.0562218
13	0x3cd78474	0.026308276
14	0xbc436568	-0.011926033
15	0xbd936338	-0.07196659
16	0xbd366088	-0.044525653
17	0x3d01bdda	0.031675197
18	0xbd9bfe96	-0.07616918
19	0xbd5cf993	-0.05394895
20	0x3b0358af	0.0020041873
21	0xbd07487a	-0.033028103
22	0x3daf88ea	0.08571036
23	0xbbbc6a17	-0.0057499516
24	0x3d049e4f	0.032377537
25	0xbdcf2c04	-0.10115817
26	0x3d2ab0d6	0.04167255
27	0xbe2988bb	-0.16556065
28	0x3d4e939e	0.050433747
29	0xbc9bc5d6	-0.019015234
30	0x3c87a9bd	0.01656043
31	0xbba15875	-0.004923875
32	0x3d950dfe	0.072780594
33	0x3d0d4be0	0.03449619
34	0x3db02f60	0.08602786
35	0xbdc70b70	-0.097189784
36	0xbdd9196c	-0.10600552
37	0xbd7c5664	-0.061605826
38	0xbd2dfb94	-0.04247625
39	0xbb9aa487	-0.00471932
40	0x3d82d893	0.063889645
41	0x3b16a1c8	0.0022984613
42	0x3d8eed0e	0.06978808
43	0xbc5a41dc	-0.013321366
44	0x3da6f069	0.08151323
45	0x3d6fc274	0.058535054
46	0xbdddc540	-0.10828638
47	0x3c477c4c	0.012175631
48	0x3d403244	0.046922937
49	0xbde626ff	-0.11237907
50	0x3db56de0	0.088588476
51	0x3cb81b18	0.022473857
52	0x3c5ff3ad	0.013668937
53	0xbd770c0d	-0.060314227
54	0xbd306ac7	-0.04307058
55	0x3cc58f44	0.024116166
56	0x3d3ee7e2	0.04660786
57	0xbdaeca95	-0.08534733
58	0x3d6f184b	0.058372777
59	0x3c1428f6	0.009042969
60	0xbe14e4ce	-0.14540407
61	0x3d07f99d	0.033197034
62	0x3d9b93d0	0.07596552
63	0xbde9569f	-0.11393475
64	0xbd830d2a	-0.06398995
65	0xbcbdfe1d	-0.02319246
66	0xbc888a0c	-0.016667388
67	0xbdd1369a	-0.102154925
68	0x3d571861	0.052513484
69	0xbdf68216	-0.12036531
70	0x3d0e470a	0.034735717
71	0x3c130602	0.0089736
72	0xbc89e99c	-0.016835026
73	0x3e1227ad	0.14272948
74	0x3e18adcd	0.1491005
75	0x3dbe1fdd	0.09283421
76	0x3d4f8914	0.050667837
77	0xbdc9843f	-0.09839677
78	0x3d77a6c4	0.060461774
79	0xbcc8a081	-0.024490597
80	0xbe5cc813	-0.21560697
81	0xbd9abd7f	-0.07555675
82	0x3dd09ada	0.101857856
83	0xbdd6d1cd	-0.10489235
84	0x3e2be084	0.16784865
85	0xbd843fc2	-0.06457473
86	0x3db53fe5	0.088500775
87	0x3e5008f8	0.20315921
88	0x3e296f14	0.16546279
89	0x3d91bd20	0.07116151
90	0x3e7b4d6e	0.24541256
91	0xbd6f01f0	-0.058351457
92	0x3da428b6	0.080155775
93	0x3d98ec11	0.07466901
94	0xbe10cbcd	-0.14140244
95	0xbd6cc10b	-0.057801288
96	0x3ca4129e	0.020028409
97	0x3d08ada8	0.033368737
98	0x3e27797b	0.16354935
99	0xbd5f05b0	-0.054448783
100	0xbc06a868	-0.008218862
101	0xbdd076dc	-0.101789206
102	0x3ed844e9	0.42240074
103	0xbc8cb5d9	-0.017176555
104	0x3d4ac25d	0.049501766
105	0x3df4e3c8	0.11957508
106	0x3e0360c4	0.12829882
107	0xbd318e27	-0.043348458
108	0x3d02ea38	0.03196165
109	0xbe60e5ad	-0.21962614
110	0x3c584e66	0.013202285
111	0x3d014c02	0.031566627
112	0x3d22cceb	0.039746206
113	0xbd206065	-0.03915443
114	0x3ec5b232	0.38612515
115	0x3e96dc4a	0.29464942
116	0x3d9f5b5f	0.077810995
117	0xbe30dd0c	-0.17271823
118	0x3c0952ca	0.008381555
119	0xbe31cea8	-0.1736399
120	0xbdf32e48	-0.11874062
121	0xbdbfd23f	-0.09366273
122	0x3e290aee	0.16508076
123	0x3e806f54	0.25084937
124	0xbe7c00c3	-0.24609666
125	0xbdd8e991	-0.10591424
126	0xbd97cf7f	-0.074126236
127	0xbe04026b	-0.12891547
128	0xbddfd994	-0.109301716
129	0x3d4222be	0.047396414
130	0xbc508ae3	-0.012728426
131	0xbdd955ec	-0.106120914
132	0x3ddaa675	0.106762804
133	0x3d744520	0.059636235
134	0xbc3e0d51	-0.011599855
135	0xbdc8d069	-0.09805376
136	0xbda94bb0	-0.08266389
137	0xbc917751	-0.01775709
138	0xbd4a8344	-0.04944159
139	0xbdbf6ee8	-0.093473256
140	0x3d08c6af	0.033392604
141	0x3db8dc63	0.090264104
142	0xbd8cf018	-0.06881732
143	0x3d107c3b	0.035274725
144	0x3cfa8f3b	0.030585876
145	0x3d84fd70	0.06493652
146	0x3cabed6b	0.020987233
147	0x3d7d2405	0.06180193
148	0xbe0ffd33	-0.14061432
149	0xbdaba506	-0.08381085
150	0x3bec0f67	0.0072039845
151	0xbc2eecf6	-0.010676613
152	0x3dbc9f84	0.09210113
153	0x3c71ee56	0.014766296
154	0x3d88f93d	0.066881634
155	0x3d82d159	0.06387586
156	0x3da95b15	0.08269326
157	0x3d98729f	0.07443737
158	0x3d940452	0.072273865
159	0x3d4a0fe9	0.04933158
160	0x3d511118	0.051041692
161	0x3d7f0fe5	0.062271018
162	0x3d9c27eb	0.07624801
163	0x3cc8e774	0.024524428
164	0x3d76eabf	0.060282465
165	0x3cd54edd	0.026038582
166	0x3bbd3eaf	0.0057752947
167	0x3d3a09a3	0.045419347
168	0x3ccdd7d2	0.025127325
169	0xbd996617	-0.07490175
170	0xbd4aec8b	-0.04954199
171	0xbde6168e	-0.11234771
172	0xbcc0cc15	-0.023534814
173	0xbde94e91	-0.113919385
174	0x3c0e7c37	0.008696607
175	0x3da2b5ea	0.079448536
176	0x3d58e9ee	0.052957468
177	0x3db42be0	0.08797431
178	0x3d42fb74	0.047603086
179	0x3dcefa3f	0.101063244
180	0xbca3f9aa	-0.02001651
181	0x3d70b0ca	0.05876235
182	0x3d32bdb7	0.043637957
183	0xbd0e2511	-0.034703318
184	0xbdbace9b	-0.09121438
185	0xbd82b7fd	-0.06382749
186	0xbce72f00	-0.028220654
187	0xbda2bcce	-0.07946168
188	0x3bb38662	0.005478666
189	0xbd49123d	-0.04908966
190	0x39633dbc	0.00021671405
191	0x3dc6b5c3	0.09702637
192	0x3aaf48c3	0.0013373125
193	0xbde23f20	-0.110471964
194	0xbdf8a910	-0.12141621
195	0xbda1f0d2	-0.07907261
196	0x3df8b38d	0.121436216
197	0xbb9b15c4	-0.0047328193
198	0x3e03c506	0.12868127
199	0x3bc41abb	0.005984632
200	0x3d4748f6	0.048653565
201	0xbd3337c8	-0.04375437
202	0x3da56200	0.08075333
203	0xbd665e2a	-0.056242146
204	0x3c9acbbd	0.018895978
205	0xbd101da2	-0.03518451
206	0xbda9f65f	-0.08298945
207	0xbdc23d1e	-0.094843134
208	0x3cd02409	0.025407808
209	0xbd54fa75	-0.051996667
210	0x3db259bb	0.08708521
211	0xbdc20abd	-0.094747044
212	0x3dcc5911	0.099779256
213	0x3d6a0761	0.057135943
214	0xbdecb6d0	-0.11558306
215	0x3d444f4c	0.047927186
216	0xbd77ecee	-0.060528688
217	0x3df90bf2	0.121604815
218	0xbd1383ca	-0.036014356
219	0xbd9dbb91	-0.07701791
220	0x3e0509da	0.1299204
221	0xbe114a79	-0.14188565
222	0xbc11c725	-0.008897577
223	0xbb8b5efb	-0.004253266
224	0x3dabed41	0.08394862
225	0xbb4d09a4	-0.0031286264
226	0xbd425258	-0.04744181
227	0xbdfda797	-0.12385481
228	0x3d9f5281	0.07779408
229	0x3d839e0b	0.06426629
230	0xbc7af1f4	-0.015316475
231	0x3cfc96ff	0.03083372
232	0x3dfe67dd	0.12422154
233	0x3ade730f	0.0016971546
234	0xbd287596	-0.041127764
235	0xbdaa005e	-0.08300851
236	0xbdc5e1ec	-0.09662232
237	0xbdad6a55	-0.08467547
238	0x3e08c0b5	0.13354762
239	0xbe25b10f	-0.16180824
240	0x3dad5b71	0.08464707
241	0xbd660f9c	-0.05616723
242	0xbd5e2107	-0.054230716
243	0xbd27be2e	-0.040952854
244	0xbd0296c4	-0.031882063
245	0xbdae4f59	-0.08511228
246	0xbd6f1f65	-0.05837955
247	0x3d98ac7b	0.07454773
248	0xbde25010	-0.11050427
249	0xbd8b3e30	-0.06798971
250	0x3da47e95	0.08031956
251	0xbb8a89a7	-0.004227835
252	0xbcf4084c	-0.029789113
253	0xbdba595b	-0.090990745
254	0x3e2c7f36	0.16845402
255	0xbc9adde9	-0.018904643

sage.2.lin_root.bias f4 [64]
0	0xbce4f4ac	-0.0279487
1	0x3a0582f0	0.00050930586
2	0xbd3aa7bb	-0.045570116
3	0x3dafab63	0.08577611
4	0x3c3120e9	0.010811069
5	0x3dc93821	0.09825159
6	0x3da3dd13	0.08001151
7	0x3d6e785c	0.058220252
8	0x3d9f7dd9	0.077876754
9	0x3e0c01ae	0.13672516
10	0xbdb92881	-0.09040929
11	0x3de9458a	0.11390217
12	0xbe0d6659	-0.13808574
13	0xbdf070ba	-0.11740251
14	0x3db07aa5	0.086171426
15	0xbc76ffda	-0.015075648
16	0xbcb08560	-0.021547973
17	0x3e936db3	0.2879463
18	0x3cfceade	0.030873712
19	0x3d80b667	0.062847905
20	0xbcadbcd7	-0.02120821
21	0x3d6fa46e	0.05850642
22	0x3d03b1e0	0.032152057
23	0xbdb3b3f5	-0.087745585
24	0xbc015def	-0.007895931
25	0xbde8e58d	-0.11371908
26	0x3b5f6ca3	0.0034091852
27	0xbe02ddb3	-0.12779884
28	0xbda1a41d	-0.0789263
29	0x3c15f064	0.009151552
30	0xbdb95d38	-0.09050983
31	0xbd994141	-0.07483149
32	0x3bec3036	0.0072078956
33	0x3d61d0ac	0.055130646
34	0x3dc2f71c	0.095197886
35	0xbded76ae	-0.11594902
36	0xbd9daa11	-0.07698453
37	0xbbe3d09c	-0.0069523584
38	0x3d453f0c	0.04815583
39	0xbc8db0f2	-0.017296288
40	0xbdd93b87	-0.10607057
41	0xbdf82820	-0.12117028
42	0xbdf03790	-0.11729348
43	0xbdc51e08	-0.09624869
44	0xbdf87a47	-0.121326976
45	0x3be686c3	0.007035108
46	0x3b57b236	0.0032912618
47	0x3d80960e	0.06278621
48	0x3da72de5	0.081630506
49	0xbda0d29d	-0.07852671
50	0x3d8f59c2	0.06999542
51	0xbdc89d75	-0.097956575
52	0xbc725602	-0.014791014
53	0x3d25f392	0.04051549
54	0x3db4b065	0.08822707
55	0x3d21d0c8	0.03950575
56	0xbd9561f4	-0.07294074
57	0x3bdbd1fa	0.0067083808
58	0x3c43e058	0.011955343
59	0x3dd0d0b6	0.101960585
60	0x3d02aaa6	0.031901024
61	0x3de48378	0.11157888
62	0x3c9f929c	0.019479088
63	0xbc7cd08f	-0.015430584

batch_norm.0.weight f4 [400]
0	0x4035859e	2.8362803
1	0x40050a85	2.078767
2	0x3fe00b1e	1.7503393
3	0x3fccd6d3	1.6003059
4	0x3fc1513c	1.5102916
5	0x3fb814ff	1.4381407
6	0x3fb09795	1.3796259
7	0x3faaf585	1.3356177
8	0x3fa842ac	1.3145347
9	0x3fa7ba07	1.3103646
10	0x3fa68a58	1.3010969
11	0x3fa64736	1.2990482
12	0x3fa723c5	1.3057791
13	0x3fa6d8d7	1.3034924
14	0x3fa5bfba	1.2949135
15	0x3fa6c2b1	1.3028165
16	0x3fa7a3b6	1.3096836
17	0x3fa80020	1.3125038
18	0x3fa8710b	1.3159498
19	0x3fa938a1	1.3220407
20	0x3fa95f09	1.3232127
21	0x3fa971a1	1.3237802
22	0x3fabcd25	1.342198
23	0x3fabc999	1.3420898
24	0x3fab5020	1.3383827
25	0x3fabf236	1.3433292
26	0x3fad1ed3	1.3525032
27	0x3fad1890	1.3523121
28	0x3faf039a	1.3672974
29	0x3fadeedb	1.3588518
30	0x3faea3c8	1.3643732
31	0x3fae6d68	1.3627138
32	0x3faead47	1.364663
33	0x3faef4f7	1.3668507
34	0x3faf2ba5	1.3685194
35	0x3fafc80d	1.3732926
36	0x3fafa2aa	1.3721516
37	0x3faf3fa8	1.3691301
38	0x3faf810c	1.3711257
39	0x3fb07b14	1.378756
40	0x3fafbb79	1.3729087
41	0x3fb040cd	1.3769776
42	0x3fb14369	1.3848697
43	0x3fafb898	1.3728209
44	0x3fb0af41	1.3803483
45	0x3faf6573	1.3702835
46	0x3faf059f	1.367359
47	0x3fb086a9	1.3791095
48	0x3faf8db2	1.3715117
49	0x3fafb589	1.3727275
50	0x3fae080e	1.3596208
51	0x3faf580e	1.3698747
52	0x3fae9f77	1.3642415
53	0x3faf46af	1.3693446
54	0x3faeabb4	1.364615
55	0x3fae1182	1.3599093
56	0x3fadd34d	1.3580109
57	0x3fad67cc	1.3547301
58	0x3fad7f0b	1.3554395
59	0x3fad5e26	1.3544357
60	0x3fac52ae	1.3462732
61	0x3fac87b5	1.3478914
62	0x3fac0b7c	1.3441005
63	0x3fabe07d	1.3427883
64	0x3fab944d	1.3404633
65	0x3fab9efe	1.3407896
66	0x3faa545a	1.3306992
67	0x3fab16e4	1.3366361
68	0x3faa0c8d	1.328508
69	0x3fa8b208	1.3179331
70	0x3fa86f59	1.3158981
71	0x3fa87203	1.3159794
72	0x3fa8265c	1.3136706
73	0x3fa7db6d	1.3113838
74	0x3fa731d6	1.3062084
75	0x3fa7267b	1.3058618
76	0x3fa60bd3	1.2972358
77	0x3fa5ba43	1.2947468
78	0x3fa4e51a	1.2882416
79	0x3fa51193	1.2895988
80	0x3fa3d4bb	1.2799295
81	0x3fa32de2	1.2748377
82	0x3fa351b9	1.2759315
83	0x3fa2ef6f	1.2729319
84	0x3fa211cc	1.2661681
85	0x3fa2084e	1.2658784
86	0x3fa1264d	1.2589813
87	0x3f9fc603	1.2482303
88	0x3f9fa78a	1.2473004
89	0x3f9f9349	1.2466823
90	0x3f9e44d3	1.2364753
91	0x3f9e8948	1.2385645
92	0x3f9d537e	1.2291105
93	0x3f9db296	1.2320125
94	0x3f9d6d21	1.2298928
95	0x3f9ca271	1.2237073
96	0x3f9cc23e	1.2246778
97	0x3f9b9d95	1.2157465
98	0x3f99ba1d	1.2009922
99	0x3f99d4f6	1.2018116
100	0x3f997b11	1.1990682
101	0x3f98d03d	1.1938549
102	0x3f983f3e	1.18943
103	0x3f97e69b	1.186725
104	0x3f982f90	1.1889515
105	0x3f96afb2	1.1772368
106	0x3f96a970	1.1770458
107	0x3f95ff09	1.1718456
108	0x3f94f879	1.1638328
109	0x3f94f13e	1.1636121
110	0x3f933b0f	1.1502398
111	0x3f934ced	1.1507851
112	0x3f936fb4	1.1518464
113	0x3f935cba	1.1512673
114	0x3f91ac99	1.1380798
115	0x3f919287	1.1372842
116	0x3f914d87	1.1351784
117	0x3f8fdba7	1.1238908
118	0x3f8efef5	1.1171557
119	0x3f8f444f	1.1192721
120	0x3f8dbd7a	1.1073449
121	0x3f8dafb7	1.1069249
122	0x3f8d97a1	1.1061898
123	0x3f8d218d	1.1025864
124	0x3f8c8e63	1.0980953
125	0x3f8c7969	1.0974551
126	0x3f8a461b	1.0802644
127	0x3f8a7f14	1.0820031
128	0x3f8af772	1.0856764
129	0x3f8a80a8	1.0820513
130	0x3f89742e	1.073858
131	0x3f884234	1.0645204
132	0x3f883b30	1.0643063
133	0x3f87b000	1.0600586
134	0x3f8726e2	1.0558741
135	0x3f85743e	1.0426099
136	0x3f85eb8d	1.0462509
137	0x3f852ae0	1.040371
138	0x3f842215	1.0322901
139	0x3f83a732	1.0285399
140	0x3f82df9c	1.022449
141	0x3f822a3e	1.0169141
142	0x3f82479a	1.0178101
143	0x3f80e47e	1.006973
144	0x3f80464b	1.0021452
145	0x3f80264e	1.001169
146	0x3f7d41c2	0.98928463
147	0x3f7cde0f	0.98776335
148	0x3f7b5ca1	0.98188215
149	0x3f7b1b55	0.9808858
150	0x3f79f2da	0.9763619
151	0x3f7883ba	0.97076
152	0x3f775eeb	0.9662921
153	0x3f75e03a	0.9604527
154	0x3f7487e4	0.9551985
155	0x3f730e4a	0.9494368
156	0x3f6fa4f5	0.9361108
157	0x3f6e93ec	0.9319446
158	0x3f6e27a4	0.93029237
159	0x3f6ce24c	0.925328
160	0x3f6a25a0	0.9146366
161	0x3f687300	0.90800476
162	0x3f6831b4	0.9070084
163	0x3f6515a9	0.89486176
164	0x3f636e08	0.8883977
165	0x3f61d86f	0.88220876
166	0x3f60685d	0.87659246
167	0x3f5fadc6	0.8737453
168	0x3f5dc230	0.8662443
169	0x3f5bef95	0.8591245
170	0x3f5a975c	0.85387206
171	0x3f5983d9	0.8496681
172	0x3f585e94	0.84519315
173	0x3f565510	0.83723545
174	0x3f526eeb	0.822005
175	0x3f520d94	0.8205197
176	0x3f4fe93a	0.8121525
177	0x3f4d6a49	0.80240303
178	0x3f4d8565	0.8028167
179	0x3f4b9b94	0.7953427
180	0x3f4ae780	0.7925949
181	0x3f490e18	0.7853713
182	0x3f475b5d	0.77873784
183	0x3f45fdbc	0.7734029
184	0x3f43c6d3	0.76475257
185	0x3f4041ec	0.7510059
186	0x3f3f27fa	0.74670374
187	0x3f3df3bb	0.7420003
188	0x3f3c1e5e	0.73483837
189	0x3f39ce21	0.7258015
190	0x3f38b473	0.72150344
191	0x3f3610f3	0.7111961
192	0x3f34b1d9	0.70583874
193	0x3f343ab8	0.704021
194	0x3f32251f	0.6958789
195	0x3f2eea24	0.6832602
196	0x3f2ffd20	0.68745613
197	0x3f2c5636	0.6731905
198	0x3f2c2bdc	0.67254424
199	0x3f27b7d3	0.6551487
200	0x3f27f57a	0.6560894
201	0x3f249ab8	0.6429858
202	0x3f23e7bf	0.6402549
203	0x3f2287a7	0.6348824
204	0x3f2045a7	0.6260628
205	0x3f204731	0.6260863
206	0x3f1caca2	0.61200917
207	0x3f1afc82	0.60541546
208	0x3f19bebc	0.6005666
209	0x3f183b0c	0.594651
210	0x3f172350	0.5903826
211	0x3f15218c	0.58254313
212	0x3f132bae	0.57488525
213	0x3f118017	0.56836075
214	0x3f0eec54	0.5582936
215	0x3f0d72ec	0.5525348
216	0x3f0c6092	0.54834855
217	0x3f0b19c7	0.5433621
218	0x3f0a823b	0.54104966
219	0x3f09e90c	0.53871226
220	0x3f089106	0.5334629
221	0x3f060dc2	0.5236474
222	0x3f0497ea	0.517943
223	0x3f012cad	0.50458795
224	0x3f009c7b	0.5023877
225	0x3efe71fb	0.49696335
226	0x3efc6a2f	0.49299762
227	0x3ef829bd	0.48469344
228	0x3ef714be	0.48258013
229	0x3ef34906	0.4751665
230	0x3eefb0dc	0.4681462
231	0x3eec5004	0.46154797
232	0x3eea6f31	0.45787957
233	0x3ee8fac9	0.45503834
234	0x3ee709d3	0.45124683
235	0x3ee0d1a0	0.4390993
236	0x3edea0a4	0.43481934
237	0x3edfb664	0.4369384
238	0x3ed9af54	0.42516577
239	0x3ed7bed7	0.42137787
240	0x3ed3d278	0.41371512
241	0x3ed28bb9	0.41122225
242	0x3ecdfdaa	0.40232593
243	0x3ecb6498	0.39725184
244	0x3ec87b50	0.3915658
245	0x3ec48ec3	0.3839017
246	0x3ec18b20	0.37801456
247	0x3ec1c4e9	0.37845543
248	0x3ebfeac0	0.37483788
249	0x3ebd53aa	0.36977893
250	0x3eba9e1b	0.3644875
251	0x3eb91eae	0.3615622
252	0x3eb42a56	0.3518855
253	0x3eb4245f	0.35184
254	0x3eb2107b	0.347782
255	0x3eaf4c12	0.34237725

batch_norm.0.bias f4 [400]
0	0xbf8e134c	-1.1099639
1	0xbf433140	-0.76247025
2	0xbf01f93c	-0.50770926
3	0xbea3984b	-0.31952128
4	0xbe383a0e	-0.17990896
5	0xbd67346c	-0.056446478
6	0xba8c7e4c	-0.0010718792
7	0x3d74c960	0.05976236
8	0x3db51ac9	0.088429995
9	0x3df2bf68	0.11852914
10	0x3e09a082	0.13440135
11	0x3e1a5b56	0.15073904
12	0x3e270ee1	0.1631427
13	0x3e383d15	0.17992051
14	0x3e4b80dd	0.19873376
15	0x3e4a4580	0.19753075
16	0x3e5a0ad9	0.212932
17	0x3e607906	0.21921167
18	0x3e6d614c	0.23181647
19	0x3e77b2e3	0.24189334
20	0x3e7d43bd	0.24732871
21	0x3e81cb8e	0.25350612
22	0x3e83b84f	0.25726554
23	0x3e884107	0.26612112
24	0x3e892b5d	0.26790896
25	0x3e8f2bb6	0.27963036
26	0x3e92e634	0.28691256
27	0x3e8ff0e3	0.2811347
28	0x3e970542	0.294962
29	0x3e9333d4	0.2875048
30	0x3e9930f2	0.29920155
31	0x3e997757	0.29973862
32	0x3e99b021	0.30017188
33	0x3ea18244	0.31544697
34	0x3e9f5106	0.31116503
35	0x3ea003b2	0.3125282
36	0x3ea2bc67	0.31784365
37	0x3ea0619c	0.3132447
38	0x3e9cc11b	0.30616078
39	0x3e9f5a2e	0.3112349
40	0x3ea21f4d	0.31664506
41	0x3e9e8d53	0.30967197
42	0x3ea27a6f	0.31734034
43	0x3e9ecea1	0.3101702
44	0x3e9e312f	0.308969
45	0x3e9e2d5b	0.30893978
46	0x3e9b4641	0.30327037
47	0x3e9bb8d7	0.3041446
48	0x3e9a2fe6	0.3011467
49	0x3e9bbd14	0.30417693
50	0x3e95ccce	0.29257816
51	0x3e96438a	0.29348403
52	0x3e922543	0.28544053
53	0x3e92cf91	0.28673986
54	0x3e8ecbdc	0.27889907
55	0x3e8d3918	0.27582622
56	0x3e8e2f06	0.2777025
57	0x3e8c1d38	0.27366042
58	0x3e85e87b	0.2615393
59	0x3e864b03	0.26229104
60	0x3e7d6fa0	0.24749613
61	0x3e76faab	0.2411906
62	0x3e784c90	0.24247956
63	0x3e74b476	0.23896965
64	0x3e6e5d37	0.23277746
65	0x3e6beb38	0.23038948
66	0x3e5e07da	0.21682683
67	0x3e5da8b3	0.21646385
68	0x3e52c6aa	0.20583597
69	0x3e4a29fa	0.19742575
70	0x3e42ea72	0.19034746
71	0x3e42dacb	0.19028775
72	0x3e3cf1ad	0.18451567
73	0x3e37cf60	0.17950201
74	0x3e310ca1	0.17289974
75	0x3e228391	0.15870501
76	0x3e1d4e34	0.15361863
77	0x3e1df5d4	0.15425807
78	0x3e11cc4d	0.14238091
79	0x3e0c9077	0.13726984
80	0x3e0be9f4	0.13663465
81	0x3de776fb	0.113019906
82	0x3df0625f	0.11737513
83	0x3de75ad8	0.11296624
84	0x3dd65e3d	0.10467193
85	0x3dc69373	0.096960925
86	0x3dba8fdc	0.0910947
87	0x3db1d685	0.086834945
88	0x3da6e35d	0.08148835
89	0x3d8b3962	0.06798054
90	0x3d6fe149	0.058564458
91	0x3d6e0f5c	0.058120117
92	0x3d43b3ea	0.047779
93	0x3d324a0a	0.04352764
94	0x3d17bed1	0.03704721
95	0x3ce2de8f	0.027694015
96	0x3cb71a09	0.022351282
97	0x3cad6683	0.021167045
98	0x3c7b31ec	0.0153317265
99	0x3bc5ae81	0.0060327654
100	0x3bbc3acf	0.005744315
101	0xbbe001de	-0.00683616
102	0xbc000005	-0.007812505
103	0xbc3d6bda	-0.011561358
104	0xbcbbe011	-0.022933992
105	0xbcd8fcfc	-0.02648782
106	0xbd02e914	-0.031960562
107	0xbce74866	-0.028232764
108	0xbd379bc5	-0.044826288
109	0xbd64d9d5	-0.055871803
110	0xbd757fd0	-0.059936345
111	0xbd706a7d	-0.058695305
112	0xbd80a966	-0.0628231
113	0xbd929410	-0.07157147
114	0xbda0af24	-0.078459054
115	0xbda9a349	-0.08283097
116	0xbdabfb4b	-0.0839754
117	0xbdbd147a	-0.09232421
118	0xbdd2064e	-0.10255109
119	0xbdd674c9	-0.10471494
120	0xbde20527	-0.11036139
121	0xbddd0854	-0.10792604
122	0xbdf052f8	-0.11734575
123	0xbe00e22f	-0.12586282
124	0xbe01f4dd	-0.12691064
125	0xbe090fb8	-0.13384902
126	0xbe0aefc7	-0.1356803
127	0xbe153bd0	-0.14573598
128	0xbe119741	-0.14217855
129	0xbe1e30f6	-0.15448365
130	0xbe23b52c	-0.1598708
131	0xbe2d788c	-0.16940516
132	0xbe2dde6b	-0.16979377
133	0xbe31a1ee	-0.17346928
134	0xbe422cbb	-0.18962376
135	0xbe3d861e	-0.18508193
136	0xbe3d65d2	-0.18495873
137	0xbe44077c	-0.1914348
138	0xbe4aac5e	-0.19792315
139	0xbe555eba	-0.20836917
140	0xbe5a70ea	-0.21332136
141	0xbe5dfd22	-0.21678594
142	0xbe655751	-0.2239659
143	0xbe618911	-0.22024943
144	0xbe709830	-0.23495555
145	0xbe719f90	-0.23596025
146	0xbe7efa44	-0.24900156
147	0xbe81bc9a	-0.25339204
148	0xbe811c83	-0.25217065
149	0xbe877ecf	-0.26463935
150	0xbe871d32	-0.26389462
151	0xbe897691	-0.2684827
152	0xbe9084a9	-0.28226212
153	0xbe91b3ce	-0.28457493
154	0xbe9363d6	-0.28787106
155	0xbe9b55fd	-0.3033904
156	0xbe981057	-0.29699966
157	0xbe983039	-0.2972429
158	0xbe9f19e3	-0.31074437
159	0xbea325df	-0.3186483
160	0xbea534e3	-0.32266912
161	0xbeaad63f	-0.33366582
162	0xbea9e3b2	-0.3318153
163	0xbea74e11	-0.32676747
164	0xbead6082	-0.33862692
165	0xbeb405db	-0.35160717
166	0xbeb49748	-0.35271668
167	0xbebf4bb3	-0.3736244
168	0xbebbeca4	-0.3670398
169	0xbebdd17f	-0.37073895
170	0xbebfa82c	-0.37432992
171	0xbec514da	-0.3849247
172	0xbec6410e	-0.38721508
173	0xbecb38d0	-0.39691782
174	0xbec73bf6	-0.38912934
175	0xbeccc0c6	-0.39990824
176	0xbed4fec5	-0.41600624
177	0xbed90526	-0.4238674
178	0xbed4b77e	-0.41546243
179	0xbeda441c	-0.42630088
180	0xbedb4655	-0.42827097
181	0xbedb5985	-0.42841735
182	0xbedf380b	-0.43597445
183	0xbee21299	-0.44154814
184	0xbee6d4b8	-0.45084167
185	0xbee49ff6	-0.4465329
186	0xbee8bb04	-0.45455182
187	0xbee90416	-0.4551093
188	0xbeed8a86	-0.46394747
189	0xbeeb5f97	-0.45971367
190	0xbef0e6b2	-0.47051007
191	0xbef3cc30	-0.4761672
192	0xbef43c53	-0.47702274
193	0xbef68574	-0.48148692
194	0xbef79fb5	-0.48364034
195	0xbefbba6a	-0.4916566
196	0xbf002cc1	-0.5006829
197	0xbf0125e8	-0.50448465
198	0xbf01d297	-0.5071196
199	0xbf01ba25	-0.5067466
200	0xbf006d30	-0.50166607
201	0xbf043ea9	-0.5165811
202	0xbf02190c	-0.5081947
203	0xbf0306af	-0.51182073
204	0xbf059499	-0.5217987
205	0xbf057e67	-0.52146
206	0xbf097466	-0.53693235
207	0xbf072ffd	-0.528076
208	0xbf09fb02	-0.5389863
209	0xbf0d1d06	-0.5512241
210	0xbf090525	-0.53523475
211	0xbf082dfd	-0.5319517
212	0xbf0b32e4	-0.5437453
213	0xbf0e6d1f	-0.55635256
214	0xbf0c3066	-0.5476135
215	0xbf0de173	-0.55422133
216	0xbf0f71e3	-0.5603315
217	0xbf0e92b9	-0.5569263
218	0xbf0f0816	-0.55871713
219	0xbf1136e0	-0.5672436
220	0xbf115f0d	-0.5678566
221	0xbf1000e6	-0.5625137
222	0xbf13fb0e	-0.57804954
223	0xbf125a2b	-0.57168835
224	0xbf1437b5	-0.578975
225	0xbf148504	-0.58015466
226	0xbf144d21	-0.5793019
227	0xbf122185	-0.57082397
228	0xbf138be7	-0.5763535
229	0xbf155dda	-0.5834633
230	0xbf151c4d	-0.5824631
231	0xbf14bbdb	-0.58099145
232	0xbf1427d1	-0.57873255
233	0xbf14ef40	-0.58177567
234	0xbf1683e1	-0.5879498
235	0xbf1430e5	-0.5788711
236	0xbf158d37	-0.584186
237	0xbf15f431	-0.5857573
238	0xbf14d997	-0.58144516
239	0xbf15eaaf	-0.58561224
240	0xbf155d70	-0.583457
241	0xbf16b182	-0.58864605
242	0xbf1d1a70	-0.61368465
243	0xbf159eea	-0.5844561
244	0xbf180d00	-0.59394836
245	0xbf12b513	-0.5730755
246	0xbf15c0d0	-0.58497334
247	0xbf11bdf9	-0.569305
248	0xbf1a25ac	-0.6021373
249	0xbf185a9b	-0.5951325
250	0xbf15dea8	-0.5854287
251	0xbf14fb41	-0.58195883
252	0xbf142187	-0.5786366
253	0xbf140aa1	-0.5782872
254	0xbf163417	-0.5867323
255	0xbf17584b	-0.591191
