Saves/ecal_ep_60.pth (torch, 130018 bytes, 38 tensors)

sage.0.lin_rel.weight f4 [16, 3]
0	0x3ce8c7da	0.02841561
1	0x3c85a0af	0.016311971
2	0x3f2301b4	0.63674474
3	0x3d2f5efc	0.042815194
4	0x3c51a414	0.012795467
5	0x3f059cf5	0.5219262
6	0x3cf76c39	0.030202972
7	0x3c5c675f	0.01345238
8	0x3f21efbe	0.6325644
9	0x3d0dff25	0.034667153
10	0x3c337e02	0.010955336
11	0x3f1baa03	0.6080629
12	0x3d052aa8	0.032511383
13	0x3c9536eb	0.018214663
14	0x3f1ef978	0.6209941
15	0x3d0cb0a5	0.03434815
16	0x3c4d140f	0.012516989
17	0x3f18a4a5	0.5962623
18	0x3e1b82ec	0.15186661
19	0xbdf88769	-0.121352024
20	0xc0844e1c	-4.134535
21	0x3cf08b4e	0.0293633
22	0x3c8f2976	0.017475825
23	0x3f2707b0	0.65246105
24	0x3d1f59eb	0.03890411
25	0x3c58375a	0.013196791
26	0x3f1ba581	0.60799414
27	0x3d0f537d	0.03499173
28	0x3c2c5a86	0.010519629
29	0x3f25fa4c	0.6483505
30	0x3d23a5d5	0.03995307
31	0x3c511f75	0.012763848
32	0x3f227028	0.63452387
33	0x3d042191	0.032258574
34	0x3c8e145c	0.017343692
35	0x3f21ba0b	0.63174504
36	0xbf04eb53	-0.51921576
37	0xbdd29897	-0.102830105
38	0xc091c6a0	-4.555496
39	0x3d03b305	0.03215315
40	0x3e459e3f	0.19298647
41	0xc003fddc	-2.0623693
42	0x3d920927	0.07130652
43	0x3db91d96	0.09038846
44	0xc03fb318	-2.995306
45	0x3d028b06	0.031870864
46	0x3c923b4c	0.01785054
47	0x3f1c003e	0.6093787

sage.0.lin_root.weight f4 [16, 3]
0	0x3e1a79c7	0.15085517
1	0x3c532bfc	0.012888905
2	0x3eb7d0c8	0.35901475
3	0xbd8152b7	-0.06314605
4	0x3e66db94	0.225447
5	0x3ebb69ee	0.36604255
6	0x3d62ac7c	0.055340275
7	0x3d92e83f	0.07173204
8	0x3eb97988	0.36225533
9	0x3e01d9da	0.1268076
10	0x3e0cfd8c	0.13768595
11	0x3eb9757c	0.36222446
12	0x3e0a5343	0.13508324
13	0x3c881eb4	0.016616203
14	0x3eb765ef	0.35819957
15	0x3e02339c	0.12715
16	0x3e0c6ffc	0.13714594
17	0x3ebac03f	0.36474797
18	0xbf3af5d1	-0.73031336
19	0xbeff6138	-0.4987886
20	0xbffd8ce9	-1.9808627
21	0x3e2ac8ba	0.16678134
22	0xb9898266	-0.0002622783
23	0x3eb9a018	0.36254954
24	0x3e0919ce	0.1338875
25	0x3e1d58be	0.15365884
26	0x3eb9d3a8	0.36294293
27	0x3e0b7d96	0.13622126
28	0x3e10f7e5	0.14157064
29	0x3eb8e99e	0.36115736
30	0x3e1bf9d5	0.15232022
31	0x3e1e34ea	0.15449873
32	0x3eb8f512	0.36124474
33	0x3e0c606c	0.13708657
34	0x3c972eab	0.01845487
35	0x3eb74813	0.35797176
36	0xbee6ef6b	-0.45104536
37	0xbf578287	-0.84183544
38	0xc032420a	-2.7852807
39	0xbdd60cd1	-0.10451663
40	0xbdea3bd4	-0.114371926
41	0xbf69a7ef	-0.9127187
42	0xbeb38fd6	-0.35070676
43	0xbed0a5de	-0.40751547
44	0xbfa37e80	-1.277298
45	0x3e1429c9	0.14469065
46	0x3b9b340f	0.0047364305
47	0x3eb871f5	0.36024442

sage.0.lin_root.bias f4 [16]
0	0x3f928c19	1.1449004
1	0x3f9efbee	1.2420633
2	0x40737d34	3.8045168
3	0xc09f74e8	-4.983021
4	0x3fc22b08	1.5169382
5	0xc0a27661	-5.0769506
6	0xc04c865a	-3.1957002
7	0x3f618ca8	0.8810525
8	0xc0db517c	-6.853697
9	0xc0bd394e	-5.913245
10	0xc1020179	-8.12536
11	0x3faeae1f	1.3646888
12	0xc0886105	-4.261843
13	0x3f762ec6	0.9616512
14	0x3f6954ff	0.9114532
15	0x3fec80d8	1.847682

sage.1.lin_rel.weight f4 [64, 16]
0	0x3c124a1e	0.008928804
1	0x3e445051	0.19171263
2	0x3eae932b	0.34096655
3	0xbd65c6aa	-0.056097664
4	0xbdd2e098	-0.10296744
5	0xbca4eb9a	-0.020131875
6	0x3cc505b0	0.024050564
7	0x3cb3ac9b	0.02193289
8	0xbe213f4e	-0.15746805
9	0x3d4f341c	0.050586805
10	0x3e26983b	0.16269009
11	0x3d6c8cb6	0.05775138
12	0xbd2ab61f	-0.04167759
13	0x3da2d4f6	0.07950775
14	0x3d0ded0b	0.03464989
15	0xbd38c416	-0.045108877
16	0xbdfc0e41	-0.12307406
17	0x3e1705e7	0.14748345
18	0xbf06a3be	-0.525936
19	0x3de66d8c	0.11251363
20	0xbe58ef18	-0.21184957
21	0xbd2af885	-0.041740913
22	0xbd54fcc7	-0.05199888
23	0xbcfe147b	-0.031015625
24	0x3d810ece	0.06301652
25	0xbda42a24	-0.0801585
26	0xbd93d764	-0.07218817
27	0xbe9edf72	-0.3102985
28	0xbcdda611	-0.027056726
29	0x3cfdc7ca	0.030979056
30	0x3d797a86	0.060907863
31	0xbda8020c	-0.082035154
32	0xbdbc5fc8	-0.09197956
33	0x3a987c40	0.0011633709
34	0xbea9d58a	-0.3317073
35	0x3e1a0c18	0.15043676
36	0xbd1e3b6f	-0.0386309
37	0x3d9b9818	0.07597369
38	0x3da83e48	0.08215004
39	0xbbfb0ca2	-0.007661418
40	0xbe6c111a	-0.23053399
41	0x3e8ccbff	0.27499387
42	0xbe76a834	-0.24087602
43	0xbd71f4b1	-0.059071247
44	0x3cb2ceab	0.021827063
45	0xbc892ab2	-0.016743992
46	0x3d9cc8bf	0.07655477
47	0xbe477c12	-0.19480923
48	0x3dcd782a	0.10032685
49	0x3dc848e9	0.097795315
50	0x3edd486c	0.43219316
51	0xbe4ec637	-0.201928
52	0x3d038213	0.03210647
53	0x3e75d434	0.2400673
54	0xbdfe1d27	-0.12407904
55	0xbe4646d1	-0.19362952
56	0xbcf73535	-0.030176738
57	0xbf0aea04	-0.5426333
58	0x3c3597ea	0.011083582
59	0xbdd28f50	-0.10281241
60	0xbe54b7e1	-0.20773269
61	0xbca96868	-0.020679668
62	0xbd2c57b3	-0.042075824
63	0xbe0bed7a	-0.13664809
64	0x3e548f5d	0.20757814
65	0xbee6c969	-0.4507554
66	0xbd25c1a6	-0.04046788
67	0x3e8ac947	0.27106687
68	0x3ed3c717	0.4136283
69	0x3e3a499a	0.1819214
70	0x3e10301c	0.14080852
71	0x3ed90ed1	0.42394117
72	0xbe0a219b	-0.13489382
73	0x3e3eb02e	0.18621895
74	0xbe68e07a	-0.22741881
75	0x3ee40363	0.44533834
76	0xbd5b0ba7	-0.05347791
77	0xbd7f7bf8	-0.062374085
78	0x3db78701	0.08961297
79	0x3e3a87a8	0.18215811
80	0xbe9da724	-0.3079158
81	0x3e395844	0.18100077
82	0x3e787687	0.24263965
83	0xbec5216e	-0.38502067
84	0xbeeb7625	-0.45988575
85	0xbe265fb7	-0.1624745
86	0xbe1fd5b4	-0.15608865
87	0xbea66526	-0.32499045
88	0xbd0779a5	-0.033074994
89	0x3c1442d4	0.009049136
90	0xbe8cc7c2	-0.27496153
91	0xbe8b213f	-0.27173802
92	0x3d759e16	0.059965216
93	0x3d78ddbf	0.06075835
94	0xbdd1ad33	-0.10238113
95	0xbec919ce	-0.392775
96	0xbd74c92a	-0.059762157
97	0xbc408e96	-0.011752745
98	0x3fe6d052	1.8032324
99	0xbe0a260e	-0.13491079
100	0x3e849b14	0.25899565
101	0xbdd91cd9	-0.106012054
102	0x3dbb34ab	0.09140905
103	0xbdb6a7bc	-0.089187115
104	0x3ce40782	0.027835611
105	0xbe837122	-0.2567225
106	0x3dcb1d01	0.099176414
107	0x3d1e14be	0.038594
108	0x3e0c1972	0.13681582
109	0x3ce9304c	0.028465413
110	0x3dea9426	0.11454038
111	0x3e1ab6bb	0.15108769
112	0x3e102ffb	0.14080803
113	0x3bd2d7f4	0.006434435
114	0x3f72691b	0.9469163
115	0xbe5cf807	-0.2157899
116	0x3d1cdcdd	0.03829657
117	0xbe95e375	-0.29275098
118	0x3cd10c38	0.025518522
119	0x3e09d5f3	0.13460521
120	0x3f14e6a9	0.5816446
121	0x3c8a4219	0.016877221
122	0xbe315119	-0.17316093
123	0x3d98596d	0.074389316
124	0x3d0b5a25	0.034021515
125	0x3cc153b6	0.023599487
126	0x3cb270f5	0.021782378
127	0x3e050a02	0.12992099
128	0xbe50a326	-0.20374736
129	0x3dcb162f	0.099163406
130	0x3e8d6357	0.27614853
131	0xbd70960f	-0.058736857
132	0xbe830a49	-0.25593784
133	0x3d4c23a2	0.04983867
134	0x3c10a19f	0.008827596
135	0xbe3c247d	-0.18373294
136	0x3d804bdb	0.06264468
137	0xbc298921	-0.0103476355
138	0x3ddc5a69	0.10759432
139	0xbe3cf106	-0.18451318
140	0x3da67def	0.08129489
141	0xbd6198ce	-0.055077367
142	0xbcfcf2d6	-0.030877512
143	0xbe8c0bf9	-0.27352884
144	0x3dcabbff	0.09899139
145	0x3e8b7ef4	0.27245295
146	0xbeeb5722	-0.45964915
147	0xbe5131ed	-0.20429201
148	0xbe8b5a6b	-0.2721742
149	0x3c631742	0.013860526
150	0x3b522fa6	0.0032071858
151	0xbcff0e52	-0.031134758
152	0x3cd0f9c5	0.025509724
153	0xbd95ee6a	-0.073208645
154	0xbe6463f2	-0.22303751
155	0x3c6045ea	0.013688544
156	0x3dad1028	0.08450347
157	0x3dcea96e	0.1009091
158	0x3afc4a5e	0.0019248237
159	0xbd59f7af	-0.053214725
160	0x3de51122	0.111849084
161	0xbe48af16	-0.1959804
162	0xbe8b34cb	-0.27188715
163	0x3e9daf55	0.3079783
164	0x3e1f56ac	0.15560406
165	0x3e3058f8	0.17221439
166	0x3e0076d1	0.12545325
167	0x3db62bc5	0.08895067
168	0xbe94a82e	-0.2903456
169	0x3eb060be	0.34448808
170	0xbe10a449	-0.1412517
171	0x3e661baa	0.2247149
172	0x3db65b82	0.089041725
173	0xbda03a7b	-0.07823654
174	0x3d7d1f85	0.061797637
175	0x3e0c950a	0.13728729
176	0xbedbc36d	-0.42922536
177	0x3ea5b4f4	0.3236462
178	0x3e2fb8d9	0.17160358
179	0x3da35329	0.07974846
180	0xbeeca6d4	-0.4622103
181	0x3da07dcf	0.07836496
182	0x3b863e60	0.004096791
183	0xbeac7a89	-0.33687237
184	0x3d7f6f2e	0.06236189
185	0x3c042079	0.008064383
186	0xbe1fa5a8	-0.15590537
187	0xbe612cb9	-0.21989717
188	0xbe29a190	-0.16565537
189	0xbe108ba7	-0.14115773
190	0xbde5d287	-0.112217955
191	0xbebc08f8	-0.36725593
192	0xbebdf76e	-0.37102836
193	0x3e8bfeb3	0.27342758
194	0xbe05d79e	-0.13070533
195	0x3ceb3cae	0.028715458
196	0xbd58cdfb	-0.052930813
197	0xbe181b78	-0.14854228
198	0xbe216d3a	-0.15764323
199	0xbe2bf893	-0.16794042
200	0x3c036127	0.008018768
201	0x3e406ecd	0.18792267
202	0x3e07c462	0.13258508
203	0xbe740cdc	-0.2383303
204	0x3d5d674f	0.0540536
205	0xbd6689d3	-0.056283783
206	0xbdd8b345	-0.10581068
207	0xbe5e0758	-0.21682489
208	0xbe79712a	-0.24359575
209	0x3e45652f	0.1927688
210	0xbe05a56a	-0.13051382
211	0x3eda19d4	0.4259783
212	0xbec674d0	-0.38760996
213	0x3ef354e4	0.47525704
214	0xbdd3b9ca	-0.10338171
215	0xbe78188b	-0.24228112
216	0xbd74d8ef	-0.059777196
217	0xbd30a9c6	-0.04313066
218	0xbe979afa	-0.29610425
219	0xbdb56b3a	-0.088583425
220	0xbe07e3bd	-0.13270469
221	0xbddaf2af	-0.106908195
222	0x3d54d912	0.051964827
223	0xbd791eac	-0.060820267
224	0x3de1069b	0.10987588
225	0x3ecb1881	0.39667132
226	0xbd9477d1	-0.07249416
227	0xbed59e1b	-0.41722187
228	0xbe89f9f6	-0.26948518
229	0xbec40b0e	-0.38289684
230	0x3dbd622c	0.092472404
231	0xbed2ad29	-0.41147736
232	0xbe4b5c5a	-0.19859448
233	0xbdd0383a	-0.10166974
234	0x3d452b23	0.04813684
235	0xbce257a1	-0.027629675
236	0xbd16b76b	-0.036796015
237	0xbdace714	-0.08442512
238	0x3dc501b3	0.09619465
239	0x3dd5d61e	0.1044123
240	0x3ecc0d86	0.39854068
241	0xbe42a34d	-0.19007607
242	0x3ec039be	0.37544054
243	0x3d5b7b27	0.053584244
244	0x3eaf1318	0.34194255
245	0x3dec3879	0.11534209
246	0x3e581df8	0.21105182
247	0x3e733637	0.2375115
248	0xbea20943	-0.3164769
249	0xbe6a60f3	-0.22888546
250	0x3d3cd4dd	0.04610144
251	0x3ed6d03d	0.41955748
252	0x3e07c672	0.13259295
253	0x3e13c269	0.1442963
254	0x3dac6854	0.084183365
255	0x3d612a95	0.05497225

sage.1.lin_root.weight f4 [64, 16]
0	0x3f394e92	0.72385514
1	0xbedec7af	-0.43511721
2	0x3f35b463	0.70978373
3	0x3da9dc0c	0.08293924
4	0x3efe9771	0.49724916
5	0x3e022664	0.12709957
6	0xbd2804e9	-0.041020308
7	0x3ee9f06d	0.45691243
8	0x3e4dbbb8	0.2009114
9	0x3e875937	0.26435253
10	0xbe5f4259	-0.21802653
11	0x3efdca93	0.49568614
12	0x3cc5b89b	0.024135878
13	0xbd46ba1e	-0.04851734
14	0xbd88a108	-0.06671339
15	0x3cb6dc8d	0.022321964
16	0x3f611c40	0.8793373
17	0xbef124b7	-0.47098324
18	0x3eecd997	0.46259758
19	0x3d135925	0.035973687
20	0x3f3387fe	0.7012938
21	0x3e6e00d4	0.23242503
22	0x3cfd2625	0.030901978
23	0x3f20d572	0.6282569
24	0x3dde5ca2	0.10857512
25	0xbe765699	-0.24056472
26	0xbe869f16	-0.26293248
27	0x3f5eb601	0.86996466
28	0xbcdcca2b	-0.02695187
29	0x3c1424f7	0.009042016
30	0xbd641e7f	-0.055693146
31	0xbc4a2481	-0.012337805
32	0x3e49b064	0.19696194
33	0xbdcc447c	-0.09974
34	0xbfb32547	-1.3995751
35	0x3fe0ed3b	1.7572397
36	0x3daaf2f7	0.08347123
37	0x3fb363b9	1.4014808
38	0xbdcc5316	-0.09976785
39	0x3e459a4e	0.19297144
40	0x3eb05394	0.34438765
41	0x3f52038a	0.8203665
42	0x3e960b6d	0.29305592
43	0x3e8476eb	0.25871977
44	0xbd93394a	-0.071886614
45	0xbdb2559d	-0.08707736
46	0xbddf73e3	-0.109107755
47	0x3dceee98	0.10104102
48	0xbd01bff3	-0.031677198
49	0x3e84f2b6	0.25966424
50	0x3e9f09f5	0.31062284
51	0xbeba962a	-0.3644269
52	0xbe1963e6	-0.14979514
53	0x3cad8db9	0.021185743
54	0x3d770511	0.060307566
55	0x3d85045d	0.06494973
56	0x3f634ffb	0.88793916
57	0x3f6f980e	0.9359139
58	0x3f47a4fb	0.77986115
59	0xbd87b12d	-0.066255905
60	0x3d8f6bfd	0.07003019
61	0x3e141ed8	0.14464891
62	0x3d3a596f	0.045495447
63	0x3e804347	0.2505133
64	0xbf05b777	-0.5223307
65	0x3f4bd3a2	0.796198
66	0xbf55d932	-0.8353454
67	0x3f013b6a	0.50481284
68	0xbf410ba1	-0.7540837
69	0x3ed62ed2	0.41832596
70	0xbd25db4a	-0.040492333
71	0xbf155d60	-0.58345604
72	0x3ee97614	0.455979
73	0x3db6235f	0.08893465
74	0x3e735b93	0.23765402
75	0xbf5ce702	-0.8628999
76	0x3d4fbe72	0.050718732
77	0x3d85b34c	0.06528339
78	0xbcbeaaa7	-0.023274733
79	0xbf1507de	-0.5821513
80	0x404745e7	3.1136415
81	0xbf8af9c2	-1.085747
82	0x3dc8ec41	0.09810687
83	0xbf3b8241	-0.73245627
84	0x400b8912	2.180241
85	0xbf3be793	-0.7340023
86	0x3e59c61c	0.21266979
87	0x3fb2fd71	1.3983594
88	0xbf8ef025	-1.1167036
89	0x3e2e6478	0.17030513
90	0xbe15b5ec	-0.14620179
91	0x400945d7	2.1448877
92	0x3e2c3c4f	0.16819881
93	0x3e6ff8c1	0.23434736
94	0x3e4a4b1e	0.19755217
95	0x40051610	2.0794716
96	0xbc23349c	-0.0099612735
97	0xbe07d974	-0.13266546
98	0x3f8ebdac	1.1151633
99	0xbf9dc652	-1.2326148
100	0x3f055172	0.520774
101	0xbe9dec29	-0.30844238
102	0xbe29c6f4	-0.16579801
103	0x3e5997ef	0.21249364
104	0x3f9eaec3	1.2397083
105	0x3f3a0c47	0.72674984
106	0x3f0d1334	0.55107427
107	0x3ee12ea1	0.43980888
108	0xbe4d280e	-0.20034811
109	0xbdd9f99f	-0.106433146
110	0xbe636898	-0.22207868
111	0x3f1ab445	0.6043132
112	0xbdbb5ee7	-0.091489606
113	0xbd3ce802	-0.046119697
114	0xc036e6eb	-2.857844
115	0x3f8b1138	1.086463
116	0xbc9edac7	-0.01939143
117	0x3fb4a69a	1.4113343
118	0xbd99b0dc	-0.075044364
119	0xbc65490c	-0.0139944665
120	0xc02e66a3	-2.7250144
121	0x3eb0d200	0.34535217
122	0x3f3cda8b	0.7377097
123	0x3d25c536	0.040471278
124	0xbd8aa04e	-0.06768857
125	0xbd4884cf	-0.04895478
126	0xbd8dcee6	-0.06924228
127	0xbd884165	-0.06653098
128	0x3f7e2f49	0.992909
129	0xbe835e5e	-0.25657934
130	0x3f114fa0	0.56762123
131	0x3e878eda	0.26476175
132	0x3f82a877	1.0207661
133	0xbd06972a	-0.032859005
134	0xbce13e77	-0.027495606
135	0x3e503963	0.20334391
136	0xbe5d7844	-0.21627909
137	0x3c395034	0.011310626
138	0xbe81025d	-0.25197116
139	0x3f6b4dbb	0.9191548
140	0xbda31103	-0.07962229
141	0x3d62cfb5	0.055373866
142	0xbc8b4e36	-0.017005067
143	0x3f84ca05	1.0374151
144	0xbe984c5f	-0.29745767
145	0x3d910947	0.07081848
146	0x3ea554b2	0.3229118
147	0x3b95597b	0.004557786
148	0xbee4d6ff	-0.4469528
149	0x3a0d0268	0.00053790817
150	0xbd7646ce	-0.06012612
151	0xbe4625b2	-0.19350317
152	0xbe06aa76	-0.13150963
153	0x3e1b378e	0.15157911
154	0x3e600945	0.21878536
155	0xbed2a577	-0.41141865
156	0xbde5a353	-0.11212792
157	0xbe1045d0	-0.14089131
158	0xbd4fb240	-0.0507071
159	0xbeaba2e4	-0.33522713
160	0xbebcda41	-0.36885265
161	0x3e8e86aa	0.27837116
162	0xbffaf1e9	-1.9605075
163	0x3f40e7bc	0.753536
164	0xbed46644	-0.41484272
165	0x3f2faa1d	0.6861895
166	0xbc336324	-0.01094893
167	0xbec39e64	-0.3820678
168	0x3f6097e0	0.8773174
169	0x3e8f53e4	0.2799369
170	0x3e29bb18	0.16575277
171	0xbf110498	-0.56647635
172	0x3d14c3f3	0.036319684
173	0x3da838f9	0.08213992
174	0x3bd48b98	0.0064863674
175	0xbe397182	-0.18109706
176	0x3f0c9486	0.5491413
177	0xbebe0726	-0.3711483
178	0xbeaf052c	-0.34183633
179	0x3e95aa18	0.29231334
180	0xbf1a66ce	-0.6031312
181	0x3dca376c	0.09873852
182	0x3ef352fe	0.47524256
183	0x3ee0f4d1	0.4393678
184	0x3f3ca8c3	0.7369501
185	0x3ea94b3d	0.33065215
186	0x3df28dc9	0.118434496
187	0xbf00614d	-0.5014847
188	0x3f25eb37	0.64812034
189	0x3f3ac3bb	0.7295491
190	0x3f36afab	0.713618
191	0xbeafaf34	-0.34313357
192	0x3f112910	0.5670328
193	0xbfefb1e3	-1.8726162
194	0xbe3225c2	-0.17397216
195	0x3ea1ed0e	0.3162617
196	0x3f4327cf	0.7623262
197	0x3f3adb85	0.7299121
198	0x3c9ccac2	0.019139651
199	0x400575bc	2.085311
200	0x3e7fe799	0.24990691
201	0x3e58fb53	0.21189623
202	0xbeda9bdb	-0.42697033
203	0x3f3ed032	0.7453643
204	0xbda1bf2d	-0.07897792
205	0x3da12177	0.07867711
206	0x3d360523	0.044438493
207	0x3f4da35a	0.8032738
208	0xbdcf02ab	-0.10107931
209	0xbf46dc94	-0.77680326
210	0x3f590b78	0.84783125
211	0x3f57e42f	0.84332556
212	0x3e5bb075	0.21454032
213	0x3f1ea81c	0.61975265
214	0x3c9c533e	0.019082662
215	0x3f0d84e2	0.5528089
216	0xbebe9adf	-0.37227532
217	0xbf33ee62	-0.7028562
218	0xbf510aac	-0.8165691
219	0x3da75726	0.08170919
220	0x3b867276	0.0041030003
221	0xbd60232c	-0.054721043
222	0xbdd2a323	-0.10285022
223	0x3e1f62f8	0.15565097
224	0xbf87cc5c	-1.060924
225	0xbf93cabb	-1.1546243
226	0xbf426af2	-0.75944436
227	0xc0047383	-2.0695503
228	0x3f0d3708	0.55162096
229	0xbf639ccc	-0.8891113
230	0xbdf4d5a9	-0.11954815
231	0x40278301	2.6173708
232	0x3fa48325	1.2852522
233	0xbf3bd9e6	-0.7337936
234	0x3fbf5c4c	1.4950042
235	0xbaee1a38	-0.0018165773
236	0xbd756ba1	-0.059917096
237	0xbd23dfeb	-0.040008467
238	0xbe10e18b	-0.14148538
239	0xbee31615	-0.44352785
240	0x3f1f8371	0.6230994
241	0xbe9138be	-0.28363603
242	0xbfc148cf	-1.5100344
243	0xbe82c684	-0.2554208
244	0x3dd1a3fb	0.10236355
245	0xbe8d9f91	-0.27660802
246	0xbe6c75bf	-0.23091792
247	0x3e858d80	0.26084518
248	0x3f72ed2b	0.9489314
249	0xbf98337a	-1.1890709
250	0xbdb046c9	-0.08607251
251	0x3eb2f478	0.3495214
252	0xbe14667a	-0.14492217
253	0xbe243511	-0.16035868
254	0xbe246e39	-0.16057672
255	0x3e5b387f	0.2140827

sage.1.lin_root.bias f4 [64]
0	0x3e3ed753	0.18636827
1	0x3e1a674b	0.15078466
2	0x3e7afaea	0.24509779
3	0xc003e0fa	-2.0606065
4	0x3dbc2398	0.091864765
5	0xbe1867be	-0.14883325
6	0x3b064ba9	0.0020491874
7	0xbe35b856	-0.177461
8	0x3df7a22e	0.1209148
9	0xbe1877c5	-0.14889438
10	0x3e8f75f9	0.28019693
11	0xbdfdfc0b	-0.12401589
12	0xbe96637e	-0.29372782
13	0xbf0e8707	-0.55674785
14	0x3d91f755	0.07127253
15	0x3e2a84e2	0.16652253
16	0x3e62079b	0.22073214
17	0xbd06f4d4	-0.03294833
18	0xbeec2594	-0.4612242
19	0xbeac27a5	-0.33623996
20	0xbfe1ade4	-1.7631192
21	0x3d14703d	0.03623985
22	0xbce63ef7	-0.028106196
23	0x3ea6792c	0.32514322
24	0x3e344292	0.1760352
25	0x3d9bdcab	0.076104484
26	0xbf744ed3	-0.95432776
27	0x3e496bd3	0.19670038
28	0x3ea29d3a	0.3176058
29	0xbdc10ce8	-0.0942629
30	0x3cbf4529	0.023348408
31	0x3c2f8890	0.010713711
32	0xbf08041c	-0.5313127
33	0x3e30c687	0.17263232
34	0x3e4bcd88	0.19902623
35	0xbe5471cd	-0.20746537
36	0x3d808421	0.062752016
37	0x3e067d8a	0.13133827
38	0x3e15283e	0.14566132
39	0x3e01e06f	0.12683271
40	0xbf575d87	-0.84127086
41	0x3e080b59	0.13285579
42	0x3e4a757d	0.1977138
43	0xbf1ac51a	-0.60457003
44	0xbf2db0c0	-0.67847824
45	0xbbb0961c	-0.005388988
46	0xbd4d0857	-0.05005678
47	0xbf47a6ee	-0.7798909
48	0xbe9251b9	-0.28577974
49	0xbe80b96f	-0.25141475
50	0x3dbfab86	0.093588874
51	0xbdfd4925	-0.12367467
52	0x3d3b7329	0.045764122
53	0x3e3eab03	0.18619923
54	0xbfe7c165	-1.8105894
55	0xbe8fbe33	-0.28074798
56	0x3de2c869	0.110733815
57	0xbed3b779	-0.41350916
58	0x3d6067d8	0.054786533
59	0x3e31f29a	0.17377701
60	0xbf4c6812	-0.798463
61	0x3b9b569a	0.0047405483
62	0xbd7f71ae	-0.062364273
63	0xbba74af5	-0.005105371

sage.2.lin_rel.weight f4 [64, 64]
0	0x3d7fb9a3	0.062432896
1	0x3dad9094	0.08474842
2	0x3d01c02e	0.031677417
3	0xbe3cfd5c	-0.18456024
4	0xbd0247c5	-0.031806726
5	0xbd91825c	-0.07104942
6	0xbdde125e	-0.10843347
7	0xbe5e253c	-0.21693891
8	0x3e540906	0.20706567
9	0xbd36dcca	-0.044644155
10	0xbe799c24	-0.24375969
11	0x3ea526d7	0.32256195
12	0x3db2f7dd	0.087386824
13	0x3db72951	0.08943427
14	0xbd80a50a	-0.06281479
15	0x3c9ec680	0.019381762
16	0x3bb62f04	0.005559804
17	0xbdefe80e	-0.11714183
18	0x3db73133	0.08944931
19	0x3dd68efb	0.1047649
20	0x3bf7836b	0.007553508
21	0xbdbe6935	-0.092974104
22	0x3d8bda0f	0.06828701
23	0x3d7e4b77	0.062083688
24	0xbc908b26	-0.017644476
25	0x3d030448	0.031986505
26	0xbd4d9710	-0.050192893
27	0xbca024c3	-0.01954878
28	0xbbb3e8e0	-0.0054904073
29	0xbd1ff77e	-0.039054386
30	0x3e4df216	0.2011188
31	0x3d8d818f	0.06909477
32	0x3c2e1685	0.010625486
33	0x3d886745	0.06660322
34	0xbe01d6fb	-0.12679665
35	0x3dcd8093	0.10034289
36	0xbd80bd4c	-0.062861055
37	0x3dba482e	0.090957984
38	0xbef07bab	-0.4696935
39	0xbdd36761	-0.10322452
40	0x3e3bc70f	0.18337654
41	0xbe398da0	-0.18120432
42	0x3d338da2	0.043836243
43	0x3e14510b	0.1448404
44	0xbdd702b0	-0.104985595
45	0xbe9fb714	-0.31194365
46	0x3d65f1fb	0.056138974
47	0xbe0a7a21	-0.13523151
48	0xbdde15f6	-0.108440325
49	0x3e1009ac	0.1406619
50	0x3dda8fa8	0.106719315
51	0x3e02b093	0.1276267
52	0x3e4fe8bf	0.2030363
53	0xbaae895b	-0.0013316082
54	0xbe69fbf7	-0.22850023
55	0xbc8e001d	-0.017334038
56	0x3e0b5696	0.13607249
57	0x3e12ca2f	0.1433494
58	0x3f074676	0.5284189
59	0xbe4e283a	-0.20132533
60	0x3e463ddc	0.19359535
61	0x3dd721d1	0.10504497
62	0x3cad8925	0.02118356
63	0x3e3f8470	0.18702865
64	0xbe78a4fb	-0.24281685
65	0xbd0ae4d0	-0.03390962
66	0x3c7fdc1a	0.015616441
67	0x3eecf0a5	0.46277347
68	0xbe0e969a	-0.13924637
69	0x3e2a1345	0.16608913
70	0x3d22a05c	0.039703712
71	0xbe1881e9	-0.14893307
72	0xbe66a3bd	-0.22523399
73	0xbe50ad1a	-0.20378533
74	0xbe6837f2	-0.22677591
75	0xbef21bd7	-0.47286865
76	0xbd2e375e	-0.04253327
77	0x3e540ddf	0.20708416
78	0xbed8ac15	-0.42318788
79	0xbdc2ed11	-0.09517873
80	0xbeae069b	-0.33989415
81	0xbea55ee5	-0.3229896
82	0x3e26d0b2	0.16290548
83	0xbd39e202	-0.045381553
84	0x3d92b070	0.07162559
85	0x3de218d5	0.110398926
86	0xbdd50080	-0.10400486
87	0xbe3c083e	-0.18362519
88	0xbed17123	-0.4090663
89	0xbd8c107d	-0.068390824
90	0x3e23ada9	0.15984215
91	0xbefe14e8	-0.49625325
92	0xbe987534	-0.2977692
93	0x3c0e59dd	0.008688417
94	0x3d4a84e4	0.04944314
95	0xbceb088e	-0.028690603
96	0xbe34f76d	-0.1767251
97	0xbe4d1121	-0.20026065
98	0xbe4dec29	-0.20109619
99	0xbe3df1c4	-0.18549258
100	0x3cfe20a3	0.031021422
101	0xbdd51839	-0.10405011
102	0xbe31a953	-0.17349748
103	0xbe20192c	-0.15634602
104	0x3e648a12	0.22318295
105	0xbd9b90f5	-0.07596008
106	0xbeae1a00	-0.3400421
107	0xbe7ebb88	-0.24876225
108	0x3e0af66b	0.13570563
109	0xbe2e0025	-0.16992243
110	0xbe237610	-0.15963006
111	0x3eb0af75	0.34508863
112	0xbca68359	-0.020326303
113	0xbd07e190	-0.033174098
114	0x3cf30778	0.029666647
115	0x3e51008a	0.20410362
116	0xbe1c3fe2	-0.15258744
117	0x3e7c8922	0.24661687
118	0x3ec7f75e	0.39055914
119	0x3e32b834	0.1745308
120	0xbe4bead8	-0.19913805
121	0xbe2e5607	-0.17025004
122	0x3da28251	0.07935012
123	0xbd3a8b34	-0.04554291
124	0x3e3e91cd	0.18610306
125	0xbedfb6f9	-0.43694285
126	0xbdb77d7d	-0.08959482
127	0x3ec8f14a	0.3924659
128	0xbe4aaeea	-0.19793287
129	0xbd43571d	-0.0476905
130	0x3b89e3b1	0.004208051
131	0x3e319397	0.17341457
132	0xbda21cae	-0.079156265
133	0xbe0608ef	-0.13089345
134	0x3c6fedc0	0.014644086
135	0xbb7d3c59	-0.0038640706
136	0xbde8f953	-0.1137568
137	0xbe0eec7b	-0.13957398
138	0xbe12534c	-0.14289588
139	0xbe57bd36	-0.21068272
140	0x3e41f771	0.18942048
141	0x3e995ccd	0.29953614
142	0xbebb293f	-0.36554906
143	0xbe918d31	-0.28428033
144	0xbe1a8a8d	-0.15091915
145	0xbdaba4e9	-0.083810635
146	0x3e02b773	0.12765293
147	0x3d996d6d	0.074915744
148	0x3dfc2726	0.123121545
149	0xbd723565	-0.059132952
150	0xbea5cfd2	-0.32385117
151	0xbda8e67a	-0.08247085
152	0xbf0825a8	-0.5318246
153	0xbe2c5194	-0.16827995
154	0x3e8cf59d	0.27531138
155	0xbec1a6fc	-0.3782271
156	0xbebfd11d	-0.37464228
157	0xbdfc5531	-0.123209365
158	0x3d561f8e	0.052276187
159	0x3d3aea07	0.045633342
160	0xbd476cf5	-0.048687894
161	0xbe2e1569	-0.17000355
162	0xbe8adc83	-0.27121362
163	0xbe41d333	-0.18928222
164	0x3e0d8d62	0.13823465
165	0xbe1b959f	-0.15193795
166	0xbe75c11e	-0.2399945
167	0xbec87436	-0.39151162
168	0x3e403e09	0.18773665
169	0xbe84d203	-0.25941476
170	0xbee84eec	-0.45372713
171	0x3dc32689	0.095288344
172	0x3e699331	0.22810055
173	0xbe6489bf	-0.22318171
174	0x3d1e0207	0.038576152
175	0x3ec355a8	0.38151288
176	0xbbfa7a3e	-0.007643967
177	0xbc8875fc	-0.016657822
178	0x3e09fcf6	0.13475403
179	0xbdfc1012	-0.12307753
180	0x3e281363	0.16413645
181	0xbd46785f	-0.04845464
182	0x3e828c16	0.25497502
183	0xbc79bfb2	-0.015243458
184	0xbe1c6dc1	-0.15276243
185	0x3b0e7802	0.002173901
186	0x3dbe7a92	0.09300722
187	0x3cf9e153	0.03050295
188	0x3e648055	0.2231458
189	0xbebc2f11	-0.3675466
190	0x3e3b3a59	0.18283977
191	0x3e6d9d07	0.23204432
192	0x3db56461	0.088570364
193	0x3d0815d9	0.03322396
194	0x3e86cc28	0.26327634
195	0x3ea482fe	0.3213119
196	0x3edeb08b	0.43494067
197	0xbd3564ee	-0.044285707
198	0x3e16e04e	0.14734003
199	0x3e602e57	0.21892677
200	0xbe49eb9a	-0.19718781
201	0xbd64a62c	-0.055822536
202	0x3e52c1de	0.20581767
203	0x3d955dc0	0.07293272
204	0xbc771de9	-0.015082815
205	0x3e5bc8ab	0.21463268
206	0xbd9b4a67	-0.075825505
207	0x3e89ec79	0.26938227
208	0x3c8b0ed0	0.016974837
209	0xbb404ee7	-0.0029343904
210	0x3d60aded	0.05485337
211	0x3d48d517	0.049031343
212	0xbda26fc6	-0.07931475
213	0x3dcc808f	0.09985458
214	0xbe0a0298	-0.13477552
215	0x3db66736	0.08906405
216	0xbd2826da	-0.041052677
217	0xbd81a32a	-0.06329949
218	0x3e78ef34	0.24309999
219	0xbcff2fe7	-0.031150771
220	0x3d26016e	0.040528707
221	0xbe07a43a	-0.13246241
222	0xbe588b54	-0.211469
223	0x3eba769f	0.36418626
224	0x3e004adf	0.12528561
225	0xbe10ecf4	-0.1415289
226	0x3e02f00e	0.12786886
227	0x3de63192	0.112399235
228	0x3d3e4e13	0.046461176
229	0xbc6aa962	-0.014322611
230	0xbe0a5b63	-0.13511424
231	0x3e10b5cd	0.14131851
232	0xbdba1059	-0.09085149
233	0xbd404c89	-0.04694799
234	0x3e890bd8	0.2676685
235	0xbe02e0f5	-0.12781127
236	0xbd9ef766	-0.07762031
237	0x3ddfef8a	0.1093436
238	0x3dc227b2	0.094802275
239	0xbe7ce88a	-0.24698082
240	0x3d6b6d1d	0.057477105
241	0x3ed048c9	0.4068053
242	0x3e9d2529	0.30692413
243	0x3b95f8d0	0.00457678
244	0x3ec50d4f	0.38486716
245	0x3eccf6ea	0.4003213
246	0x3da9ab6c	0.08284649
247	0xbcde248c	-0.027117036
248	0x3d824c84	0.063622504
249	0xbc43e374	-0.0119560845
250	0xbdb0a23d	-0.086246945
251	0x3dd2276a	0.10261424
252	0xbdaf7bcc	-0.08568534
253	0x3ddad592	0.106852666
254	0x3dfcaf82	0.12338163
255	0x3eafe428	0.34353757

sage.2.lin_root.weight f4 [64, 64]
0	0xbc3df523	-0.01159409
1	0xbdaf50bf	-0.08560323
2	0x3d8e42c6	0.0694633
3	0xbe4e5038	-0.20147789
4	0xbe131fa8	-0.14367545
5	0xbe2305a0	-0.15920115
6	0x3db45469	0.088051625
7	0x3c2637ea	0.010145167
8	0xbdeae90e	-0.11470233
9	0xbd8ddd90	-0.06927025
10	0xbdd3500b	-0.10318001
11	0x3e29914b	0.16559331
12	0x3d3969b2	0.045266815
13	0x3e5766de	0.21035334
14	0xbe149840	-0.14511204
15	0xbc7e540f	-0.015522971
16	0x3e43e805	0.19131477
17	0xbcfbb3e6	-0.03072543
18	0x3c797e32	0.015227841
19	0xbd4a6808	-0.04941562
20	0x3aa5dab4	0.001265368
21	0xbc8b1ba3	-0.016980952
22	0x3dcad0db	0.09903117
23	0x3dc1844f	0.09449064
24	0xbd76b017	-0.060226526
25	0xbcebdcf2	-0.028791878
26	0xbdc87429	-0.09787781
27	0x3dc50430	0.09619939
28	0xbe16c537	-0.14723669
29	0x3d2481b2	0.04016275
30	0x3e774afd	0.241497
31	0x3e35f2d4	0.17768413
32	0xbe2cbbad	-0.16868468
33	0x3cd1f06e	0.025627341
34	0xbc81c418	-0.015840575
35	0x3dca6567	0.09882622
36	0xbd784393	-0.06061132
37	0xbd21afae	-0.03947418
38	0xbf1772f3	-0.59159774
39	0xbda329a1	-0.079669245
40	0x3e5f8873	0.21829395
41	0xbd3d2d65	-0.04618587
42	0xbd150198	-0.036378473
43	0x3e5163e9	0.20448269
44	0xbca27fdd	-0.01983636
45	0xbe96b116	-0.2943198
46	0x3d916dd5	0.07101027
47	0x3da3ab53	0.07991662
48	0x3cd7e551	0.026354464
49	0x3ccec9b2	0.02524266
50	0x3c299de6	0.010352587
51	0x3d294964	0.041329756
52	0x3d784eda	0.060622074
53	0xbe1219a3	-0.14267592
54	0xbe8b110d	-0.27161446
55	0x3dbfdc7b	0.09368225
56	0x3e6cd54a	0.23128238
57	0xbc837c2a	-0.016050417
58	0x3ec3f3f9	0.38272074
59	0xbcf82f78	-0.030296072
60	0x3e1e0a0c	0.1543352
61	0x3d4adf85	0.04952957
62	0xbc21cb1b	-0.009875084
63	0x3e448e39	0.19194879
64	0xbec288ec	-0.37995088
65	0xbefe2063	-0.49634084
66	0x3d969fc8	0.073546946
67	0x3f042a70	0.51627254
68	0xbe688411	-0.2270663
69	0x3e476721	0.19472934
70	0xbd183bcf	-0.037166413
71	0xbe0514f7	-0.12996279
72	0xbe492caf	-0.19645952
73	0xbd1df94c	-0.038567826
74	0xbd748dc1	-0.0597055
75	0xbf6b6747	-0.91954464
76	0xbcfa7e9f	-0.030577956
77	0x3e0f5877	0.1399859
78	0xbf0d7ad1	-0.5526553
79	0xbe030053	-0.12793092
80	0xbe0dae74	-0.1383608
81	0xbe935cc4	-0.28781712
82	0xbdf542cb	-0.119756304
83	0x3da487d8	0.08033723
84	0x3eaacd0b	0.3335956
85	0xbd1efd0e	-0.03881555
86	0xbdf37fdd	-0.11889622
87	0xbdd28fd8	-0.10281342
88	0xbe608343	-0.21925072
89	0xbea1dc07	-0.3161318
90	0x3e85e783	0.26153192
91	0x3aefa07a	0.0018282079
92	0xbf3005f5	-0.6875909
93	0xbd0eb93f	-0.034844633
94	0x3e67d240	0.22638798
95	0x3e5bcf17	0.21465717
96	0xbf086751	-0.5328265
97	0xbf458aa6	-0.77164686
98	0xbf07a5f4	-0.529876
99	0x3c8180ff	0.01580858
100	0x3e081847	0.13290511
101	0xbd0d19da	-0.034448482
102	0xbebf7e37	-0.37400982
103	0xbefd336c	-0.49453294
104	0x3e82b9c1	0.25532344
105	0xbdb4956d	-0.08817563
106	0xbe2db213	-0.16962461
107	0xbf5e0a21	-0.86734205
108	0x3ea76c2e	0.32699722
109	0xbf1891bd	-0.5959738
110	0x3d93b722	0.07212664
111	0xbb1ed704	-0.0024237046
112	0xbc8ce77a	-0.01720022
113	0xbcb63f76	-0.022247057
114	0x3dc3de19	0.09563846
115	0x3ddfcc66	0.10927658
116	0x3e30bd40	0.17259693
117	0xbcc878fd	-0.024471754
118	0x3f1d63dc	0.614805
119	0x3da2f9dc	0.07957813
120	0xbd17f616	-0.03709992
121	0xbd96475d	-0.0733783
122	0x3e5b1e17	0.21398197
123	0xbe852f8f	-0.26012847
124	0x3ecae337	0.39626476
125	0xbf7e9dac	-0.9945934
126	0x3e2cbb4d	0.16868325
127	0x3e89bfea	0.2690423
128	0xbeab0660	-0.334033
129	0xbe9d16ce	-0.3068146
130	0x3d2e2b9a	0.04252205
131	0x3e9655af	0.29362246
132	0x3d315a4d	0.04329901
133	0x3e25ccad	0.16191359
134	0xbe2794f0	-0.16365409
135	0xbe11b5cb	-0.14229505
136	0xbe270157	-0.16309105
137	0xbc71050a	-0.014710674
138	0x3d98d9ef	0.074634425
139	0xbf2ec7e2	-0.68273747
140	0x3edca797	0.4309661
141	0x3ed13ab6	0.40865105
142	0xbefa57d3	-0.4889513
143	0xbe096443	-0.13417153
144	0x3c55067f	0.013002037
145	0xbeb0471c	-0.34429252
146	0xbe06d861	-0.1316848
147	0x3dda65da	0.10663958
148	0x3e6f1a7a	0.23349944
149	0x3cafdcfb	0.021467676
150	0xbdf8f1c4	-0.12155488
151	0xbe8ebcc2	-0.27878386
152	0xbb5f844e	-0.003410596
153	0xbdbf5b42	-0.09343578
154	0x3e0ecfa4	0.13946396
155	0x3e3ecdc7	0.18633185
156	0xbf499616	-0.7874464
157	0xbc814125	-0.015778134
158	0x3d99f1fd	0.07516859
159	0x3eac10e6	0.33606642
160	0xbe50c77a	-0.20388594
161	0xbf1125c3	-0.56698245
162	0xbf06a319	-0.5259262
163	0x3d892f76	0.066985056
164	0xbc4663fd	-0.0121088
165	0xbd8f89ef	-0.070087306
166	0xbec6e01f	-0.38842866
167	0xbf1fb892	-0.62391007
168	0x3e716f46	0.23577604
169	0xbe3ef41e	-0.18647811
170	0xbe2c1b51	-0.16807295
171	0xbf16d894	-0.5892422
172	0x3f1d0257	0.61331695
173	0xbf05caa3	-0.52262324
174	0xbd9c558b	-0.076335035
175	0x3e689f66	0.22717056
176	0x3eae9e42	0.34105116
177	0x3def5244	0.11685613
178	0x3e276a7d	0.16349216
179	0xbdf2b7cc	-0.11851463
180	0xbc74fe20	-0.014953166
181	0xbe39e027	-0.18151914
182	0x3effa516	0.49930638
183	0x3f05f5fe	0.5232848
184	0x3e182f5f	0.1486182
185	0x3de62842	0.11238147
186	0x3eed7ca8	0.46384168
187	0xbebcdc0f	-0.3688664
188	0x3eaa67fe	0.33282465
189	0xbf507eac	-0.81443286
190	0x3e968f91	0.29406407
191	0x3e65152e	0.2237136
192	0xbea6b565	-0.32560268
193	0xbeba0167	-0.36329195
194	0xbda0f018	-0.07858294
195	0xba55103f	-0.0008127726
196	0x3e602998	0.21890867
197	0xbdc032fe	-0.09384726
198	0xbe1f1e3a	-0.15538874
199	0xbe6e0f5a	-0.23248044
200	0xbedd4414	-0.43216002
201	0xbeffbe9d	-0.49950114
202	0x3cf60f52	0.030036602
203	0xbe43ddc0	-0.1912756
204	0xbeee2e25	-0.4651958
205	0xbc9c6cc9	-0.019094842
206	0xbed92d14	-0.42417204
207	0xbd4535f1	-0.048147146
208	0xbe860779	-0.26177576
209	0xbf3e7a6e	-0.7440556
210	0xbdafb894	-0.08580127
211	0xbe9a0786	-0.30083865
212	0xbd4d992f	-0.050194915
213	0xbe1f9e57	-0.15587746
214	0xbed407e2	-0.41412264
215	0xbef2abf0	-0.47396803
216	0xbd95fea7	-0.07323962
217	0xbec731ad	-0.38905087
218	0x3d59dd24	0.05318941
219	0x3c98dd19	0.018660115
220	0xbf040a7a	-0.51578486
221	0xbf012521	-0.5044728
222	0xbf357465	-0.7088073
223	0x3d6405e5	0.055669684
224	0xbee7e794	-0.45293868
225	0xbefb24ed	-0.4905161
226	0xbe625914	-0.22104293
227	0x3d974a6e	0.07387243
228	0x3c571233	0.013126898
229	0xbf1dc6d8	-0.61631536
230	0xbf09c61a	-0.53817904
231	0xbecd7600	-0.4012909
232	0x3c547b66	0.012968874
233	0xbe9ef343	-0.3104497
234	0xbddc7339	-0.107641645
235	0xbf0dfa60	-0.55460167
236	0xbefd48bd	-0.49469557
237	0xbe6fa9d4	-0.23404628
238	0xbd41424c	-0.047182366
239	0xbeed8957	-0.46393844
240	0xbde10f60	-0.10989261
241	0x3ddee8ad	0.10884223
242	0xbedf4529	-0.43607453
243	0xbeca7af5	-0.39546934
244	0x3e184d3c	0.14873213
245	0xbe46d179	-0.19415845
246	0xbeb01fac	-0.34399164
247	0xbd974273	-0.07385721
248	0xbe965bbc	-0.29366863
249	0xbeb1d15d	-0.34730044
250	0xbf0059bd	-0.5013693
251	0xbd37c93b	-0.044869643
252	0xbe7d14e5	-0.24715002
253	0xbf01931e	-0.5061511
254	0xbe851c7e	-0.259983
255	0xbe84283b	-0.25811943

sage.2.lin_root.bias f4 [64]
0	0xbdf5bccf	-0.11998903
1	0xbf0d1c9f	-0.551218
2	0xbe994122	-0.29932505
3	0x3f835969	1.0261661
4	0x3ee86cd4	0.4539553
5	0xbec4059a	-0.38285524
6	0xbe1a2bf7	-0.15055834
7	0xbe93f357	-0.2889659
8	0xbe54900a	-0.20758072
9	0xbf0b094e	-0.5431107
10	0xbfaea94b	-1.3645414
11	0xbf2ae57d	-0.6675642
12	0xbf3e5fdb	-0.74365014
13	0xbe996489	-0.29959515
14	0xbeffdf51	-0.49975064
15	0xbee673ba	-0.45010167
16	0xbf4ace0d	-0.7922066
17	0x3ebb7ced	0.36618748
18	0xbf4af852	-0.79285157
19	0xbee0583a	-0.43817312
20	0x3ea28b5a	0.31746942
21	0xbf62bd02	-0.88569653
22	0xbe9fac19	-0.31185988
23	0x3e807ef1	0.2509685
24	0x3e149fc7	0.14514075
25	0xbf1760de	-0.5913218
26	0x3f6f7ce5	0.9354995
27	0xbead25ae	-0.3381781
28	0xbf27b3c9	-0.65508705
29	0x4022e7b1	2.5453913
30	0xbdcb5abf	-0.09929418
31	0x3e378fda	0.17925969
32	0xbe9a31c0	-0.3011608
33	0xbf4ae6c9	-0.792584
34	0xbf78e220	-0.9722004
35	0xbe8e2b24	-0.2776729
36	0x3f521399	0.82061154
37	0xbecfed50	-0.40610743
38	0xbf5c2e6d	-0.8600834
39	0x3f23aa4e	0.6393174
40	0x3e8a2174	0.26978648
41	0xbda1e757	-0.07905453
42	0xbf3d7909	-0.7401281
43	0xbf578ca7	-0.84198993
44	0xbdf7f9ff	-0.1210823
45	0xbeae4073	-0.34033546
46	0xbee4401c	-0.44580162
47	0xbf292228	-0.66067743
48	0xbef1fedb	-0.47264752
49	0xbe3ff192	-0.18744496
50	0xbf461ae6	-0.77384794
51	0xbee0381d	-0.4379281
52	0x3eb44f99	0.35216978
53	0x3f13d4ca	0.57746565
54	0xbf4e9514	-0.80696225
55	0xbf9ebec9	-1.2401973
56	0xbf5f9848	-0.8734174
57	0x3eaaabc0	0.3333416
58	0xbe885dc7	-0.26634046
59	0xbe5dab7b	-0.21647446
60	0xbf32eeda	-0.6989571
61	0xbefb2760	-0.49053478
62	0xbf284b1c	-0.6573961
63	0xbf55bb7b	-0.834892

batch_norm.0.weight f4 [400]
0	0x3fac03c4	1.3438649
1	0x3fa7e36b	1.3116277
2	0x3fa704ab	1.30483
3	0x3fa66770	1.3000317
4	0x3fa626ee	1.298063
5	0x3fa55a25	1.2918135
6	0x3fa59531	1.2936155
7	0x3fa64f51	1.2992955
8	0x3fa5d93b	1.2956918
9	0x3fa5614e	1.292032
10	0x3fa58c81	1.2933503
11	0x3fa5f99d	1.2966801
12	0x3fa55b7d	1.2918545
13	0x3fa5b666	1.2946289
14	0x3fa636c4	1.2985463
15	0x3fa65218	1.2993803
16	0x3fa5f401	1.2965089
17	0x3fa5b2cd	1.2945191
18	0x3fa61116	1.2973964
19	0x3fa5fcd2	1.296778
20	0x3fa69c61	1.3016473
21	0x3fa64c2b	1.2991995
22	0x3fa6cc8b	1.3031172
23	0x3fa71463	1.3053097
24	0x3fa71f65	1.3056456
25	0x3fa7aeeb	1.3100256
26	0x3fa7b35e	1.3101614
27	0x3fa7c6f3	1.310759
28	0x3fa80ac3	1.3128284
29	0x3fa84b89	1.3148052
30	0x3fa7e65e	1.3117177
31	0x3fa81f91	1.3134633
32	0x3fa8e48a	1.3194745
33	0x3fa80afa	1.312835
34	0x3fa900e9	1.3203403
35	0x3fa936bb	1.3219827
36	0x3fa99072	1.3247206
37	0x3fa91588	1.3209696
38	0x3fa9b8cf	1.3259524
39	0x3faa342d	1.3297173
40	0x3fa9d2cc	1.3267455
41	0x3faa1817	1.3288602
42	0x3faac565	1.334149
43	0x3faae7d4	1.3351998
44	0x3faae088	1.3349771
45	0x3fab0b16	1.3362758
46	0x3fab25f2	1.3370955
47	0x3fac5f1b	1.3466524
48	0x3fad6c4b	1.3548673
49	0x3fad26fc	1.3527522
50	0x3fad1ba1	1.3524057
51	0x3fad2718	1.3527555
52	0x3fae6d23	1.3627056
53	0x3faef8e7	1.3669709
54	0x3faf0e3f	1.3676223
55	0x3faf96a8	1.3717852
56	0x3fb09d65	1.3798033
57	0x3fb12b31	1.3841306
58	0x3fb10a47	1.3831261
59	0x3fb1dfda	1.3896439
60	0x3fb29418	1.3951445
61	0x3fb26f34	1.3940187
62	0x3fb36247	1.4014367
63	0x3fb368e9	1.4016391
64	0x3fb4f05b	1.4135851
65	0x3fb5784d	1.4177338
66	0x3fb55a35	1.4168154
67	0x3fb658b8	1.4245825
68	0x3fb68544	1.425942
69	0x3fb769fb	1.4329218
70	0x3fb7f628	1.4371996
71	0x3fb8d080	1.4438629
72	0x3fb9a0d0	1.4502201
73	0x3fba9016	1.4575222
74	0x3fba91fc	1.4575801
75	0x3fbb45eb	1.4630712
76	0x3fbbd93d	1.4675671
77	0x3fbc50e1	1.4712182
78	0x3fbdfff0	1.4843731
79	0x3fbe648a	1.4874432
80	0x3fbf5fa9	1.4951068
81	0x3fbf338b	1.4937605
82	0x3fbf9c09	1.4969493
83	0x3fc025fd	1.5011593
84	0x3fc18d32	1.5121214
85	0x3fc1e28d	1.5147263
86	0x3fc2d0e5	1.522
87	0x3fc2ddbe	1.522392
88	0x3fc32649	1.5246059
89	0x3fc3b4d6	1.5289562
90	0x3fc4600d	1.5341812
91	0x3fc50eca	1.5395138
92	0x3fc54265	1.5410887
93	0x3fc63c7a	1.5487206
94	0x3fc68f91	1.5512563
95	0x3fc72893	1.5559257
96	0x3fc7ceaf	1.560995
97	0x3fc83906	1.5642402
98	0x3fc89800	1.5671387
99	0x3fc95d26	1.5731552
100	0x3fca320d	1.5796524
101	0x3fca480c	1.5803237
102	0x3fca4b4c	1.5804229
103	0x3fcb60dc	1.5888934
104	0x3fcc0480	1.5938873
105	0x3fcc9891	1.598406
106	0x3fcccfa4	1.6000867
107	0x3fccc6d0	1.5998173
108	0x3fcd6e88	1.6049356
109	0x3fcd8d06	1.6058662
110	0x3fce4892	1.6115897
111	0x3fcebeff	1.6152037
112	0x3fcf176b	1.6179022
113	0x3fcfbb7e	1.6229093
114	0x3fcf74b0	1.6207485
115	0x3fd05336	1.6275394
116	0x3fd0b632	1.6305602
117	0x3fd0f6f6	1.6325366
118	0x3fd14c7d	1.6351467
119	0x3fd1da26	1.6394699
120	0x3fd330f2	1.6499312
121	0x3fd31fc5	1.649407
122	0x3fd34c52	1.6507666
123	0x3fd37bf0	1.6522198
124	0x3fd46038	1.6591864
125	0x3fd430af	1.6577357
126	0x3fd43873	1.6579727
127	0x3fd5742e	1.667608
128	0x3fd5987b	1.6687158
129	0x3fd6dfd2	1.6787055
130	0x3fd6c853	1.6779884
131	0x3fd735ee	1.6813333
132	0x3fd80cc4	1.6878896
133	0x3fd7b1e4	1.6851163
134	0x3fd85352	1.6900427
135	0x3fd9284a	1.696542
136	0x3fd9153b	1.6959604
137	0x3fd95d9e	1.6981695
138	0x3fda53e6	1.7056854
139	0x3fd9f0dd	1.7026631
140	0x3fdaca1f	1.7092932
141	0x3fda87a8	1.7072649
142	0x3fdaefa3	1.7104381
143	0x3fdb8f9e	1.7153203
144	0x3fdbdd79	1.7176963
145	0x3fdd0c6c	1.7269416
146	0x3fdd27a7	1.7277726
147	0x3fdde453	1.7335304
148	0x3fde2fe1	1.7358361
149	0x3fde4d38	1.7367315
150	0x3fde80cd	1.7383057
151	0x3fdf343e	1.7437818
152	0x3fdf68b3	1.7453827
153	0x3fe0164d	1.7506806
154	0x3fe0c7a1	1.7560922
155	0x3fe107a9	1.7580463
156	0x3fe20b40	1.7659683
157	0x3fe1bbf0	1.7635479
158	0x3fe28a4d	1.7698456
159	0x3fe2d1da	1.7720292
160	0x3fe355e2	1.7760584
161	0x3fe31d01	1.7743226
162	0x3fe3927e	1.7779081
163	0x3fe3b4ed	1.7789589
164	0x3fe440bb	1.7832254
165	0x3fe51521	1.7897073
166	0x3fe44da7	1.7836198
167	0x3fe5f472	1.7965224
168	0x3fe62022	1.7978556
169	0x3fe63e49	1.7987758
170	0x3fe6fcb0	1.8045864
171	0x3fe7d3b9	1.8111488
172	0x3fe6de58	1.8036604
173	0x3fe87894	1.8161798
174	0x3fe908f7	1.8205861
175	0x3fe8be91	1.8183156
176	0x3fe7d9ff	1.8113402
177	0x3fe878f1	1.8161908
178	0x3fe9fd39	1.8280402
179	0x3fe90939	1.820594
180	0x3feb0047	1.835946
181	0x3fea83fa	1.8321526
182	0x3fea9a6f	1.8328379
183	0x3feb28ae	1.837179
184	0x3fec61ff	1.8467406
185	0x3feb88ed	1.8401161
186	0x3feb448a	1.8380291
187	0x3fecc09d	1.8496281
188	0x3fec9384	1.8482518
189	0x3fedb533	1.8570923
190	0x3fede9c3	1.8586963
191	0x3feeeb08	1.8665476
192	0x3fed8996	1.8557613
193	0x3feedaf3	1.8660568
194	0x3fee09cd	1.8596741
195	0x3fee655a	1.862468
196	0x3fefbbd9	1.8729202
197	0x3feee2b2	1.8662932
198	0x3fef98b4	1.8718476
199	0x3ff00e5b	1.8754381
200	0x3ff0c4df	1.881008
201	0x3ff041be	1.8770063
202	0x3ff03073	1.8764786
203	0x3ff106bb	1.8830179
204	0x3ff0c564	1.8810239
205	0x3ff136eb	1.8844885
206	0x3ff16418	1.8858671
207	0x3ff23c31	1.8924619
208	0x3ff2091b	1.8909029
209	0x3ff28a7b	1.8948511
210	0x3ff24480	1.8927155
211	0x3ff2fb2d	1.8982903
212	0x3ff272bf	1.8941268
213	0x3ff200a6	1.8906448
214	0x3ff1de3c	1.8895946
215	0x3ff27d86	1.8944557
216	0x3ff3ddb3	1.9052032
217	0x3ff514d2	1.9146979
218	0x3ff3f45c	1.9058948
219	0x3ff3e274	1.9053483
220	0x3ff4d21b	1.9126619
221	0x3ff3dbd9	1.9051467
222	0x3ff3c07b	1.9043115
223	0x3ff50784	1.9142919
224	0x3ff463fd	1.9093014
225	0x3ff530ac	1.9155478
226	0x3ff42504	1.9073796
227	0x3ff40286	1.906327
228	0x3ff58e03	1.9183964
229	0x3ff60696	1.922076
230	0x3ff5874f	1.9181918
231	0x3ff54b6a	1.916364
232	0x3ff51cdd	1.9149433
233	0x3ff62e1d	1.9232823
234	0x3ff67afa	1.925628
235	0x3ff641e3	1.9238857
236	0x3ff547c4	1.9162526
237	0x3ff670fe	1.9253232
238	0x3ff68012	1.9257834
239	0x3ff723f8	1.9307852
240	0x3ff6c993	1.9280266
241	0x3ff743af	1.931753
242	0x3ff64e2d	1.9242607
243	0x3ff63d71	1.92375
244	0x3ff6b383	1.9273533
245	0x3ff7677c	1.9328456
246	0x3ff6b1e2	1.9273036
247	0x3ff67782	1.9255221
248	0x3ff7fb83	1.937363
249	0x3ff7daf8	1.9363699
250	0x3ff6ee23	1.9291424
251	0x3ff74a95	1.9319636
252	0x3ff854f8	1.940093
253	0x3ff7324b	1.9312223
254	0x3ff7957a	1.9342492
255	0x3ff7bd9b	1.9354738

batch_norm.0.bias f4 [400]
0	0xbf46f058	-0.77710485
1	0xbf431e79	-0.7621837
2	0xbf40d196	-0.753198
3	0xbf3ffead	-0.7499798
4	0xbf3e3670	-0.74301815
5	0xbf3e74a9	-0.7439676
6	0xbf3c9c40	-0.7367592
7	0xbf3e2ada	-0.74284136
8	0xbf3ca7ad	-0.7369335
9	0xbf3d3478	-0.73908186
10	0xbf3c39c2	-0.7352563
11	0xbf3cc787	-0.73741955
12	0xbf3b5310	-0.7317362
13	0xbf3c485b	-0.73547906
14	0xbf3bbcb9	-0.7333484
15	0xbf3cbb9c	-0.7372377
16	0xbf3da899	-0.74085385
17	0xbf3d1abd	-0.73868924
18	0xbf3d0b4e	-0.73845375
19	0xbf3c360a	-0.7351996
20	0xbf3becd8	-0.7340827
21	0xbf3c2f22	-0.7350942
22	0xbf3c1ee7	-0.73484653
23	0xbf3c719d	-0.7361086
24	0xbf3bcb93	-0.73357505
25	0xbf3bde6f	-0.7338628
26	0xbf3cd6f6	-0.73765504
27	0xbf3bc875	-0.7335275
28	0xbf3ced06	-0.7379917
29	0xbf3c73ac	-0.73614
30	0xbf3d46a7	-0.7393593
31	0xbf3c8c56	-0.73651636
32	0xbf3c6185	-0.73586303
33	0xbf3c7a9e	-0.736246
34	0xbf3d7329	-0.74003845
35	0xbf3d3a92	-0.73917496
36	0xbf3d0754	-0.73839307
37	0xbf3de8d6	-0.74183404
38	0xbf3debbf	-0.74187845
39	0xbf3dd5b6	-0.7415422
40	0xbf3f065a	-0.74619067
41	0xbf3f1cd7	-0.7465338
42	0xbf3f0d1a	-0.74629366
43	0xbf3eddf4	-0.74557424
44	0xbf3f4148	-0.74708986
45	0xbf3f8d18	-0.74824667
46	0xbf409ccf	-0.7523927
47	0xbf40eb80	-0.75359344
48	0xbf408063	-0.751959
49	0xbf414648	-0.75497866
50	0xbf417649	-0.75571114
51	0xbf426c54	-0.75946546
52	0xbf41817d	-0.7558821
53	0xbf43a244	-0.7641947
54	0xbf42f668	-0.76157236
55	0xbf44dbff	-0.7689819
56	0xbf443bac	-0.7665355
57	0xbf4513c6	-0.76983297
58	0xbf456e93	-0.7712185
59	0xbf455234	-0.77078557
60	0xbf45f3ce	-0.7732514
61	0xbf46f854	-0.7772267
62	0xbf46a70b	-0.7759864
63	0xbf488864	-0.78333116
64	0xbf48971c	-0.78355575
65	0xbf49ddca	-0.7885405
66	0xbf4a73f4	-0.7908318
67	0xbf4ad5ce	-0.7923249
68	0xbf4ad4e5	-0.792311
69	0xbf4c29e6	-0.7975143
70	0xbf4c6690	-0.79844
71	0xbf4db2cd	-0.80350953
72	0xbf4d0a0a	-0.80093443
73	0xbf4e15f5	-0.80502254
74	0xbf4fcb92	-0.8117
75	0xbf50f5a8	-0.8162484
76	0xbf50e11b	-0.81593484
77	0xbf524ab5	-0.82145244
78	0xbf51673c	-0.8179815
79	0xbf52ca43	-0.82339877
80	0xbf529209	-0.8225408
81	0xbf545dcb	-0.82955617
82	0xbf561fe3	-0.83642405
83	0xbf55ef0c	-0.8356788
84	0xbf563d4b	-0.83687276
85	0xbf588cf4	-0.8459008
86	0xbf585f9b	-0.8452088
87	0xbf59695f	-0.8492641
88	0xbf59684b	-0.84924763
89	0xbf5b813e	-0.8574408
90	0xbf5a99c6	-0.8539089
91	0xbf5b0f5b	-0.85570306
92	0xbf5ba2d2	-0.8579532
93	0xbf5c9873	-0.8617012
94	0xbf5d679c	-0.8648622
95	0xbf5ead94	-0.8698361
96	0xbf5f9e7a	-0.8735119
97	0xbf5f8c46	-0.87323415
98	0xbf5fef5e	-0.8747462
99	0xbf604608	-0.8760686
100	0xbf60d35f	-0.87822527
101	0xbf611f56	-0.8793844
102	0xbf61faab	-0.88273114
103	0xbf630684	-0.8868182
104	0xbf62da11	-0.8861399
105	0xbf647d99	-0.89254147
106	0xbf63d375	-0.8899453
107	0xbf64bbe2	-0.89349186
108	0xbf675fb4	-0.90380406
109	0xbf671e74	-0.9028084
110	0xbf677c11	-0.90423685
111	0xbf6834b4	-0.9070542
112	0xbf67d9e8	-0.90566874
113	0xbf68f69e	-0.9100131
114	0xbf693479	-0.9109569
115	0xbf694249	-0.9111677
116	0xbf6ab38c	-0.91680217
117	0xbf6983e7	-0.9121689
118	0xbf6bb4d8	-0.9207282
119	0xbf6b26f6	-0.91856325
120	0xbf6c9219	-0.9241043
121	0xbf6daefe	-0.9284514
122	0xbf6db086	-0.9284748
123	0xbf6d311f	-0.9265308
124	0xbf70223f	-0.93802255
125	0xbf6ff9e3	-0.9374067
126	0xbf6fca39	-0.9366794
127	0xbf7059a9	-0.9388681
128	0xbf716941	-0.9430123
129	0xbf713b92	-0.9423152
130	0xbf725a33	-0.94668883
131	0xbf731bd4	-0.9496434
132	0xbf724d8f	-0.94649595
133	0xbf73969d	-0.9515169
134	0xbf742f50	-0.95384693
135	0xbf74e3b7	-0.95659965
136	0xbf754c1c	-0.9581926
137	0xbf7561f4	-0.9585259
138	0xbf76a12a	-0.96339667
139	0xbf787fb9	-0.9706989
140	0xbf77aa47	-0.967442
141	0xbf780adc	-0.9689157
142	0xbf784498	-0.96979666
143	0xbf79f688	-0.976418
144	0xbf78d740	-0.97203445
145	0xbf79ae23	-0.97531337
146	0xbf7ad61b	-0.9798295
147	0xbf7c3cbe	-0.98530185
148	0xbf7b611e	-0.98195064
149	0xbf7d1dfc	-0.9887388
150	0xbf7d76f0	-0.9900961
151	0xbf7da1ea	-0.99075186
152	0xbf7deb24	-0.9918692
153	0xbf8028be	-1.0012434
154	0xbf7f9068	-0.9982972
155	0xbf7fc9d6	-0.9991735
156	0xbf8067ff	-1.0031737
157	0xbf817cc8	-1.0116205
158	0xbf80e61b	-1.0070223
159	0xbf817b84	-1.0115819
160	0xbf81c70e	-1.0138872
161	0xbf81a0c7	-1.012719
162	0xbf824cb9	-1.0179664
163	0xbf821f23	-1.0165752
164	0xbf82b465	-1.0211302
165	0xbf8306f3	-1.0236496
166	0xbf83a7a4	-1.0285535
167	0xbf8421e4	-1.0322843
168	0xbf84080c	-1.0314956
169	0xbf84e8f2	-1.0383589
170	0xbf852d3d	-1.0404431
171	0xbf85155a	-1.0397141
172	0xbf8556be	-1.0417097
173	0xbf8565a2	-1.0421641
174	0xbf85c935	-1.0452029
175	0xbf85a73f	-1.0441664
176	0xbf8610c4	-1.0473866
177	0xbf86d604	-1.0534062
178	0xbf86f942	-1.0544817
179	0xbf87034e	-1.0547884
180	0xbf87b0ee	-1.060087
181	0xbf87bad1	-1.0603887
182	0xbf87b9b2	-1.0603545
183	0xbf877407	-1.0582284
184	0xbf8836a2	-1.0641673
185	0xbf87e604	-1.061707
186	0xbf88b331	-1.0679685
187	0xbf8926ad	-1.0714928
188	0xbf8916f5	-1.0710131
189	0xbf89f352	-1.077738
190	0xbf8ae586	-1.0851295
191	0xbf89f11b	-1.0776705
192	0xbf8a1932	-1.0788939
193	0xbf8a2a30	-1.0794125
194	0xbf8a6478	-1.0811911
195	0xbf8a5664	-1.0807614
196	0xbf8b1c8d	-1.0868088
197	0xbf8c339a	-1.0953248
198	0xbf8c2d1d	-1.0951267
199	0xbf8b58c0	-1.0886459
200	0xbf8b64e1	-1.0890161
201	0xbf8c6f4a	-1.0971463
202	0xbf8c7131	-1.0972043
203	0xbf8c506f	-1.0962046
204	0xbf8d1a73	-1.1023697
205	0xbf8c5b18	-1.09653
206	0xbf8ce2e8	-1.1006746
207	0xbf8d714c	-1.10502
208	0xbf8ce815	-1.1008326
209	0xbf8e20f0	-1.1103802
210	0xbf8d9c23	-1.1063274
211	0xbf8e0673	-1.1095718
212	0xbf8e2179	-1.1103965
213	0xbf8cfea7	-1.1015214
214	0xbf8ddae4	-1.1082425
215	0xbf8e42a5	-1.1114088
216	0xbf8f56a9	-1.1198322
217	0xbf8ff775	-1.1247393
218	0xbf8e8540	-1.1134415
219	0xbf8f0386	-1.117295
220	0xbf8eec5e	-1.1165884
221	0xbf8fa7c7	-1.1223077
222	0xbf8fa913	-1.1223472
223	0xbf8f39ba	-1.1189492
224	0xbf8fed51	-1.1244298
225	0xbf902006	-1.1259773
226	0xbf901bd2	-1.125849
227	0xbf8fcebf	-1.1234969
228	0xbf8fac96	-1.1224544
229	0xbf8f6070	-1.1201305
230	0xbf90ec5e	-1.1322134
231	0xbf8fd995	-1.1238276
232	0xbf909b24	-1.1297345
233	0xbf90901b	-1.1293977
234	0xbf908c4a	-1.1292813
235	0xbf910d6c	-1.1332221
236	0xbf90868f	-1.1291064
237	0xbf921aa8	-1.1414385
238	0xbf90e821	-1.132084
239	0xbf90c06d	-1.1308724
240	0xbf90674d	-1.1281525
241	0xbf913bcb	-1.1346372
242	0xbf915beb	-1.1356176
243	0xbf9062a0	-1.1280098
244	0xbf91060f	-1.1329974
245	0xbf926a0a	-1.143861
246	0xbf91f2ba	-1.1402199
247	0xbf91daaa	-1.1394856
248	0xbf90a681	-1.1300813
249	0xbf914075	-1.1347796
250	0xbf9162f8	-1.1358328
251	0xbf91270e	-1.1340044
252	0xbf91ce62	-1.1391108
253	0xbf91bc58	-1.1385603
254	0xbf9228de	-1.1418722
255	0xbf90d77b	-1.131576
