Saves/ecal_ep_20.pth (torch, 125858 bytes, 38 tensors)

sage.0.lin_rel.weight f4 [16, 3]
000000 9f 68 02 be 72 2c 30 be 58 61 17 3f 22 d8 d3 bc
       -0.12735222 -0.17204455 0.5913291 -0.025859896
000010 be 5e e0 bb 2c 9f 96 3d 64 90 60 3d 91 17 20 3e
       -0.0068472316 0.073545784 0.0548252 0.1563399
000020 9c 87 e4 3f 15 3c f0 3e 0c 60 ef 3e c9 56 8e 3f
       1.7853885 0.4692084 0.46752965 1.1120235
000030 05 34 5e 3d 6c 5b 7c 3d 5c b8 f9 3e ee 72 45 be
       0.05424883 0.061610624 0.48773468 -0.19282123
000040 16 06 7b bd 48 4c d0 3e 8a e1 4e 3d 8a e1 b3 3d
       -0.0612851 0.40683198 0.05050806 0.087832525
000050 a4 43 bb 3e da 98 b2 bd d6 52 7a be 98 16 c1 3f
       0.36575043 -0.0872056 -0.24445662 1.508502
000060 69 37 80 3e 5a 80 57 3e 77 ae 54 3f fb a1 20 be
       0.25042275 0.21045056 0.8307871 -0.1568679
000070 e6 5a 9f 3d ab d8 cf 3e 1d a3 a6 be c2 1d 84 be
       0.077810094 0.40594992 -0.3254632 -0.25803953
000080 3b 0e 50 bf eb 65 67 be ee f8 09 3e 38 e2 16 3f
       -0.81271714 -0.22597472 0.13473865 0.5893893
000090 cd e7 ab 3c d8 be ad 3d b5 f4 f1 3e 01 0d d1 3b
       0.020984555 0.08483666 0.4725701 0.006379724
0000a0 5f b3 a5 3d e8 16 fb 3e 94 e9 3a bd 25 72 8e bd
       0.08090853 0.49040914 -0.045632914 -0.06955365
0000b0 5b ef 47 be 81 0b 4a 3e 8e d1 18 bf 8f 52 33 c0
       -0.195249 0.19730951 -0.59694755 -2.801914

sage.0.lin_root.weight f4 [16, 3]
000000 b2 f8 24 3e d8 ca 5a 3e 3b 3d 9f 3e d1 d2 b6 bc
       0.16110495 0.21366441 0.31101403 -0.022317322
000010 31 14 1d bd 27 70 dd 3d 98 89 26 3e 5f 0e 9a 3d
       -0.038349334 0.10812407 0.16263425 0.07522272
000020 61 8e b7 3f 43 fd dd be a3 50 e0 be ac 19 d3 3e
       1.4340326 -0.43357286 -0.4381152 0.41230524
000030 56 45 f7 3c 93 87 e4 3c 3d f1 a1 3e 06 75 b8 3d
       0.03018443 0.027896678 0.31629363 0.090066954
000040 f9 49 1d bd c2 99 b9 3e d0 62 14 bc ed 56 2e bd
       -0.038400624 0.3625012 -0.009056762 -0.042563368
000050 29 d2 a4 3e 74 14 81 3e f1 67 9e 3e 71 cb b5 3f
       0.3219159 0.25210917 0.30938676 1.420271
000060 78 4a 8b be c3 f6 5c bd 11 af de 3e 1d c4 83 3e
       -0.27205253 -0.053946268 0.4349294 0.2573556
000070 ca 5f cf 3c c5 02 a7 3e 73 33 9b 3d 2a 0e b5 3b
       0.02531423 0.326193 0.075781725 0.00552537
000080 d9 12 60 bf 53 d2 86 3e 5c 4e c6 bd 4c b2 a3 3e
       -0.8752876 0.2633234 -0.096829146 0.31971967
000090 42 ed 6a 3d 09 85 18 bb 75 84 a2 3e 7c 06 98 3d
       0.057355173 -0.0023272655 0.31741682 0.07423112
0000a0 9f 89 83 3b 1b 89 a1 3e a9 35 f3 bc 8a 02 0e bc
       0.0040142084 0.31549916 -0.029688673 -0.008667598
0000b0 d6 73 be 3e d8 46 0e bf ff f4 4d 3e 8d e1 cf bf
       0.3719775 -0.5557685 0.2011299 -1.6240708

sage.0.lin_root.bias f4 [16]
000000 1d 2c 67 40 59 91 c6 3f 81 ca a7 bf 83 0d 81 40
       3.6120675 1.5513107 -1.3108674 4.0328994
000010 1a 26 45 c0 ae e0 f0 3f 70 23 3e 40 17 cd be bf
       -3.0804505 1.8818567 2.970913 -1.4906338
000020 dc 3d 21 b8 c7 a4 a1 c0 81 cc 4a 3b 7b 5a 63 40
       -3.8443002e-05 -5.0513644 0.0030944648 3.5523975
000030 66 74 0d c0 94 d6 22 c0 12 12 df 3f ce b6 30 40
       -2.2102294 -2.5443468 1.742739 2.7611575

sage.1.lin_rel.weight f4 [64, 16]
000000 b4 7a 19 3d d3 8f 37 bd 8c f4 19 be 00 7e d7 bd
       0.037470534 -0.044814896 -0.15034693 -0.105220795
000010 db ea 85 3d a0 2d 24 be 0c 9e 6d 3e d8 74 48 3e
       0.06538936 -0.1603303 0.23204821 0.19575822
000020 0f a8 7a bc fc 36 42 bd 77 ab a8 3d a4 52 18 3e
       -0.015298857 -0.04741572 0.08235829 0.14875275
000030 de 13 ce bc cc 0c fb bd a8 d7 1e be 76 55 c9 3d
       -0.025155958 -0.122583 -0.15511954 0.098307535
000040 e4 84 53 3e 3e c1 98 3c 86 5d 4a 3e c6 20 61 3e
       0.20656163 0.018646833 0.19762239 0.21985158
000050 da 35 09 3d 22 73 77 bd 8f 56 87 3c f2 73 07 be
       0.033498622 -0.060412534 0.016520767 -0.13227823
000060 47 cb c4 bd 81 5e fd bd c8 05 57 3d 52 6e 39 be
       -0.096090846 -0.12371541 0.052495748 -0.1810849
000070 9d ac 82 3d db 19 22 3e ce f6 3a 3e 26 ea 26 bc
       0.063805796 0.15830176 0.18258211 -0.010187661
000080 42 25 5b 3e 6c ab e1 3d 37 68 97 bc d4 c0 e3 3d
       0.21400931 0.11019024 -0.01848231 0.111207634
000090 4b b9 fa 3d b8 0c 9f 3d ce 3a 87 be 40 f6 54 3e
       0.12242373 0.07766098 -0.26412052 0.20797062
0000a0 04 03 1d be 94 30 36 be 15 d6 8f be 60 b6 9f bd
       -0.15333182 -0.17791969 -0.2809302 -0.07798457
0000b0 d6 03 1e 3e 8c 27 f7 bd 20 20 13 be 98 22 c6 bd
       0.15431151 -0.1206809 -0.14367723 -0.09674567
0000c0 33 4b 04 3e 13 b8 bd 3d 2b a5 91 3d 0e d5 a1 3d
       0.12919311 0.09263625 0.071115814 0.07901965
0000d0 0d f7 12 3e 89 f3 52 3e 19 91 d7 3c 90 d2 9f bd
       0.14352055 0.20600714 0.026314305 -0.078038335
0000e0 3b 26 16 3e 77 48 2a 3c 24 17 df bd d1 6f da 3c
       0.14663021 0.0103932535 -0.108930856 0.026664646
0000f0 53 de 05 3e 49 03 8d 3d 14 bc 2e be 6a c0 0a 3d
       0.13073091 0.06885392 -0.17063934 0.033874907
000100 bd b6 06 3e 9f 4d 2d 3e 3a 6c 39 3e 35 9f bb be
       0.13155647 0.16924141 0.18107691 -0.36644903
000110 71 66 90 3e ae 20 a5 3d c9 e5 37 be 99 0e a4 bd
       0.28203157 0.08062874 -0.1795875 -0.08010597
000120 de ce f1 bd 20 30 14 3e 4a ec 8a 3e 87 24 1f be
       -0.11807035 0.14471483 0.271334 -0.15541278
000130 89 72 17 3e ad f8 96 3e 29 2e ab 3d 5b 7d 7a 3e
       0.14789785 0.294866 0.08358414 0.24461882
000140 55 2a 20 3d ca 64 1f be 60 07 55 3e bc ae bb be
       0.03910287 -0.15565792 0.20803595 -0.3665675
000150 1a fa 3b be 17 93 f5 3d c5 8f 84 bd ac 98 d2 3d
       -0.18357125 0.11990946 -0.06472734 0.10283026
000160 31 99 02 3e 01 4b f9 3d d5 39 7b 3c 4b 4f a9 bd
       0.1275375 0.12172509 0.015333612 -0.08267077
000170 91 cd 35 be ff c4 d5 bd c9 e2 49 3d 80 52 7d be
       -0.17754199 -0.10437965 0.049288545 -0.24738503
000180 f0 c4 41 3e b0 5a 0d 3c 35 32 3a 3d b8 03 9c 3d
       0.18922782 0.008627579 0.045458037 0.07617897
000190 92 a7 14 3e 0c 42 d8 3d 21 3e f4 bc 74 13 b9 3d
       0.14517048 0.105594724 -0.029814782 0.090369135
0001a0 0c 68 3f 3e 02 71 0a bd 07 3a 23 3d 17 99 e4 ba
       0.18692034 -0.03379918 0.03985026 -0.0017440644
0001b0 3e 75 b9 bd b0 d4 00 3e 8a 4c 67 3c d1 3d 45 bb
       -0.09055565 0.12581134 0.014117369 -0.003009666
0001c0 81 aa 90 3d f2 15 bb bd 59 0d ce bd da 0c 92 be
       0.07063771 -0.09135045 -0.100611396 -0.2852543
0001d0 f7 29 ec bd 5d 7e bb bd 3b 9e 5b 3e 28 77 3d bd
       -0.11531442 -0.09154961 0.21447079 -0.046256214
0001e0 f0 09 09 3d 03 06 6f 3c 51 7a 6b 3d f1 44 f7 3c
       0.033456743 0.014588836 0.057489697 0.030184241
0001f0 e5 86 4d 3d b1 1b e1 bd 70 30 81 bd 8e eb 0e 3d
       0.050177474 -0.1099161 -0.06308067 0.03489261
000200 11 f8 ce bd d5 0c 29 3d fb 47 54 3e d0 d4 5f 3e
       -0.10105909 0.041272003 0.20730583 0.21858525
000210 e3 f9 00 3b 04 72 78 3e 6d 20 13 be db 99 84 3e
       0.0019680194 0.24262244 -0.14367838 0.25898632
000220 7c 22 2a 3d 8e a4 a6 bc 1c 97 b5 3c cc 42 03 3e
       0.041536793 -0.020342138 0.022166781 0.1281845
000230 66 61 e6 3b 2f b0 0d 3d 64 80 61 3e e4 bb 29 be
       0.007030654 0.03459185 0.22021633 -0.16575581
000240 ce 6f 42 3e d0 2f 22 3e 86 0f b9 bd fc 4e 2e bd
       0.18987963 0.15838552 -0.09036164 -0.042555794
000250 2f 33 ab 3c 31 e3 1b 3e 35 e0 34 be fd cc 86 bc
       0.02089843 0.15223385 -0.17663653 -0.016455168
000260 09 99 02 3e 4b 14 9c bc 46 60 7b be f7 b6 d3 bd
       0.12753691 -0.019052645 -0.24548444 -0.10337632
000270 dd 0c 92 be 19 86 85 3d b9 d5 1e 3e 26 db 20 be
       -0.2852544 0.06519718 0.15511216 -0.15708598
000280 81 4e af 3d de 69 54 3e 24 66 5a be 7a 93 0b 3e
       0.08559895 0.2074351 -0.21328026 0.13630477
000290 34 1d ac bd 8f da 9f 3e 43 52 06 bd 83 4c c5 be
       -0.084040076 0.31221434 -0.032793295 -0.38534936
0002a0 52 68 bf 3e 14 a9 d8 be c2 50 b3 3e d6 36 aa 3d
       0.37384278 -0.42316496 0.3502255 0.083112404
0002b0 6b 75 0a be 1e 2e d5 3d 7a 5a 22 3e e2 23 88 3e
       -0.13521354 0.10409187 0.15854827 0.26589876
0002c0 49 bb 84 bd 6a ed 57 be 51 5e 6f 3d ca de 28 3e
       -0.06481034 -0.2108666 0.058439557 0.16491237
0002d0 e7 e4 1f 3e bb 79 8d bd fe 50 11 3d 94 ed a1 bb
       0.15614663 -0.06907984 0.03547763 -0.0049416516
0002e0 b5 0d 07 be 0d 09 69 be d4 65 2c 3d 86 cf 03 3d
       -0.13188823 -0.22757359 0.0420893 0.03218033
0002f0 a2 f0 a9 3e 79 17 a2 bc 73 97 84 bc bd da 25 be
       0.331914 -0.019786583 -0.016185498 -0.16196723
000300 6b a5 a2 bd c1 03 2b bb e4 74 5d 3d 6b 44 93 bd
       -0.07941707 -0.0026094767 0.054066554 -0.07190784
000310 55 c6 aa 3e 50 26 eb bd c3 93 9e be 58 53 35 bc
       0.3335444 -0.11481917 -0.30972108 -0.011067234
000320 34 97 24 3e fa ec 0a 3e b5 ba 28 be 36 aa d6 3d
       0.16073304 0.13566962 -0.16477473 0.10481684
000330 77 a3 ce bd 79 33 63 bc fe f5 2f be 90 e9 54 bd
       -0.10089772 -0.0138672525 -0.17183682 -0.051980555
000340 14 af 0b bc 33 19 0c 3e 0b 2b 36 3e 63 62 9f bd
       -0.008525629 0.13681488 0.17789857 -0.07782438
000350 57 2e 77 3e b5 36 69 bd 8a 6c 0d be 25 fd 60 be
       0.24138771 -0.05693694 -0.13810936 -0.21971567
000360 76 b0 81 3e f1 75 da 3b 55 50 48 3e 55 d9 90 bd
       0.25329942 0.0066668917 0.19561894 -0.07072703
000370 7c de 1d be ce bb 81 3c b1 db a8 3c 41 e9 dc bd
       -0.15416902 0.015836623 0.02061257 -0.10786677
000380 06 37 3d be 85 4a 47 bd e7 76 e2 3c e7 30 89 be
       -0.18478021 -0.04865505 0.027644588 -0.26795122
000390 a9 a0 8e be a9 ef 81 3d 7c 38 53 be 30 4d 95 bd
       -0.2785695 0.0634454 -0.20627016 -0.07290113
0003a0 35 70 85 be 69 81 8e be 0c a7 9a be c9 85 80 be
       -0.2606217 -0.27833107 -0.30205572 -0.2510207
0003b0 11 2a da be 7a 20 3d be f6 55 88 3d a4 d0 95 3c
       -0.4261022 -0.1846942 0.06657021 0.018287964
0003c0 17 30 ed 3c 1d 94 5e 3c 6f 37 18 bd b4 62 a9 be
       0.028953595 0.013585118 -0.03716224 -0.33083117
0003d0 63 71 13 be 18 be 05 3e a5 e2 8e 3e 9b 74 4b 3e
       -0.14398722 0.13060796 0.2790729 0.198687
0003e0 d9 ef c5 bd fb da ca 3d 75 e2 06 3e 24 90 af 3d
       -0.09664888 0.099050485 0.13172324 0.085724145
0003f0 b0 98 38 bd 76 44 58 be e0 e5 ef 3d dc e5 54 3e
       -0.04506749 -0.21119866 0.11713767 0.2079081

sage.1.lin_root.weight f4 [64, 16]
000000 c2 29 ce be 91 5d 74 3c 24 12 f7 3d c5 19 0a 3d
       -0.40266234 0.014914886 0.12064007 0.033715982
000010 14 33 7c be 28 b0 22 bd d8 e5 fb 3d 77 2c 49 be
       -0.2462886 -0.039718777 0.122996986 -0.19645868
000020 b1 db 62 bf 48 92 58 3e 4a df b1 bd 9c 86 36 3d
       -0.8861647 0.21149552 -0.08685167 0.044561967
000030 1c 71 87 3e d6 75 3e 3e 3e 4d 24 3e 49 45 94 bc
       0.26453483 0.18599638 0.1604509 -0.018099444
000040 9c 02 af be c7 98 08 be 7b a4 cb bd c8 43 69 be
       -0.34181678 -0.1333953 -0.099434815 -0.22779763
000050 1e f7 50 3b 8c 93 df 3d f0 d3 4a 3e d6 09 2a 3e
       0.0031885575 0.10916814 0.1980741 0.16605315
000060 3a b3 12 bf a8 21 06 3e 62 4d 47 bd 39 17 78 3d
       -0.5730473 0.13098776 -0.048657782 0.06056902
000070 9c 48 b9 be da e0 33 be d3 a2 cc 3d 63 5a a6 3d
       -0.3618821 -0.17566243 0.09991994 0.08122709
000080 54 c7 fe be e6 78 57 3e ba c3 b3 3c 5f 6c 13 3d
       -0.4976145 0.21042213 0.021943916 0.035992023
000090 8e 3c f9 3e 72 2c 4b 3e d6 d7 a3 be 13 50 84 be
       0.48679012 0.19841173 -0.32000607 -0.25842342
0000a0 ee f6 84 3d 90 82 94 3e 27 04 14 3d 46 82 12 be
       0.064924106 0.2900586 0.036136772 -0.14307508
0000b0 9c 92 59 3e aa c4 89 3e d2 c0 3b 3e 29 26 0f be
       0.21247333 0.26907855 0.18335274 -0.139794
0000c0 f6 30 9e bc 35 9e b7 3d f7 38 29 be 7e c4 17 3e
       -0.019310456 0.089657225 -0.16525637 0.1482105
0000d0 92 dc 5a bd 99 b5 86 be 4d 79 45 bd ff 81 5d 3e
       -0.05343301 -0.26310423 -0.048211385 0.21631621
0000e0 64 12 2e bf cf 09 49 bd 71 6b c5 3d a5 22 ac 3e
       -0.6799681 -0.04908162 0.096396334 0.33620182
0000f0 a5 73 2b 3f e5 1f 74 be 96 04 10 3d fb 7f 62 be
       0.66973335 -0.23840292 0.035160623 -0.22119133
000100 c5 b6 fe 3e 97 42 05 be b9 f3 b0 3b 61 fd fa 3e
       0.49748817 -0.13013683 0.0054001478 0.49021438
000110 05 98 b9 bd 9c dd 51 bd ff 96 aa 3e 15 a0 82 3d
       -0.090621985 -0.051236734 0.33318326 0.063781895
000120 c4 9b 6e be 90 1e 84 bd 56 d1 80 3d b1 b0 09 3e
       -0.23301607 -0.06451142 0.06289928 0.13446309
000130 e6 83 6e be a1 04 d0 3d c7 89 fa 3c 4a a0 38 be
       -0.23292503 0.10157133 0.030583275 -0.18029895
000140 3b 22 91 be cd 62 b9 3d 5a 23 4d bd d4 88 0e be
       -0.28346428 0.09052048 -0.050082542 -0.13919383
000150 ca 13 26 3d 63 fc 26 3e ad 62 b9 3d ac 27 88 be
       0.040546216 0.16307215 0.09052024 -0.26592767
000160 35 ca a0 3c 3b 31 26 3e 00 35 1d bd 84 6e 7b be
       0.01962767 0.16229717 -0.038380623 -0.24553877
000170 4a 8b b8 be 1a 10 f3 bd b3 e2 c7 3d 31 85 2e 3e
       -0.3604377 -0.118683055 0.09760036 0.17042996
000180 cd 55 5f be c0 97 16 be f9 9f 11 3d 0d ae 5d 3e
       -0.21810074 -0.14706326 0.035552952 0.21648426
000190 69 35 5b be 59 48 4c be 7b d0 38 bd ef 08 64 3d
       -0.21407093 -0.19949473 -0.045120697 0.055672582
0001a0 b9 24 16 bf a3 55 96 3c d8 60 28 3d b6 ff 08 3e
       -0.58649784 0.018351382 0.041107982 0.13378796
0001b0 e3 23 19 3f 49 89 80 3e 38 bb 60 3e b1 84 36 bc
       0.59820384 0.2510474 0.21946418 -0.0111400345
0001c0 39 87 58 be 94 34 65 bd 41 ca d6 3d e6 22 a0 be
       -0.21145333 -0.055958346 0.104877956 -0.31276625
0001d0 57 37 bd 3e c7 71 61 3e 70 d7 3d be 67 fe 92 be
       0.36956283 0.22016059 -0.18539214 -0.2870972
0001e0 b0 4c 4d 3f bc 51 8c 3d 65 1e ae 3b 4d ed 91 be
       0.8019514 0.06851527 0.005313682 -0.2850136
0001f0 cf f7 75 3d 78 84 40 3e a1 65 50 3d 0f 48 a6 3c
       0.06005078 0.18800533 0.05087817 0.020298032
000200 c3 a1 3d bd 9a 2d 29 bd a0 1d 3e be b5 b6 c1 3e
       -0.046296846 -0.041303255 -0.18565989 0.37834707
000210 8a b7 31 be 99 f5 f2 3d 5b 6b a3 bc f6 de 9a 3d
       -0.17355171 0.1186325 -0.019948652 0.07562058
000220 01 2f f5 bd 0b 9e 2b be d1 42 ed bd f9 9a 28 bc
       -0.11971856 -0.16759507 -0.1158501 -0.010290855
000230 f4 90 98 be df db 99 be 4b 98 45 3d 27 e5 29 3d
       -0.2979809 -0.3005056 0.04824094 0.041478302
000240 c8 26 9f 3d 62 5b 49 be c1 0f 29 3e e5 b5 ed 3e
       0.07771069 -0.19663766 0.16509916 0.46427837
000250 e9 76 e7 3d d9 77 25 3e 68 27 65 be d4 1c 18 3d
       0.11301977 0.16159 -0.22378314 0.037136868
000260 2c a6 66 bf 5a 6a cd bd 84 37 5d 3e 45 d3 b9 3e
       -0.9009731 -0.100300506 0.21603209 0.36293998
000270 8c a6 28 3f 68 b8 3b 3e 13 49 62 be d0 7f 9a bb
       0.6587913 0.18332064 -0.22098188 -0.0047149435
000280 d0 2c 91 be f3 e5 20 be f8 f8 af 3d 05 ee 83 be
       -0.28354502 -0.15712719 0.08592409 -0.25767532
000290 fc eb 59 bd 8d 7e c1 bd 04 f7 8c be 12 d2 9b 3c
       -0.053203568 -0.09447966 -0.27532208 0.019021068
0002a0 9e 80 8e bd 10 6e 1a 3f 46 1f 2b be 61 85 8a 3d
       -0.069581255 0.6032419 -0.16711149 0.06763721
0002b0 36 56 96 3e 71 a3 b8 3d ef 45 5f bb 14 37 d9 be
       0.2936265 0.09015549 -0.0034068783 -0.42424834
0002c0 53 8b 3d bf 4f 86 a3 bd a9 f0 6b be 4d b9 fc be
       -0.74040717 -0.07984602 -0.23041023 -0.49360123
0002d0 f7 0e 8d 3e 17 ed 15 bd b6 e7 c0 bd 8c b8 fc 3c
       0.2755048 -0.03660306 -0.09419195 0.030849718
0002e0 8b a4 0e bd 88 59 a8 3d 35 66 4f 3d ef 96 be be
       -0.03482489 0.08220202 0.05063458 -0.37224528
0002f0 9b 56 d5 3b 69 61 81 3d 3b 47 0d 3e 38 6c 48 3e
       0.0065105683 0.06317408 0.13796704 0.19572532
000300 88 c4 76 be 7e 48 b1 3e 4b 08 a5 bd d2 4e c2 be
       -0.24098408 0.3462562 -0.080582224 -0.3795076
000310 8c 59 17 3f 88 18 96 3e 12 d0 e7 be 75 df 5c bd
       0.5912101 0.2931559 -0.45275933 -0.053924043
000320 44 58 28 bd 36 5f 2b 3f 59 13 70 3d d7 a3 60 be
       -0.0410998 0.66942155 0.0586122 -0.219375
000330 03 06 12 3f b1 3b 30 3f 5a 69 61 3e ff 2f 7d 3d
       0.57040423 0.6884108 0.22012845 0.06181335
000340 fd 1f cf 3e 1b 3b d5 3d 54 fc 63 be b2 14 ce be
       0.40454093 0.10411664 -0.22264224 -0.40250164
000350 bd 69 18 be 39 c7 2e be 6b 7d 20 be 2d 08 6c be
       -0.14884086 -0.17068185 -0.15672843 -0.23049994
000360 04 3d a5 3f 43 85 2c be 5c 25 4d be ae 53 d7 bc
       1.2909245 -0.1684771 -0.20033783 -0.026285019
000370 dd e0 03 be ab e3 75 be d8 51 d7 3d ae fe 13 b9
       -0.12878747 -0.2401263 0.10513657 -0.00014113888
000380 19 0c 44 3f 77 b7 ee 3c ca 88 9a 3d df c8 02 3f
       0.7658096 0.029140217 0.07545622 0.51087755
000390 4e 5f 72 bf a7 ad 95 3e 90 80 4f 3f 6b b3 66 3c
       -0.94676673 0.2923405 0.81055546 0.0140808625
0003a0 90 f4 0b bf a4 a1 f0 be d8 04 7f bd 81 ce 7c 3f
       -0.5467005 -0.46998322 -0.06226048 0.987526
0003b0 54 78 f6 be ae d4 51 bf f3 79 a3 3c 2b 5b a9 bd
       -0.48138678 -0.8196515 0.01995561 -0.08269342
0003c0 37 04 c3 3d 20 fc b2 bd 87 bc e8 3c cd cd d1 ba
       0.09522288 -0.08739495 0.02841021 -0.0016006768
0003d0 cc ff c2 bd 7a 21 ce bd 18 a6 b9 3c b8 d5 b9 3e
       -0.09521446 -0.10064979 0.022662207 0.36295867
0003e0 d4 90 7e bf b8 ba 2e bd 52 41 b8 3d 1c fe 1b bd
       -0.9943974 -0.042658538 0.08996834 -0.038084134
0003f0 a4 79 13 3f 8f 9c c9 3e a2 64 b5 bd 5e e1 80 3e
       0.57607484 0.39377257 -0.08857085 0.25171942

sage.1.lin_root.bias f4 [64]
000000 52 95 d1 3d 04 97 c6 3e a0 79 6d 3e 15 2c f8 3a
       0.10233559 0.3878709 0.23190928 0.0018934036
000010 f8 b0 26 bf 88 8c 0c 3e fe 0b b5 3d 90 d9 8f 3e
       -0.6511378 0.13725483 0.08840178 0.28095675
000020 c5 77 b3 3e d0 06 1a 3d c1 dc 64 bf 45 28 1e 3e
       0.35052314 0.037604153 -0.89399344 0.15445049
000030 c9 e5 db 3d 3c c3 dd 3c df b8 a3 bd f6 da 09 bf
       0.107371874 0.027070634 -0.07994246 -0.5384973
000040 35 4e 30 bf ce 31 fd bd 52 9f 0d 3e 58 2b 6f bf
       -0.68869334 -0.12363015 0.13830307 -0.9342551
000050 92 a3 65 bf d0 a6 2f bf d4 a0 30 3d ec 78 67 bf
       -0.89702713 -0.6861391 0.043122128 -0.9041889
000060 65 07 c7 3e 73 68 91 3e bc 4f 9c 3e 2b ea 67 bf
       0.3887283 0.284 0.30529583 -0.90591687
000070 49 30 db be 64 fa 43 3e 04 90 eb bd 22 7d 56 be
       -0.42810276 0.19138485 -0.11502078 -0.20946172
000080 47 4e d4 3c f6 e2 d5 bb eb ad 0e bf b7 cc a3 bd
       0.025916232 -0.0065273 -0.5573413 -0.07998031
000090 e0 93 09 3f c4 24 a3 3c 95 ef 10 3d f7 09 ce bd
       0.53741264 0.019914992 0.035384733 -0.100604944
0000a0 83 ae 40 bf 75 ee 3a 3e 28 4c 80 be 46 f2 1d bf
       -0.75266284 0.18255027 -0.25058103 -0.61697805
0000b0 54 52 55 bf d7 09 8d 3e 84 c2 69 3d d1 e3 ac be
       -0.8332875 0.2754657 0.05707027 -0.3376756
0000c0 dc 0e 5a bf 68 c1 52 bf e4 46 44 bf 97 68 59 bf
       -0.85178924 -0.82326365 -0.7667067 -0.84925216
0000d0 43 6a fd be a7 90 1a bf 77 cc 45 3e 00 45 6c bf
       -0.49495134 -0.6037697 0.19316278 -0.92292786
0000e0 89 57 c4 3e 6e 61 78 3e ca fb f6 3e 27 04 6d bf
       0.38348034 0.24255916 0.48238975 -0.9258446
0000f0 dc e9 c1 3a 54 7d f1 bd fb ab 73 3d 06 90 9e 3d
       0.0014794427 -0.117914826 0.059490185 0.07742314

sage.2.lin_rel.weight f4 [64, 64]
000000 5e c3 8e bd 42 f1 72 3d e2 7e 4e be 7b 80 d7 3d
       -0.06970857 0.059312113 -0.2016559 0.105225526
000010 ef 1d cb bc 99 14 22 bc fb d2 c0 be b1 9d 65 3e
       -0.024794547 -0.009892606 -0.37660965 0.22423436
000020 19 93 22 bd f2 7e 10 be 2f fa d1 3d d1 b1 da bc
       -0.039691065 -0.14110926 0.10252797 -0.026696118
000030 0e 79 76 be 2d 3b e5 3e 8f 2d 1f 3d 1a 00 85 3e
       -0.24069616 0.4477171 0.038861807 0.2597664
000040 32 3f 73 3e 39 5d c4 3e df af a1 be c4 99 66 be
       0.23754576 0.38352373 -0.31579491 -0.22519594
000050 66 56 bf 3e 97 13 8a 3e 7d cc 9e 3d b3 70 6f 3e
       0.37370604 0.2696807 0.07753847 0.23382835
000060 d2 d8 f0 3d bb c0 f3 bd 58 45 5e be 32 29 5f 3e
       0.11760105 -0.11901995 -0.2170614 0.21793059
000070 74 41 00 3f 23 87 8f bd ed e1 9c bd ce 5f 48 bd
       0.50099874 -0.07008197 -0.076602794 -0.04891949
000080 8b 63 5d 3e eb d5 aa bd 40 3f ab 3e 54 98 56 be
       0.21620004 -0.08341583 0.33446693 -0.20956546
000090 75 5d 44 3e 87 ef 03 be 30 c1 8a 3e c3 4b 68 be
       0.19176276 -0.12884341 0.27100515 -0.22685151
0000a0 ac 63 24 3e c4 11 2a be ea af bb 3e 3d f3 7e 3d
       0.16053647 -0.1660834 0.3665765 0.06224369
0000b0 7d 13 91 3c 85 70 4d 3e e9 ea 7b 3c 16 c1 4c 3d
       0.017709488 0.20062454 0.015375831 0.04998883
0000c0 a7 df b3 3e 8f 41 f1 3d 02 82 27 3e 47 ae 88 bc
       0.3513157 0.117800824 0.16358188 -0.016684664
0000d0 e9 ff 95 be 58 43 01 3d 37 c6 94 be e8 58 6e 3e
       -0.29296806 0.031558365 -0.29057476 0.23276103
0000e0 7c d4 ee bb bc 56 54 3e f1 5a f5 bd 11 26 97 3e
       -0.0072885137 0.20736212 -0.11980236 0.2952123
0000f0 4a 81 0d 3e 4a 20 46 bd 26 6f 9b be c3 0c 2e 3e
       0.13818851 -0.048370637 -0.30358237 0.16997056
000100 f2 6c 35 3d 5a 1e c0 bd 0d c9 33 be d4 a1 02 3e
       0.04429335 -0.09380789 -0.17557164 0.12757045
000110 a8 b9 12 3e 48 75 6f be 88 71 d9 be ce f7 86 3c
       0.14328635 -0.23384583 -0.4246943 0.016475584
000120 77 42 46 be a8 4d 2c bd c0 a0 63 3d 25 e5 20 be
       -0.19361292 -0.042066246 0.055573225 -0.15712412
000130 a7 30 55 be 31 48 e8 3e e5 e1 a4 bc 1f f9 a7 3d
       -0.2081934 0.45367578 -0.020127246 0.08201813
000140 e7 5b 25 3e 1a 2a 6d 3e f9 1b 65 be a5 7a a4 be
       0.16148339 0.23160592 -0.22373952 -0.3212482
000150 4e c1 48 3e 82 22 58 3d 4b af 98 3e 4a cf 39 3e
       0.1960499 0.052767284 0.29821238 0.18145481
000160 32 ba a8 3d 37 4b eb bd 66 7f ab be 0d e5 7d 3e
       0.08238639 -0.114889555 -0.33495635 0.24794407
000170 db 2d 85 3e e9 ab 56 be 65 e8 fd 3d a7 89 f0 bd
       0.26011547 -0.20964016 0.12397841 -0.11745005
000180 33 40 0f 3e aa af 81 bd 84 6c 8e 3e a0 f4 a6 3c
       0.13989334 -0.063323334 0.27817166 0.020380318
000190 cd 6b b5 3d 7b 07 1a be 82 7a 83 3e dc f3 11 bd
       0.08858452 -0.15041916 0.25679404 -0.035632953
0001a0 b2 25 69 3e c4 6f 5d bd 0e 44 96 3e ab a7 91 3e
       0.22768286 -0.054061666 0.29348797 0.28448233
0001b0 e4 cf 96 3d 94 29 88 bc ab 53 b2 3d 2e 3c 8b 3e
       0.07363871 -0.016621388 0.08707365 0.2719435
0001c0 d9 3c 81 3e 91 9d 1e 3e ba a0 15 3e 78 25 d0 3d
       0.25241736 0.15489794 0.14612094 0.101633966
0001d0 fb 3e bf be 16 29 e0 3c 81 52 77 be 74 83 76 3e
       -0.37352738 0.027363341 -0.24152566 0.24073583
0001e0 3c 1a 26 be 4b ae bf 3d fe ea a3 3b 1e 27 35 3e
       -0.16220945 0.093594156 0.0050023785 0.17690703
0001f0 37 10 95 3c 4c 44 2d be a8 d3 89 be dd b7 aa 3c
       0.018196208 -0.16920584 -0.26919293 0.020839626
000200 c9 5c b7 3c 92 3e 2b 3d cf 77 56 3c 04 6d a6 3c
       0.02238311 0.04180772 0.013090088 0.020315655
000210 e9 8f 97 bc 29 33 3c 3d 92 b1 83 3d 95 96 83 3d
       -0.018501239 0.045947228 0.06430353 0.064252056
000220 c5 05 1f bc a9 23 99 3d 44 bd 7f bc de 3a 65 bd
       -0.009705965 0.07477505 -0.015609089 -0.055964343
000230 3a 76 93 3d 83 8e 87 3b 74 04 ff 3b 6d cd 06 be
       0.07200284 0.004136862 0.0077825133 -0.13164301
000240 b3 02 81 bd d9 93 78 be c1 bc 69 bd f0 f4 e1 3c
       -0.06299343 -0.2427515 -0.057064775 0.027582616
000250 2e 75 23 3d 26 f6 86 bd 50 f3 19 be 8e 9a a4 3c
       0.039906673 -0.06589918 -0.15034223 0.020093229
000260 e3 36 f6 3b e4 7e 11 bd d0 4b a8 3c 0d e2 97 3c
       0.007513867 -0.035521403 0.020543963 0.018540407
000270 18 1b 7e bc 20 a1 53 bd 58 c3 e6 3c 2c 33 0b 3f
       -0.015509389 -0.051667333 0.028169319 0.5437496
000280 d7 d7 07 be 8c 6e 09 3e b1 39 b7 bc 4c 58 27 3e
       -0.1326593 0.13421077 -0.022366377 0.16342276
000290 68 20 75 3d 57 17 f6 3d 39 bd 92 bd ba 84 6e bc
       0.059845358 0.120161705 -0.071649976 -0.014558012
0002a0 43 d8 d0 bc 38 1a ae bd de 2a 65 be e4 fb 4e bd
       -0.025493747 -0.085010946 -0.22379634 -0.05053319
0002b0 59 cb d2 3c e2 de 10 3d 28 2f 20 bd 41 39 ea 3d
       0.02573173 0.035368808 -0.03910747 0.114367016
0002c0 cc fb 29 be 38 40 29 bd 90 80 4d be 29 f1 24 3c
       -0.16599959 -0.04132101 -0.20068574 0.010067263
0002d0 e0 55 92 bd 87 7c 98 bd c8 cd b5 bd 70 da 44 be
       -0.071452856 -0.07445627 -0.0887714 -0.19223952
0002e0 da 97 31 3d de fe 10 3c fe 66 82 bc a5 0d 80 bd
       0.043357708 0.008849828 -0.015918251 -0.062526025
0002f0 11 e6 f1 3c 5f 08 f0 3d f4 0f db 3d cb bc 3f be
       0.02952865 0.11720347 0.10696402 -0.18724363
000300 e3 4f 01 3c f5 19 31 3d 78 01 64 be 51 fc 7b 3e
       0.007892582 0.043237645 -0.22266185 0.2460797
000310 a0 27 ff 3d 35 d4 70 be 31 c3 83 be b0 82 41 3d
       0.1245873 -0.2351845 -0.25734857 0.047243774
000320 fa ce 8a bd 44 b4 ac bc 68 72 ff 3c 54 6a 50 be
       -0.06777759 -0.021082051 0.031182483 -0.20353061
000330 b3 77 5a be 18 11 20 3f 99 0e 89 bc a3 9f 89 3e
       -0.21334724 0.62526083 -0.016730594 0.26879606
000340 0b 0e a0 3e 5e 2c 16 3e 94 2f ae be ac 71 44 be
       0.31260714 0.14665362 -0.34020674 -0.19183987
000350 4e 3c b1 3e 22 b9 a1 3d 39 17 9c 3e d6 d3 a3 3e
       0.3461632 0.078966394 0.30486467 0.31997555
000360 92 4e 04 3c c2 ad 15 be 8f 18 86 be 81 aa 45 3e
       0.008075373 -0.14617065 -0.26190612 0.19303323
000370 18 d3 65 3e 62 24 1e be e7 ce 8f bb c0 db f3 3c
       0.22443807 -0.15443566 -0.0043886784 0.02976787
000380 68 08 d8 3d 44 ee 2d 3c 1f ab 9b 3e 0c a4 f2 bc
       0.10548478 0.010615889 0.30403993 -0.02961924
000390 68 76 24 3e 01 ed 20 be 5a b9 7e 3e e2 ea a2 bb
       0.16060793 -0.1571541 0.24875394 -0.004971848
0003a0 53 eb bf 3e 68 97 75 bd d8 3a 4d 3e e5 f9 92 3e
       0.37484226 -0.059958845 0.20041978 0.2870628
0003b0 11 ec 2a 3e 10 a2 33 3e ce 4c ac 3c 1c 6b a9 3e
       0.16691615 0.1754229 0.021032717 0.3308953
0003c0 8d 7a b6 3e 83 7e 8c 3e 49 d1 e9 3d 49 be ac 3d
       0.35640374 0.2744027 0.11416871 0.084347315
0003d0 b8 5b a5 be 5a 35 88 3e 8f ba 49 be 4f 62 6e 3e
       -0.32296538 0.26603204 -0.19700073 0.23279689
0003e0 c9 9a 6b be 73 21 85 3e 78 d8 12 bd 45 17 70 3d
       -0.23008265 0.26002082 -0.035850972 0.05861594
0003f0 bf da 28 3e ad d0 26 be 8e 18 8b be 83 2a 32 3e
       0.16489695 -0.16290541 -0.2716717 0.1739903

sage.2.lin_root.weight f4 [64, 64]
000000 b8 e1 f3 bd a0 5d 15 be 1b 2c fd bd 04 6d 0d 3e
       -0.11908287 -0.14586496 -0.12361928 0.13811117
000010 c9 76 80 3d 5d 37 5a be fc 58 ae be 11 bc 22 3e
       0.062726565 -0.21310182 -0.34052265 0.15892054
000020 fb 39 87 bb 7e e2 2b bd c7 c9 37 3e 27 71 17 bc
       -0.004126785 -0.041964047 0.17948066 -0.009243286
000030 d1 f0 e7 bd c5 10 f8 3e 4c 70 e3 3b 80 0b 38 3e
       -0.11325229 0.48450294 0.006940877 0.17973137
000040 0b 27 ad 3e 8f 32 bd 3e 46 40 a4 be 94 1e 15 be
       0.3381885 0.36952636 -0.32080287 -0.14562446
000050 3d ee ba 3e b5 34 49 3e 66 ea 93 3e 0f d8 52 3e
       0.36509886 0.19649012 0.2888977 0.20590232
000060 62 71 b3 ba c7 fe 5b 3d c4 e4 df bd 33 c2 53 3e
       -0.0013690407 0.05370977 -0.109323055 0.2067955
000070 69 9f f6 3e 20 ce e2 bd 2a 9c 38 bd b4 95 c1 bc
       0.48168495 -0.110744715 -0.045070805 -0.023630954
000080 35 15 7e 3e 84 c2 6a 3d 4f ce 8c 3e 6f 10 cd bc
       0.24812777 0.05731441 0.2750115 -0.02503225
000090 95 8f 24 3e ee 78 1c be f2 8b b6 3e dc 94 fe bd
       0.16070397 -0.15280506 0.35653645 -0.124307364
0000a0 73 fa 5e 3e 13 23 5d be cc a7 9a 3e 14 ad 79 3e
       0.21775226 -0.21595411 0.30206144 0.2438243
0000b0 bd 05 8e 3c af 3b 3f 3e 61 3d 5e 3d e1 d2 05 3e
       0.01733672 0.18675111 0.054257754 0.13068725
0000c0 e6 3f 78 3e c7 9e 74 3e 97 5b 31 3e 49 46 c4 3d
       0.24243125 0.23888694 0.17320095 0.09583718
0000d0 d3 ce ab be 69 b6 74 3d 24 69 da be 36 31 4e 3e
       -0.33556232 0.059744272 -0.4265834 0.2013596
0000e0 ea 8f 52 be 74 ff 30 3e cd d3 6e 3c b1 ad 3f 3e
       -0.20562711 0.17284948 0.014576864 0.18718602
0000f0 d9 f5 0d 3e 8a 63 3b be 48 98 86 be 7c 12 8c 3d
       0.13863315 -0.1829969 -0.26288056 0.06839463
000100 9a 01 04 3e 78 bf 49 3c a5 ce 85 be ee ae 89 3e
       0.12891236 0.012313716 -0.2613422 0.26891273
000110 c1 b4 e2 3d 16 e0 59 bd 02 55 a7 be 03 10 47 bc
       0.11069632 -0.05319222 -0.32682043 -0.012149814
000120 79 a4 1c be 22 ae 26 3d aa fa ba 3d 64 54 ee bb
       -0.15297116 0.04069341 0.091298416 -0.0072732437
000130 c8 f9 91 bd 38 63 ef 3e 20 4b 10 bd a4 ef b3 3d
       -0.0712772 0.46755385 -0.035227895 0.08785942
000140 80 a8 ab 3e 7a f7 bc 3d fb 9c 8e be 83 ad 6c be
       0.33526993 0.0922689 -0.27854142 -0.23113064
000150 c7 21 2c 3e 86 c8 25 3d 43 cd a8 3e 4d 43 8f 3e
       0.1680976 0.040474437 0.32969102 0.27981034
000160 93 41 76 3d 5a 34 2d be d3 53 88 be 78 31 dc 3d
       0.06012113 -0.16914502 -0.26626453 0.10751623
000170 2c 4d 2b 3e 0a 5f c5 bc a6 82 c3 3d 08 86 ae 3d
       0.16728657 -0.02409317 0.095464036 0.08521658
000180 24 f4 8f 3e c5 b9 11 be 49 a9 5f 3e 5c ae de bd
       0.28115952 -0.14231022 0.21841921 -0.108731
000190 06 23 51 3d c6 d7 98 bd 84 c9 c9 3e a3 c9 a0 bd
       0.05105879 -0.074630305 0.39411557 -0.07850959
0001a0 2e ee 6a 3e d8 fb 04 be e2 cf 62 3e bd f2 07 3e
       0.22942421 -0.12986696 0.22149613 0.13276191
0001b0 74 7a 00 3e 55 d8 52 3d 85 0e 24 3c fe a9 81 3e
       0.12546712 0.05147584 0.010013227 0.25325006
0001c0 02 d0 a7 3e 20 96 8c 3e 44 eb 8a 3e c1 7e 23 3d
       0.32775885 0.27458286 0.27132618 0.039915804
0001d0 cd c7 64 be 6a a4 36 3e 20 1f bd be fd 7c 16 3e
       -0.22341843 0.17836156 -0.3693781 0.14696117
0001e0 1e 87 19 bd de 18 5d 3e 6a cd 4f be e8 7f 3a 3e
       -0.037482373 0.21591517 -0.20293203 0.18212855
0001f0 9f 35 24 3c c2 93 dc bd 92 1a 14 be 7a c4 b2 3c
       0.01002255 -0.1077037 -0.14463261 0.021822203
000200 03 3b e7 3d 48 98 b4 3d 63 f9 12 ba 9a 23 47 bd
       0.112905525 0.08818108 -0.00056066195 -0.048617937
000210 30 0a 04 bc 0d 6b fe bd 9f 9a 27 3e bb 42 95 bd
       -0.0080590695 -0.12422762 0.16367577 -0.072881185
000220 13 c7 d9 bd 81 28 4c 3e 59 01 17 be 65 07 8c 3d
       -0.106336735 0.19937326 -0.14746608 0.06837348
000230 ae d7 a8 3d cb 11 39 3d 15 dc 48 bc 58 69 26 3c
       0.08244263 0.045182984 -0.012259503 0.010156952
000240 75 e5 a9 3d b4 a9 b6 bd 9b 1c 00 bd b2 3a a1 3d
       0.082957186 -0.08919087 -0.03127728 0.07872523
000250 c0 8d a1 3d 66 8c c7 bd 70 fd 66 bb 7b 32 1e be
       0.07888365 -0.09743576 -0.0035246275 -0.15448944
000260 5c ab df 3d f2 20 22 3d 2f 97 09 3e 1f 14 55 bd
       0.10921356 0.0395822 0.13436578 -0.052021142
000270 b1 5c f2 bc 32 f1 91 bd 07 b3 60 bd ee 3f 0c 3f
       -0.029585214 -0.071260825 -0.054858234 0.5478505
000280 2e cb 7f 3d c5 48 25 3e 90 75 59 be fc 05 79 bd
       0.062449627 0.1614104 -0.21236253 -0.060796723
000290 38 4e 46 3c 0e 29 3e 3d 72 89 07 bd f6 31 03 be
       0.01210361 0.04642587 -0.033090062 -0.12812027
0002a0 0e 37 ab bd ae b0 f6 3d 23 98 e1 bd a4 8e 95 bd
       -0.0836011 0.12045418 -0.11015346 -0.07302597
0002b0 95 38 75 bd 3a c7 5b be 20 4c a5 3d ce 23 9b 3b
       -0.059868414 -0.21462718 0.0807116 0.004734493
0002c0 6f 9d 22 bd 26 36 2b be a5 03 2d bd 17 11 a0 bd
       -0.03970092 -0.16719875 -0.042239804 -0.0781576
0002d0 ee 41 1b bd 7c e2 79 bc 73 f2 14 be bd 52 13 be
       -0.037904672 -0.015251752 -0.14545612 -0.14387031
0002e0 0f 7e 8f bd 9b dc ca bd 4b 65 09 3b 1d f8 4f be
       -0.07006466 -0.099053584 0.0020964916 -0.20309491
0002f0 ee af 2c 3e aa 26 20 3e 5c a8 40 bd 16 36 2b be
       0.16863987 0.15639749 -0.04703556 -0.16719851
000300 24 b0 13 bc af a6 89 bb b0 bb aa bd eb cd 43 3e
       -0.009014163 -0.0042007784 -0.0833658 0.1912152
000310 fd 6b 3f 3e 6b e2 0f be 06 e2 94 be b8 ca 04 3e
       0.18693538 -0.14051215 -0.29078692 0.12967956
000320 2a 7a da bd af 01 12 be 9d 18 06 3e 3b 77 5f be
       -0.10667832 -0.14258455 0.13095327 -0.21822827
000330 b5 84 e2 bd a9 02 16 3f eb 9d d4 3d 53 06 71 3e
       -0.11060468 0.5859781 0.10381683 0.23537569
000340 af c7 65 3e 6e 7a a2 3e 71 17 b4 be 2c fd 89 be
       0.22439454 0.3173403 -0.35174134 -0.26950967
000350 6c 21 d0 3e fd 06 75 3e 81 6b 85 3e 5d 61 37 3e
       0.406505 0.23928447 0.2605858 0.17908235
000360 51 dc 98 bd 35 74 5b bd 2e b3 01 be b6 72 fc 3d
       -0.07463897 -0.05357762 -0.12666008 0.12326567
000370 ea 9b 7b 3e df 40 e8 bd ab d5 cf 3d ff 4a 07 3e
       0.24571195 -0.11340498 0.10148176 0.13212202
000380 e0 72 26 3e de 16 a7 3d a5 fd 98 3e 03 3a 3b 3c
       0.16254759 0.081586584 0.29881015 0.011427405
000390 08 08 52 3e b7 56 4d be 97 77 f0 3d e1 c0 f9 bd
       0.20510876 -0.2005261 0.1174156 -0.12194992
0003a0 da ab 76 3e fb bd bf bd b4 65 d7 3e 83 04 39 3e
       0.24088994 -0.09362408 0.4206978 0.18068127
0003b0 a2 b4 23 3e c9 b0 e7 3d c4 1d 8c 3d 96 64 82 3e
       0.15986875 0.11313016 0.06841615 0.25467366
0003c0 11 59 76 3e 27 43 1e 3e 4f a8 19 3e 2b 6a 34 bd
       0.24057414 0.15455304 0.15005611 -0.044046562
0003d0 5e 1e 34 be 0f eb 7c 3e 09 28 c7 be cb 7b b7 3d
       -0.17589709 0.24699043 -0.38897732 0.089591585
0003e0 83 7e 5e be 47 5e 44 3e 1d ed 62 be 52 05 43 3e
       -0.21727948 0.19176589 -0.22160764 0.19044998
0003f0 a1 c7 96 3c bc 1e 60 be 02 dd 9d be 23 88 27 3e
       0.018405737 -0.21886724 -0.30832678 0.16360526

sage.2.lin_root.bias f4 [64]
000000 3b 5a 80 bf 33 7b 7a bf ba b8 d9 bd 45 5f 61 bf
       -1.0027536 -0.9784424 -0.10630937 -0.88035995
000010 d7 1b 5f 3d 20 37 b8 be b3 6d 3f be 30 f9 ea bd
       0.05446991 -0.35979557 -0.1869419 -0.1147331
000020 5f 9d 86 bf 06 70 f8 bd f5 01 77 be 11 53 25 3e
       -1.0516776 -0.12130742 -0.2412184 0.16144969
000030 38 5d e8 bd b4 b7 64 bf 04 e4 aa bf c1 ad 9a be
       -0.11345905 -0.8934281 -1.3350835 -0.3021069
000040 5e 15 73 bd ca 5f 93 be 4c 9d 33 3d 22 e4 ce be
       -0.05934655 -0.2878402 0.043851182 -0.40408427
000050 c8 8a 27 be 36 8c c0 bf 71 90 df bd 98 cd 74 bf
       -0.16361535 -1.5042789 -0.10916222 -0.9562621
000060 34 b6 80 be f8 ed 8b bf 9f dd ab bf f6 7e 31 be
       -0.2513901 -1.0931997 -1.3427008 -0.17333588
000070 13 b9 18 be 88 cf 08 3b cb f7 31 be ba 4c 1f be
       -0.1491435 0.0020875651 -0.17379682 -0.15556613
000080 a8 6f 4b bf db 09 2e bd db 4b 9d be 0d 2b 86 bf
       -0.7946725 -0.042489868 -0.30721936 -1.0481888
000090 5b f5 9b bf f0 db 81 be 14 78 8b bf 7c d2 42 be
       -1.2184252 -0.25363111 -1.089602 -0.19025606
0000a0 2f ed 3c be b4 57 1c be 04 6b cf be 89 e0 57 bf
       -0.18449853 -0.15267831 -0.40511334 -0.8432699
0000b0 8e ec b3 3d 24 68 77 bf c4 f1 64 bf e0 11 70 bd
       0.087853536 -0.9664328 -0.89431405 -0.058610797
0000c0 8b c3 3c 3d 03 0e 52 bf 69 5d fa bd 01 5d e1 bc
       0.04608492 -0.8205263 -0.12224848 -0.027510168
0000d0 d7 fe 8b be 36 58 82 bf 5b 57 52 bf e0 0a 99 be
       -0.27342865 -1.018317 -0.82164544 -0.2989111
0000e0 eb b1 40 be 09 4c 93 bf 02 2e 34 3c ef b7 82 bf
       -0.1881787 -1.1507579 0.010997297 -1.0212382
0000f0 30 a5 2d bd f1 80 62 bc 06 00 21 3e ad 20 7f bf
       -0.042393863 -0.013824687 0.15722665 -0.99659234

batch_norm.0.weight f4 [400]
000000 c3 3b cb 3f 26 4c c3 3f 4c 15 be 3f 33 b1 bc 3f
       1.5877613 1.5257614 1.4850249 1.4741577
000010 b6 72 bb 3f 2e a8 bb 3f f6 b2 ba 3f 3c 79 ba 3f
       1.4644382 1.4660699 1.4585865 1.4568248
000020 12 bf ba 3f 85 ee ba 3f bf fb b9 3f 02 0b bc 3f
       1.458956 1.460404 1.4529952 1.4690859
000030 99 00 bb 3f ca 66 ba 3f 66 b5 bb 3f 5e 6f bc 3f
       1.4609557 1.4562619 1.4664733 1.4721487
000040 e8 76 bc 3f 4a 41 bb 3f 82 e0 bc 3f cf 42 bc 3f
       1.4723787 1.46293 1.4756014 1.4707888
000050 c2 ea bc 3f af 79 bd 3f c2 59 bd 3f f0 72 bd 3f
       1.4759142 1.480276 1.4793017 1.4800701
000060 30 81 bd 3f 86 ae be 3f ad 29 bd 3f 39 a2 bd 3f
       1.480505 1.489701 1.4778343 1.4815131
000070 3e 9e bd 3f a7 6e be 3f ff 51 bd 3f f1 fc bd 3f
       1.4813917 1.4877518 1.4790648 1.4842817
000080 7f db bf 3f 94 11 bf 3f 37 69 be 3f c5 4d be 3f
       1.498886 1.492724 1.4875859 1.4867483
000090 c7 32 bf 3f 15 6f bf 3f 91 25 bf 3f b3 ae be 3f
       1.4937371 1.4955775 1.4933339 1.4897064
0000a0 a9 80 c0 3f 52 06 c0 3f 4a f1 c0 3f 3d 85 c0 3f
       1.5039264 1.5001929 1.5073636 1.5040661
0000b0 6a 53 bf 3f 89 ed bf 3f 0b 19 bf 3f d3 c7 be 3f
       1.4947331 1.4994365 1.4929518 1.4904732
0000c0 c1 19 bf 3f 07 4f c0 3f 27 15 c0 3f 52 10 c0 3f
       1.4929734 1.5024117 1.5006455 1.500498
0000d0 b6 f2 c0 3f 04 e1 c0 3f 61 cc bf 3f 12 cc bf 3f
       1.507407 1.5068669 1.4984246 1.4984152
0000e0 4f 3d c0 3f 07 e4 c0 3f 2a 59 c1 3f cc 14 c2 3f
       1.501871 1.5069588 1.5105336 1.5162597
0000f0 47 3c c1 3f 44 f3 c0 3f 9a da bf 3f e7 f5 bf 3f
       1.509652 1.5074239 1.4988587 1.4996918
000100 35 d2 c1 3f 0d 6a c1 3f 6b 88 c0 3f 82 48 c1 3f
       1.5142275 1.5110489 1.5041631 1.5100253
000110 c5 e0 c0 3f b8 45 c1 3f 57 94 c0 3f f2 6e bf 3f
       1.5068594 1.5099401 1.504527 1.4955733
000120 c6 9f c0 3f 5c ec bf 3f 31 70 c0 3f 12 c6 bf 3f
       1.5048759 1.4994006 1.5034238 1.4982321
000130 9a c0 c0 3f 3b f1 c0 3f f6 b3 c0 3f 64 e2 c0 3f
       1.5058777 1.5073618 1.505492 1.5069089
000140 c6 b6 c0 3f 56 71 c0 3f d4 9d c1 3f c2 6a c0 3f
       1.5055778 1.5034587 1.512629 1.503258
000150 3b 24 c1 3f 3b 3e c1 3f 53 3a c1 3f b3 b4 bf 3f
       1.5089182 1.5097116 1.5095924 1.497702
000160 52 8f c1 3f d7 ea c0 3f ad 00 c2 3f 96 df c0 3f
       1.5121863 1.5071667 1.5156456 1.5068233
000170 33 4e c0 3f 67 ef c0 3f 46 66 c2 3f b8 32 c1 3f
       1.5023865 1.507306 1.5187461 1.5093603
000180 49 c1 c1 3f 82 f2 c1 3f 46 bb c1 3f c0 44 c2 3f
       1.5137111 1.5152133 1.5135276 1.5177231
000190 4f 7d c3 3f 7a c1 c2 3f 05 6c c2 3f 82 21 c3 3f
       1.5272616 1.5215294 1.5189215 1.5244601
0001a0 cc 3d c3 3f a5 75 c3 3f 62 f4 c3 3f a1 cf c3 3f
       1.5253234 1.5270277 1.5308955 1.5297738
0001b0 36 56 c4 3f 9b d2 c3 3f 09 df c3 3f 2a 89 c3 3f
       1.533881 1.5298647 1.530244 1.5276234
0001c0 c2 ea c4 3f db 0e c6 3f 11 cc c4 3f df 3a c5 3f
       1.5384142 1.5473284 1.5374776 1.5408591
0001d0 71 0f c6 3f 43 a3 c5 3f 8c cd c5 3f 16 19 c6 3f
       1.5473462 1.5440449 1.5453353 1.5476406
0001e0 1b 4c c6 3f b9 d6 c5 3f 1e 87 c5 3f ed b8 c6 3f
       1.5491976 1.5456153 1.543186 1.5525185
0001f0 f2 d5 c7 3f 54 26 c8 3f fb a5 c8 3f 4a 1b c9 3f
       1.5612166 1.5636697 1.5675653 1.5711453
000200 27 1d c9 3f 98 87 c9 3f ed f3 c8 3f e2 3a c8 3f
       1.5712022 1.5744505 1.569944 1.564297
000210 01 be c8 3f 15 84 c8 3f 7e 89 c9 3f f0 67 c9 3f
       1.5682985 1.5665308 1.5745084 1.5734844
000220 ca 16 ca 3f 58 37 ca 3f 89 37 cb 3f 1c d8 ca 3f
       1.5788205 1.579814 1.5876323 1.5847201
000230 f3 85 cb 3f ee fb ca 3f 8f df cb 3f 32 ef cb 3f
       1.5900253 1.5858133 1.59276 1.5932372
000240 b4 44 cc 3f 3b bf cc 3f 50 86 cd 3f 71 9b ce 3f
       1.5958467 1.5995859 1.6056614 1.6141187
000250 99 1a ce 3f 4b f2 ce 3f 9c c7 ce 3f a4 0d d0 3f
       1.6101867 1.6167692 1.6154666 1.6254163
000260 1b ec cf 3f 7d ae d0 3f fa 82 cf 3f 94 e2 d0 3f
       1.6243929 1.630325 1.6211846 1.6319146
000270 86 99 d0 3f 68 e0 d0 3f 5d aa d0 3f 90 a5 d1 3f
       1.6296852 1.6318483 1.6301991 1.6378651
000280 22 2d d1 3f b5 9c d1 3f 5b 38 d2 3f a1 02 d1 3f
       1.6341898 1.6375948 1.6423448 1.6328927
000290 32 62 d2 3f 13 6f d2 3f f4 39 d4 3f cf 13 d4 3f
       1.6436217 1.6440147 1.6580186 1.6568545
0002a0 72 aa d4 3f 38 26 d4 3f 42 09 d7 3f 61 2c d8 3f
       1.6614516 1.6574163 1.67997 1.6888543
0002b0 e9 16 d8 3f b0 7b d7 3f 0e e2 d8 3f 68 bc d8 3f
       1.6881992 1.6834621 1.6943986 1.6932497
0002c0 24 ab d8 3f cc ff d7 3f 76 16 d9 3f 05 52 d9 3f
       1.6927228 1.6874938 1.695998 1.6978155
0002d0 65 1f da 3f 76 1d da 3f 40 19 da 3f 8d b3 da 3f
       1.7040831 1.7040241 1.7038956 1.7086045
0002e0 6d 73 db 3f 1d d9 db 3f 68 14 dd 3f 8b f0 dc 3f
       1.71446 1.7175633 1.7271852 1.7260908
0002f0 a8 43 dd 3f 4c 6b dd 3f 48 01 dd 3f be 6f de 3f
       1.7286272 1.729837 1.7266016 1.7377851
000300 9d 95 de 3f 81 69 de 3f ea 16 de 3f 45 4a df 3f
       1.7389408 1.7375947 1.7350743 1.744454
000310 29 34 df 3f a1 fe de 3f f0 5d e1 3f 3d 95 e1 3f
       1.7437793 1.7421457 1.7606792 1.7623669
000320 46 92 e3 3f 38 cb e2 3f 37 27 e3 3f 0f be e2 3f
       1.7779014 1.7718267 1.7746342 1.7714251
000330 26 bc e2 3f f2 95 e3 3f 47 32 e2 3f 95 ba e2 3f
       1.7713668 1.7780135 1.7671593 1.771319
000340 34 3a e3 3f da c3 e4 3f c0 05 e7 3f 39 84 e7 3f
       1.7752137 1.7872269 1.804863 1.8087226
000350 8b 7c e6 3f b2 cd e5 3f 53 f0 e7 3f f7 28 e8 3f
       1.8006757 1.7953398 1.8120216 1.8137501
000360 fd f5 e6 3f a7 e9 e6 3f da 86 e8 3f 19 94 e8 3f
       1.804382 1.8040055 1.8166153 1.8170196
000370 5f e2 e7 3f ac ec e9 3f 43 10 ea 3f 9c 00 e9 3f
       1.8115958 1.8275352 1.8286213 1.8203311
000380 05 a7 ea 3f f6 fc e9 3f 37 27 eb 3f 01 d8 ec 3f
       1.833222 1.8280323 1.8371342 1.8503419
000390 fd f8 eb 3f 69 17 ec 3f 20 9b ec 3f 96 b9 ed 3f
       1.843536 1.8444644 1.848484 1.8572261
0003a0 7e ef ee 3f 2a dc f0 3f 0b 74 f0 3f 7e 20 f0 3f
       1.8666837 1.8817189 1.8785414 1.8759916
0003b0 6c 8f f2 3f ed 5f f0 3f ba 6b f0 3f 54 83 f0 3f
       1.8950019 1.8779274 1.8782876 1.8790078
0003c0 42 99 f2 3f 24 e1 f2 3f 85 d2 f1 3f b9 38 f1 3f
       1.895302 1.8974957 1.889237 1.8845435
0003d0 0d 97 f3 3f 26 f8 f2 3f dc db f1 3f bf 72 f4 3f
       1.9030472 1.8981979 1.8895221 1.9097518
0003e0 3b 2e f5 3f e3 69 f4 3f bd f8 f5 3f 1e d2 f5 3f
       1.9154733 1.9094814 1.9216534 1.9204748
0003f0 47 2f f7 3f fe 2b f7 3f e6 36 f7 3f ec 91 f7 3f
       1.9311303 1.93103 1.9313629 1.9341407

batch_norm.0.bias f4 [400]
000000 8c 99 fa bd 41 e5 16 be d9 16 25 be 93 e0 2c be
       -0.12236318 -0.14735891 -0.16121997 -0.16882543
000010 6f 7a 33 be 85 83 38 be c1 d9 3a be 5a f7 3e be
       -0.17527173 -0.1801892 -0.18247129 -0.18649045
000020 ee 26 40 be 51 ca 43 be dc f6 43 be 43 48 47 be
       -0.1876485 -0.19120146 -0.19137138 -0.1946116
000030 b7 7f 47 be 4c a0 49 be 3b 89 4d be 43 8c 4a be
       -0.19482313 -0.19690055 -0.2007188 -0.19780068
000040 c7 95 4d be d5 cb 4e be f8 e3 4f be 44 2f 50 be
       -0.20076667 -0.20194943 -0.20301807 -0.2033053
000050 3f 6e 52 be 8d a3 50 be 1a 6f 53 be 79 7d 52 be
       -0.20549868 -0.2037489 -0.2064785 -0.20555677
000060 5b 32 53 be 9f 52 56 be 6d c1 53 be 00 db 54 be
       -0.20624678 -0.20929955 -0.20679255 -0.20786667
000070 5a 7e 55 be 1a 1c 52 be 58 bb 56 be fe 84 58 be
       -0.2084898 -0.20518532 -0.20969903 -0.21144482
000080 53 6b 56 be 4c 4d 58 be 7e c7 54 be 19 01 58 be
       -0.20939378 -0.21123236 -0.20779225 -0.21094169
000090 b0 36 5a be 8e 06 59 be 46 1f 5a be 96 65 57 be
       -0.21309924 -0.21193907 -0.21300992 -0.21034846
0000a0 ab 7f 59 be a6 0c 57 be 2e 79 5a be aa 61 56 be
       -0.21240108 -0.21000919 -0.21335289 -0.20935693
0000b0 2c 53 5a be 2f d9 59 be ce 4d 5b be f5 9e 5b be
       -0.2132079 -0.21274255 -0.21416399 -0.21447356
0000c0 f1 52 58 be 76 bd 5b be d8 d9 58 be b4 b3 57 be
       -0.2112539 -0.21458992 -0.21176851 -0.21064645
0000d0 b9 88 5e be 28 32 59 be f4 9a 5a be 8a ef 59 be
       -0.21731843 -0.2121054 -0.21348172 -0.21282783
0000e0 ad d1 58 be 86 37 5b be 0f 0d 5b be 04 06 5c be
       -0.21173735 -0.214079 -0.213917 -0.2148667
0000f0 f0 0e 5b be ed 0d 5a be 8a f7 5c be f3 42 59 be
       -0.21392417 -0.21294375 -0.21578804 -0.21216945
000100 f2 1a 5c be c4 6e 5a be 8a e1 5b be f5 e1 5b be
       -0.21494654 -0.21331316 -0.21472755 -0.21472915
000110 f9 19 5d be 67 70 5a be a3 c0 55 be 9b 10 5a be
       -0.21591939 -0.2133194 -0.20874266 -0.21295397
000120 62 de 5a be 60 ee 58 be 17 a5 58 be 1a 56 5b be
       -0.21373895 -0.21184683 -0.21156727 -0.21419564
000130 92 36 5d be 7b b8 59 be c1 d4 58 be 5b c8 5a be
       -0.21602848 -0.2126178 -0.21174909 -0.21365492
000140 4c 64 5a be f2 40 58 be a8 b8 59 be 2f e2 57 be
       -0.21327323 -0.21118525 -0.21261847 -0.21082376
000150 7b 27 57 be eb b0 56 be fa 3a 57 be c1 29 56 be
       -0.21011154 -0.20965926 -0.21018592 -0.20914365
000160 1f 51 58 be 42 cb 56 be cf 38 56 be 1f 55 56 be
       -0.21124695 -0.20975974 -0.20920108 -0.20930909
000170 7a ac 55 be e9 6e 54 be 9f 28 54 be 19 d7 55 be
       -0.20866576 -0.20745434 -0.2071862 -0.20882834
000180 a3 ef 57 be 50 28 55 be 3d cd 55 be 4f 1d 54 be
       -0.21087508 -0.20816159 -0.20879073 -0.20714305
000190 a2 8e 52 be da a1 54 be bf ee 52 be 52 14 52 be
       -0.20562223 -0.20764866 -0.20598887 -0.20515564
0001a0 b0 c4 50 be 0d fc 51 be 59 d2 4f be b9 e8 4e be
       -0.2038753 -0.20506306 -0.20295085 -0.20205964
0001b0 1e e2 4b be 02 d6 4e be cd d2 4d be e8 7f 4c be
       -0.19910476 -0.20198825 -0.20099945 -0.19970667
0001c0 d1 88 4a be 54 11 4a be e4 13 4d be 7d e9 48 be
       -0.19778754 -0.19733173 -0.20027119 -0.19620319
0001d0 b8 aa 4a be 04 26 4a be 88 e1 48 be c3 1a 48 be
       -0.19791687 -0.19741064 -0.19617283 -0.19541459
0001e0 7f cc 47 be 34 b6 47 be 64 fa 43 be 41 44 43 be
       -0.19511603 -0.19503099 -0.19138485 -0.19069006
0001f0 fc fc 46 be 3f 2d 45 be e6 78 44 be 5b f4 3f be
       -0.19432443 -0.19255541 -0.19186744 -0.18745558
000200 58 6d 44 be ab 32 41 be 80 6f 40 be 28 46 40 be
       -0.19182336 -0.18866985 -0.18792534 -0.18776762
000210 ff 9a 3e be 31 8f 40 be e4 ee 3c be 9e c3 3b be
       -0.18613814 -0.18804623 -0.18450505 -0.18336341
000220 63 7e 3c be b4 18 38 be 3c 39 39 be fe 1d 39 be
       -0.18407588 -0.17978173 -0.1808824 -0.18077847
000230 49 53 3b be 86 31 35 be 75 07 36 be 73 f3 35 be
       -0.1829349 -0.17694673 -0.17776282 -0.1776865
000240 d9 2f 35 be d6 32 31 be d0 4e 33 be 97 0a 32 be
       -0.17694034 -0.17304549 -0.17510533 -0.17386852
000250 69 10 31 be e1 63 30 be 2e f1 31 be 98 0a 2b be
       -0.17291416 -0.17225601 -0.17377159 -0.1670326
000260 1f 14 2d be 47 9c 2a be 3f e5 2a be 88 cb 28 be
       -0.16902207 -0.16661178 -0.16689013 -0.16483891
000270 77 fb 27 be 20 2a 26 be 2e 43 25 be 66 56 27 be
       -0.1640452 -0.16227007 -0.16138908 -0.16341552
000280 86 fc 25 be 71 4a 21 be 3e 83 21 be 97 2f 20 be
       -0.16209611 -0.15751053 -0.15772721 -0.15643154
000290 d6 4a 1d be 83 fa 1c be b0 fe 1b be 62 3b 1e be
       -0.15360579 -0.15329938 -0.15233874 -0.1545234
0002a0 d1 e3 1c be e3 e4 1a be 48 8e 17 be ae 07 16 be
       -0.1532128 -0.15126376 -0.1480037 -0.14651367
0002b0 34 0a 14 be ab 5d 11 be 63 9c 14 be d9 fe 0d be
       -0.14457017 -0.14195888 -0.14512782 -0.13866748
0002c0 ba 61 0c be 80 f7 0f be a1 2c 0c be fa 20 0f be
       -0.13709155 -0.14059258 -0.136889 -0.13977423
0002d0 35 b9 0a be 54 c3 0c be 64 8b 09 be 9e 62 06 be
       -0.13547213 -0.13746387 -0.1343208 -0.13123557
0002e0 81 ca 07 be b7 f6 05 be a1 b8 03 be 87 c5 03 be
       -0.13260843 -0.13082395 -0.12863399 -0.1286832
0002f0 6b 9a 03 be cf 3b 02 be 96 71 fe bd 5f 27 fc bd
       -0.12851875 -0.12718128 -0.124240085 -0.12312197
000300 40 87 fd bd d9 f6 f5 bd 73 d6 f6 bd 2e 9b f4 bd
       -0.123793125 -0.12009973 -0.12052622 -0.11943661
000310 79 f2 f6 bd 55 d7 f1 bd 43 70 ed bd b3 c6 ee bd
       -0.12057967 -0.118086495 -0.11593678 -0.116589926
000320 00 68 e2 bd 27 ed e4 bd fc 2b e0 bd ba 66 db bd
       -0.11054993 -0.11178046 -0.10945889 -0.10712953
000330 c3 5d db bd 34 f8 de bd 11 eb db bd 57 73 d7 bd
       -0.10711243 -0.10887185 -0.10738195 -0.10520046
000340 d8 ee d9 bd c2 2c d5 bd 46 7b d5 bd 1b 43 cb bd
       -0.10641259 -0.104089275 -0.10423903 -0.09924909
000350 ae bd ce bd 99 56 ce bd 99 5d c9 bd 2b 24 c7 bd
       -0.10094772 -0.10075111 -0.098323055 -0.09723695
000360 97 52 be bd ce bf c2 bd ee 4f bc bd 0a ac b9 bd
       -0.092930965 -0.0950924 -0.09194933 -0.09066017
000370 c0 f7 bc bd b0 5a ad bd 82 02 b5 bd 05 86 b4 bd
       -0.09226942 -0.08464563 -0.08838369 -0.08814625
000380 e3 6c aa bd 21 93 a6 bd 6d 8c a4 bd a1 4f a2 bd
       -0.0832155 -0.08133531 -0.080345966 -0.07925344
000390 63 ef a5 bd 21 a3 9e bd 13 9f 9d bd a2 ae 93 bd
       -0.081023 -0.07745958 -0.076963566 -0.07211043
0003a0 9a 91 98 bd a4 27 99 bd e3 36 95 bd 7c 01 9b bd
       -0.07449646 -0.07478264 -0.072858594 -0.075686425
0003b0 ac c7 87 bd fd 89 87 bd 03 56 87 bd 71 1a 83 bd
       -0.06629881 -0.06618116 -0.06608202 -0.06401528
0003c0 0c ad 82 bd 43 39 85 bd fb a2 7c bd 0b 22 80 bd
       -0.06380662 -0.065050624 -0.061678868 -0.06256493
0003d0 68 1e 7e bd e3 db 70 bd 98 95 74 bd 7c 69 5e bd
       -0.062040716 -0.05880345 -0.059712976 -0.054299816
0003e0 3a 2a 5d bd c8 93 49 bd c7 44 4f bd 28 45 4b bd
       -0.05399535 -0.0492132 -0.0506027 -0.0496265
0003f0 72 23 40 bd 02 40 31 bd f5 d6 31 bd 82 9b 39 bd
       -0.046908803 -0.043273933 -0.04341789 -0.04531432
