Saves/ecal_ep_60.pth (torch, 130018 bytes, 38 tensors)

sage.0.lin_rel.weight f4 [16, 3]
-0.80515814 -0.13136688 -0.38457185 0.30923325 -0.7091405 -0.24967967 1.248692 0.012012095
-0.54901916 -0.8372947 0.1290784 -0.20901716 -0.9574035 -0.30281428 -0.3209039 0.063148394
0.8602865 -0.25403222 0.37975138 0.94940263 -0.62491953 1.0136936 0.2032374 -0.38886422
-0.07267118 -0.64931583 -0.29738405 -1.2257086 -0.8689415 -1.4616208 -0.876546 0.44375354
-0.41103557 0.23458321 -0.9682281 -0.33005977 0.005738997 0.024901811 0.610774 0.8064153
-0.0019520259 -0.3752119 0.037011024 -0.011364741 0.16033578 -0.051024817 0.8909858 -0.5276566
00000000: d81e 4ebf 0a85 06be 9ae6 c4be d253 9e3e
00000010: 3b8a 35bf 07ac 7fbe 24d5 9f3f 61ce 443c
00000020: 858c 0cbf f258 56bf 212d 043e 9808 56be
00000030: 6518 75bf 790a 9bbe 844d a4be f253 813d
00000040: bc3b 5c3f 8310 82be c66e c23e 0d0c 733f
00000050: bafa 1fbf b6c0 813f 771d 503e 3619 c7be
00000060: a1d4 94bd 9039 26bf b942 98be 05e4 9cbf
00000070: f372 5ebf 6416 bbbf 5265 60bf aa33 e33e
00000080: 4173 d2be 9536 703e ccdd 77bf 98fd a8be
00000090: 320e bc3b e2fe cb3c af5b 1c3f 3c71 4e3f
000000a0: 1fdb ffba c61b c0be df98 173d 2e33 3abc
000000b0: 102f 243e 66ff 50bd a517 643f 8114 07bf

sage.0.lin_root.weight f4 [16, 3]
0.74046296 0.124920845 0.3972994 -0.2761725 0.6707359 0.3224694 -1.1398319 0.014676747
0.21418224 0.7608975 -0.09483299 0.35068467 0.8563489 0.28896207 0.19346145 -0.04902856
-0.81792045 0.33971226 -0.3409639 -0.8717369 0.24554704 -0.9143719 -0.13237096 0.23568094
0.074746974 0.65500295 0.46106178 0.02160497 -0.47817734 0.9368062 0.7924625 -0.35488328
0.11498296 -0.20319009 0.9164626 0.3298634 0.009414617 0.06989594 0.031122744 -0.72502404
0.0069641527 0.32173783 -0.016861627 0.010900554 -0.2786076 0.057828553 -0.86724097 0.3008877
00000000: fb8e 3d3f 80d6 ff3d d46a cb3e 7b66 8dbe
00000010: 59b5 2b3f b61a a53e 03e6 91bf bd76 703c
00000020: 9752 5b3e 2eca 423f cc37 c2bd f18c b33e
00000030: ae39 5b3f d6f2 933e c21a 463e 2cd2 48bd
00000040: 3c63 51bf c4ee ad3e d292 aebe 262a 5fbf
00000050: af70 7b3e 4714 6abf 418c 07be 5856 713e
00000060: f114 993d 46ae 273f 4a10 ec3e e8fc b03c
00000070: a9d3 f4be 88d2 6f3f d3de 4a3f 43b3 b5be
00000080: 307c eb3d 1011 50be 4b9d 6a3f dbe3 a83e
00000090: c43f 1a3c 9a25 8f3d 20f5 fe3c 2d9b 39bf
000000a0: 8c33 e43b d2ba a43e 6521 8abc 3d98 323c
000000b0: a8a5 8ebe a2dd 6c3d 8103 5ebf f40d 9a3e

sage.0.lin_root.bias f4 [16]
-0.046121947 -0.10548458 -0.15217686 -0.10806766 -0.026456757 -0.13568273 -0.10529455 -0.14517267
-0.10703456 -3.1791074 -0.044626057 -0.0963211 -0.10370315 -0.1079796 0.040332988 -0.06313093
00000000: 5eea 3cbd 4d08 d8bd 40d4 1bbe 9452 ddbd
00000010: d7bb d8bc 6af0 0abe aba4 d7bd 25a8 14be
00000020: ef34 dbbd 7f76 4bc0 d0c9 36bd ff43 c5bd
00000030: 5162 d4bd 6924 ddbd 3434 253d ca4a 81bd

sage.1.lin_rel.weight f4 [64, 16]
-0.01742064 0.09110714 0.10919588 0.01297371 -0.052973345 -0.006409646 0.11874428 0.061811645
0.0009996892 0.2955052 0.23645337 -0.03534718 -0.0005995814 0.074874975 0.33859155 0.160888
-0.48179147 -0.47582492 -0.25718552 -0.3769054 -0.5303299 -0.06840586 -0.44796956 -0.4472692
-0.49777922 -0.35320708 -0.31003517 -0.12477476 -0.07800498 -0.47462267 -0.37584653 -0.5149174
-0.055660125 -0.033663172 0.19082868 -0.01626293 -0.0036128268 -0.054174103 0.1105095 0.20073976
-0.120511904 0.122291796 0.13785626 0.14042503 -0.0068253777 -0.00046426267 0.32746834 0.05234142
-0.07404127 -0.08327705 -0.07862386 -0.07037989 -0.08046132 -0.054247547 -0.0894344 -0.08964033
-0.04627568 -0.11121813 -0.08268534 -0.07483335 -0.016934732 -0.07658474 -0.09902478 -0.079016685
-0.077594556 -0.078468025 -0.07700545 -0.06420297 -0.08625227 -0.05512407 -0.08710478 -0.08946009
-0.041680403 -0.10312131 -0.08447291 -0.07575028 -0.016727408 -0.082221374 -0.09814742 -0.0773954
-0.16464885 -0.5000311 -0.38703004 -0.5171295 -0.126509 -0.09107407 -0.50114775 -0.37972936
-0.5367345 -0.038066316 -0.39866245 -0.38577282 0.028739456 -0.11470702 -0.5641835 -0.47511032
1.0149171 0.692185 0.87564486 0.3176675 0.94216967 0.50364554 1.0518764 0.80599403
0.06049558 0.8755968 0.82022405 0.8061035 0.16800421 0.86776024 0.91903716 0.3849579
-0.081325255 -0.08123203 -0.09030447 -0.064758055 -0.08955872 -0.05979643 -0.08192117 -0.07929958
-0.04866862 -0.094651446 -0.091249764 -0.06807843 -0.016846227 -0.08463854 -0.09980092 -0.07815907
-0.07633569 -0.086418144 -0.0796476 -0.066704966 -0.07850732 -0.05683765 -0.079072386 -0.08883823
-0.04258733 -0.11275657 -0.09332271 -0.07521092 -0.017205242 -0.0860191 -0.10050833 -0.08250239
1.1707165 1.1653167 1.0651103 0.88377947 1.3772739 0.87640524 1.2641187 1.3140805
0.5451418 1.5136253 1.4479319 1.2699813 0.2760846 1.160482 1.290379 0.90769553
-0.07754382 -0.075990915 -0.09035352 -0.06738832 -0.088503994 -0.054483872 -0.08837123 -0.077956475
-0.051277608 -0.10157785 -0.10018646 -0.07358008 -0.017131373 -0.0767109 -0.10014509 -0.07869835
0.3187966 0.32600203 0.5116426 0.32015473 0.34900415 0.405203 0.38213325 0.30498555
0.14248456 0.797994 0.5168624 0.3336069 0.07214464 0.4428323 0.6955078 0.26100767
0.24388939 0.25590426 0.37059954 0.13800229 0.2699436 0.14741151 0.24345542 0.26355946
0.06487323 0.6867772 0.30524173 0.1625223 0.037548874 0.29899162 0.5992192 0.22881958
-0.2197787 -0.106281064 -0.16236436 -0.3368513 -0.061875507 -0.11371002 -0.3607341 -0.08593987
-0.29825306 -0.2545008 -0.2506578 -0.28548893 0.011399245 0.0790516 -0.25575557 -0.0053012026
1.3868047 1.1692132 1.1634165 0.8145841 1.3875026 0.79235804 1.5545721 1.4759276
0.31264445 1.2907183 1.584261 1.2814044 0.29511774 1.1805652 1.2155608 1.0234257
0.23369488 0.13694012 0.49892607 0.32296672 0.17159632 0.27640995 0.2300412 0.32699454
0.025143143 0.5929158 0.2503633 0.18907484 0.036092076 0.1611612 0.640199 0.3222502
00000000: bbb5 8ebc 6196 ba3d 17a2 df3d af8f 543c
00000010: 94fa 58bd 0208 d2bb 3330 f33d 352e 7d3d
00000020: 0108 833a 754c 973e d520 723e 34c8 10bd
00000030: 3a2d 1dba 0d58 993d df5b ad3e d3bf 243e
00000040: 5fad f6be 539f f3be d2ad 83be bff9 c0be
00000050: b3c3 07bf 5f18 8cbd 445c e5be 7800 e5be
00000060: ebdc febe 8fd7 b4be eebc 9ebe e989 ffbd
00000070: 13c1 9fbd be01 f3be f56e c0be a0d1 03bf
00000080: dffb 63bd 65e2 09bd 9868 433e d639 85bc
00000090: 2dc5 6cbb aae5 5dbd ce52 e23d b98e 4d3e
000000a0: f2ce f6bd 1f74 fa3d 312a 0d3e 94cb 0f3e
000000b0: 6ba7 dfbb 4868 f3b9 eea9 a73e f563 563d
000000c0: f3a2 97bd 288d aabd 8c05 a1bd 5523 90bd
000000d0: e8c8 a4bd ad32 5ebd 6229 b7bd 5995 b7bd
000000e0: 918b 3dbd 55c6 e3bd ee56 a9bd 3a42 99bd
000000f0: b5ba 8abc 76d8 9cbd 81cd cabd 80d3 a1bd
00000100: e5e9 9ebd d8b3 a0bd 09b5 9dbd d97c 83bd
00000110: 08a5 b0bd c7c9 61bd fe63 b2bd da36 b7bd
00000120: 12b9 2abd 4431 d3bd 2200 adbd f622 9bbd
00000130: eb07 89bc ae63 a8bd 8401 c9bd 7b81 9ebd
00000140: b599 28be 0a02 00bf cd28 c6be 9962 04bf
00000150: 938b 01be 0b85 babd 384b 00bf e36b c2be
00000160: 6f67 09bf 6deb 1bbd 7c1d ccbe 0484 c5be
00000170: 026f eb3c 84eb eabd 546e 10bf a941 f3be
00000180: cee8 813f 0933 313f 432a 603f 51a5 a23e
00000190: 0832 713f eaee 003f e3a3 863f a055 4e3f
000001a0: 37ca 773d 1d27 603f 34fa 513f cd5c 4e3f
000001b0: 4c09 2c3e 8925 5e3f 0546 6b3f 3419 c53e
000001c0: db8d a6bd fb5c a6bd 8df1 b8bd df9f 84bd
000001d0: 906a b7bd 1aed 74bd 49c6 a7bd d167 a2bd
000001e0: bf58 47bd 9ed8 c1bd 28e1 babd b46c 8bbd
000001f0: 1901 8abc f956 adbd 6d64 ccbd dd11 a0bd
00000200: e355 9cbd fffb b0bd 481e a3bd 9d9c 88bd
00000210: 72c8 a0bd 98ce 68bd b4f0 a1bd d1f0 b5bd
00000220: 0d70 2ebd ebec e6bd fa1f bfbd 2f08 9abd
00000230: 02f2 8cbc c82a b0bd 50d7 cdbd 03f7 a8bd
00000240: 0ada 953f 1929 953f 8955 883f 5f3f 623f
00000250: 834a b03f 185c 603f a4ce a13f ca33 a83f
00000260: 6a8e 0b3f 79be c13f d555 b93f bf8e a23f
00000270: f65a 8d3e ad8a 943f 242b a53f bc5e 683f
00000280: 4bcf 9ebd 20a1 9bbd 440b b9bd e302 8abd
00000290: 9541 b5bd 7b2a 5fbd fafb b4bd a5a7 9fbd
000002a0: 7808 52bd 0c08 d0bd 8f2e cdbd 27b1 96bd
000002b0: 1857 8cbc 9b1a 9dbd de18 cdbd 9a2c a1bd
000002c0: 4f39 a33e bde9 a63e 02fb 023f 52eb a33e
000002d0: acb0 b23e c576 cf3e f8a6 c33e 1127 9c3e
000002e0: 79e7 113e 5649 4c3f 1851 043f 86ce aa3e
000002f0: 92c0 933d eaba e23e cd0c 323f cca2 853e
00000300: 24be 793e e205 833e 39bf bd3e 7950 0d3e
00000310: 0c36 8a3e 0bf3 163e 614c 793e 44f1 863e
00000320: 42dc 843d a1d0 2f3f a548 9c3e 3f6c 263e
00000330: d9cc 193d 6e15 993e 6e66 193f ae4f 6a3e
00000340: ab0d 61be e3a9 d9bd d842 26be c677 acbe
00000350: 2c71 7dbd cde0 e8bd 24b2 b8be 3e01 b0bd
00000360: a0b4 98be ee4d 82be 3856 80be 9b2b 92be
00000370: e6c3 3a3c cee5 a13d 65f2 82be b6b5 adbb
00000380: d182 b13f c7a8 953f d5ea 943f 9588 503f
00000390: af99 b13f fad7 4a3f 38fc c63f 32eb bc3f
000003a0: ef12 a03e 4236 a53f 10c9 ca3f 0f05 a43f
000003b0: ac19 973e c31c 973f 7f97 9b3f 9dff 823f
000003c0: b64d 6f3e 083a 0c3e 3d73 ff3e e55b a53e
000003d0: f2b6 2f3e 9b85 8d3e ec8f 6b3e d46b a73e
000003e0: fef8 cd3c 54c9 173f 9e2f 803e d69c 413e
000003f0: 49d5 133d 7107 253e 15e4 233f fafd a43e

sage.1.lin_root.weight f4 [64, 16]
0.020062285 -0.31187242 -0.60455304 -0.7047344 -0.19002518 -0.3673015 -0.001916326 -0.19554581
-0.49533078 -0.2836486 -0.41228056 -0.37765276 0.36523697 -0.2807979 0.0353057 -0.38013667
0.32452163 0.6802278 0.6191934 0.10438331 0.024926594 0.35456243 0.63678926 0.7650743
0.6153467 -0.020318298 0.6744853 0.7455635 0.40975752 0.596853 0.55823135 0.72612023
0.031522073 0.010536493 -0.09465781 -0.42362243 -0.20555055 0.2633201 0.2504133 -0.61047494
-0.41866624 0.055510666 -0.5614219 -0.34104043 0.0094925845 -0.34058878 0.08586278 -0.29184645
-0.0029925704 0.49324027 0.8426439 0.27901936 0.5091552 0.3363283 0.49664065 0.27374974
0.36651793 -3.7610393 0.4027884 0.2153132 -0.033208255 0.4402574 -2.7865753 0.5480102
0.5474623 0.48453513 0.8514685 0.46494383 0.82967144 0.38585517 0.34695822 0.8622382
0.42121297 -5.860213 0.590024 0.965363 -0.3087383 0.7376155 -2.5219207 0.47729138
0.14782271 0.12991935 0.38985834 0.57902664 0.28253895 0.27278575 0.13450935 0.59972346
0.48316705 -0.3075051 0.42263222 0.48821878 0.42907044 0.6414646 0.6005093 0.26411965
-0.55602247 -0.6557364 -0.9793227 -0.49975845 -0.49777263 -0.6696789 -0.8003058 -0.91004306
-0.37427908 -0.6329115 -0.5070406 -0.5234398 -0.06814396 -0.8492004 -0.62596506 -0.5484885
0.35567528 0.49621168 1.0036772 0.7852297 0.78499544 0.43557656 0.5173793 0.4131333
-0.024442554 -4.047231 0.58494866 0.4139353 -0.12648332 0.5389752 -2.7683218 0.12969264
0.011464887 0.37488237 0.3810445 0.0024195907 0.36899132 0.30492002 0.23910502 0.7013259
0.35107028 -4.690882 0.3386155 0.23632929 -0.18546873 0.48782054 -2.9502976 -0.14001748
-0.5217707 -0.7281192 -0.8982578 -1.1433048 -0.53081423 -0.6732692 -0.79126394 -1.2247676
-0.83093125 -0.6849866 -0.94592744 -0.69689053 -0.16556992 -0.5989483 -1.0029384 -0.87679183
0.21040525 -0.06187322 0.5885526 0.40558794 0.2927318 0.2490234 0.35222444 0.3750515
0.20523809 -3.3304634 0.56401324 0.031322382 -0.13675985 0.20011802 -2.6137815 0.3501345
-0.5591441 -0.6336842 -0.5555283 -0.79874897 -0.38974726 -0.21791452 -0.26798958 -0.787159
-0.7687681 -0.8060118 -0.7931162 -0.7429479 0.06735556 -0.5335878 -0.33099097 -0.43809298
-0.49202943 -0.6182816 -0.6576532 -0.59407955 -0.1372628 -0.51243955 -0.31660032 -0.43227714
-0.50706816 -0.58946097 -0.6516189 -0.36623287 0.15348838 -0.76716304 -0.36329606 -0.51289463
0.70530164 0.44901547 0.7229843 0.14978302 0.29251054 0.52105266 0.8618518 0.62816304
0.39848325 -0.98294663 0.62859136 0.53632635 1.0683811 0.3824365 0.3645043 0.5976084
-0.28436437 -0.8984947 -1.122706 -0.91246563 -0.13775815 -1.0921758 -0.3519617 -1.1160526
-0.7957364 -1.5187379 -0.9231786 -0.92734 -1.0878327 -0.6955804 -2.2348433 -0.9620395
-0.81364256 -0.44081682 -0.83958554 -0.38758424 -0.22062998 -0.37799913 -0.4878069 -0.51893467
-0.2623119 -0.39583078 -0.73835504 -0.57661325 0.12999211 -0.72821826 -0.10055124 -0.28483108
00000000: a959 a43c bead 9fbe fdc3 1abf 7969 34bf
00000010: f695 42be f10e bcbe 3b2d fbba 293d 48be
00000020: ff9b fdbe 643a 91be 7016 d3be b45b c1be
00000030: 5700 bb3e bec4 8fbe b69c 103d 46a1 c2be
00000040: b327 a63e 6923 2e3f 7583 1e3f ebc6 d53d
00000050: db32 cc3c 3589 b53e 9f04 233f e9db 433f
00000060: 5d87 1d3f 8f72 a6bc 12ab 2c3f 40dd 3e3f
00000070: bdcb d13e 5ccb 183f 40e8 0e3f 04e3 393f
00000080: 4a1d 013d 41a1 2c3c f4db c1bd 0ae5 d8be
00000090: d87b 52be e4d1 863e 2c36 803e 1648 1cbf
000000a0: 6c5b d6be 275f 633d 58b9 0fbf da9c aebe
000000b0: c986 1b3c a761 aebe d3d8 af3d e66c 95be
000000c0: 001f 44bb fd89 fc3e 83b7 573f a0db 8e3e
000000d0: ff57 023f 3933 ac3e af47 fe3e ed28 8c3e
000000e0: 3da8 bb3e deb4 70c0 483a ce3e 107b 5c3e
000000f0: 6105 08bd 6b69 e13e 4057 32c0 654a 0c3f
00000100: 7d26 0c3f fd14 f83e d7f9 593f 1e0d ee3e
00000110: 5965 543f cf8e c53e 82a4 b13e a5bb 5c3f
00000120: 3aa9 d73e dd86 bbc0 d00b 173f 0822 773f
00000130: f212 9ebe 5fd4 3c3f 2667 21c0 895f f43e
00000140: d65e 173e 9409 053e 839b c73e 173b 143f
00000150: f2a8 903e 93aa 8b3e d2bc 093e 7a87 193f
00000160: ac61 f73e 4f71 9dbe 4063 d83e d0f7 f93e
00000170: 1faf db3e 0637 243f faba 193f b13a 873e
00000180: 7d57 0ebf 57de 27bf e4b4 7abf 57e0 ffbe
00000190: 0edc febe 1470 2bbf d7e0 4cbf 95f8 68bf
000001a0: 82a1 bfbe 7d06 22bf 6acd 01bf 2700 06bf
000001b0: 0f8f 8bbd 3365 59bf 3f3f 20bf be69 0cbf
000001c0: 121b b63e 750f fe3e 7f78 803f d004 493f
000001d0: 76f5 483f e403 df3e f872 043f 3586 d33e
000001e0: c03b c8bc eb82 81c0 32bf 153f 54ef d33e
000001f0: d884 01be 47fa 093f 2f2c 31c0 26ce 043e
00000200: 39d7 3b3c 95f0 bf3e 4418 c33e ff91 1e3b
00000210: 6eec bc3e 7a1e 9c3e f2d7 743e 188a 333f
00000220: 7cbf b33e b51b 96c0 035f ad3e 4e00 723e
00000230: 84eb 3dbe 9dc3 f93e add1 3cc0 be60 0fbe
00000240: c492 05bf 0566 3abf 39f4 65bf d057 92bf
00000250: 71e3 07bf 5f5b 2cbf 4690 4abf 2fc5 9cbf
00000260: e9b7 54bf 485b 2fbf 4d28 72bf 6b67 32bf
00000270: 298b 29be ad54 19bf 4960 80bf 6e75 60bf
00000280: 7974 573e c66e 7dbd 62ab 163f 39a9 cf3e
00000290: f1e0 953e fdff 7e3e c356 b43e c006 c03e
000002a0: ef29 523e 5026 55c0 2c63 103f e64b 003d
000002b0: c60a 0cbe bdeb 4c3e 3248 27c0 d444 b33e
000002c0: 1124 0fbf 2139 22bf 1a37 0ebf d07a 4cbf
000002d0: f48c c7be fc24 5fbe ee35 89be 4183 49bf
000002e0: fccd 44bf ca56 4ebf aa09 4bbf d531 3ebf
000002f0: b6f1 893d 3699 08bf a677 a9be b94d e0be
00000300: 48eb fbbe b447 1ebf f65b 28bf 9915 18bf
00000310: 9f8e 0cbe 3d2f 03bf 7019 a2be 6e53 ddbe
00000320: 38cf 01bf eae6 16bf 7fd0 26bf e082 bbbe
00000330: 0f2c 1d3e cc64 44bf f101 babe 104d 03bf
00000340: a68e 343f 5be5 e53e 8015 393f b860 193e
00000350: f1c3 953e b563 053f 52a2 5c3f 4bcf 203f
00000360: ff05 cc3e 64a2 7bbf 5deb 203f af4c 093f
00000370: b6c0 883f b8ce c33e 4fa0 ba3e ddfc 183f
00000380: 3598 91be c003 66bf d5b4 8fbf 5997 69bf
00000390: 7910 0dbe 6bcc 8bbf 5334 b4be d0da 8ebf
000003a0: 61b5 4bbf 0166 c2bf 6f55 6cbf 2766 6dbf
000003b0: 1a3e 8bbf 8f11 32bf ac07 0fc0 3848 76bf
000003c0: e14a 50bf beb2 e1be 14ef 56bf 7171 c6be
000003d0: d3ec 61be 1a89 c1be d3c1 f9be e7d8 04bf
000003e0: bf4d 86be 55aa cabe d604 3dbf ed9c 13bf
000003f0: a71c 053e 836c 3abf cfed cdbd 61d5 91be

sage.1.lin_root.bias f4 [64]
0.9020911 0.9843286 1.1413101 -4.624966 -4.431715 1.079029 -1.337329 -4.664271
-4.8709717 -1.1792164 -4.7827935 0.5787848 -0.11640892 1.0910629 -1.6705469 0.25948435
-0.90658635 0.2011166 0.47587964 -0.5651655 -2.385609 -5.360421 -0.05310069 -0.90649647
0.6985831 -4.6421266 -0.55007017 -0.34732336 -0.70694435 -1.0046906 -5.506479 -0.18461442
0.28573582 -0.08932083 -4.4557023 0.72444427 -0.2146328 -0.8115836 0.40408432 -0.56989527
-1.3790731 -0.63587016 -0.7652109 -0.29865542 1.0271928 -1.2356015 -0.47864932 -4.2502284
-0.14626035 -0.29836494 -0.89345026 0.3773838 -4.2953873 1.150861 -4.3185544 -1.7196306
-4.3974867 -2.3330247 1.098887 -1.0938885 -0.9683514 -1.7164693 -4.2596583 -0.28579134
00000000: 71ef 663f f6fc 7b3f 7316 923f b9ff 93c0
00000010: 9cd0 8dc0 9f1d 8a3f 992d abbf b541 95c0
00000020: 00df 9bc0 90f0 96bf a50c 99c0 3e2b 143f
00000030: cd67 eebd f3a7 8b3f 7bd4 d5bf 22db 843e
00000040: 0b16 68bf 83f1 4d3e 7fa6 f33e b0ae 10bf
00000050: d1ad 18c0 9288 abc0 1c80 59bd 2710 68bf
00000060: 58d6 323f 4d8c 94c0 66d1 0cbf 5ed4 b1be
00000070: 4efa 34bf b499 80bf 1335 b0c0 900b 3dbe
00000080: f74b 923e d7ed b6bd 1d95 8ec0 2e75 393f
00000090: b3c8 5bbe f1c3 4fbf 24e4 ce3e a8e4 11bf
000000a0: 7885 b0bf 63c8 22bf dde4 43bf 5de9 98be
000000b0: 0e7b 833f 3128 9ebf 8611 f5be df01 88c0
000000c0: 46c5 15be 4ac3 98be 28b9 64bf 7338 c13e
000000d0: d073 89c0 6a4f 933f 9931 8ac0 db1c dcbf
000000e0: 36b8 8cc0 4750 15c0 54a8 8c3f 8a04 8cbf
000000f0: e1e5 77bf 44b5 dbbf 1f4f 88c0 3e53 92be

sage.2.lin_rel.weight f4 [64, 64]
-0.013962926 -0.054387517 -0.0144126685 0.105540775 0.102455914 -0.097706206 0.14338532 0.005809356
0.025901671 0.045347076 0.070230104 0.04765892 -0.012708362 -0.11148292 -0.07948564 -0.06821104
-0.00807605 -0.05347456 0.068166256 0.006140612 -0.0020951289 0.028259274 0.083846085 -0.07394644
-0.069140926 0.023017937 0.16034259 0.0029259718 0.12586595 -0.08151604 -0.009570913 0.07120169
-0.06900151 -0.017798482 0.081723854 -0.08063892 0.0515328 -0.008167902 0.13906646 0.0759125
-0.058256734 0.03753894 -0.06907691 0.00031684636 -0.04603734 0.055186775 -0.025875933 0.015636344
-0.08178739 0.07895943 -0.044578813 0.04939948 0.13388282 -0.11117947 0.09346284 0.016491637
0.12960166 -0.053026713 0.037295137 0.18336068 -0.07271998 -0.05557086 -0.0040223333 0.141257
0.02574089 -0.064481534 -0.072548434 0.04945029 0.032704376 -0.02641026 0.11062803 0.14465447
0.06124682 0.094252296 0.028050575 0.018597277 -0.014887621 -0.03441153 -0.13323882 -0.016020734
0.05821813 -0.041930165 0.045778587 -0.057742793 -0.15498334 0.018288244 0.08196844 0.059636023
-0.0638674 -0.035865806 0.03382586 0.06697999 -0.10689662 0.022740453 -0.11571698 0.038295075
-0.0015018982 0.0070861974 0.0901334 -0.16764201 -0.025509283 0.13031386 0.08847393 -0.09792231
-0.09866861 0.11536252 0.11190279 0.017910702 -0.1405621 0.04862029 0.019214133 0.13392712
0.05090091 0.028958682 0.16813657 0.110873 -0.01455258 -0.0017653592 0.0762183 -0.034377098
0.14806369 -0.14119269 0.011902408 0.018905157 -0.029367302 -0.055760887 0.16983974 -0.007414389
0.0017007698 -0.07990526 -0.03408883 0.0064472575 0.01574984 -0.08445804 -0.06629445 0.081144795
0.09096934 0.0017652422 0.09080513 -0.0012085461 0.06908274 -0.1338033 0.07528994 0.1323191
0.00902151 -0.08371252 0.032569017 -0.03735432 -0.07527242 -0.0004127758 0.20099021 0.0042611216
0.15437041 0.13123748 0.12753579 0.059224706 0.071731046 -0.013571215 0.012787857 -0.09761426
0.021019273 -0.009662651 0.10324235 -0.108086154 -0.03664805 -0.022612834 0.09011057 -0.019268405
-0.01687908 -0.045972433 0.12584822 0.03408233 -0.033620678 0.033598576 -0.046549402 0.10891912
-0.025701966 -0.06326385 0.12990393 0.07606365 0.0673843 -0.12745437 0.06426098 -0.056363635
0.022566998 -0.057574637 -0.016091047 -0.019764734 0.12280871 0.10344214 0.14006133 -0.052933283
0.0023480477 -0.027812103 -0.0017011496 -0.03234253 -0.037335034 0.043031372 0.01785952 0.026161319
0.07631917 -0.029245444 -0.0142029235 0.061520714 0.092092834 0.008204216 -0.059245422 0.11451022
-0.022936739 0.0063867318 -0.032434464 -0.016003372 -0.06005403 0.07255296 -0.061886173 -0.07565265
-0.02098236 0.014350388 -0.04147503 -0.015882652 -0.05908033 0.045025278 0.08871563 -0.03009431
0.03003018 -0.076635435 -0.037107706 -0.020363633 -0.07724142 -0.04228344 0.04415529 0.048329346
-0.09842614 0.054908898 0.029224213 -0.06993657 -0.037974793 -0.013216743 -0.099928066 0.038617067
0.032808755 0.019697042 0.023128832 0.03095854 0.020442571 -0.004655312 0.008667642 0.019473571
-0.005505194 0.0069586155 -0.017212475 0.04176297 -0.076631226 -0.08661333 -0.0081121605 -0.016657688
00000000: c2c4 64bc 72c5 5ebd 1d23 6cbc c325 d83d
00000010: 68d4 d13d 311a c8bd 9ad3 123e 695c be3b
00000020: be2f d43c dbbd 393d cdd4 8f3d 0036 433d
00000030: bc36 50bc 2851 e4bd 5ec9 a2bd 3bb2 8bbd
00000040: 6951 04bc 2408 5bbd c09a 8b3d 3037 c93b
00000050: 6e4e 09bb fe7f e73c 7fb7 ab3d 3b71 97bd
00000060: c299 8dbd 1d90 bc3c d930 243e a9c1 3f3b
00000070: 01e3 003e e2f1 a6bd 52cf 1cbc 31d2 913d
00000080: aa50 8dbd 1fce 91bc d65e a73d 0526 a5bd
00000090: 0f14 533d aad2 05bc 7067 0e3e 0378 9b3d
000000a0: 9d9e 6ebd 6ec2 193d 3278 8dbd 661e a639
000000b0: a691 3cbd 870b 623d c4f9 d3bc ca17 803c
000000c0: 2680 a7bd 7bb5 a13d 4698 36bd 1c57 4a3d
000000d0: 9418 093e 10b2 e3bd 7269 bf3d 7819 873c
000000e0: 4cb6 043e 8a32 59bd c9c2 183d e7c2 3b3e
000000f0: 36ee 94bd 459e 63bd c7cd 83bb ada5 103e
00000100: 8fde d23c e50e 84bd 4694 94bd 638c 4a3d
00000110: 06f5 053d 545a d8bc f390 e23d 4d20 143e
00000120: f2dd 7a3d 5907 c13d 52ca e53c 5159 983c
00000130: 35eb 73bc 1bf3 0cbd c26f 08be ea3d 83bc
00000140: 2276 6e3d f7be 2bbd 5482 3b3d b583 6cbd
00000150: f4b3 1ebe 3ad1 953c 12df a73d e744 743d
00000160: e9cc 82bd 06e8 12bd fc8c 0a3d ce2c 893d
00000170: 9dec dabd 304a ba3c 06fd ecbd 4cdb 1c3d
00000180: 57db c4ba 5533 e83b dc97 b83d 59aa 2bbe
00000190: d8f8 d0bc ff70 053e d231 b53d 7e8b c8bd
000001a0: c512 cabd 2f43 ec3d 4a2d e53d 77b9 923c
000001b0: 83ef 0fbe 1226 473d f566 9d3c 3124 093e
000001c0: 797d 503d c23a ed3c fe2b 2c3e 6211 e33d
000001d0: f26d 6ebc a063 e7ba 5718 9c3d 00cf 0cbd
000001e0: 029e 173e d194 10be 5102 433c fdde 9a3c
000001f0: b293 f0bc 8765 64bd 78ea 2d3e 67f4 f2bb
00000200: 5dec de3a 5ea5 a3bd bba0 0bbd 8443 d33b
00000210: cf05 813c 56f8 acbd 62c5 87bd 3e2f a63d
00000220: 224e ba3d b35f e73a 0af8 b93d 1468 9eba
00000230: 407b 8d3d bb03 09be 9d31 9a3d a87e 073e
00000240: f5ce 133c 7871 abbd 1767 053d d800 19bd
00000250: 6d28 9abd d469 d8b9 61d0 4d3e e1a0 8b3b
00000260: 4713 1e3e 1e63 063e be98 023e 9b95 723d
00000270: bae7 923d cd59 5ebc 2984 513c fce9 c7bd
00000280: 9c30 ac3c 1950 1ebc ba70 d33d 465c ddbd
00000290: 441c 16bd 8d3e b9bc e48b b83d c6d8 9dbc
000002a0: ff45 8abc 974d 3cbd 5bde 003e ea99 0b3d
000002b0: d6b5 09bd a99e 093d 96aa 3ebd fd10 df3d
000002c0: ee8c d2bc 7a90 81bd 8905 053e 42c7 9b3d
000002d0: c800 8a3d 6683 02be 439b 833d 8edd 66bd
000002e0: 6dde b83c 62d3 6bbd 5fd1 83bc a7e9 a1bc
000002f0: 2283 fb3d 79d9 d33d 3d6c 0f3e 92d0 58bd
00000300: b4e1 193b 35d6 e3bc 1cf9 deba 9a79 04bd
00000310: 9fec 18bd aa41 303d 214e 923c 4350 d63c
00000320: 3a4d 9c3d 2494 efbc 61b3 68bc 25fd 7b3d
00000330: 2b9b bc3d fa6a 063c 54ab 72bd 5684 ea3d
00000340: d4e5 bbbc ca47 d13b 00da 04bd 8119 83bc
00000350: 37fb 75bd a596 943d 5b7c 7dbd c7ef 9abd
00000360: 33e3 abbc e41d 6b3c b9e1 29bd 561c 82bc
00000370: 37fe 71bd 6d6c 383d 8ab0 b53d 5888 f6bc
00000380: da01 f63c 0af3 9cbd 40fe 17bd a2d1 a6bc
00000390: c030 9ebd 6631 2dbd 2ddc 343d fef4 453d
000003a0: a593 c9bd 27e8 603d 9e67 ef3c e83a 8fbd
000003b0: 758b 1bbd 0a8b 58bc 16a7 ccbd ee2c 1e3d
000003c0: 7962 063d b15b a13c ad78 bd3c c49c fd3c
000003d0: 2e77 a73c 968b 98bb ba02 0e3c 0a87 9f3c
000003e0: ea64 b4bb 1905 e43b 2d01 8dbc a60f 2b3d
000003f0: d5f0 9cbd 5462 b1bd dee8 04bc b475 88bc

sage.2.lin_root.weight f4 [64, 64]
0.0724448 -0.075307675 -0.035743326 0.039821833 0.023809092 -0.105886765 0.10183001 0.10893446
-0.021704238 -0.010542373 0.058873445 -0.040789276 0.002262702 -0.08749931 -0.006313887 -0.083162695
0.09485781 -0.028865218 0.095249884 -0.012214404 0.041229293 -0.14927474 -0.044664484 0.061820507
-0.07572395 0.12693909 0.14419101 0.102748044 0.12929156 0.053156853 -0.03299984 -0.03901897
0.007204337 0.0700547 -0.08861563 -0.045452192 0.10639507 0.11981731 0.04560045 0.14433746
0.1297434 0.078643814 0.20152211 0.109842084 -0.12736137 0.19335867 0.118042335 0.044552688
0.039238177 -0.028534787 0.14352399 0.13686118 -0.077848546 -0.045547154 0.01652564 0.10039805
0.015734587 0.02963948 0.07427789 0.037811205 0.18638639 0.096130066 0.044697467 -0.052148428
-0.008017214 -0.13508302 0.059936926 0.15823108 0.07712097 -0.09325292 0.08856106 0.1519884
0.061096687 -0.023626503 0.02663387 0.08151294 0.13702443 -0.10752968 -0.07944464 0.07499442
0.1468975 -0.14811094 0.012531573 -0.05829639 -0.13498919 -0.025304586 0.037085507 0.04072229
-0.029841423 0.100503646 0.09688228 0.025122322 -0.0045690406 -0.0246927 -0.1512353 -0.016366659
0.0994876 0.04786547 0.13825297 -0.2818465 0.103888616 -0.012389321 0.20992368 0.033301476
-0.071821555 0.09521665 0.004417612 0.014947289 -0.05613228 -0.039046127 0.17871532 0.05983506
-0.05214052 0.07665811 -0.10778772 0.018604849 0.15508267 -0.17438467 0.020328097 -0.04808751
0.11149045 0.04571903 0.08622297 0.062636465 -0.03405488 -0.011101524 0.14512177 0.08728833
0.12719122 -0.0004206601 -0.012235367 -0.027418533 0.10166919 -0.03899253 -0.058579016 0.04343273
0.009517945 0.060405552 0.11538059 0.10422281 -0.045623608 -0.07564193 -0.07249734 0.06914658
0.06713397 -0.11184352 -0.011494623 0.090185836 -0.1130254 0.1166991 0.17201245 0.11572174
0.005134851 0.1716296 -0.066867806 0.18097599 0.09099606 -0.13740021 -0.012108276 -0.07975951
-0.07615937 0.11589325 0.047355257 -0.036648262 -0.0055005187 0.03954144 0.03650473 -0.111619286
0.09732069 -0.08576543 0.047195584 -0.06814055 -0.14572828 0.08004759 -0.11338908 -0.02080231
-0.051012035 0.08739896 0.0747948 0.027967714 0.16499044 -0.11283925 0.11155641 -0.015038048
0.13311136 -0.037715837 0.1687031 -0.017986635 -0.053761657 -0.07898553 0.080632664 0.111920446
-0.03755755 0.0069896495 0.011138088 0.07207795 0.039190613 -0.003154321 -0.07908541 0.03398747
0.0043221395 -0.14766595 0.037634008 -0.010321034 0.038164113 0.005762577 -0.07917901 -0.039481245
0.0064183557 -0.04267343 0.018675238 -0.0215741 -0.09753856 -0.015341266 0.05350708 -0.07326588
0.0240744 0.02221417 0.030359838 0.00030518277 -0.030975211 -0.03343283 0.097529784 0.14680038
0.046405356 -0.0038225285 0.057727225 0.040401768 -0.12481742 -0.058261786 0.00034670794 0.062399913
-0.020788603 -0.0028299752 0.028925497 0.10188881 0.032336682 -0.12072314 -0.113448195 -0.013135248
0.07574927 0.057092685 -0.014449873 0.014117831 -0.042053252 -0.073941134 -0.022392975 -0.021480963
-0.041467395 -0.056711625 0.04201559 -0.042638242 -0.17080183 0.028073281 -0.01836778 -0.0050644046
00000000: f05d 943d e93a 9abd 9867 12bd 381c 233d
00000010: 490b c33c 29db d8bd 418c d03d 0819 df3d
00000020: 16cd b1bc ebb9 2cbc 4825 713d a812 27bd
00000030: d749 143b d732 b3bd b9e4 cebb 3451 aabd
00000040: d044 c23d c076 ecbc 5f12 c33d ec1e 48bc
00000050: 0ce0 283d 7adb 18be 1bf2 36bd 8037 7d3d
00000060: 2915 9bbd 52fc 013e cfa6 133e 916d d23d
00000070: 0265 043e 00bb 593d d72a 07bd 5bd2 1fbd
00000080: 5c12 ec3b d778 8f3d 1d7c b5bd 142c 3abd
00000090: a9e5 d93d c762 f53d 8ac7 3a3d 33cd 133e
000000a0: 74db 043e 0210 a13d d05b 4e3e e3f4 e03d
000000b0: 056b 02be d1ff 453e 2ec0 f13d e17c 363d
000000c0: 36b8 203d c9c1 e9bc f4f7 123e 5625 0c3e
000000d0: 0f6f 9fbd a78f 3abd c760 873c 7e9d cd3d
000000e0: d2e5 803c 7fce f23c 021f 983d ecdf 1a3d
000000f0: 13dc 3e3e d7df c43d b114 373d 9799 55bd
00000100: a25a 03bc 3453 0abe 6c80 753d 5407 223e
00000110: 99f1 9d3d 63fb bebd 805f b53d d9a2 1b3e
00000120: 8540 7a3d 5e8c c1bc 462f da3c 42f0 a63d
00000130: 2250 0c3e 8538 dcbd dfb3 a2bd ad96 993d
00000140: 4c6c 163e 65aa 17be 3a51 4d3c 32c8 6ebd
00000150: 9b3a 0abe 904b cfbc f9e6 173d 6acc 263d
00000160: 0076 f4bc dbd4 cd3d 386a c63d 54cd cd3c
00000170: e4b7 95bb 5848 cabc 6ddd 1abe 5f13 86bc
00000180: 28c0 cb3d 950e 443d 3092 0d3e 2f4e 90be
00000190: 8ec3 d43d 94fc 4abc 3cf6 563e 2167 083d
000001a0: 2e17 93bd f200 c33d 9ec1 903b 79e5 743c
000001b0: f6ea 65bd d5ee 1fbd 2601 373e 9c15 753d
000001c0: 4c91 55bd edfe 9c3d cfbf dcbd 3269 983c
000001d0: fecd 1e3e e591 32be 1c87 a63c 69f7 44bd
000001e0: 1b55 e43d e143 3b3d ab95 b03d 8c47 803d
000001f0: 217d 0bbd 2be3 35bc cd9a 143e 39c4 b23d
00000200: 6a3e 023e 0b8c dcb9 d976 48bc d59c e0bc
00000210: f037 d03d a2b6 1fbd 8df0 6fbd 85e6 313d
00000220: 28f1 1b3c d06b 773d a94c ec3d c572 d53d
00000230: d2df 3abd 28ea 9abd 7c79 94bd b99c 8d3d
00000240: 897d 893d 370e e5bd f153 3cbc 5ab3 b83d
00000250: dc79 e7bd f0ff ee3d 0824 303e 85ff ec3d
00000260: 4142 a83b abbf 2f3e fdf1 88bd c551 393e
00000270: 245c ba3d a4b2 0cbe ca61 46bc f458 a3bd
00000280: 72f9 9bbd 7159 ed3d 96f7 413d 7d1c 16bd
00000290: b23d b4bb 34f6 213d fc85 153d a798 e4bd
000002a0: 1250 c73d c9a5 afbd 2850 413d 468d 8bbd
000002b0: cb39 15be feef a33d 8938 e8bd 9b69 aabc
000002c0: fff1 50bd 3afe b23d 042e 993d 8c1c e53c
000002d0: 41f3 283e 4418 e7bd b077 e43d 2562 76bc
000002e0: 584e 083e ec7b 1abd 81c0 2c3e b558 93bc
000002f0: 2f35 5cbd 2ac3 a1bd bd22 a53d 8c36 e53d
00000300: f2d5 19bd 6e09 e53b 877c 363c 9b9d 933d
00000310: 5686 203d bab8 4ebb 88f7 a1bd 7236 0b3d
00000320: bca0 8d3b be35 17be 1e26 1a3d 8e19 29bc
00000330: f951 1c3d 00d4 bc3b 9b28 a2bd 16b7 21bd
00000340: 1251 d23b 56ca 2ebd d0fc 983c 2bbc b0bc
00000350: 4cc2 c7bd ef59 7bbc 3d2a 5b3d 6c0c 96bd
00000360: ad37 c53c 7efa b53c 32b5 f83c f000 a039
00000370: babf fdbc ddf0 08bd b2bd c73d d752 163e
00000380: 8b13 3e3d 6383 7abb 6273 6c3d 537c 253d
00000390: 47a0 ffbd e9a3 6ebd 5ac6 b539 0d97 7f3d
000003a0: dc4c aabc 1b77 39bb 2af5 ec3c 15ab d03d
000003b0: 7873 043d b23d f7bd 8757 e8bd 3935 57bc
000003c0: 6f22 9b3d 05da 693d 29bf 6cbc 7a4e 673c
000003d0: 0840 2cbd 736e 97bd 7971 b7bc d8f8 afbc
000003e0: b7d9 29bd 734a 68bd 8a18 2c3d 70a5 2ebd
000003f0: ade6 2ebe f0f9 e53c 0778 96bc 4ef3 a5bb

sage.2.lin_root.bias f4 [64]
0.012338146 -0.007910477 -0.04940658 -0.04497422 -0.0020164412 -0.045070138 -0.031438623 -0.10077709
-0.0802569 0.13778296 -0.047582757 0.0033464201 -0.18923806 0.03172036 -0.13783619 -0.06479705
-0.06577531 0.047430836 -0.01987373 0.02830856 -0.0595954 -0.01450377 -0.02495937 0.115061834
0.20159003 -0.058904808 -0.12844515 -0.002324476 0.009815692 0.07495063 -0.022430327 -0.20870619
0.035101097 -0.046688486 -0.08029144 0.07704016 -0.03178795 -0.04014782 -0.06978325 -0.16509055
-0.05414927 -0.15027554 0.04451464 -0.5455196 -0.08989337 -0.15134615 -0.114423476 -0.121141374
0.45606017 -0.12424373 -0.053237826 -0.08566734 -0.595878 -0.17413221 0.09566629 0.023328451
0.12438417 -0.4012891 -0.21716481 -0.012860519 0.08120737 -0.027180739 -0.3768566 -0.02274132
00000000: ef25 4a3c f29a 01bc 8e5e 4abd e336 38bd
00000010: 4526 04bb 779b 38bd c9c5 00bd 3864 cebd
00000020: bb5d a4bd fa16 0d3e 23e6 42bd 9d4f 5b3b
00000030: 9fc7 41be 35ed 013d ee24 0dbe 51b4 84bd
00000040: 35b5 86bd d646 423d 3cce a2bc 5ae7 e73c
00000050: 4e1a 74bd 38a1 6dbc 9877 ccbc 8aa5 eb3d
00000060: 9e6d 4e3e 2b46 71bd 2087 03be 3c56 18bb
00000070: ffd1 203c b77f 993d cebf b7bc 13b7 55be
00000080: 2bc6 0f3d 6d3c 3fbd d76f a4bd 3bc7 9d3d
00000090: 1534 02bd 0a72 24bd 85ea 8ebd 7f0d 29be
000000a0: a0cb 5dbd d5e1 19be fc54 363d 2ca7 0bbf
000000b0: 041a b8bd 7cfa 1abe db56 eabd f818 f8bd
000000c0: b880 e93e 7f73 febd e80f 5abd 5c72 afbd
000000d0: 768b 18bf b74f 32be b0ec c33d 4f1b bf3c
000000e0: 21bd fe3d c475 cdbe 7460 5ebe edb4 52bc
000000f0: 0d50 a63d 24aa debc 59f3 c0be 014c babc

batch_norm.0.weight f4 [400]
2.172312 2.9384146 1.097811 2.3034165 2.3522785 2.2993214 2.1720493 2.1689348
1.9450643 2.0364437 1.8684523 1.8664814 1.5757709 1.7339109 1.8222519 1.7051746
1.5006716 1.2353244 1.5670993 1.284245 1.406671 1.3580105 1.291406 1.3597558
1.2664768 1.2919239 1.0699956 1.2049825 1.0457494 1.0864339 1.1718677 1.2793007
1.2041234 1.1582551 1.1821063 1.0696238 1.1347243 1.2918761 1.1004988 1.1792694
1.2524571 1.2698627 1.1955705 1.2296699 1.1822574 1.217773 1.1054665 1.2909973
1.4682184 1.321132 1.2592745 1.2560157 1.2738622 1.3792133 1.2182592 1.2133223
1.2533302 1.2754527 1.3633842 1.2935691 1.3559858 1.3952206 1.3235047 1.2997842
1.2284459 1.3620524 1.3061378 1.2318585 1.3680791 1.2748754 1.426984 1.2568455
1.2823085 1.463049 1.4101951 1.4063611 1.5285335 1.18495 1.4773602 1.44216
1.3874295 1.3947816 1.5010824 1.4841751 1.5491927 1.4644204 1.4355611 1.3799565
1.4811013 1.2818179 1.282898 1.5258315 1.4698069 0.98435885 1.3912086 1.4189316
1.6371437 1.2713585 1.1785448 1.3631097 1.5397975 1.6774796 1.2959232 1.781162
1.4658438 2.016085 1.7200365 1.4646412 1.3167914 1.4464531 1.5452579 1.269798
1.6416413 1.7897 1.6972457 1.6143897 1.6456175 1.502081 1.522978 1.5492033
1.9391973 1.459164 1.3891706 1.7188694 1.6485897 1.4428056 1.3663775 1.701525
1.4603648 1.6056049 1.6733812 1.7205724 1.6552738 1.5087852 1.6788992 1.2739468
1.2920077 1.1948034 1.5935078 1.6300576 1.5838733 1.6291566 1.0717005 1.2504265
1.6245251 1.5315021 2.022612 1.3560166 1.8013983 1.6329957 1.9379336 2.188638
1.3251295 0.97058976 1.3811051 1.256384 1.4863336 1.6147425 1.2924564 1.8017772
1.862058 1.7599721 1.7737188 1.5165861 1.4685408 1.8661554 1.4748458 1.735354
1.866524 1.1834856 1.394555 1.4976981 1.3388414 1.3589778 1.4066304 1.4458697
1.7128755 1.6735345 1.5706362 1.651751 1.5028794 2.0337224 1.5638392 2.1843395
2.0645852 2.0070822 1.0962791 1.9985557 1.5670228 1.856321 1.7416316 1.5637021
1.2416723 1.4705653 1.8057275 1.8493978 1.5919894 1.7668118 1.3047024 1.5544819
1.4424031 1.7682401 1.6509174 2.31918 1.6424643 2.092941 1.5646787 1.3890269
0.823531 1.4440159 1.741782 1.414248 1.4575974 1.3310761 1.6076819 1.8355085
1.2733523 1.6018072 1.2464589 1.5483996 1.5469427 1.7936743 1.2865251 0.7336624
1.7733278 1.176223 1.7348382 1.3132235 0.9360286 1.2782806 1.3988942 1.0067372
1.0941634 1.59402 1.2731571 0.70159334 1.2428263 1.4768687 1.2888427 0.8530934
0.83416164 1.3654336 1.1664729 1.164552 1.459602 1.1108938 0.6274601 2.0788705
2.021506 1.5686162 1.4350102 1.6863606 1.5924968 1.8141035 1.0522317 1.7133505
00000000: 2907 0b40 fc0e 3c40 1285 8c3f 2d6b 1340
00000010: bb8b 1640 1528 1340 db02 0b40 d4cf 0a40
00000020: def7 f83f 1855 0240 7229 ef3f dde8 ee3f
00000030: dcb2 c93f cbf0 dd3f 8d3f e93f 2943 da3f
00000040: 0216 c03f 1c1f 9e3f b696 c83f 2462 a43f
00000050: cc0d b43f 4ad3 ad3f cb4c a53f 7a0c ae3f
00000060: e91b a23f c35d a53f 9ef5 883f de3c 9a3f
00000070: 1edb 853f 4410 8b3f c3ff 953f 20c0 a33f
00000080: b720 9a3f b441 943f 424f 973f 6fe9 883f
00000090: a53e 913f 325c a53f 25dd 8c3f 4df2 963f
000000a0: 8450 a03f dc8a a23f 7408 993f d365 9d3f
000000b0: 3654 973f fcdf 9b3f ed7f 8d3f 663f a53f
000000c0: 95ee bb3f da1a a93f e82f a13f 1fc5 a03f
000000d0: eb0d a33f 108a b03f ebef 9b3f 254e 9b3f
000000e0: 206d a03f 0942 a33f 6083 ae3f ac93 a53f
000000f0: f190 ad3f 9796 b23f 9a68 a93f 545f a63f
00000100: b73d 9d3f bc57 ae3f 862f a73f 8aad 9d3f
00000110: 371d af3f 1e2f a33f 69a7 b63f 50e0 a03f
00000120: af22 a43f 3145 bb3f 4681 b43f a403 b43f
00000130: fca6 c33f 71ac 973f 241a bd3f b398 b83f
00000140: 4a97 b13f 3488 b23f 7823 c03f 73f9 bd3f
00000150: f24b c63f 2172 bb3f 77c0 b73f 6aa2 b03f
00000160: ba94 bd3f 9c12 a43f 0036 a43f 724e c33f
00000170: a222 bc3f f1fe 7b3f 2013 b23f 8d9f b53f
00000180: ed8d d13f e0bb a23f 8eda 963f 617a ae3f
00000190: 1618 c53f a7b7 d63f d0e0 a53f 1efd e33f
000001a0: c5a0 bb3f 8907 0140 282a dc3f 5d79 bb3f
000001b0: 9f8c a83f 6025 b93f 03cb c53f be88 a23f
000001c0: 4d21 d23f e414 e53f 593f d93f 52a4 ce3f
000001d0: 98a3 d23f 3144 c03f f1f0 c23f 4b4c c63f
000001e0: 9e37 f83f e3c5 ba3f 58d0 b13f ea03 dc3f
000001f0: fd04 d33f dbad b83f 75e5 ae3f 92cb d93f
00000200: 3ced ba3f 7684 cd3f 5b31 d63f b73b dc3f
00000210: 03e0 d33f e01f c13f 2be6 d63f b010 a33f
00000220: 8260 a53f 51ef 983f 10f8 cb3f baa5 d03f
00000230: 5cbc ca3f 3488 d03f 7b2d 893f fa0d a03f
00000240: 70f0 cf3f 4308 c43f 7a72 0140 f491 ad3f
00000250: 3894 e63f 0106 d13f 350e f83f a512 0c40
00000260: d89d a93f 9278 783f 0dc8 b03f 31d1 a03f
00000270: 2e40 be3f e2af ce3f 366f a53f a3a0 e63f
00000280: eb57 ee3f c446 e13f 3809 e33f 7e1f c23f
00000290: 25f9 bb3f 2ede ee3f bfc7 bc3f 1420 de3f
000002a0: 42ea ee3f 757c 973f c780 b23f 92b4 bf3f
000002b0: 285f ab3f fcf2 ad3f 770c b43f 4212 b93f
000002c0: 813f db3f 6136 d63f 9b0a c93f 946c d33f
000002d0: 5a5e c03f 8228 0240 e22b c83f 38cc 0b40
000002e0: 2a22 0440 0974 0040 e052 8c3f acd0 ff3f
000002f0: 3494 c83f ed9b ed3f c9ed de3f 6427 c83f
00000300: 1eef 9e3f 7c3b bc3f 1422 e73f 11b9 ec3f
00000310: 4fc6 cb3f e426 e23f 7d00 a73f 43f9 c63f
00000320: aaa0 b83f b155 e23f 4351 d33f 726d 1440
00000330: 453c d23f bff2 0540 6447 c83f a2cb b13f
00000340: edd2 523f 83d5 b83f b6f2 de3f 1406 b53f
00000350: 8d92 ba3f b460 aa3f 85c8 cd3f f1f1 ea3f
00000360: 35fd a23f 0508 cd3f f78b 9f3f f531 c63f
00000370: 3802 c63f 1f97 e53f dbac a43f 4dd1 3b3f
00000380: 68fc e23f 7a8e 963f 2e0f de3f b517 a83f
00000390: 929f 6f3f b39e a33f f70e b33f c4dc 803f
000003a0: 8c0d 8c3f d908 cc3f d0f6 a23f 9f9b 333f
000003b0: ef14 9f3f 090a bd3f ccf8 a43f 5464 5a3f
000003c0: 9e8b 553f 87c6 ae3f fc4e 953f 0a10 953f
000003d0: 3dd4 ba3f c531 8e3f 3aa1 203f 370c 0540
000003e0: 5b60 0140 6ac8 c83f 6aae b73f aada d73f
000003f0: efd6 cb3f 8b34 e83f 87af 863f 124f db3f

batch_norm.0.bias f4 [400]
-3.694498 -3.218585 -3.8485024 -2.2557814 -2.0438147 -1.515105 -1.6016947 -1.2946949
-0.93994695 -0.8463972 -0.98984253 -0.74689037 -0.531406 -0.6985776 -0.56525654 -0.35053965
-0.35295016 -0.13517585 -0.27384874 -0.044196375 -0.08391271 -0.046774007 -0.114208974 -0.028865658
0.011870539 0.073189124 0.084455475 0.04349333 0.050257113 0.0755114 0.08894386 0.082794435
0.08673298 0.07567895 0.057553124 0.10801712 0.14218342 0.1279314 0.13261867 0.14633888
0.11942305 0.17571937 0.1299291 0.16134559 0.13995901 0.16518329 0.11990843 0.17259479
0.13843863 0.19248223 0.1816477 0.12783183 0.18016751 0.19900799 0.14581081 0.15161556
0.17218545 0.16143674 0.19924837 0.12358669 0.20047581 0.15727955 0.17676924 0.19399816
0.14157987 0.18690944 0.17526823 0.17482246 0.20447724 0.15720372 0.20355275 0.17600238
0.15448223 0.16160586 0.23184003 0.18334664 0.22310749 0.13396236 0.20749238 0.20549065
0.20856982 0.17354679 0.2505496 0.20091818 0.23128562 0.23148239 0.2045163 0.21159036
0.18716623 0.1693743 0.18356764 0.22963305 0.21010007 0.08306426 0.16888237 0.19037606
0.24119927 0.1270606 0.13806558 0.18288586 0.17847715 0.20438607 0.15020035 0.24116258
0.16829976 0.2661734 0.24931194 0.16518234 0.12323296 0.1559626 0.17607827 0.09856661
0.23041809 0.27207866 0.1952771 0.2114242 0.19928335 0.1347048 0.13808158 0.18017511
0.25755742 0.16505589 0.15768756 0.16876851 0.1660775 0.13529497 0.1393905 0.19362764
0.15801223 0.18559843 0.19937918 0.2326094 0.23371501 0.17884693 0.17938066 0.06405171
0.12649892 0.06348968 0.15686555 0.17418666 0.14339226 0.15340568 0.04796681 0.07921749
0.17519365 0.17375812 0.25747252 0.0985147 0.20498736 0.20674093 0.2028647 0.29029965
0.10448778 0.0023252582 0.11860545 0.0295668 0.104089245 0.14200696 0.0644226 0.2209348
0.20555854 0.17077872 0.10982793 0.12273593 0.09920748 0.2016735 0.13162938 0.20438059
0.20865242 0.015618104 0.101788096 0.12801139 0.09060141 0.12681493 0.08085263 0.059677143
0.13905045 0.10480182 0.13696246 0.1276641 0.0305161 0.1662518 0.17264676 0.22390024
0.20403974 0.18996882 -0.004282388 0.20388116 0.08692468 0.19012712 0.14156502 -0.011671879
0.035376143 0.06921034 0.1142305 0.115319654 0.062711984 0.16297342 0.083952144 0.045538146
0.04602681 0.16448484 0.10252801 0.26922384 0.14240718 0.14840841 0.098013096 0.09810241
-0.16060358 -0.018268645 0.16169205 0.081804775 0.10577525 0.0438285 0.11154262 0.12265749
-0.017044611 0.06824956 -0.003104441 0.053641755 0.08926799 0.14986391 -0.019302154 -0.13583812
0.1728324 -0.019147465 0.124148816 0.021447351 -0.04736569 0.0640161 0.04908932 -0.04529521
0.0025017576 0.052693423 -0.03618214 -0.20786111 0.025864754 0.022718638 -0.026752394 -0.06935329
-0.10973633 0.02257412 -0.015673144 -0.05881397 0.025063956 -0.04400996 -0.14902988 0.22535643
0.21178122 0.13593265 -0.0023794395 0.11334326 0.13525522 0.15982717 -0.026836144 0.151744
00000000: a872 6cc0 4cfd 4dc0 dd4d 76c0 b95e 10c0
00000010: dccd 02c0 f6ee c1bf 5504 cdbf 90b8 a5bf
00000020: 5da0 70bf 7dad 58bf 5266 7dbf 3534 3fbf
00000030: 390a 08bf fbd5 32bf a7b4 10bf ef79 b3be
00000040: e2b5 b4be 8a6b 0abe e735 8cbe 4207 35bd
00000050: 6dda abbd 1a96 3fbd 65e6 e9bd ac77 ecbc
00000060: a67c 423c 2ee4 953d fef6 ac3d 1026 323d
00000070: 67da 4d3d b9a5 9a3d 3328 b63d 2190 a93d
00000080: 10a1 b13d 91fd 9a3d d3bc 6b3d 1438 dd3d
00000090: 8898 113e 7300 033e 30cd 073e dcd9 153e
000000a0: 1294 f43d c7ef 333e 220c 053e c737 253e
000000b0: 6a51 0f3e cf25 293e 8d92 f53d b0bc 303e
000000c0: dbc2 0d3e 101a 453e db01 3a3e 59e6 023e
000000d0: d57d 383e c0c8 4b3e 6e4f 153e 1c41 1b3e
000000e0: 6251 303e ac4f 253e c407 4c3e 051b fd3d
000000f0: 8849 4d3e e40d 213e ff02 353e 74a7 463e
00000100: 50fa 103e 3065 3f3e 8479 333e a904 333e
00000110: 7b62 513e 03fa 203e 2270 503e f839 343e
00000120: 9730 1e3e 027c 253e 7967 6d3e 39bf 3b3e
00000130: 4a76 643e 6e2d 093e e278 543e 246c 523e
00000140: 5493 553e 40b6 313e 0a48 803e 7fbd 4d3e
00000150: 23d6 6c3e b809 6d3e b96c 513e 25ab 583e
00000160: 81a8 3f3e 7570 2d3e 28f9 3b3e ed24 6b3e
00000170: 7924 573e 981d aa3d 80ef 2c3e f1f1 423e
00000180: f1fc 763e 2d1c 023e 1061 0d3e 6e46 3b3e
00000190: b7c2 363e 954a 513e 1fce 193e 53f3 763e
000001a0: c656 2c3e e147 883e a14b 7f3e 8f25 293e
000001b0: 9061 fc3d a9b4 1f3e dd4d 343e 4add c93d
000001c0: b8f2 6b3e e54d 8b3e b8f6 473e 967f 583e
000001d0: ef10 4c3e 0ef0 093e 4265 0d3e d37f 383e
000001e0: 91de 833e 6904 293e d978 213e a7d1 2c3e
000001f0: 3810 2a3e c48a 0a3e 62bc 0e3e 5346 463e
00000200: f5cd 213e 840d 3e3e 0e2a 4c3e 2931 6e3e
00000210: fd52 6f3e a623 373e 90af 373e 8b2d 833d
00000220: ef88 013e e106 823d 5da1 203e fd5d 323e
00000230: 6cd5 123e 6116 1d3e d978 443d c83c a23d
00000240: f765 333e a6ed 313e 70d3 833e 13c2 c93d
00000250: 35e8 513e e5b3 533e c4bb 4f3e 28a2 943e
00000260: b0fd d53d 5c63 183b 6ae7 f23d 1336 f23c
00000270: be2c d53d 466a 113e ffef 833d bb3c 623e
00000280: f07d 523e 9ee0 2e3e 77ed e03d fa5c fb3d
00000290: 4b2d cb3d 7f83 4e3e dac9 063e 2549 513e
000002a0: fba8 553e 13e3 7f3c 4776 d03d 6b15 033e
000002b0: 3b8d b93d c6db 013e 1096 a53d 0570 743d
000002c0: 3e63 0e3e 56a2 d63d e33f 0c3e 61ba 023e
000002d0: e6fc f93c e93d 2a3e 50ca 303e 1b46 653e
000002e0: cbef 503e 3087 423e 4653 8cbb 39c6 503e
000002f0: 9105 b23d afb0 423e 6cf6 103e 693b 3fbc
00000300: 93e6 103d 27be 8d3d aef1 e93d b62c ec3d
00000310: 246f 803d 81e2 263e 1aef ab3d 3586 3a3d
00000320: 9c86 3c3d b76e 283e 35fa d13d b5d7 893e
00000330: 30d3 113e 60f8 173e 17bb c83d ebe9 c83d
00000340: 4475 24be 20a8 95bc 9a92 253e 4389 a73d
00000350: b2a0 d83d 8385 333d 7570 e43d da33 fb3d
00000360: 24a1 8bbc 6dc6 8b3d e173 4bbb 75b7 5b3d
00000370: 23d2 b63d ed75 193e 8d1f 9ebc 2619 0bbe
00000380: fafa 303e 25db 9cbc bc41 fe3d 5bb2 af3c
00000390: 8702 42bd df1a 833d e211 493d 7887 39bd
000003a0: 87f4 233b 0fd5 573d b933 14bd 8bd9 54be
000003b0: 52e2 d33c 701c ba3c d627 dbbc 1909 8ebd
000003c0: 71bd e0bd 5ced b83c f764 80bc ebe6 70bd
000003d0: ed52 cd3c ca43 34bd 4a9b 18be d6c3 663e
000003e0: 2ddd 583e ee31 0b3e 5ff0 1bbb 8320 e83d
000003f0: 5880 0a3e bca9 233e 79d7 dbbc c762 1b3e

batch_norm.0.running_mean f4 [400]
0.0046012234 0.00348555 0.003096077 0.0028755036 0.0027536845 0.0026525622 0.0026236211 0.0025738624
0.0025466909 0.0025056915 0.0025149046 0.0025100135 0.0025107695 0.0024924271 0.0025011667 0.0025102193
0.0024991315 0.0025045017 0.0024998337 0.0025039834 0.002456581 0.0024883351 0.0024840096 0.0024850608
0.0025085865 0.0024962593 0.002505928 0.002529905 0.002548891 0.00250266 0.0024756165 0.0024887314
0.0024877973 0.0025068924 0.0024957052 0.0024704095 0.0024993578 0.0024927787 0.0024371557 0.0024384435
0.0024788794 0.0024344416 0.0024571202 0.0024514634 0.0024326844 0.0023968064 0.0024265656 0.0023937938
0.0023872668 0.002395201 0.0023795054 0.0023837597 0.00234495 0.0023504824 0.0023615346 0.002352145
0.0023145769 0.002307175 0.0023250247 0.0023033803 0.0022697502 0.0022869825 0.0022576044 0.0022123696
0.0022142588 0.0022377209 0.0022135125 0.002192469 0.0021921117 0.0021706177 0.0021756126 0.0021554797
0.002120548 0.002098579 0.002102642 0.0021020153 0.0020487283 0.0020737485 0.0020501418 0.0020543812
0.0020109424 0.0020219625 0.0019872985 0.0019749405 0.0019679398 0.0019515145 0.0019512589 0.0019350916
0.0019318257 0.0019071294 0.0019055394 0.0018909825 0.0018668365 0.0018609065 0.0018418136 0.00186979
0.0018339171 0.0018312354 0.001797907 0.0018012932 0.0018032839 0.0017917721 0.0017698994 0.0017762646
0.0017594644 0.0017328276 0.0017322261 0.001726035 0.0017092812 0.0017002661 0.0016956156 0.0016833934
0.0016777901 0.0016697386 0.0016584408 0.0016565379 0.0016470667 0.0016329365 0.0016363153 0.0016189646
0.0016202669 0.0016036425 0.0015973424 0.0015879063 0.0015738514 0.0015712201 0.0015717123 0.0015681973
0.0015630582 0.0015395705 0.0015378805 0.0015266134 0.0015178276 0.0015096068 0.0015129811 0.0015044442
0.0014965461 0.0014874564 0.0014821008 0.001461668 0.0014718547 0.0014529619 0.0014525949 0.0014345663
0.001425746 0.001418759 0.0014027541 0.0013913212 0.0013912206 0.0013803889 0.0013770903 0.0013663317
0.0013589079 0.0013395139 0.0013331545 0.0013341221 0.0013184624 0.0013131134 0.0013135656 0.0013003029
0.0012890886 0.0012812327 0.0012694157 0.001261066 0.0012520361 0.0012498157 0.0012457359 0.0012326592
0.001226706 0.0012161214 0.0012087158 0.0012057523 0.001199588 0.0011862665 0.0011824212 0.0011739947
0.0011683828 0.001160797 0.0011528333 0.001141683 0.0011362442 0.0011257282 0.001120557 0.0011204339
0.001111219 0.0011007461 0.0010992036 0.0010940862 0.0010885719 0.0010783288 0.0010699361 0.0010653393
0.0010606141 0.0010526838 0.0010539822 0.0010391655 0.0010319905 0.0010291125 0.0010194407 0.0010164387
0.0010053229 0.0010030846 0.0009966743 0.0009954437 0.0009893196 0.0009824547 0.0009749361 0.00097314676
0.0009654769 0.0009620839 0.00095459505 0.0009490407 0.00094263675 0.00093991746 0.0009352401 0.0009261303
0.0009278357 0.0009208053 0.000925078 0.0009174416 0.00091563637 0.00091195793 0.00090726087 0.0009033197
0.00090108364 0.00089952425 0.0008956908 0.00089314394 0.0008883702 0.0008820894 0.0008813734 0.00088121305
0.00087627233 0.0008727957 0.0008698593 0.000869663 0.0008648401 0.00086299906 0.00086194236 0.0008554302
0.0008566865 0.00085075013 0.0008503951 0.0008456313 0.00084433984 0.0008424521 0.000841465 0.00083917595
0.00083769223 0.0008340101 0.00083414535 0.00083130354 0.0008306 0.000826696 0.00082474935 0.0008221579
00000000: dcc5 963b d36d 643b 8de7 4a3b f272 3c3b
00000010: 2977 343b 9cd6 2d3b 0ff1 2b3b 3fae 283b
00000020: 62e6 263b 8736 243b 19d1 243b 0a7f 243b
00000030: b98b 243b fd57 233b 9dea 233b 7e82 243b
00000040: 78c8 233b 9122 243b 40d4 233b df19 243b
00000050: 97fe 203b 5613 233b c4ca 223b 67dc 223b
00000060: 1967 243b 4898 233b 7f3a 243b c3cc 253b
00000070: 4b0b 273b ab03 243b f43d 223b fc19 233b
00000080: 500a 233b ad4a 243b fc8e 233b 98e6 213b
00000090: 44cc 233b e35d 233b b0b8 1f3b 4bce 1f3b
000000a0: b274 223b 278b 1f3b a307 213b bba8 203b
000000b0: ac6d 1f3b bd13 1d3b 0407 1f3b 32e1 1c3b
000000c0: b173 1c3b cef8 1c3b 7af1 1b3b da38 1c3b
000000d0: bcad 193b 8d0a 1a3b fac3 1a3b 7226 1a3b
000000e0: 28b0 173b f933 173b 715f 183b 4ff4 163b
000000f0: 17c0 143b 33e1 153b 51f4 133b 67fd 103b
00000100: 191d 113b baa6 123b 9410 113b 87af 0f3b
00000110: 88a9 0f3b ec40 0e3b b994 0e3b f342 0d3b
00000120: e4f8 0a3b 5088 093b 7bcc 093b f7c1 093b
00000130: f543 063b bae7 073b ac5b 063b cca2 063b
00000140: 04ca 033b e782 043b 563d 023b 016e 013b
00000150: 8df8 003b f6c9 ff3a 62c1 ff3a e6a2 fd3a
00000160: 5035 fd3a a5f8 f93a 4bc3 f93a d8da f73a
00000170: a3b0 f43a a9e9 f33a 0269 f13a be13 f53a
00000180: 0c60 f03a 1006 f03a c0a7 eb3a 5f19 ec3a
00000190: 2b5c ec3a e5d9 ea3a f8fb e73a 8dd1 e83a
000001a0: d49d e63a 0c20 e33a dd0b e33a 203c e23a
000001b0: f609 e03a 77db de3a 6b3f de3a 4fa5 dc3a
000001c0: 4be9 db3a 21db da3a 0a60 d93a 3020 d93a
000001d0: 63e2 d73a 4208 d63a a179 d63a 7033 d43a
000001e0: 235f d43a 5031 d23a eb5d d13a 4b21 d03a
000001f0: b149 ce3a 66f1 cd3a ea01 ce3a f88b cd3a
00000200: 88df cc3a 6acb c93a b592 c93a a518 c83a
00000210: d8f1 c63a 00de c53a 394f c63a c530 c53a
00000220: c127 c43a c1f6 c23a 0d43 c23a 7195 bf3a
00000230: 40eb c03a 5071 be3a ff64 be3a 0f08 bc3a
00000240: 19e0 ba3a a7f5 b93a 9edc b73a fe5c b63a
00000250: 9e59 b63a 2aee b43a 7c7f b43a 7c16 b33a
00000260: 621d b23a a192 af3a 3ebd ae3a b6dd ae3a
00000270: 42d0 ac3a c61c ac3a f32b ac3a ed6e aa3a
00000280: a3f6 a83a 09ef a73a 8662 a63a 5a4a a53a
00000290: 5c1b a43a dbd0 a33a f647 a33a 2e91 a13a
000002a0: 6cc9 a03a 4366 9f3a c66d 9e3a 550a 9e3a
000002b0: 7e3b 9d3a 807c 9b3a 79fb 9a3a bae0 993a
000002c0: 6c24 993a e225 983a ab1a 973a 86a4 953a
000002d0: 07ee 943a 2c8d 933a a7df 923a 86db 923a
000002e0: 53a6 913a e946 903a 2713 903a 7167 8f3a
000002f0: 69ae 8e3a b656 8d3a 193d 8c3a dba2 8b3a
00000300: 4e04 8b3a 35fa 893a c625 8a3a 9c34 883a
00000310: db43 873a 49e3 863a c19e 853a 063a 853a
00000320: 0ac5 833a ef79 833a d7a2 823a 8c79 823a
00000330: 0fac 813a b6c5 803a db92 7f3a c61a 7f3a
00000340: 0f18 7d3a 5c34 7c3a ca3d 7a3a 0bc9 783a
00000350: 481b 773a cb64 763a e72a 753a 8dc7 723a
00000360: 003a 733a 3362 713a ef80 723a 7780 703a
00000370: 5107 703a 7610 6f3a 3fd5 6d3a c2cc 6c3a
00000380: b336 6c3a 0dce 6b3a cbcc 6a3a e021 6a3a
00000390: 84e1 683a 053c 673a f80b 673a 3501 673a
000003a0: a4b5 653a 54cc 643a 4507 643a 19fa 633a
000003b0: 70b6 623a e33a 623a f9f3 613a f33e 603a
000003c0: 4293 603a e004 5f3a 0ded 5e3a 5bad 5d3a
000003d0: b056 5d3a 01d8 5c3a c395 5c3a 25fc 5b3a
000003e0: 9398 5b3a 78a1 5a3a 8caa 5a3a d6eb 593a
000003f0: 9fbc 593a a1b6 583a fe33 583a 1586 573a
