Saves/ep_25.pth (torch, 81601 bytes, 38 tensors)

sage.0.lin_rel.weight f4 [32, 3]
0.036579326 -0.009573512 -0.341845 -0.7628971 -1.0321422 -0.24718769 -0.59130627 -0.8897598
-1.3878824 0.13832934 0.22421382 0.21215485 -0.47784254 -0.8722524 -1.6201298 -0.15884028
0.15814006 0.104219384 0.10874671 0.1772112 0.21719718 0.10730072 0.14299023 0.055864323
0.10855497 0.17684141 0.22100802 0.20156612 0.20040005 0.028654087 -0.00979769 0.07598784
0.13757351 0.17496394 0.27159292 0.41028666 0.14730613 0.12124721 0.1395643 0.0648982
-0.06763973 -0.5898403 0.036512002 0.07219102 -0.13829944 0.10769837 0.17589897 0.21642922
0.5354067 0.6258834 0.73590386 -0.1554732 -0.2762755 -1.3284216 0.37352866 0.6146892
1.1493776 0.23595707 0.339421 0.6428272 -0.6389728 -1.105685 -1.2988267 0.3367271
0.061480615 -0.1109511 0.12737222 0.21212052 0.17179292 0.3578337 0.4451788 0.4601777
-0.16282345 0.19803594 -0.50965434 0.02236838 -0.018826898 0.009101266 -0.3395031 -0.9796694
-1.8851212 0.051703155 0.15496367 0.25941303 0.20537952 -0.04276882 0.4340629 0.5733144
0.42655393 1.0087348 -0.6299187 -1.0849532 -0.6229665 0.12040469 0.37389493 0.55348563
00000000: 34d4 153d 38da 1cbc 4f06 afbe 394d 43bf
00000010: 3c1d 84bf c51e 7dbe d95f 17bf 4cc7 63bf
00000020: 21a6 b1bf 35a6 0d3e 4f98 653e 1f3f 593e
00000030: c7a7 f4be ef4b 5fbf 6a60 cfbf 07a7 22be
00000040: 78ef 213e f970 d53d 98b6 de3d da76 353e
00000050: f068 5e3e 7bc0 db3d 086c 123e fdd1 643d
00000060: 1152 de3d ea15 353e ed4f 623e 5967 4e3e
00000070: ac35 4d3e fabb ea3c 7e86 20bc 839f 9b3d
00000080: 12e0 0c3e bf29 333e 3a0e 8b3e 1811 d23e
00000090: 6bd7 163e 7550 f83d f2e9 0e3e 59e9 843d
000000a0: b386 8abd c6ff 16bf 9c8d 153d e3d8 933d
000000b0: 5e9e 0dbe f790 dc3d dc1e 343e 9f9f 5d3e
000000c0: 6a10 093f e539 203f 3264 3c3f 5e34 1fbe
000000d0: fb73 8dbe b809 aabf 263f bf3e 455c 1d3f
000000e0: ce1e 933f bb9e 713e 97c8 ad3e 5390 243f
000000f0: b993 23bf 1687 8dbf f43f a6bf 7f67 ac3e
00000100: 19d3 7b3d 553a e3bd dd6d 023e 1f36 593e
00000110: 7cea 2f3e fb35 b73e 7aee e33e 699c eb3e
00000120: 31bb 26be efc9 4a3e b578 02bf e53d b73c
00000130: de3a 9abc 7a1d 153c 5ad3 adbe 9dcb 7abf
00000140: a74b f1bf b0c6 533d ccae 1e3e c9d1 843e
00000150: 024f 523e 5c2e 2fbd 7e3d de3e bcc4 123f
00000160: 4765 da3e 391e 813f 5a42 21bf bfdf 8abf
00000170: bc7a 1fbf bc96 f63d 286f bf3e 3cb1 0d3f

sage.0.lin_root.weight f4 [32, 3]
0.03374297 0.37992257 0.1161591 -0.110708795 -0.061923027 -0.8412486 -0.13730063 -0.058677256
-0.65734655 -0.04473979 0.08974551 0.37854698 -0.42241883 -0.2111203 -1.495034 0.14015967
0.3179703 -0.14847727 0.060132604 0.029146245 0.25957555 -0.030894034 0.21471612 0.36004364
0.060075883 0.029180856 0.25726348 -0.15883248 0.20738176 0.26692766 0.11190718 0.26799276
0.327156 -0.04125279 -0.0007218376 0.2334612 -0.08740314 0.25643507 0.22450484 0.31934443
0.12402821 -0.13677984 0.099593185 0.23514026 0.24117403 0.05886108 0.028538285 0.259814
-0.15223636 -0.56643236 0.18093589 -0.11421308 -0.068361886 -1.1810116 0.5323512 0.5445851
1.6228044 -0.17465858 0.005550293 0.031685166 -0.3946996 -0.13072345 -1.5305216 0.1651246
-0.15433963 1.0744181 0.287586 -0.18904194 0.46341914 -0.29988518 -0.095737696 0.5306453
0.5306749 -0.10654332 -0.19454381 0.3344736 0.109280534 0.018383784 -0.35734078 -0.07917123
-2.1524959 0.16934751 0.07668869 -0.024854414 -0.11724051 0.41512525 -0.43401766 0.0852066
0.032819394 0.9476621 -0.4717109 -0.18015526 -0.9033115 0.22684005 -0.31214017 -0.06279205
00000000: 1236 0a3d 3685 c23e d2e4 ed3d 4bbb e2bd
00000010: 00a3 7dbd 115c 57bf 8998 0cbe 9057 70bd
00000020: dd47 28bf 1241 37bd 7ecc b73d e9d0 c13e
00000030: 4847 d8be ec2f 58be 465d bfbf 0486 0f3e
00000040: 01cd a23e 6d0a 18be 9b4d 763d 1bc4 ee3c
00000050: 16e7 843e 7c15 fdbc 8bde 5b3e a457 b83e
00000060: 2112 763d b10c ef3c 0ab8 833e fba4 22be
00000070: e25b 543e beaa 883e 972f e53d 5936 893e
00000080: fe80 a73e aff8 28bd b439 3dba 7410 6f3e
00000090: 6b00 b3bd 754b 833e 99e4 653e 1d81 a33e
000000a0: 8102 fe3d 0410 0cbe 83f7 cb3d 9cc8 703e
000000b0: 53f6 763e 5118 713d 1fc9 e93c 5706 853e
000000c0: d9e3 1bbe b601 11bf 4247 393e 8ce8 e9bd
000000d0: 5101 8cbd 632b 97bf 2b48 083f ee69 0b3f
000000e0: 0eb8 cf3f b3d9 32be 3bdf b53b 4ec8 013d
000000f0: 1116 cabe 5edc 05be 22e8 c3bf 6c16 293e
00000100: 350b 1ebe 8886 893f 793e 933e 3694 41be
00000110: 4645 ed3e 8d8a 99be 2012 c4bd 5fd8 073f
00000120: 4fda 073f 6233 dabd 7e36 47be 2040 ab3e
00000130: 79ce df3d 9799 963c 5ff5 b6be 8724 a2bd
00000140: 7ec2 09c0 6f69 2d3e f60e 9d3d 7c9b cbbc
00000150: cb1b f0bd 4c8b d43e 9037 debe cc80 ae3d
00000160: a16d 063d fc99 723f 1784 f1be 9f7a 38be
00000170: 6c3f 67bf c248 683e d6d0 9fbe 1e99 80bd

sage.0.lin_root.bias f4 [32]
-0.5334141 0.60486865 0.6541438 0.63472176 0.61884606 -1.2906166 2.694472 -0.5509831
2.7191465 -1.1376675 -1.3485377 0.88396746 -0.50979537 -0.6771041 -1.297911 2.9425871
-0.5181873 -0.21430665 0.014780955 0.78172934 0.6668521 0.7584555 -0.27285245 0.96916574
-0.46163595 -1.318866 -0.42049152 -2.062938 -1.6547972 -0.4152432 0.7127532 0.77322316
00000000: d48d 08bf acd8 1a3f f875 273f 207d 223f
00000010: b26c 1e3f ed32 a5bf 3b72 2c40 3a0d 0dbf
00000020: 7f06 2e40 179f 91bf e29c acbf b14b 623f
00000030: f381 02bf b256 2dbf f321 a6bf 5953 3c40
00000040: eca7 04bf 3473 5bbe d22b 723c 6a1f 483f
00000050: d2b6 2a3f 242a 423f 51b3 8bbe 3f1b 783f
00000060: 8c5b ecbe 9ad0 a8bf aa4a d7be 2d07 04c0
00000070: 65d0 d3bf c29a d4be fe76 363f f4f1 453f

sage.1.lin_rel.weight f4 [16, 32]
-0.058456965 -0.039027944 0.07049225 -0.019606065 -0.033174798 0.09464124 -0.27742702 0.09244014
-0.2666044 -0.12176677 -0.09582414 -0.08447407 0.08160485 -0.17244653 0.17512152 -0.23561975
-0.19165261 0.18547407 0.01774769 0.108252816 0.014554367 -0.16004528 -0.04083588 0.019630136
-0.037271883 -0.14561597 -0.06942003 0.09540913 0.18380314 0.027739296 0.078170255 -0.21444005
0.11259037 -0.051617984 0.112404175 0.04812955 -0.01076476 0.22126001 -0.332149 0.10053044
-0.38724583 0.30939043 0.08613783 0.021017648 0.008198649 -0.05849212 0.06947129 -0.22478166
-0.08755798 0.13806489 0.08449302 0.004274501 0.036408015 -0.38769767 -0.036875192 0.020325823
0.16616072 -0.04254085 0.028596163 0.2779216 0.34948412 0.04608808 -0.033267394 -0.09828895
0.047716517 0.046813354 -0.10459682 0.01287736 -0.0012462003 0.020157846 -0.33313054 -0.13286616
-0.45577455 0.072246574 -0.07505883 -0.08973401 -0.038418982 0.10561157 -0.2129206 -0.2660427
0.105455585 -0.06852497 -0.03312544 0.07152414 0.036615655 0.21810795 -0.075109534 -0.038174864
0.1251546 -0.023468912 0.037557933 -0.012464625 0.015684007 -0.08956972 -0.005002853 -0.025756933
0.023550082 -0.09669724 -0.11753871 0.050870847 0.05158258 -0.08177167 -0.29519272 -0.0021793067
-0.22234593 0.1119825 -0.100061595 -0.02386692 -0.05373627 -0.18714896 -0.04304048 -0.2819149
0.019895855 0.06185396 0.11649116 -0.023848085 -0.024126887 -0.060550027 0.08655121 0.1470267
-0.21043113 0.17231764 -0.1483781 0.108808264 0.013565657 -0.04872981 0.012085925 -0.117391124
0.44331905 -0.13734901 -0.087427594 -0.067135274 -0.049048092 0.07646959 -0.48142418 0.16513821
-0.46623966 -0.11943379 0.27438447 -0.24981906 0.06655999 -0.071221344 0.13472146 -0.6566662
-0.59753686 0.10530695 0.32833555 -0.3707144 -0.12606531 -0.059196394 -0.15655348 -0.047376532
0.17306402 0.22554559 0.12027912 0.4311144 0.6617764 0.044437416 -0.13328929 -0.48028168
-0.083873585 -0.16056745 -0.108729094 0.11497422 -0.1476221 -0.09777554 -0.7370452 -0.13830513
-0.5685189 -0.098676845 0.1355649 -0.046441723 0.16728684 -0.02861412 -0.10397207 -0.3832892
-0.072333634 -0.13701196 0.08327858 -0.08252692 0.0006580524 -0.09078279 -0.26271227 -0.25042582
-0.034940712 0.090359636 -0.076673366 -0.013392941 0.10708602 -0.13617 -0.060059726 -0.124610744
-0.0034902568 0.03250128 -0.013044597 -0.095666125 -0.03474889 0.023371594 -0.06747291 -0.04668932
0.19122499 -0.076423764 0.15164277 -0.015288761 0.071461655 0.06590521 0.14374761 0.2951143
-0.056700956 -0.013697012 0.11105192 -3.5260273e-05 0.07318229 -0.12294925 -0.024319205 -0.17634009
-0.061803263 0.013655277 0.13191122 -0.13740928 0.03781995 0.13528937 -0.028426854 -0.09201185
0.06981149 -0.06561837 -0.09243335 -0.14896083 0.04603365 -0.21325427 -0.038349625 -0.094704986
-0.06440416 -0.10188403 -0.119004585 -0.13530304 -0.13923416 -0.11004421 -0.007576288 -0.1680556
0.1676409 0.15477143 -0.03476797 0.018371673 0.0038109769 0.09433065 -0.03620006 0.17317694
0.04513589 -0.06766033 0.08213084 0.091850996 -0.3382331 0.089375675 -0.07616837 -0.06907093
00000000: 9270 6fbd c4db 1fbd 3e5e 903d e69c a0bc
00000010: 4ce2 07bd 44d3 c13d ea0a 8ebe 4251 bd3d
00000020: 5f80 88be db60 f9bd 723f c4bd be00 adbd
00000030: 7220 a73d d395 30be 0e53 333e 4e46 71be
00000040: 9540 44be eaec 3d3e 9b63 913c a7b3 dd3d
00000050: 7175 6e3c e9e2 23be 8643 27bd 61cf a03c
00000060: 67aa 18bd 5a1c 15be 172c 8ebd dd65 c33d
00000070: e436 3c3e 853d e33c ba17 a03d 2c96 5bbe
00000080: c895 e63d 616d 53bd 2934 e63d 7e23 453d
00000090: ad5e 30bc fc91 623e 6f0f aabe e7e2 cd3d
000000a0: 1645 c6be 6c68 9e3e 0869 b03d 342d ac3c
000000b0: a053 063c 6f95 6fbd f746 8e3d 2a2d 66be
000000c0: 9951 b3bd e260 0d3e ad0a ad3d 1d11 8c3b
000000d0: 9220 153d 4f80 c6be 710a 17bd 5782 a63c
000000e0: 0926 2a3e 503f 2ebd 8042 ea3c bd4b 8e3e
000000f0: 95ef b23e dbc6 3c3d 6443 08bd b84b c9bd
00000100: 6572 433d 5cbf 3f3d dc36 d6bd 90fb 523c
00000110: 8b57 a3ba 1122 a53c 1690 aabe 110e 08be
00000120: 485b e9be 03f6 933d 72b8 99bd 77c6 b7bd
00000130: 395d 1dbd e14a d83d dc07 5abe c036 88be
00000140: 19f9 d73d d256 8cbd 8bae 07bd 407b 923d
00000150: 4cfa 153d b157 5f3e 07d3 99bd 3f5d 1cbd
00000160: 8728 003e e041 c0bc 59d6 193d 6d38 4cbc
00000170: bf7b 803c 5470 b7bd f9ee a3bb 3400 d3bc
00000180: 1aec c03c 3409 c6bd 23b8 f0bd f35d 503d
00000190: 4148 533d e877 a7bd 8023 97be b3d2 0ebb
000001a0: a7ae 63be 1557 e53d 18ed ccbd 8f84 c3bc
000001b0: 901a 5cbd faa3 3fbe 374b 30bd 2657 90be
000001c0: a2fc a23c 945a 7d3d eb92 ee3d 0f5d c3bc
000001d0: c0a5 c5bc 4e03 78bd c341 b13d 2b8e 163e
000001e0: 427b 57be 0974 303e 6ef0 17be ded6 de3d
000001f0: 7d42 5e3c e998 47bd 0b04 463c c26a f0bd
00000200: b7fa e23e 38a5 0cbe 3d0d b3bd 387e 89bd
00000210: a7e6 48bd 179c 9c3d 3b7d f6be fe19 293e
00000220: f7b6 eebe b499 f4bd 1f7c 8c3e 91d0 7fbe
00000230: 9b50 883d 7fdc 91bd 6cf4 093e 471b 28bf
00000240: 2df8 18bf 2cab d73d 991b a83e 47ce bdbe
00000250: 4417 01be eb77 72bd 8e4f 20be e50d 42bd
00000260: b237 313e 6cf5 663e e654 f63d 07bb dc3e
00000270: 2e6a 293f 0204 363d fd7c 08be 7be7 f5be
00000280: eac5 abbd cb6b 24be 5cad debd 9b77 eb3d
00000290: 3f2a 17be 8b3e c8bd ffae 3cbf dc9f 0dbe
000002a0: 748a 11bf 1617 cabd 86d1 0a3e ad39 3ebd
000002b0: 3e4d 2b3e 2968 eabc 4fef d4bd 7b3e c4be
000002c0: a823 94bd dd4c 0cbe f68d aa3d e003 a9bd
000002d0: 2681 2c3a 54ec b9bd 3982 86be d037 80be
000002e0: fe1d 0fbd 790e b93d ed06 9dbd 116e 5bbc
000002f0: ea4f db3d 2670 0bbe 3001 76bd eb33 ffbd
00000300: cbbc 64bb 1020 053d 01b9 55bc 9aec c3bd
00000310: da54 0ebd c975 bf3c 3d2f 8abd 4d3d 3fbd
00000320: 7cd0 433e 1084 9cbd 3e48 1b3e b67d 7abc
00000330: 7d5a 923d 50f9 863d 9332 133e 3919 973e
00000340: 433f 68bd 6f69 60bc 306f e33d 6ee4 13b8
00000350: 99e0 953d d1cc fbbd 1239 c7bc 7f92 34be
00000360: 6b25 7dbd 62ba 5f3c bc13 073e 05b5 0cbe
00000370: 18e9 1a3d 4c89 0a3e 6fdf e8bc b570 bcbd
00000380: 54f9 8e3d ed62 86bd b24d bdbd 3089 18be
00000390: c88d 3c3d 545f 5abe 7f14 1dbd b0f4 c1bd
000003a0: 54e6 83bd 93a8 d0bd adb8 f3bd e18c 0abe
000003b0: 6693 0ebe dc5e e1bd 8342 f8bb c416 2cbe
000003c0: 0eaa 2b3e 677c 1e3e dc68 0ebd 3180 963c
000003d0: 95c1 793b 6e30 c13d 8446 14bd 4c55 313e
000003e0: 69e0 383d 8091 8abd 3734 a83d 601c bc3d
000003f0: e42c adbe 980a b73d 2afe 9bbd 0f75 8dbd

sage.1.lin_root.weight f4 [16, 32]
-0.12296486 0.1112922 0.005204694 -0.06217576 0.050085146 -0.08132412 -0.26005992 -0.09966142
-0.38106918 -0.21123548 -0.21035022 0.030068647 -0.17581068 0.08152964 -0.26488274 -0.19289373
0.09446493 -0.00016877083 0.010820482 -0.14466035 0.06356906 -0.041546024 -0.01133359 -0.18041228
0.23740247 0.25822026 0.0155291725 0.38578632 -0.4185681 -0.0008119189 0.14409165 0.28296232
-0.27205727 -0.025075091 0.15278274 0.008127411 0.12757647 -0.030483048 -0.551629 -0.206165
-0.29036745 -0.23343779 0.02339098 0.21155986 -0.16248263 -0.08221183 -0.11094612 -0.10665275
0.28262836 0.063837744 -0.10432388 0.074263774 -0.08233674 -0.25695336 0.0581257 -0.22288506
0.44889733 -0.14442755 0.046751797 0.2950794 -1.0639857 -0.09476778 0.051741995 0.61747986
0.14295939 -0.050863083 -0.04337221 -0.03370023 0.032556485 0.034851447 -0.30212712 0.092664
-0.24130064 0.18595043 -0.0318063 0.0075988197 0.05713286 0.050639905 -0.11810647 -0.42074013
0.11636295 0.047130384 0.01501802 0.10012663 -0.07762581 -0.09145842 -0.031844735 -0.03888425
-0.00084792764 0.026608765 0.0627384 0.05355647 0.2615291 0.061913896 -0.07840515 -0.20871012
-0.1778205 -0.0028654255 0.17975417 0.010587453 0.012403704 0.09582524 -0.20283443 0.025050452
-0.18255362 -0.120286696 0.14321443 0.005907144 -0.028031982 0.0931488 -0.14009385 -0.25000027
-0.060590453 -0.057346724 -0.099724054 -0.3594792 0.13870871 -0.11390064 0.014180344 -0.071081065
0.2929974 0.20145376 0.019041738 0.31856975 0.12909347 -0.10954002 -0.03637947 0.0753894
-0.53419584 0.10625682 0.02320751 0.15300274 0.034227327 -0.21431147 -0.807383 -0.3159112
-0.4859801 -0.1475229 -0.14258096 0.044793542 -0.20632195 -0.19536512 -0.43283975 -0.36634108
0.49390367 0.086711 -0.3093753 -0.0027472621 0.1859437 0.13978437 0.043285526 -0.06607802
0.4692908 -0.025965622 0.26227087 0.17630939 -0.9583908 -0.15496205 0.26506382 0.5615256
-0.19026707 0.13198222 0.051498238 -0.09444766 0.027474927 0.032070693 -0.532447 0.018227138
-0.4517241 -0.098811485 -0.11245135 0.10543483 -0.19479367 -0.12669906 -0.27574843 -0.505649
0.0009168625 -0.007512965 -0.16519958 -0.38215023 0.050322626 -0.25612414 -0.097911775 -0.09104567
0.30582926 0.054593634 -0.06941905 -0.008314246 -0.68266255 -0.05528931 0.14839673 0.22177307
0.021253653 0.079557136 0.00710453 0.123095855 0.018096842 0.013355619 -0.03522358 -0.032277554
-0.08648787 0.114113316 0.08296323 0.096468195 0.013925716 -0.05479636 0.073022515 0.03703234
0.08039127 -0.08688575 -0.09876294 0.0657527 0.0068883784 0.13670877 0.17260477 0.101443626
-0.08826491 -0.0029901315 -0.03966514 -0.16769148 0.25207257 -0.031885624 -0.06495536 -0.026526615
0.060575984 0.009454273 -0.0059042163 0.0153507395 0.0011698727 0.18121658 0.09929709 0.06571246
-0.040371254 0.17441922 0.007761001 0.025709886 0.20950365 0.07215433 0.09944338 -0.45234323
-0.10727238 -0.104066074 0.028393747 0.0030332173 -0.07458823 0.013335198 -0.11294202 -0.15337886
-0.15009114 0.11443942 0.030927341 0.1343668 0.373062 -0.15788801 0.04483222 -0.05079915
00000000: 00d5 fbbd 2aed e33d 238c aa3b 02ac 7ebd
00000010: 1526 4d3d 438d a6bd 9326 85be 491b ccbd
00000020: 801b c3be 1d4e 58be 0c66 57be 8652 f63c
00000030: b707 34be 03f9 a63d b69e 87be ef85 45be
00000040: d476 c13d 13f8 30b9 6448 313c d821 14be
00000050: 7f30 823d 2a2c 2abd 86b0 39bc ffbd 38be
00000060: a219 733e 7235 843e 126e 7e3c c985 c53e
00000070: 8f4e d6be f4d6 54ba c38c 133e 70e0 903e
00000080: 174b 8bbe 476a cdbc 1473 1c3e d528 053c
00000090: 68a3 023e 96b7 f9bc 8f37 0dbf eb1c 53be
000000a0: 0bab 94be 510a 6fbe 719e bf3c 26a3 583e
000000b0: d961 26be ad5e a8bd b837 e3bd c26c dabd
000000c0: aab4 903e 5dbd 823d c2a7 d5bd 9b17 983d
000000d0: 2aa0 a8bd 648f 83be 3715 6e3d fb3b 64be
000000e0: dfd5 e53e d1e4 13be d07e 3f3d a614 973e
000000f0: af30 88bf 9c15 c2bd 6aef 533d 2913 1e3f
00000100: f263 123e cf55 50bd 0fa7 31bd 4109 0abd
00000110: f359 053d 64c0 0e3d 68b0 9abe a0c6 bd3d
00000120: 8417 77be ca69 3e3e 5347 02bd 85ff f83b
00000130: 2504 6a3d ca6b 4f3d cee1 f1bd 406b d7be
00000140: b34f ee3d ca0b 413d 240e 763c 310f cd3d
00000150: 48fa 9ebd 8d4e bbbd a06f 02bd 1745 1fbd
00000160: 7647 5eba a0fa d93c fe7c 803d 075e 5b3d
00000170: 24e7 853e 6d99 7d3d e192 a0bd 1bb8 55be
00000180: 9416 36be ddc9 3bbb 7a11 383e ff76 2d3c
00000190: e838 4b3c 0640 c43d d4b3 4fbe 9b36 cd3c
000001a0: 56ef 3abe df58 f6bd cea6 123e b790 c13b
000001b0: 54a3 e5bc ccc4 be3d c374 0fbe 0900 80be
000001c0: b22d 78bd 66e4 6abd 203c ccbd a80d b8be
000001d0: a809 0e3e bd44 e9bd ac54 683c f392 91bd
000001e0: c103 963e e549 4e3e 6bfd 9b3c 931b a33e
000001f0: 1431 043e 8556 e0bd a402 15bd c265 9a3d
00000200: 0fc1 08bf 2d9d d93d ad1d be3c c0ac 1c3e
00000210: f431 0c3d 7774 5bbe a7b0 4ebf 1dbf a1be
00000220: 62d2 f8be 3e10 17be be00 12be 6f79 373d
00000230: 1046 53be cb0d 48be 2c9d ddbe 0f91 bbbe
00000240: f1e0 fc3e 8995 b13d 7066 9ebe 690b 34bb
00000250: 0668 3e3e a223 0f3e 2a4c 313d ea53 87bd
00000260: e246 f03e dbb5 d4bc 5e48 863e 738a 343e
00000270: 1959 75bf 5fae 1ebe 72b6 873e 24c0 0f3f
00000280: 5fd5 42be 5926 073e d1ef 523d c66d c1bd
00000290: 1913 e13c 8f5c 033d 724e 08bf 1451 953c
000002a0: 6248 e7be ad5d cabd e54c e6bd 37ee d73d
000002b0: fe77 47be 66bd 01be e62e 8dbe 3672 01bf
000002c0: 9a59 703a 512f f6bb 142a 29be 32a9 c3be
000002d0: 191f 4e3d b422 83be f885 c8bd 2776 babd
000002e0: a795 9c3e 939d 5f3d 932b 8ebd 7a38 08bc
000002f0: f9c2 2ebf 0b77 62bd 50f5 173e 7b18 633e
00000300: 241c ae3c daee a23d 1ecd e83b ae19 fc3d
00000310: d43f 943c 87d1 5a3c 9a46 10bd 7835 04bd
00000320: 8d20 b1bd 3eb4 e93d a0e8 a93d 1e91 c53d
00000330: b028 643c 2672 60bd d48c 953d 39af 173d
00000340: 2ea4 a43d 28f1 b1bd 3944 cabd 5aa9 863d
00000350: e8b7 e13b 62fd 0b3e 4ebf 303e adc1 cf3d
00000360: 3cc4 b4bd 15f6 43bb ea77 22bd 51b7 2bbe
00000370: a80f 813e 809a 02bd 5107 85bd 584e d9bc
00000380: 861e 783d 18e6 1a3c 2878 c1bb ab81 7b3c
00000390: 6a56 993a d790 393e 465c cb3d 4194 863d
000003a0: 545c 25bd f49a 323e ff4f fe3b 8a9d d23c
000003b0: 2088 563e a6c5 933d f9a8 cb3d 8899 e7be
000003c0: 9fb1 dbbd 9820 d5bd 019a e83c f1c8 463b
000003d0: b7c1 98bd e07b 5a3c 254e e7bd 590f 1dbe
000003e0: 7eb1 19be 375f ea3d 565b fd3c 7397 093e
000003f0: fc01 bf3e 65ad 21be fda1 373d c512 50bd

sage.1.lin_root.bias f4 [16]
-0.024049826 -0.02750106 0.010770711 -0.0096501345 -0.0139594395 -0.039929084 0.01123988 -0.011752388
0.0016170326 0.010506062 0.015619584 -0.01130277 0.02759505 -0.0020708903 -0.0076192887 0.0022149181
00000000: 2404 c5bc e749 e1bc a377 303c 991b 1ebc
00000010: 22b6 64bc ae8c 23bd 7927 383c 178d 40bc
00000020: 9cf2 d33a 9e21 2c3c 49e9 7f3c 412f 39bc
00000030: 040f e23c c6b7 07bb 3aab f9bb 2928 113b

sage.2.lin_rel.weight f4 [8, 16]
-0.28615984 -0.42131534 -0.62945235 -0.11277312 -0.46809387 -0.26801026 0.07484233 0.07920951
-0.34275827 -0.825892 -0.5398637 0.020877289 0.11318328 0.03840822 -0.441602 -0.60644376
-0.06818082 -0.035297103 -0.5459003 0.07480022 0.10051178 -0.1407548 -0.3401786 0.2784256
-0.43374562 -0.2363491 -0.6166605 -0.009244771 0.05205417 -0.022745572 -0.3424675 -0.2746901
-0.18819614 -0.009133396 -0.1527591 -0.0831971 0.06610907 -0.21926013 0.14574267 0.1590617
0.07775207 0.03716184 -0.07265361 -0.025723394 0.06814129 0.13933574 -0.3474346 0.067163475
0.169888 0.2269539 0.1768065 -0.15246788 -0.15399781 -0.13492663 0.10126513 -0.14251651
0.014671268 -0.15255009 -0.05884639 -0.13071547 0.17091078 0.0030428055 -0.25102854 -0.048373103
0.07695638 -0.18176553 -0.6095939 -0.04163871 -0.50298774 -0.45278856 -0.18428047 0.072086714
-0.568558 -0.636096 -0.3650143 -0.19957118 0.0888153 -0.051779035 -0.4978439 -0.33835483
0.21722981 0.19077472 0.12746789 0.08499063 0.15753834 0.06402338 -0.07459579 -0.19866209
0.13756992 0.08606912 0.27621928 -0.25431684 0.044689357 0.083656445 0.09953027 0.042398136
-0.26252776 -0.23612238 -0.1949347 -0.049385842 -0.24053544 -0.029146634 -0.12999335 0.19014308
-0.13385555 0.11258612 -0.48921916 -0.35224164 0.05527991 -0.11674257 0.13568963 0.12766607
-0.24810146 -0.078369275 -0.15805723 -0.29349577 -0.01810334 -0.37466285 -0.010305037 -0.22437686
-0.44668373 -0.75368834 -0.10894829 -0.33304203 -0.2970074 -0.060577 -0.31448138 -0.6271556
00000000: 8b83 92be a5b6 d7be ca23 21bf 98f5 e6bd
00000010: 00aa efbe a438 89be ef46 993d 9838 a23d
00000020: 037e afbe a86d 53bf 8234 0abf d906 ab3c
00000030: a3cc e73d f051 1d3d a819 e2be e63f 1bbf
00000040: 63a2 8bbd b293 10bd 1fc0 0bbf dc30 993d
00000050: 1fd9 cd3d 0722 10be e42b aebe cd8d 8e3e
00000060: e813 debe 8005 72be 76dd 1dbf 6177 17bc
00000070: c136 553d ec54 babc e657 afbe 2ea4 8cbe
00000080: 7db6 40be 3da4 15bc e26c 1cbe 3e63 aabd
00000090: 3164 873d ba85 60be 913d 153e 12e1 223e
000000a0: 7a3c 9f3d 0337 183d 6acb 94bd deb9 d2bc
000000b0: a98d 8b3d 07ae 0e3e f3e2 b1be 018d 893d
000000c0: 1ff7 2d3e 9a66 683e c30c 353e 8a20 1cbe
000000d0: 9ab1 1dbe 352a 0abe 1864 cf3d d9ef 11be
000000e0: c25f 703c 1736 1cbe ea08 71bd 47da 05be
000000f0: 3c03 2f3e ce69 473b d086 80be e022 46bd
00000100: 4e9b 9d3d be20 3abe 590e 1cbf 5a8d 2abd
00000110: cec3 00bf e7d3 e7be 05b4 3cbe 33a2 933d
00000120: 048d 11bf 30d7 22bf 28e3 babe 635c 4cbe
00000130: cce4 b53d 4116 54bd 65e5 febe d83c adbe
00000140: 7e71 5e3e 735a 433e f186 023e 910f ae3d
00000150: bb51 213e b11e 833d adc5 98bd 136e 4bbe
00000160: 21df 0c3e 0245 b03d 9d6c 8d3e d135 82be
00000170: 300c 373d 1254 ab3d 87d6 cb3d aba9 2d3d
00000180: 0a6a 86be 11ca 71be f69c 47be cf48 4abd
00000190: ec4e 76be ecc4 eebc fa1c 05be deb4 423e
000001a0: 6e11 09be 8d93 e63d ef7a fabe 0459 b4be
000001b0: 306d 623d bb16 efbd 39f2 0a3e e5ba 023e
000001c0: 4f0e 7ebe 1280 a0bd c1d9 21be 1445 96be
000001d0: 754d 94bc cfd3 bfbe 75d6 28bc 0cc3 65be
000001e0: bbb3 e4be b8f1 40bf 4820 dfbd 7c84 aabe
000001f0: 5b11 98be 971f 78bd b403 a1be 458d 20bf

sage.2.lin_root.weight f4 [8, 16]
0.17761236 -0.3725948 -0.20210654 -0.24734776 -0.13914779 -0.09687302 -0.13281055 0.0151675
-0.43927664 -0.70155793 -0.2576365 -0.38470876 -0.22504053 -0.3544926 -0.33273938 -0.6084485
0.1091047 -0.13484964 -0.68666387 -0.13610297 -0.05545722 -0.22386228 -0.40616816 0.12385651
-0.20081219 -0.2212571 -0.32154605 -0.024497958 0.10316753 0.077007316 -0.26022744 0.049476594
0.0060223606 0.09058255 0.06827171 0.03072299 -0.066693775 -0.025625048 -0.06436267 -0.0017576038
-0.12935895 -0.10556962 -0.23599344 -0.12332233 0.11465322 -0.23231123 0.067842856 0.030050468
-0.14679389 0.12202261 0.28545475 0.037728947 0.065687306 -0.07116483 0.24390332 0.063544385
0.06304494 0.28222254 0.07519305 -0.06524658 0.1817269 -0.012906993 0.11262487 0.06667075
-0.3576131 -0.33568105 -0.7649749 -0.3428279 -0.31486633 -0.10822305 -0.29920518 -0.17212436
-0.32685855 -0.4721872 -0.5348042 -0.2422737 -0.20135345 0.14116976 -0.3828062 -0.3578964
-0.04825877 0.08440039 0.19054134 -0.0026682955 0.18639892 -0.16497146 -0.050660137 -0.16395366
0.023635615 0.3005408 -0.043985758 0.22316913 -0.06898315 0.051943228 0.19840343 0.16954248
0.10606883 0.009509126 -0.275786 -0.29890984 0.08179301 0.028552972 0.09585458 0.16936773
-0.120054744 0.026612962 -0.07996393 -0.15750204 0.046635132 -0.11665532 -0.0637348 -0.09846353
-0.11571828 0.035720233 -0.46426815 -0.10007338 -0.29656416 -0.17717251 0.13077173 -0.25142914
-0.20665331 -0.7277291 -0.43344322 -0.27352345 0.116522744 -0.1478158 -0.41660744 -0.48482773
00000000: 04e0 353e bfc4 bebe 04f5 4ebe bb48 7dbe
00000010: c27c 0ebe 5d65 c6bd 7dff 07be 1b81 783c
00000020: dee8 e0be 4d99 33bf eee8 83be 8cf8 c4be
00000030: 0671 66be 0e80 b5be d15c aabe 48c3 1bbf
00000040: 4972 df3d 0616 0abe 34c9 2fbf 945e 0bbe
00000050: 1c27 63bd 273c 65be 46f5 cfbe 7ba8 fd3d
00000060: b6a1 4dbe 3991 62be afa1 a4be f1af c8bc
00000070: 7f49 d33d 03b6 9d3d 883c 85be f8a7 4a3d
00000080: 3957 c53b 5883 b93d 0ad2 8b3d c8ae fb3c
00000090: bf96 88bd 9feb d1bc 93d0 83bd 665f e6ba
000000a0: ac76 04be e334 d8bd 44a8 71be 6b90 fcbd
000000b0: 4fcf ea3d ffe2 6dbe 32f1 8a3d 662c f63c
000000c0: 2351 16be fde6 f93d 2027 923e ab89 1a3d
000000d0: 1187 863d debe 91bd cbc1 793e 8f23 823d
000000e0: b51d 813d 797f 903e d0fe 993d 00a0 85bd
000000f0: 9e16 3a3e da77 53bc dea7 e63d ad8a 883d
00000100: 1019 b7be 63de abbe 65d5 43bf 2387 afbe
00000110: 2936 a1be 0ca4 ddbd 6c31 99be 5e41 30be
00000120: 015a a7be 85c2 f1be eee8 08bf 9916 78be
00000130: 992f 4ebe ce8e 103e 2dff c3be 323e b7be
00000140: fdaa 45bd 1dda ac3d 451d 433e 92de 2ebb
00000150: 5cdf 3e3e 47ee 28be 0181 4fbd 78e3 27be
00000160: 7a9f c13c 7ce0 993e 692a 34bd 7386 643e
00000170: 0a47 8dbd 6cc2 543d 452a 4b3e 8b9c 2d3e
00000180: 9d3a d93d 2acc 1b3c d333 8dbe b60a 99be
00000190: 1883 a73d ece7 e93c 684f c43d bc6e 2d3e
000001a0: 43df f5bd 6d03 da3c 21c4 a3bd 3748 21be
000001b0: 7b04 3f3d fce8 eebd 6487 82bd 3fa7 c9bd
000001c0: b5fd ecbd 614f 123d 8eb4 edbe 46f3 ccbd
000001d0: 42d7 97be b66c 35be 06e9 053e 52bb 80be
000001e0: ed9c 53be 744c 3abf 45ec ddbe 440b 8cbe
000001f0: 7aa3 ee3d 065d 17be 924d d5be 573b f8be

sage.2.lin_root.bias f4 [8]
0.637346 0.39910308 0.12909898 -0.17126253 0.83254606 -0.05377606 0.44564548 0.62926185
00000000: 1c29 233f 3d57 cc3e 8632 043e 725f 2fbe
00000010: bd21 553f 4944 5cbd a52b e43e 4e17 213f

batch_norm.0.weight f4 [1000]
0.54302764 0.5897631 0.6062971 0.6260301 0.61645496 0.6290567 0.6325835 0.6359938
0.6355744 0.6381739 0.64004606 0.6242457 0.6408575 0.64193755 0.6385437 0.6387666
0.6415 0.6422537 0.64894736 0.6515317 0.6484806 0.65933514 0.65497637 0.641338
0.6470128 0.6608201 0.65469486 0.6509286 0.65644956 0.6592231 0.65338916 0.65931046
0.68787754 0.6572494 0.6609209 0.66222495 0.65921456 0.6640891 0.6679357 0.66481775
0.6568838 0.6612245 0.66396475 0.6689757 0.65791476 0.6610543 0.6591269 0.66433036
0.66499645 0.664886 0.6634081 0.6615584 0.66381365 0.6660717 0.66445404 0.66569334
0.66108453 0.65920645 0.6621229 0.6623385 0.6560661 0.662991 0.66500616 0.6677811
0.66174316 0.66764605 0.66810656 0.66662526 0.66529095 0.67072 0.6716004 0.66771275
0.67023593 0.67047 0.6767267 0.66526127 0.6662805 0.6704766 0.6722566 0.659528
0.6742081 0.67362916 0.68604565 0.67489755 0.6763856 0.6712204 0.6731219 0.67810047
0.6785088 0.65412575 0.6808583 0.68201804 0.691092 0.68331003 0.6835713 0.67918044
0.70933926 0.6813742 0.6960244 0.67273146 0.69224423 0.6856761 0.68867993 0.69030917
0.6904874 0.69382703 0.69378525 0.6899263 0.68707466 0.7018128 0.69748133 0.692922
0.6986653 0.7070551 0.7043153 0.7029379 0.70970523 0.70834917 0.7063712 0.7044773
0.71204257 0.71204245 0.7181625 0.7188914 0.7222078 0.73793244 0.7148336 0.72316045
0.72393125 0.73327255 0.72970396 0.74195 0.72905034 0.7281444 0.7278428 0.7266346
0.7310626 0.7436381 0.7465802 0.73830265 0.74406666 0.74685967 0.7499027 0.7463531
0.7498484 0.75297856 0.7700534 0.7578485 0.7548867 0.7664999 0.76517266 0.7718456
0.7625656 0.76617646 0.7735794 0.7743874 0.7768297 0.78825396 0.778026 0.7779748
0.8108376 0.78406656 0.78170943 0.79807514 0.79414445 0.79846734 0.79190564 0.8183734
0.7967787 0.79634553 0.81058085 0.8103183 0.8236594 0.8160768 0.81702083 0.8206358
0.8173887 0.8242652 0.8296413 0.8240025 0.85588974 0.8277887 0.82983804 0.8432277
0.8438498 0.8573088 0.8344093 0.8443907 0.8519811 0.8573744 0.8499752 0.8554177
0.87822694 0.8616679 0.85947263 0.8592086 0.8815988 0.85748225 0.88094634 0.888701
0.86780626 0.8680595 0.87849826 0.8803237 0.8851034 0.8902475 0.8889551 0.8926065
0.8940266 0.90411264 0.9003839 0.8869366 0.9049669 0.906225 0.9027914 0.90715885
0.91921407 0.92995673 0.9229423 0.91561943 0.9150692 0.9212768 0.92125005 0.9177799
0.9239033 0.92999464 0.9359608 0.94666 0.941563 0.94553196 0.94303703 0.9598328
0.95189273 0.9490167 0.961869 0.96391994 0.9554809 0.98173314 0.9570115 0.96252
0.9849809 0.9759795 0.97540927 0.96865964 0.973329 0.97960126 0.9951019 0.97363114
0.98142403 0.9896169 0.98786503 0.977278 1.0042906 0.98907304 0.98718643 0.99665725
00000000: dc03 0b3f b7fa 163f 4936 1b3f 8243 203f
00000010: fecf 1d3f dc09 213f fef0 213f 7dd0 223f
00000020: 01b5 223f 5d5f 233f 0fda 233f 91ce 1f3f
00000030: 3d0f 243f 0556 243f 9a77 233f 3586 233f
00000040: 5839 243f bd6a 243f 6a21 263f c8ca 263f
00000050: d302 263f 30ca 283f 88ac 273f ba2e 243f
00000060: a2a2 253f 822b 293f 159a 273f 42a3 263f
00000070: 140d 283f d8c2 283f 8344 273f 92c8 283f
00000080: be18 303f 7f41 283f 1d32 293f 9387 293f
00000090: 49c2 283f be01 2a3f d6fd 2a3f 7f31 2a3f
000000a0: 8929 283f 0246 293f 98f9 293f fe41 2b3f
000000b0: 1a6d 283f db3a 293f 8abc 283f 8e11 2a3f
000000c0: 353d 2a3f f835 2a3f 1dd5 293f e45b 293f
000000d0: b1ef 293f ad83 2a3f a919 2a3f e16a 2a3f
000000e0: d63c 293f c1c1 283f e380 293f 048f 293f
000000f0: f3f3 273f c7b9 293f d83d 2a3f b4f3 2a3f
00000100: 0068 293f daea 2a3f 0809 2b3f f4a7 2a3f
00000110: 8250 2a3f 4eb4 2b3f 01ee 2b3f 39ef 2a3f
00000120: 9594 2b3f eca3 2b3f f63d 2d3f 904e 2a3f
00000130: 5c91 2a3f 5ba4 2b3f 0219 2c3f d4d6 283f
00000140: e798 2c3f f672 2c3f b0a0 2f3f 16c6 2c3f
00000150: 9b27 2d3f 1ad5 2b3f b851 2c3f fe97 2d3f
00000160: c1b2 2d3f c974 273f bb4c 2e3f bc98 2e3f
00000170: 68eb 303f 68ed 2e3f 87fe 2e3f c5de 2d3f
00000180: 4297 353f 8a6e 2e3f a82e 323f 2138 2c3f
00000190: eb36 313f 7888 2f3f 544d 303f 1ab8 303f
000001a0: c8c3 303f a69e 313f e99b 313f 039f 303f
000001b0: 20e4 2f3f 01aa 333f 238e 323f 5663 313f
000001c0: bbdb 323f 9001 353f 024e 343f bdf3 333f
000001d0: 3eaf 353f 5f56 353f bed4 343f a058 343f
000001e0: 6c48 363f 6a48 363f 7fd9 373f 4409 383f
000001f0: 9ce2 383f 24e9 3c3f 56ff 363f 0b21 393f
00000200: 8f53 393f c0b7 3b3f e1cd 3a3f 6ff0 3d3f
00000210: 0ba3 3a3f ac67 3a3f e853 3a3f ba04 3a3f
00000220: eb26 3b3f 115f 3e3f e11f 3f3f 6701 3d3f
00000230: 277b 3e3f 3232 3f3f a0f9 3f3f ff10 3f3f
00000240: 11f6 3f3f 34c3 403f 3822 453f 5c02 423f
00000250: 4140 413f 5639 443f 5be2 433f ac97 453f
00000260: 8037 433f 2424 443f 4d09 463f 413e 463f
00000270: 50de 463f 03cb 493f b62c 473f 5b29 473f
00000280: 0e93 4f3f 96b8 483f 1c1e 483f a74e 4c3f
00000290: 0d4d 4b3f 5b68 4c3f 54ba 4a3f eb80 513f
000002a0: b0f9 4b3f 4ddd 4b3f 3a82 4f3f 0571 4f3f
000002b0: 58db 523f 69ea 503f 4728 513f 3015 523f
000002c0: 6340 513f 0b03 533f 5f63 543f d4f1 523f
000002d0: 971b 5b3f f6e9 533f 4470 543f c5dd 573f
000002e0: 8a06 583f 9778 5b3f d99b 553f fd29 583f
000002f0: 6f1b 5a3f e47c 5b3f fa97 593f a8fc 5a3f
00000300: 7bd3 603f 4496 5c3f 6606 5c3f 18f5 5b3f
00000310: 75b0 613f f583 5b3f b385 613f e981 633f
00000320: 8d28 5e3f 2639 5e3f 43e5 603f e55c 613f
00000330: 2396 623f 43e7 633f 9092 633f dc81 643f
00000340: edde 643f ed73 673f 8f7f 663f 470e 633f
00000350: e9ab 673f 5dfe 673f 561d 673f 903b 683f
00000360: 9d51 6b3f a511 6e3f f245 6c3f 0966 6a3f
00000370: fa41 6a3f ccd8 6b3f 0bd7 6b3f a0f3 6a3f
00000380: ed84 6c3f 2114 6e3f 219b 6f3f 4f58 723f
00000390: 460a 713f 620e 723f e06a 713f 9ab7 753f
000003a0: 3eaf 733f c2f2 723f 0c3d 763f 75c3 763f
000003b0: 659a 743f dd52 7b3f b5fe 743f b667 763f
000003c0: b527 7c3f cbd9 793f 6cb4 793f 14fa 773f
000003d0: 172c 793f 26c7 7a3f 00bf 7e3f e43f 793f
000003e0: 9b3e 7b3f 8857 7d3f b9e4 7c3f e42e 7a3f
000003f0: 988c 803f e433 7d3f 40b8 7c3f ee24 7f3f

batch_norm.0.bias f4 [1000]
-0.028551396 -0.027884787 -0.026659133 -0.026464792 -0.024662077 -0.02471955 -0.025269743 -0.025385892
-0.024727607 -0.023641104 -0.02494531 -0.023433965 -0.024091417 -0.02443307 -0.024123242 -0.023021663
-0.023088673 -0.023659127 -0.023274012 -0.023815574 -0.023577383 -0.024044389 -0.023047602 -0.02354144
-0.023329543 -0.025856307 -0.023847133 -0.024035169 -0.02451711 -0.022711636 -0.024312567 -0.025168648
-0.025033424 -0.024123313 -0.024938097 -0.023880117 -0.022943063 -0.024229689 -0.02428148 -0.023318347
-0.024167864 -0.023560707 -0.023287382 -0.023788754 -0.024022304 -0.023584498 -0.024618797 -0.024174653
-0.02459106 -0.023728253 -0.02320975 -0.023941113 -0.023681527 -0.024072139 -0.023430677 -0.023348942
-0.023831265 -0.024510536 -0.024694918 -0.02389655 -0.022676358 -0.02437511 -0.022863945 -0.024439551
-0.023449806 -0.024346502 -0.022812862 -0.022443254 -0.024029762 -0.022222972 -0.023995224 -0.02248283
-0.022459352 -0.022454573 -0.024409384 -0.023942145 -0.023713298 -0.023141457 -0.021890955 -0.022866381
-0.023222376 -0.023839539 -0.023901813 -0.02233267 -0.023316622 -0.02281046 -0.023441786 -0.02220586
-0.0227487 -0.021846378 -0.021808213 -0.022149295 -0.022098975 -0.022566058 -0.023202356 -0.02247604
-0.022819426 -0.022705054 -0.022830203 -0.023318034 -0.021467099 -0.021210479 -0.022359384 -0.022130372
-0.021589637 -0.023061968 -0.021349953 -0.024154784 -0.022486197 -0.021875972 -0.022754582 -0.020043682
-0.020873861 -0.021205857 -0.020545712 -0.021015493 -0.019772407 -0.020167854 -0.02033118 -0.02041277
-0.020268928 -0.019682288 -0.020163171 -0.019710861 -0.01928481 -0.01265998 -0.019635608 -0.019269146
-0.019729182 -0.02035792 -0.019448789 -0.018796923 -0.018733604 -0.019581825 -0.018315168 -0.019165315
-0.01769962 -0.017985508 -0.017959554 -0.017899064 -0.016874209 -0.016467351 -0.017137293 -0.016699122
-0.015153103 -0.01667728 -0.016035885 -0.016112946 -0.016529793 -0.015491703 -0.016172402 -0.0153172575
-0.012584978 -0.015157372 -0.014002941 -0.013970876 -0.0146379005 -0.013952307 -0.013286589 -0.013190456
-0.012507417 -0.012355355 -0.012133468 -0.012350137 -0.011874518 -0.011850356 -0.011246363 -0.010825007
-0.010545736 -0.010551937 -0.010783684 -0.011637234 -0.013022626 -0.011409961 -0.009086662 -0.00987904
-0.010125915 -0.009480674 -0.009643345 -0.009246983 -0.00908173 -0.008324973 -0.008832224 -0.007848655
-0.008728506 -0.007707637 -0.008202143 -0.007624485 -0.006979853 -0.010469002 -0.007653825 -0.0066770446
-0.0070330068 -0.005692409 -0.006061588 -0.00537073 -0.005239556 -0.0059823478 -0.004637733 -0.0052172453
-0.0054800245 -0.0046831383 -0.0055388194 -0.0038752002 -0.0037904123 -0.0035409844 -0.0032993571 -0.002626549
-0.0027610431 -0.003192119 -0.0025302886 -0.0022144236 -0.002030431 -0.0014025489 -0.0014077877 -0.0005865726
-0.00090992777 -0.0012424616 -0.0016386793 -0.0010062217 -0.000820844 -0.001195897 -0.0001830221 0.0008536753
0.00036104533 0.0009389695 0.0018708473 0.0015803034 0.0013242171 0.0008178098 0.0007407679 0.002107388
0.0027438642 0.0021947387 0.0021149733 0.002476062 0.003097779 0.0028285026 0.0030876803 0.002339754
0.0033662287 0.003539846 0.0040744497 0.0044129426 0.0034438143 0.0043884157 0.0057224496 0.0060855937
0.0065080673 0.0066070557 0.006421066 0.0066290167 0.0074261655 0.007862409 0.0068672583 0.008062926
00000000: 9ee4 e9bc a36e e4bc 4164 dabc b1cc d8bc
00000010: 2008 cabc a780 cabc 7e02 cfbc 13f6 cfbc
00000020: 8d91 cabc fdaa c1bc 1b5a ccbc 96f8 bfbc
00000030: 5d5b c5bc dd27 c8bc 1b9e c5bc ed97 bcbc
00000040: 7524 bdbc c9d0 c1bc 24a9 bebc e118 c3bc
00000050: 5b25 c1bc bdf8 c4bc 53ce bcbc fad9 c0bc
00000060: 991d bfbc 9bd0 d3bc 105b c3bc 67e5 c4bc
00000070: 1bd8 c8bc c10d babc 262b c7bc 7b2e cebc
00000080: e512 cdbc 419e c5bc fb4a ccbc 3ca0 c3bc
00000090: 17f3 bbbc 577d c6bc f4e9 c6bc 1e06 bfbc
000000a0: affb c5bc 6202 c1bc 2ec5 bebc a2e0 c2bc
000000b0: 6cca c4bc 4734 c1bc 5cad c9bc ec09 c6bc
000000c0: 3173 c9bc c161 c2bc 6022 bebc 2720 c4bc
000000d0: c3ff c1bc ef32 c5bc b1f1 bfbc 4846 bfbc
000000e0: c939 c3bc 52ca c8bc ff4c cabc b3c2 c3bc
000000f0: c5c3 b9bc 50ae c7bc 2b4d bbbc 7435 c8bc
00000100: cf19 c0bc 5172 c7bc 0ae2 babc eada b7bc
00000110: 10da c4bc f30c b6bc a291 c4bc e92d b8bc
00000120: adfc b7bc a7f2 b7bc 30f6 c7bc 5122 c4bc
00000130: 6442 c2bc 2793 bdbc a954 b3bc 4752 bbbc
00000140: da3c bebc 234b c3bc bccd c3bc 01f3 b6bc
00000150: 8002 bfbc 00dd babc fd08 c0bc 10e9 b5bc
00000160: 7b5b babc 2df7 b2bc 23a7 b2bc 7072 b5bc
00000170: e908 b5bc 74dc b8bc de12 bebc ac1f b8bc
00000180: ceef babc f3ff b9bc 6806 bbbc 7605 bfbc
00000190: c5db afbc 99c1 adbc 072b b7bc c14a b5bc
000001a0: c0dc b0bc 74ec bcbc 19e6 aebc 41e0 c5bc
000001b0: f934 b8bc 3d35 b3bc d167 babc a632 a4bc
000001c0: a9ff aabc e8b7 adbc 7b4f a8bc af28 acbc
000001d0: bef9 a1bc 0e37 a5bc 938d a6bc ae38 a7bc
000001e0: 060b a6bc c03c a1bc 3c2d a5bc ac78 a1bc
000001f0: 2efb 9dbc ce6b 4fbc dbda a0bc 54da 9dbc
00000200: 189f a1bc a7c5 a6bc 1153 9fbc 01fc 99bc
00000210: 3777 99bc 106a a0bc b109 96bc 9400 9dbc
00000220: cbfe 90bc 5856 93bc ea1f 93bc 0fa1 92bc
00000230: c83b 8abc 8ae6 86bc 8263 8cbc 99cc 88bc
00000240: b844 78bc cb9e 88bc b05d 83bc 4cff 83bc
00000250: 7d69 87bc e9d0 7dbc fc7b 84bc 3cf5 7abc
00000260: 3931 4ebc a056 78bc 976c 65bc 1ae6 64bc
00000270: ced3 6fbc 3898 64bc feaf 59bc c81c 58bc
00000280: e9eb 4cbc 1d6e 4abc 74cb 46bc 3b58 4abc
00000290: 578d 42bc ff27 42bc aa42 38bc 5f5b 31bc
000002a0: 06c8 2cbc 08e2 2cbc 0dae 30bc 19aa 3ebc
000002b0: da5c 55bc d8f0 3abc 39e0 14bc b2db 21bc
000002c0: 2ae7 25bc d454 1bbc 1fff 1dbc a880 17bc
000002d0: 89cb 14bc 7865 08bc 08b5 10bc a597 00bc
000002e0: 0202 0fbc 5890 fcbb 4862 06bc d1d6 f9bb
000002f0: 40b7 e4bb 2d86 2bbc f0cc fabb 1ccb dabb
00000300: 2375 e6bb 6387 babb 49a0 c6bb f3fc afbb
00000310: 95b0 abbb 9207 c4bb 20f8 97bb 6df5 aabb
00000320: c791 b3bb 0375 99bb fc7e b5bb 12f7 7dbb
00000330: 9168 78bb dc0f 68bb 073a 58bb 2e22 2cbb
00000340: 9ef2 34bb df32 51bb 33d3 25bb dd1f 11bb
00000350: fb10 05bb bbd5 b7ba 8485 b8ba 39c4 19ba
00000360: 3888 6eba 18da a2ba f4c8 d6ba 33e3 83ba
00000370: e92d 57ba a5bf 9cba 9fe9 3fb9 2ec9 5f3a
00000380: af4a bd39 2d25 763a 3837 f53a 2f22 cf3a
00000390: 5a91 ad3a 4962 563a 1830 423a 1b1c 0a3b
000003a0: 67d2 333b 9bd5 0f3b 5d9b 0a3b 6d45 223b
000003b0: 1b04 4b3b 665e 393b ae5a 4a3b 8f56 193b
000003c0: f29b 5c3b c3fc 673b f682 853b 729a 903b
000003d0: 9eb1 613b b3cc 8f3b 6383 bb3b a969 c73b
000003e0: a041 d53b 0080 d83b ce67 d23b 3938 d93b
000003f0: 3157 f33b 55d1 003c bd06 e13b 5d1a 043c

batch_norm.0.running_mean f4 [1000]
0.067885175 0.06822844 0.06839407 0.06848223 0.06855741 0.068580285 0.068615586 0.068635195
0.06867504 0.06866377 0.06865627 0.0687013 0.06870359 0.06870548 0.068703756 0.06874309
0.068733305 0.068698004 0.06872774 0.0687226 0.068725504 0.06874376 0.06875945 0.06872902
0.06875118 0.068685606 0.06873101 0.06872648 0.06870699 0.06876067 0.06869129 0.068729006
0.06873399 0.068731576 0.068685114 0.06875469 0.06874932 0.0687269 0.0687103 0.068744056
0.068692386 0.06876057 0.06871854 0.068737336 0.06869346 0.06876059 0.068734765 0.06871316
0.068746686 0.068719484 0.06877149 0.06871165 0.06875858 0.068740234 0.06875753 0.06874326
0.068686225 0.06869206 0.068739824 0.06872179 0.06879919 0.068743005 0.0687949 0.068746634
0.06879706 0.068763144 0.06879626 0.068781696 0.06876232 0.06880983 0.068792686 0.06882373
0.06883013 0.06881292 0.068763524 0.06878451 0.06879114 0.06881353 0.06888418 0.06881343
0.06879643 0.06882207 0.068828 0.068836235 0.06882787 0.06883587 0.068838395 0.06887458
0.0688651 0.06892099 0.068914406 0.06890684 0.0689198 0.06890382 0.06888379 0.068942
0.068870224 0.06891303 0.068943195 0.06898428 0.068970665 0.06899101 0.06895714 0.06898504
0.06897649 0.069004305 0.06902117 0.06898994 0.06901355 0.0690235 0.06902903 0.06906767
0.06906346 0.069062434 0.0691087 0.06912333 0.06916289 0.069155835 0.0691621 0.06916616
0.0691292 0.06921916 0.06917877 0.06918499 0.06923591 0.06922013 0.06927185 0.06927315
0.06928071 0.06926461 0.0692979 0.069321945 0.069333956 0.06931639 0.06933662 0.06933414
0.069377154 0.06936335 0.06939942 0.06941588 0.06944107 0.06948154 0.069491014 0.06949093
0.06958449 0.069558114 0.06955443 0.06955808 0.06958225 0.06956861 0.0696055 0.06961417
0.06966923 0.06969824 0.06973462 0.06972353 0.069747984 0.06978912 0.06978344 0.069816954
0.069857016 0.069872335 0.069848076 0.069890894 0.069919854 0.069926195 0.06996138 0.070000626
0.070013806 0.07004473 0.07004091 0.07006558 0.07007753 0.07008121 0.07013483 0.070147924
0.070139654 0.07016986 0.070184186 0.070205405 0.07023241 0.07025707 0.07025851 0.07029508
0.070345126 0.07036223 0.07035767 0.07039629 0.07041049 0.07040647 0.07042599 0.0704423
0.070440754 0.07050204 0.07053088 0.07056593 0.07061326 0.07060471 0.07060479 0.07062606
0.07063093 0.07065656 0.07067293 0.07071548 0.070741765 0.07077114 0.07078974 0.07076941
0.07079194 0.070810445 0.07082887 0.07086246 0.07087837 0.07092087 0.07093379 0.07096885
0.07097457 0.07099931 0.07102054 0.07103058 0.07105178 0.071068 0.07109771 0.07112158
0.071147226 0.071134984 0.0711481 0.071199946 0.07118784 0.07122453 0.07125875 0.07125946
0.071313106 0.07130676 0.0713235 0.071341485 0.07136901 0.07139551 0.07138522 0.07140292
0.07142063 0.07144911 0.07146568 0.07151069 0.071522295 0.071566015 0.07159975 0.07162396
0.071648076 0.07165126 0.07170333 0.07173445 0.07174728 0.07177092 0.07180443 0.07180424
00000000: 6207 8b3d 5abb 8b3d 3112 8c3d 6940 8c3d
00000010: d467 8c3d d273 8c3d 5486 8c3d 9c90 8c3d
00000020: 80a5 8c3d 979f 8c3d a99b 8c3d 44b3 8c3d
00000030: 78b4 8c3d 75b5 8c3d 8eb4 8c3d 2dc9 8c3d
00000040: 0cc4 8c3d 8ab1 8c3d 21c1 8c3d 6fbe 8c3d
00000050: f5bf 8c3d 87c9 8c3d c1d1 8c3d cdc1 8c3d
00000060: 6bcd 8c3d 0aab 8c3d d8c2 8c3d 78c0 8c3d
00000070: 40b6 8c3d 65d2 8c3d 05ae 8c3d cbc1 8c3d
00000080: 68c4 8c3d 24c3 8c3d c8aa 8c3d 42cf 8c3d
00000090: 72cc 8c3d b0c0 8c3d fcb7 8c3d afc9 8c3d
000000a0: 98ae 8c3d 57d2 8c3d 4ebc 8c3d 29c6 8c3d
000000b0: 28af 8c3d 5ad2 8c3d d0c4 8c3d 7cb9 8c3d
000000c0: 10cb 8c3d cdbc 8c3d 11d8 8c3d b2b8 8c3d
000000d0: 4cd1 8c3d aec7 8c3d bfd0 8c3d 44c9 8c3d
000000e0: 5dab 8c3d 6cae 8c3d 77c7 8c3d 03be 8c3d
000000f0: 97e6 8c3d 22c9 8c3d 57e4 8c3d 09cb 8c3d
00000100: 79e5 8c3d b1d3 8c3d 0ee5 8c3d 6bdd 8c3d
00000110: 42d3 8c3d 2bec 8c3d 2ee3 8c3d 75f3 8c3d
00000120: d0f6 8c3d caed 8c3d e4d3 8c3d e5de 8c3d
00000130: 5fe2 8c3d 1cee 8c3d 2613 8d3d 0eee 8c3d
00000140: 25e5 8c3d 96f2 8c3d b2f5 8c3d 03fa 8c3d
00000150: a0f5 8c3d d2f9 8c3d 25fb 8c3d 1e0e 8d3d
00000160: 2509 8d3d 7326 8d3d ff22 8d3d 081f 8d3d
00000170: d325 8d3d 721d 8d3d f212 8d3d 7731 8d3d
00000180: d50b 8d3d 4622 8d3d 1732 8d3d a147 8d3d
00000190: 7e40 8d3d 294b 8d3d 6739 8d3d 0748 8d3d
000001a0: 8c43 8d3d 2152 8d3d f95a 8d3d 994a 8d3d
000001b0: fa56 8d3d 315c 8d3d 185f 8d3d 5a73 8d3d
000001c0: 2571 8d3d 9b70 8d3d dd88 8d3d 8890 8d3d
000001d0: 46a5 8d3d 93a1 8d3d dca4 8d3d fda6 8d3d
000001e0: 9c93 8d3d c6c2 8d3d 99ad 8d3d dcb0 8d3d
000001f0: 8fcb 8d3d 49c3 8d3d 66de 8d3d 15df 8d3d
00000200: 0be3 8d3d 9bda 8d3d 0fec 8d3d aaf8 8d3d
00000210: f6fe 8d3d c0f5 8d3d 5c00 8e3d 0fff 8d3d
00000220: 9c15 8e3d 5f0e 8e3d 4821 8e3d ea29 8e3d
00000230: 1f37 8e3d 564c 8e3d 4e51 8e3d 4351 8e3d
00000240: 5082 8e3d 7c74 8e3d 8e72 8e3d 7774 8e3d
00000250: 2481 8e3d fd79 8e3d 548d 8e3d e091 8e3d
00000260: beae 8e3d f3bd 8e3d 06d1 8e3d 36cb 8e3d
00000270: 08d8 8e3d 99ed 8e3d 9fea 8e3d 31fc 8e3d
00000280: 3211 8f3d 3a19 8f3d 820c 8f3d f522 8f3d
00000290: 2432 8f3d 7735 8f3d e947 8f3d 7d5c 8f3d
000002a0: 6663 8f3d 9d73 8f3d 9c71 8f3d 8b7e 8f3d
000002b0: cf84 8f3d bd86 8f3d daa2 8f3d b7a9 8f3d
000002c0: 61a5 8f3d 37b5 8f3d babc 8f3d dac7 8f3d
000002d0: 03d6 8f3d f0e2 8f3d b2e3 8f3d def6 8f3d
000002e0: 1b11 903d 131a 903d af17 903d ee2b 903d
000002f0: 6033 903d 4431 903d 803b 903d 0d44 903d
00000300: 3e43 903d 6063 903d 7e72 903d df84 903d
00000310: af9d 903d 3499 903d 3e99 903d 65a4 903d
00000320: f3a6 903d 63b4 903d f8bc 903d 47d3 903d
00000330: 0fe1 903d 76f0 903d 36fa 903d 8def 903d
00000340: 5dfb 903d 1105 913d ba0e 913d 5620 913d
00000350: ae28 913d f63e 913d bc45 913d 1e58 913d
00000360: 1e5b 913d 1668 913d 3873 913d 7b78 913d
00000370: 9883 913d 198c 913d ad9b 913d 31a8 913d
00000380: a3b5 913d 38af 913d 18b6 913d 47d1 913d
00000390: eeca 913d 2bde 913d 1cf0 913d 7bf0 913d
000003a0: 9b0c 923d 4709 923d 0e12 923d 7c1b 923d
000003b0: ea29 923d cf37 923d 6a32 923d b23b 923d
000003c0: fb44 923d e953 923d 995c 923d 3274 923d
000003d0: 487a 923d 3491 923d e4a2 923d 95af 923d
000003e0: 3abc 923d e5bd 923d 32d9 923d 83e9 923d
000003f0: 3df0 923d a2fc 923d 330e 933d 1a0e 933d

batch_norm.0.running_var f4 [1000]
0.004158178 0.004118805 0.004115027 0.004120866 0.0041248426 0.0041204086 0.0041252626 0.0041304976
0.0041295337 0.0041322117 0.004128178 0.0041386937 0.004140722 0.0041478514 0.004137276 0.0041562826
0.0041525345 0.004159386 0.004162134 0.0041761682 0.004166048 0.004175472 0.0041791257 0.0041855127
0.0041806605 0.004182289 0.004182923 0.0042024315 0.004203023 0.004208059 0.0042055156 0.0042016595
0.0042088833 0.004214418 0.004198645 0.0042227195 0.004216965 0.0042158 0.0042278413 0.0042376765
0.004232653 0.004228386 0.00423708 0.0042444756 0.004236082 0.004239772 0.004248937 0.004237653
0.0042420053 0.004242014 0.0042650555 0.004249709 0.004259136 0.0042539057 0.004260946 0.0042594
0.0042628 0.004251456 0.004255674 0.0042693596 0.0042730267 0.004280421 0.004282728 0.0042688926
0.00429696 0.0042825965 0.00428591 0.0042920057 0.0043044155 0.0042993845 0.0043038903 0.004302613
0.004304189 0.0043111388 0.0043044286 0.004306916 0.004308433 0.0043165865 0.004337086 0.004326994
0.0043364493 0.004335453 0.0043392903 0.004345566 0.0043537463 0.0043619177 0.0043795016 0.004375712
0.0043974915 0.0043945075 0.0044068266 0.0044227494 0.004427417 0.004427446 0.0044253385 0.0044390685
0.0044397013 0.0044563855 0.0044692787 0.0044872994 0.004499887 0.0045077316 0.0045009386 0.004528279
0.004535985 0.004566604 0.0045713685 0.004564458 0.004604664 0.0046373066 0.0046549947 0.004670516
0.0046771294 0.0046957983 0.0047114007 0.004744581 0.004765352 0.0047833575 0.0047777374 0.0047949078
0.0047966274 0.0048314333 0.0048460024 0.0048596477 0.004885331 0.004894913 0.0049188505 0.004924433
0.0049541253 0.004952765 0.00499849 0.005010609 0.005028858 0.005046269 0.005067978 0.005091043
0.0051065898 0.005113551 0.0051487517 0.005178626 0.005208185 0.0052476693 0.0052744146 0.0053025605
0.0053381966 0.0053543122 0.005381682 0.0054164645 0.005452917 0.0054724966 0.0055034533 0.0055474495
0.005567859 0.005617498 0.005668277 0.00567556 0.005697035 0.0057195537 0.005749612 0.005776491
0.005832114 0.0058715763 0.005894012 0.005937133 0.005976707 0.005999029 0.0060358187 0.00606432
0.006114028 0.0061354497 0.006149363 0.0061816922 0.006212289 0.006231539 0.0062673083 0.0063035204
0.006316164 0.006336283 0.0063825515 0.0064100944 0.0064387033 0.0064824102 0.006505426 0.0065424223
0.006583117 0.0066111684 0.006650566 0.006689853 0.006711532 0.006722207 0.006746729 0.0067701763
0.0068030693 0.0068529285 0.0068892976 0.0069313995 0.0069761355 0.006997572 0.0070230234 0.0070378087
0.00707096 0.007104481 0.0071426155 0.007176425 0.0072179404 0.0072548655 0.0072814897 0.007306357
0.007319546 0.0073558735 0.007394601 0.0074242405 0.0074657365 0.007496702 0.007535007 0.007565174
0.0075971307 0.0076240683 0.007653583 0.0076798378 0.007718634 0.007754697 0.0077790846 0.007810947
0.007836009 0.007859126 0.007895209 0.007939421 0.007976954 0.008010809 0.008052794 0.008087053
0.008111937 0.0081416555 0.008178704 0.008209953 0.00824958 0.008293191 0.008301394 0.0083217425
0.008346016 0.008383028 0.008412011 0.008438164 0.008480147 0.008508806 0.008557856 0.008596674
0.00863904 0.008681918 0.008741806 0.0087867165 0.008809079 0.008845017 0.008891876 0.008917298
00000000: 5341 883b 0af7 863b 59d7 863b 5408 873b
00000010: b029 873b 7e04 873b 362d 873b 2059 873b
00000020: 0a51 873b 8167 873b ab45 873b e19d 873b
00000030: e5ae 873b b3ea 873b fd91 873b 6d31 883b
00000040: fc11 883b 754b 883b 8362 883b 3dd8 883b
00000050: 5883 883b 66d2 883b 0cf1 883b a026 893b
00000060: ecfd 883b 950b 893b e710 893b 8db4 893b
00000070: 83b9 893b c2e3 893b 6cce 893b 13ae 893b
00000080: acea 893b 1a19 8a3b c994 893b bd5e 8a3b
00000090: 772e 8a3b b224 8a3b b489 8a3b 35dc 8a3b
000000a0: 11b2 8a3b 468e 8a3b 34d7 8a3b 3e15 8b3b
000000b0: d5ce 8a3b c9ed 8a3b ab3a 8b3b 03dc 8a3b
000000c0: 8500 8b3b 9800 8b3b e1c1 8b3b 2541 8b3b
000000d0: 3990 8b3b 5964 8b3b 689f 8b3b 7092 8b3b
000000e0: f5ae 8b3b cc4f 8b3b 2e73 8b3b fce5 8b3b
000000f0: bf04 8c3b c642 8c3b 2056 8c3b 11e2 8b3b
00000100: 83cd 8c3b 0655 8c3b d270 8c3b f4a3 8c3b
00000110: 0e0c 8d3b dae1 8c3b a607 8d3b effc 8c3b
00000120: 270a 8d3b 7444 8d3b 2a0c 8d3b 0821 8d3b
00000130: c12d 8d3b 2772 8d3b 1d1e 8e3b 75c9 8d3b
00000140: c618 8e3b 6a10 8e3b 9b30 8e3b 4065 8e3b
00000150: dfa9 8e3b 6bee 8e3b ec81 8f3b 2262 8f3b
00000160: d518 903b cdff 8f3b 2467 903b b6ec 903b
00000170: de13 913b 1c14 913b 6e02 913b 9b75 913b
00000180: ea7a 913b df06 923b 0773 923b 320a 933b
00000190: ca73 933b 98b5 933b 9c7c 933b f561 943b
000001a0: 9aa2 943b 73a3 953b 6bcb 953b 7391 953b
000001b0: b9e2 963b 8cf4 973b ed88 983b 210b 993b
000001c0: 9b42 993b 36df 993b 1862 9a3b 6e78 9b3b
000001d0: ab26 9c3b b6bd 9c3b 918e 9c3b 9a1e 9d3b
000001e0: 072d 9d3b 0051 9e3b 37cb 9e3b ae3d 9f3b
000001f0: 2015 a03b 8265 a03b 4f2e a13b 235d a13b
00000200: 3756 a23b ce4a a23b 60ca a33b 0930 a43b
00000210: 1ec9 a43b 2c5b a53b 4811 a63b c4d2 a63b
00000220: 2e55 a73b 938f a73b dcb6 a83b 77b1 a93b
00000230: 6ca9 aa3b a4f4 ab3b ffd4 ac3b 1ac1 ad3b
00000240: 0aec ae3b 3a73 af3b d258 b03b 997c b13b
00000250: 62ae b23b a152 b33b 5056 b43b 61c7 b53b
00000260: 9672 b63b fd12 b83b f4bc b93b 0cfa b93b
00000270: 32ae ba3b 186b bb3b 3e67 bc3b b848 bd3b
00000280: 511b bf3b 5a66 c03b 8e22 c13b 488c c23b
00000290: 41d8 c33b 8193 c43b 1ec8 c53b 34b7 c63b
000002a0: 2f58 c83b e20b c93b 9880 c93b cb8f ca3b
000002b0: 7590 cb3b f031 cc3b fe5d cd3b c38d ce3b
000002c0: d3f7 ce3b 98a0 cf3b b924 d13b c50b d23b
000002d0: c2fb d23b 666a d43b 782b d53b d161 d63b
000002e0: 30b7 d73b 80a2 d83b feec d93b 8e36 db3b
000002f0: 69ec db3b f645 dc3b aa13 dd3b 5bd8 dd3b
00000300: 48ec de3b 888e e03b 9ebf e13b cb20 e33b
00000310: 1198 e43b e34b e53b 6421 e63b 6b9d e63b
00000320: 83b3 e73b b5cc e83b 9a0c ea3b 3728 eb3b
00000330: 7984 ec3b 39ba ed3b 9099 ee3b 2a6a ef3b
00000340: cdd8 ef3b 8a09 f13b 694e f23b 0b47 f33b
00000350: 23a3 f43b e5a6 f53b 38e8 f63b 47e5 f73b
00000360: 5af1 f83b 52d3 f93b e8ca fa3b 26a7 fb3b
00000370: 98ec fc3b 1d1b fe3b b1e7 fe3b f9f2 ff3b
00000380: 9b62 003c 90c3 003c e85a 013c 5814 023c
00000390: c5b1 023c c53f 033c deef 033c 8f7f 043c
000003a0: eee7 043c 9464 053c f9ff 053c 0a83 063c
000003b0: 3f29 073c 2ae0 073c 9202 083c eb57 083c
000003c0: babd 083c f858 093c 88d2 093c 3a40 0a3c
000003d0: 51f0 0a3c 8568 0b3c 4036 0c3c 10d9 0c3c
000003e0: c38a 0d3c 9a3e 0e3c cb39 0f3c 29f6 0f3c
000003f0: f553 103c b1ea 103c 3baf 113c dc19 123c
