Saves/hpc_ep_200.pth (torch, 183202 bytes, 46 tensors)

sage.0.lin_rel.weight f4 [32, 3]
00000000: a6dd fbbd 800d fabd 721e 98bf f210 1dbf
00000010: 8710 8ebd c5bb 55bf 0fe9 03bf 2eb7 eabe
00000020: a7dc d23e ef0f 0c3e 282d 4c3d 43e8 8b3d
00000030: f4af 1d3c 720d d53e ce26 99be 6be1 8f3d
00000040: 291e be3d f690 bc3d f30f 2b3d 153b d3bd
00000050: c770 433d 9dea 2cbf 41b2 ac3c 31bd cc3f
00000060: 844e e8be bfa7 c2be 1586 e93f 940b 19bf
00000070: acad cdbe bce5 46bf 65a2 19be 61f3 8c3e
00000080: 18d0 933f 9719 893d 4c59 863e cd26 da3e
00000090: c9f7 cc3e bc67 37bc f460 94bf 8de0 eb3d
000000a0: 87df 693d baf9 803d 6393 0abf 7488 973c
000000b0: 3987 d0be b19e 353d d596 e83c b8e4 c73c
000000c0: e71d 37bc 564a 42be e53d 4f3e ca69 1d3c
000000d0: 5570 3c3e d34a 1abd 4789 0ebb 2435 14bd
000000e0: f625 5a3f b48b 1abe 46ab afbd 37af 00be
000000f0: a886 3fbf 0d7a 05bf 7973 06bf c051 0dbc
00000100: 865d b73c 77c7 7540 ac91 e3bc 6955 d3be
00000110: 32d0 f83e 6154 dbbe bcc8 02bf b29a ce3d
00000120: ae08 f3be cd0f 70be ab31 81bf 412f 08bd
00000130: c092 fbbd 1212 e9be b232 913e ac8b 8a3e
00000140: a766 f63f 0a4d 94be 81be 1fbe 1281 f83f
00000150: 0df1 14be c48b 43bf 9a99 99bc 04a1 893e
00000160: 3984 0ebe ef95 0b3e d3ee 823e 74e6 f33c
00000170: 3358 6dbf c7dc 933d 6930 5bbe 31c7 3d3e
-0.122981355 -0.12209606 -1.1884291 -0.6135398 -0.06936746 -0.8348964 -0.51527494 -0.4584288
0.4118397 0.13677953 0.04984775 0.0683141 0.00962447 0.4161182 -0.29912418 0.07025417
0.09283096 0.092073366 0.041763257 -0.103140034 0.047714975 -0.6754549 0.021081092 1.5995237
-0.45372403 -0.38018605 1.8244044 -0.5978329 -0.40171564 -0.77694297 -0.15003355 0.27529433
1.154788 0.06694334 0.26240003 0.42607728 0.40032795 -0.011194166 -1.1592088 0.11517439
0.057097938 0.062976316 -0.54131144 0.018497683 -0.40728167 0.044340793 0.028392235 0.024401054
-0.011176563 -0.1897367 0.20238455 0.009607742 0.18402226 -0.037669014 -0.0021749304 -0.03618349
0.85214174 -0.15092355 -0.0857759 -0.12566839 -0.74814844 -0.5213936 -0.5251995 -0.008625448
0.022383463 3.8402994 -0.027779423 -0.412761 0.4859634 -0.42837813 -0.51087546 0.100880995
-0.4746756 -0.23443528 -1.0093282 -0.03324819 -0.1228385 -0.455216 0.2835899 0.27059686
1.9250077 -0.28965026 -0.15600015 1.9414389 -0.14545079 -0.7638514 -0.01875 0.26880658
-0.13917626 0.13631414 0.25572833 0.029772975 -0.92712706 0.07219844 -0.21405186 0.18533017

sage.0.lin_root.weight f4 [32, 3]
00000000: 7804 7d3f 23e2 233f 6e77 fdbd 2c36 7a3f
00000010: 0415 483e c8f2 c4be 2f03 d63e 1506 9b3e
00000020: ddf8 3abe 618f a73e 159e 3bbe 5af0 483d
00000030: d4a5 053d 9cb8 2cbf f90e 02be 965b 05bf
00000040: 543a 9ebe 5eee d4b9 2733 8bbe 1a3b 4a3f
00000050: ef38 5cbc 17e9 6d3f b8d3 f7bc a55e e83e
00000060: a301 293f f8be af3e e1ee 113f e6f3 793f
00000070: a24e 003f 7a97 b4be 990f 39be d24d cabe
00000080: 2a99 d63e b417 dfbd b4b6 b1be d20d f1be
00000090: c4ce 11bf 1d61 fd3b d1f3 acbe 3db1 44bf
000000a0: 0ff4 253e ae9c 003c a441 c1be a616 86bd
000000b0: 9bb8 62be a116 8ebe 3ad1 223f 6ad5 62bc
000000c0: eb1b b3bd 059e 133f 86fc 9f3d bddf ac3d
000000d0: 28aa 1bbf 2fbd 853b 9bf4 c5be 7037 22be
000000e0: ff21 a43e c3e6 0a3f 6d89 723e fb9e 6fbc
000000f0: 37b8 8b3f 76b2 173f b9e1 6cbe f2c9 9f3e
00000100: 8480 05be d333 9f3f 7955 bdbe e1ac efbe
00000110: 2f2a ef3e 9761 bdbe 7037 c13d 7e3e b6be
00000120: 1814 5b3f 2fa6 ba3e 964c e1be 0001 d43d
00000130: 947f b2be 2591 1abe 125d cbbd 2563 86be
00000140: 7ffa 383f 8ed9 093f 6b40 073e 4ad3 243f
00000150: 31fc b1be c8b1 2c3f 35a2 2fbc 1bb6 acbe
00000160: 43dd fb3e 4f1c 8e3d 7e59 45be 7876 d7be
00000170: d478 c9be 6f1e 21be bb64 143f fcb7 9b3d
0.98834944 0.6401693 -0.12376295 0.9773891 0.19539267 -0.38466477 0.41799304 0.30278078
-0.18258996 0.32726577 -0.18322022 0.049057342 0.03262885 -0.6746919 -0.12701024 -0.52092874
-0.30903876 -0.00040613388 -0.27187464 0.7899643 -0.013441308 0.9293379 -0.030252323 0.45384708
0.6601812 0.34325385 0.57005125 0.97637784 0.50119984 -0.35271817 -0.18072356 -0.39512497
0.4191373 -0.10893193 -0.34709704 -0.47080857 -0.56956124 0.007732524 -0.33779767 -0.76832944
0.16206382 0.007849855 -0.37745392 -0.065472886 -0.22140734 -0.2775164 0.63600504 -0.013844827
-0.08745559 0.57662994 0.07811837 0.08441112 -0.6080651 0.0040813903 -0.38663182 -0.1584146
0.32057187 0.54258364 0.23685236 -0.014625306 1.0915593 0.59256685 -0.23132981 0.3120876
-0.13037306 1.243769 -0.36979273 -0.46811584 0.4671187 -0.36988518 0.09434402 -0.35594553
0.85577536 0.36454913 -0.44003743 0.10351753 -0.3486296 -0.1509443 -0.09929861 -0.26247516
0.72257227 0.5384759 0.13208167 0.643849 -0.3476272 0.6745877 -0.0107198255 -0.33732685
0.49192247 0.06938993 -0.1927242 -0.42082572 -0.39349997 -0.15734266 0.579662 0.076034516

sage.0.lin_root.bias f4 [32]
00000000: 1027 e3be 1c79 93bc 92a4 0dbf 1a47 6a3d
00000010: 49e8 a73e 3c87 133f 377e b53d a7ce 9a3d
00000020: 806f d03d 0f76 75bc aa0c df3e c8ba b2be
00000030: c274 ab3e f187 ee3e f7c2 99be c28c a43d
00000040: bb9b c53d 8e46 b93e 346d 033f fad9 87bd
00000050: 478f 3f3c 8aa2 9b3e 97ad acbe 0027 09bf
00000060: b084 b2bc be29 d53e 378b a93d 034b 903d
00000070: 9229 043f 74c4 ca3d 94bc cb3e e1a2 cc3d
-0.4436574 -0.018002085 -0.5532924 0.057196714 0.32794407 0.57628226 0.08861964 0.07558947
0.10177517 -0.014981761 0.4356435 -0.34908128 0.33487517 0.4658809 -0.3003156 0.0803466
0.09648844 0.3618664 0.51338506 -0.066333726 0.011691875 0.30397445 -0.3372619 -0.53575134
-0.021791786 0.4163341 0.08278506 0.07045557 0.5162593 0.09900752 0.3979231 0.09992004

sage.1.lin_rel.weight f4 [64, 32]
00000000: e316 a63d 7061 b33d 93a9 8b3d 5228 47be
00000010: 31f8 c13d ffb7 053d 0e30 7bbd 3151 a3bd
00000020: d1d8 023e 53b6 1e3e e0de 67be 8611 623e
00000030: a8b2 2dbe 3192 9d3d e7ca 853d 3f6b 1abe
00000040: 25d5 2b3e b4ec a03d 7392 67be 8cf8 69bc
00000050: 8432 9d3d c1c6 7b3c ec08 623e dffb 553d
00000060: bef9 983e b6b7 f3bc 188a c8bc c90b 32bd
00000070: 8413 3a3e 5d6f 9bbd bd57 7f3e 7f75 e8bd
00000080: 89b9 a0bb ec64 393c e513 f7bb 1177 3ebd
00000090: b555 1dbd d0f3 83bc 87c3 403c faf4 043c
000000a0: 1d86 8c3c 9302 f83c 5fb6 b4bc 68dd 1dbc
000000b0: 6b31 da3c 595c 23bd 8a08 66bc 896d 6c3b
000000c0: 9474 f637 db30 54bd b3a4 b03b c49a 113a
000000d0: 7ff0 8e3c ab3b b138 239b 2ebc 7066 54bc
000000e0: 5bdb 6a3c 5f09 fb3b 7d7f b4bc 8714 7c3b
000000f0: 1fc5 9d3d faee 8cbc 8140 db3b b3b3 c83a
00000100: 2264 f63b 93ba 40bc 7097 22bb c5f8 c53c
00000110: 71ed 84bc 79da d9ba 7942 84bb 8f67 8abb
00000120: 218f dfba e29c 58bc e6af 82bc f5c7 0f3b
00000130: 71b3 723b 5e3e 02bc 4e0f 4439 4b6f 4ebc
00000140: 10a6 6a3c 7cf6 33bc d5dc 3ebc 2d19 ac3a
00000150: 62ef 1abd 7085 b139 443b 4db9 f3ff 35bb
00000160: 2164 adbb c22f fd3b 62a2 41bc fb53 2d3a
00000170: f595 353d acdc 773c 006d 12bc 39e7 a53b
00000180: 7d1b 2a3e d648 043e b9da 1e3c b8a9 ac3d
00000190: aa40 0b3e 442a 363e c818 ecbd 7fc6 91bd
000001a0: dd40 063e 9805 ecbd 6326 0abe 937d 433d
000001b0: bc2c 173e aef2 a9bd 3686 0f3e 6bb9 ca3d
000001c0: f638 19be ffd6 42be e273 933d b921 7d3d
000001d0: 3880 10bd b882 d5bd 1167 6b3d c2ad 97bd
000001e0: 781c c03c cf0e 323d 73f3 5c3d cc65 b0bd
000001f0: a6e9 90bd 827a 8dbd eb13 d63d bab9 9d3b
00000200: 2682 04bd c41d 9a3c 01aa 023e 21fb cc3d
00000210: eb76 e7bd b2af 54bd 206f 623d a249 33be
00000220: e3c9 033d f71e b23d 26d3 b8bd 71c9 42bc
00000230: 1fed d13d f76a 273e 0f14 bd3c ea1d 1d3e
00000240: 4429 15be 4b45 3cbd 0413 283d f321 ffbd
00000250: da2e 00be 75db 013c 7efa 693e 9d9f 2d3e
00000260: 8ec5 a9bd 5423 fabd 0f36 12be 4bbe 7a3d
00000270: ac54 66bd d5bb 1ebe a246 92bd 7b87 99bd
00000280: 65b6 403d f258 6b3e 6538 c33d b8e8 153e
00000290: f832 86bd 911e a1be f901 a93c ff6e 1c3d
000002a0: 2ece b43d 96be 543e cb5a 25bd bdca 3a3e
000002b0: 8133 9e3d f895 4abe 8974 883e 134b 2cbe
000002c0: 164a aabd 88a7 01bd 8431 bbbd 408c 223e
000002d0: 04ad 463e dd71 86be 8249 903e 0aa0 5c3e
000002e0: bdf7 ec3d 19cc 863e 015a a0bd f157 7d3c
000002f0: 9cb2 3e3e a674 58be a566 54be 4000 013e
00000300: 8f42 ff39 ebca a93c 2ac3 ed3a 0cce b73c
00000310: 5ccb 15bd 875a 1ebc c89b 16bc 8c5a febb
00000320: 733f 663c 7952 e33b 833b bc3b dad1 ba3a
00000330: a990 623c fb2c ecbc 383a 6dbb 2602 b0bc
00000340: 0955 4e3d 4ed6 75bc 9e82 ac3c 22bc 753b
00000350: 8e81 1ebb e6a1 363a f66f e1bb 9d8e 79bc
00000360: e4fe 813c 80d8 b83c 576e 13bc 320e 2c3c
00000370: 6e9f a13d 9f74 bb3c 1ec8 273b 9e9e 763c
00000380: 2309 623c 0254 95bc 35dc 853a 63e2 963b
00000390: 222b dbbb 3cf6 5ebc a3b4 e5bb 0ac4 1ebc
000003a0: 7b32 85ba 9437 5ebc e657 7cbc 5c58 233b
000003b0: 6799 90bc 7653 26bc 3a37 363b f878 28bc
000003c0: 6a72 a93b 3ef0 04bc af55 43b9 f0d0 ca3b
000003d0: 997c 8d3c ef07 d8b9 1bcd 5aba 5083 93bb
000003e0: e62a 96ba 4b9f f6bb f6d8 b9bb 9490 e6ba
000003f0: 7c0a 763d 4840 c6bc 287f 62bc 0e72 a8ba
0.08109834 0.08758819 0.06819453 -0.19448975 0.09471167 0.032646175 -0.061325125 -0.079744704
0.12778021 0.15499239 -0.22643614 0.22076997 -0.16962683 0.076938994 0.06532841 -0.15079974
0.16780527 0.078576475 -0.2261446 -0.01428045 0.07675651 0.015367211 0.22073716 0.052242156
0.29878038 -0.029750686 -0.02447991 -0.04346827 0.18171507 -0.075896 0.24935813 -0.113505356
-0.00490493 0.011315566 -0.0075402134 -0.04650027 -0.038411815 -0.01610747 0.011765367 0.008115048
0.017153794 0.030274665 -0.022059618 -0.009635307 0.026634892 -0.03988299 -0.014040122 0.003607603
2.9379771e-05 -0.051804405 0.0053907274 0.0005554373 0.017448662 8.451132e-05 -0.010657105 -0.012963876
0.014334525 0.007661029 -0.022033447 0.0038464384 0.077036135 -0.017203797 0.006691039 0.0015312344
0.007519261 -0.011763233 -0.0024809502 0.024166474 -0.016226502 -0.0016620896 -0.0040362445 -0.004223771
-0.0017056206 -0.0132209975 -0.015953016 0.0021939252 0.0037033225 -0.00794944 0.00018697718 -0.0125997765
0.014321819 -0.010984059 -0.01164933 0.0013130062 -0.03782595 0.0003385949 -0.00019572402 -0.0027770966
-0.0052914773 0.0077266404 -0.0118185 0.00066119403 0.044332463 0.015128296 -0.00893712 0.0050629643
0.16612048 0.1291841 0.009695702 0.08430809 0.13598886 0.1778956 -0.11528164 -0.07117938
0.13110681 -0.115245044 -0.13491206 0.04772718 0.14763159 -0.082982406 0.14016041 0.09898647
-0.14963135 -0.19027327 0.07199837 0.06179974 -0.03527853 -0.10425323 0.05747134 -0.074061885
0.023451075 0.043471154 0.05394311 -0.08613166 -0.07075815 -0.06908132 0.10453018 0.0048134
-0.03235068 0.018813021 0.12760164 0.100088365 -0.11301979 -0.05192537 0.05528176 -0.17508557
0.032174956 0.08697312 -0.09024648 -0.011888848 0.102503054 0.16349398 0.023080854 0.15343443
-0.14566523 -0.04596452 0.04103376 -0.12457647 -0.12517872 0.007925858 0.22849461 0.16955419
-0.08289634 -0.122137696 -0.14278434 0.061216634 -0.056233093 -0.1550134 -0.071423784 -0.07496544
0.047048945 0.22983149 0.09532241 0.14639556 -0.0655269 -0.31468633 0.020630823 0.03819179
0.08828388 0.20775828 -0.04036979 0.18241401 0.07724667 -0.19783771 0.2665141 -0.16825514
-0.08314912 -0.03165391 -0.09140304 0.15873814 0.19401938 -0.26258746 0.28181082 0.21545425
0.1157069 0.2632759 -0.07829667 0.015462861 0.18622822 -0.21138248 -0.20742281 0.12597752
0.0004868698 0.020726642 0.0018139828 0.022437118 -0.03657089 -0.009665138 -0.009192415 -0.007762259
0.014053213 0.0069373217 0.005744399 0.0014253214 0.013828435 -0.028830042 -0.003619803 -0.0214854
0.050374065 -0.0150047075 0.021058377 0.003749617 -0.0024186107 0.0006966874 -0.006879802 -0.015231756
0.015868612 0.022564173 -0.008998475 0.010501431 0.07891737 0.022882758 0.0025601457 0.015052466
0.013796124 -0.018228535 0.0010212722 0.004604624 -0.0066884914 -0.013608512 -0.007010059 -0.009690294
-0.0010162139 -0.013563056 -0.015401816 0.0024924492 -0.017651273 -0.010151735 0.0027803914 -0.010282747
0.00517111 -0.008113919 -0.00018628569 0.006189458 0.017271327 -0.00041204641 -0.0008346603 -0.0045017377
-0.0011456877 -0.0075263134 -0.0056716157 -0.0017590695 0.060068592 -0.024200574 -0.013824262 -0.0012851374

sage.1.lin_root.weight f4 [64, 32]
00000000: ee7e 4dbe 8137 b43c c845 b1bd 01de 1dbe
00000010: 3c4d 48be 9d01 b73d 498e 10be d338 973e
00000020: 5ba3 b83e 00b8 1f3c 7956 853e 34be ebbd
00000030: a1e3 ecbd f6ae 9bbd 163b 5b3e 79a4 85bc
00000040: 9d14 0e3e 4d72 83be b5d2 d83d 8153 9f3d
00000050: cf58 363d 11b4 c93e 36f9 253e 7a46 463e
00000060: 7ebf d73d 4a1b a6bc e5c9 af3d 1d41 403e
00000070: 38ec 883e 3c30 d8bd ce6b 7abe 7240 a0bd
00000080: 320f 8dbe a355 613e aa99 9e3e afca debd
00000090: e2aa 283f 1c78 1b3e 178b edbd 2440 b83d
000000a0: 7f9e 0cbf 6802 57be ed26 a33f 1701 b03e
000000b0: 2c25 13bf 8115 943e 3336 c73e b910 013e
000000c0: 6750 033d e71c 443c 6084 2fbe dd77 0fbe
000000d0: 8c5e 63be 779c c7bd d742 a93e 7287 ba3e
000000e0: a64b 1cbd d80a 15bf 8108 c23e efea 39be
000000f0: a2e4 88bf 4b86 193c fa1f 12bf 08b1 39bd
00000100: a3ad 8b3c 6024 c5bc 1292 163b 7161 d63d
00000110: 0ec6 983e 73b5 9bbc 18f8 c23c 4df7 41be
00000120: f6c7 febe bf5a f8bd b75c d83d aa7b 0bbc
00000130: 3b04 383e 6c9b 6d3c f146 e9bc ac76 ab3d
00000140: 4e5e 30bd 5bed 36bb 8ab1 82bd e3ad f4bc
00000150: dc22 22be 3d0e d1bb 4667 dcbc f549 d3bc
00000160: f27e 80bd 4bcb 24be d5a4 db3f 70db a1be
00000170: f5a5 e4be 497d 0e3d f30f 3a3c 4b06 4cbd
00000180: 510f 91bd bca6 5cbd e34c b23d d394 a03c
00000190: e833 a8bd 3af4 143e 8ecf 33bd a15f 32be
000001a0: 1e3b 56bd 7c6e 3bbe da7c 52b9 76f6 c03d
000001b0: 83d1 15be b825 7fbc 13da d13d 7c91 7c3d
000001c0: 1fdd ce3d 3f28 403d cd47 233c 34dc de3d
000001d0: 8b87 0dbd a911 debc d90b 703d 85b0 c8bc
000001e0: 8e0a fdbb 125c 983d ef83 c2bd 1630 4e3d
000001f0: c264 efbd 231d b63d 837d 22be a7af e5bd
00000200: 0436 653c ca5f e3bc 73e9 b03d f173 4abe
00000210: 087f 353d 9942 0c3e 971f 883c 08c3 1fbe
00000220: 8af2 ca3d 3a5d 83bb ba18 91bc 3958 113e
00000230: 6eb2 223e 668c 15be acb9 54bd 069a d83d
00000240: 3a42 88bd 9604 9bbd 34b5 a9bd 538a c8bb
00000250: c80a a63b 183d 443c f2d8 8cbc e95a c23d
00000260: d12b 00be fc1d a3bd 1737 a63d 3576 7abd
00000270: d6af 23bd fe22 15be e2ac 0c3d 722d 023e
00000280: 253b c33d b78b ca3d 102a af3c bf58 a0bc
00000290: 9aac 0fbd 4bb8 80be b32f 9d3c 5781 793e
000002a0: b021 4f3d bfe7 7f3e c0a6 a33d afe7 bd3d
000002b0: aefc 85bd 350c 91be 1dc1 efbd a2fd 0abe
000002c0: cab9 a73d 029d 19bc 344d 833d 7e0c 133e
000002d0: 17cb 503e eb42 0dbe 8f75 523d 7d00 cabd
000002e0: 1163 b8bc e9d6 5e3e c197 a8be 1cbc ffbd
000002f0: 7076 063f 9d9b 1abe 2514 6fbe bb49 f73d
00000300: 28fb ea3c e062 903c 4c56 1f3c 782d 39be
00000310: 70ce f33e e367 be3d 6ec1 163d 111b 1abd
00000320: c7fb 27bf 8306 35be ebb1 d93e b40d da3b
00000330: fafb 923d ff33 3e3e 9be3 393d 00b9 113e
00000340: 3974 ddbd 04a1 373d cfb5 16be 525f babd
00000350: 99da 5bbe 5b02 3fbd 9231 f53c cfb0 4e3d
00000360: c481 bdbd 3d32 98be 263d 6b3f ce7e febe
00000370: 1ec5 87bf c7f2 95bd 21e4 21bd 1f63 f1bd
00000380: 7c85 7bbc 094d cfbb 266a 0abd 75c8 6e3d
00000390: 8123 6a3d 1476 563b 69af c93c 53bb 63bd
000003a0: 4569 b8bd 9673 eabc 21e3 a83d 79c4 f1bc
000003b0: 20d5 d83d a645 5c3d ff16 10bd 62cd 253d
000003c0: 6bdb 35bc 4bd6 853c 8885 19bc 3f4e 33bd
000003d0: 2027 ecbc d32d c43c c79d eebc 8cdf ecbc
000003e0: f85e f7bc 66f1 a2bd 1251 b93f 89cb 00be
000003f0: 46f7 89be 32ca c23d adb2 6fbc 46c6 45bc
-0.20067951 0.021999123 -0.08655888 -0.15416719 -0.19560713 0.089358546 -0.14116777 0.2953554
0.3606213 0.009748459 0.26042536 -0.11510888 -0.11566854 -0.076017305 0.21409258 -0.016313778
0.13875051 -0.25673142 0.10587064 0.07779599 0.04451829 0.39395192 0.16208348 0.19362822
0.10534571 -0.020276684 0.0858343 0.18774839 0.2674272 -0.10556075 -0.24455187 -0.07824792
-0.27550656 0.22005324 0.3097661 -0.108785026 0.65885746 0.15182537 -0.11598795 0.08996609
-0.54929346 -0.20997012 1.2746254 0.3437583 -0.57478595 0.28922656 0.38908538 0.12604035
0.0320591 0.0119697815 -0.17140341 -0.14010568 -0.22204036 -0.0974664 0.33058807 0.36431462
-0.03815808 -0.5821967 0.37897113 -0.18156026 -1.0694773 0.009370397 -0.5708004 -0.045334846
0.01705057 -0.024065197 0.0022975248 0.10467804 0.29838604 -0.01900742 0.023799941 -0.18941994
-0.49761933 -0.121266834 0.10564559 -0.0085133705 0.17970364 0.0145023875 -0.02847621 0.08372244
-0.043058686 -0.002791247 -0.06381519 -0.029868072 -0.1583361 -0.006379871 -0.026904713 -0.025792101
-0.06274213 -0.16093175 1.7159678 -0.3161273 -0.44657865 0.03478745 0.011356342 -0.04981069
-0.070829995 -0.053869948 0.08706071 0.019602215 -0.08213025 0.1454629 -0.04389911 -0.17419292
-0.052302472 -0.18303865 -0.00020073671 0.09422009 -0.14630704 -0.015572958 0.102466725 0.061662182
0.10100769 0.04691338 0.009965849 0.10881844 -0.034553092 -0.02710803 0.05860505 -0.024498234
-0.0077222055 0.07439436 -0.094978206 0.050338827 -0.1168914 0.08892276 -0.15868191 -0.11215144
0.013989929 -0.027755637 0.08638277 -0.1977079 0.0443106 0.1369728 0.016616626 -0.15601742
0.09909542 -0.004008916 -0.017711986 0.1419381 0.15888378 -0.14604339 -0.051934883 0.10576253
-0.06653257 -0.07569234 -0.08286515 -0.006120005 0.005067203 0.0119774565 -0.017193291 0.09489996
-0.12516715 -0.079647034 0.08115976 -0.061147887 -0.039962612 -0.1456413 0.03434456 0.12712649
0.09532765 0.0988993 0.021382362 -0.019573567 -0.035076715 -0.25140604 0.019187784 0.24365745
0.050569236 0.24990748 0.079907894 0.09272706 -0.065423355 -0.28329626 -0.11706755 -0.13573316
0.08189733 -0.0093758125 0.0641121 0.14360234 0.20389973 -0.13795058 0.051381644 -0.098633744
-0.022508176 0.21761669 -0.3292828 -0.12487051 0.5252447 -0.15098424 -0.23347528 0.1207461
0.028684214 0.017625272 0.009725165 -0.18083751 0.47618437 0.092971586 0.036805563 -0.03762347
-0.65618557 -0.17678265 0.42518553 0.0066544656 0.07176967 0.18574522 0.045383077 0.14230728
-0.10813183 0.04483129 -0.14717792 -0.09100212 -0.21470107 -0.046633106 0.029930864 0.050461587
-0.092532665 -0.2972583 0.9189018 -0.4970612 -1.060703 -0.07321697 -0.0395242 -0.11786484
-0.015351649 -0.006326322 -0.033792637 0.05829664 0.057162765 0.0032724189 0.024619775 -0.05559857
-0.090044536 -0.028619569 0.082464464 -0.02951263 0.10587525 0.05377736 -0.03517818 0.04047907
-0.011099677 0.016337534 -0.009370215 -0.043775793 -0.02882725 0.023947632 -0.029127968 -0.02891519
-0.030196652 -0.07956199 1.4477866 -0.12577643 -0.26946467 0.09511222 -0.014630002 -0.012071198

sage.1.lin_root.bias f4 [64]
00000000: 71c7 103e 69b4 983e 5c16 e43e 5f47 86bc
00000010: 2bda 53be 7371 a63e 6954 f73e 8d59 e33e
00000020: aca2 253f 4461 353f 5606 c43e 21c8 4dbe
00000030: b529 e53e 526e 28be 5eb3 0ebd a56c 9e3e
00000040: fe89 18be 0c97 d03d 4707 ff3c cd24 823e
00000050: 8a81 4a3f 887e 8c3e 85ed 003e d1ac 2b3d
00000060: a29b e53e 5fc1 db3e a0b8 393f a0fa e13e
00000070: 7118 f93d a8dc 863e d813 963e 585e 803f
00000080: 75b3 d13e 53be adbd 7693 4e3f ac33 dc3e
00000090: e99c 143d f7e6 43be a177 f4bd 5c5d 9c3e
000000a0: 257f 853f 34f9 fe3e 2581 a53e 0a8c 853e
000000b0: b8e9 e83e 0187 713e 96e4 3d3f 788c 25be
000000c0: 0b29 1e3f 37ea 963c 453d 6e3f 1d1e d5bd
000000d0: 72ac 893e 1aec b4bd 0152 e13e 74e0 863f
000000e0: f7b4 e4bb 8565 913f 66f8 473f 82af e73e
000000f0: c870 d63e 8e21 c73e 335a b83e 9ce7 d43e
0.14138581 0.29825142 0.4454831 -0.016391454 -0.20688693 0.3250843 0.48306587 0.4440426
0.6470134 0.7085154 0.38286084 -0.20095874 0.44758382 -0.16448334 -0.034839027 0.30942264
-0.1489639 0.1018506 0.0311314 0.25418702 0.7910391 0.27440286 0.12590607 0.041912857
0.448453 0.42920968 0.7254734 0.44136524 0.12162865 0.26340222 0.29312015 1.0028791
0.40957227 -0.08483567 0.8069376 0.43008173 0.036282454 -0.19131075 -0.1193688 0.30539978
1.0429426 0.49799502 0.32325092 0.26083404 0.45490813 0.23586656 0.7417692 -0.16166866
0.61781377 0.01842223 0.9306224 -0.10406134 0.26889378 -0.08834095 0.44007877 1.0537248
-0.0069795805 1.1359106 0.781134 0.4525109 0.4188292 0.38892788 0.36006317 0.41582954

sage.2.lin_rel.weight f4 [64, 64]
00000000: 68aa 8dbd 32f6 113d e31c 5f3b 99ec fd3c
00000010: 7833 d9bc 6bec 1dbc 1750 7dbd 4eea 93bd
00000020: 6948 553d a878 813c 8ebd f8bd daec 973d
00000030: ca8e 473d 3244 5d3d b790 ad3d 9f55 e3bd
00000040: aa5c 6a3d 6d88 07bd c8c2 08be 6dec c33d
00000050: 10d5 d6bb 9718 00bd 30a8 293d 1c6c 02be
00000060: d29b e2bd 850f 8fbc 8dad bb3c 62e8 ec3c
00000070: 8386 eb3d 306d c6bd 2850 95bd 1cc5 61bd
00000080: 0442 41bd a50a 7c3c 5ae1 bebb ed00 3e3c
00000090: 9f4a ddbc dbf7 a13c 14c0 183d 7dee 8e3c
000000a0: 53bd 903d 4804 90bd acbd c4bd 8ba4 763d
000000b0: 4b53 303b 3531 b53d 3a03 3e3c ee2d d23c
000000c0: ab67 a7bd 4f30 c2bb f04c d13d 507e 083d
000000d0: e393 1bbd f1ba adbd 6624 9e3d 1e6d 0c3d
000000e0: e4ae a6bd 4838 b1b9 a189 3f3c d2a6 d33d
000000f0: d923 933d 1dee 533d 5749 993a 9b6c a43d
00000100: c51f 7a3d 403e 653d 1769 a5bd da8f 8fbc
00000110: 7ac2 033e a092 133d 1b4d 91bd 1c69 95bd
00000120: c933 203d 9423 bc3d fb20 6a3d fa68 383c
00000130: c422 2fbe 6fd3 e6bb e1cb 2ebd 86a7 bc3c
00000140: e92d aa3b b94c ce3d a588 c23d 4e88 6fbc
00000150: 13f8 ddbd f2f1 943d 76b5 12bb 0779 213d
00000160: 0562 a53d f2bd c6bd 614b c8bb 8815 babd
00000170: 2a4a 0bbd e607 5b3c 748d a5bc f377 a9bb
00000180: 68b2 983d 9688 1dbd ea21 11be c7d0 623c
00000190: 63fb ec3d fd29 ea3d 8d7a c9bd 849b 9dbd
000001a0: 92a1 a8bd f72d 233d c065 5bbd d859 44bd
000001b0: a309 84bc dc18 0c3e 696b d53c 41d7 a93d
000001c0: 4f55 f4bd 8aca 94bb adf6 88bd de07 0b3e
000001d0: 1384 84bd 17f4 f43d e715 b83c be17 86bd
000001e0: dec9 393b f42c fd3c 4a94 183d c1ae 783c
000001f0: 563b 3cbd 58e2 b9bd cbd4 adbc fc44 0fbd
00000200: 7cc8 4bbd 9b41 10bc 8ec1 e1bd 10cf c43d
00000210: a535 2f3d 44f4 b33d bb35 59bd 646c 06be
00000220: 6837 12bd 2d4e 30bd 65e0 51bc 51b8 a53d
00000230: b1f9 54bd a2cd a13d 1009 063d 0861 97bd
00000240: 23a4 51bd 5db1 ea3c b77c ae3d 070b 8bbd
00000250: 7dcf 03be cc27 b93d d766 d6bd 39db a6ba
00000260: a19e ccbd d430 9abd 2479 1fbd 57d3 c53d
00000270: 5c4d 8fbd e77c 6c3d 9cea 9dbd 95ee ebbd
00000280: 94f1 5fbd cd3e 79bd 0066 343d 6504 e5bd
00000290: 9c47 be3c 7843 2d3d cacc 40bc 8436 a33d
000002a0: 5a32 503d 1628 5e3c c48b c33d d0f7 673d
000002b0: 55ec 08bd 3310 14bd 2957 333c dd16 96bd
000002c0: 55e3 1dbd 6cac c8bd ab40 a63d 530f f03d
000002d0: 0b24 a6bc 542c 893d 4bd4 42bc 959a 2f3c
000002e0: 2670 7dbd df38 4bbc d00a d0bd 6a16 eebc
000002f0: 1408 9d3c 2455 02bc 9313 d3bd b774 e53d
00000300: 6af7 81ba bb02 4abd e9f3 da3d 4293 cf3d
00000310: 0410 cbbc ec3f babc 46c7 b03d 1a22 883d
00000320: 8e23 cd3d 1453 aabc df96 bfbb d8c1 2e3d
00000330: 337e 5d3d 5d0e 37bd 1db6 883d 7e4c 8abc
00000340: cc21 85bd 37d5 8a3d 901e 79bc f96c 0fbe
00000350: cdcf 3a3e 3831 1cbd 42a2 663c 3761 46be
00000360: 72c9 593d 1eab c33d 0a6a 143d d5d7 733c
00000370: 9fc9 493e 64bd 97bc a351 b9bd fd53 493e
00000380: 2064 b43d d19c 65bd d8d9 4d3d 14c4 d73b
00000390: 6078 21be 42d3 78bd 1fea 113c c570 dabd
000003a0: da9f 4b3e b601 833d 02be 05bd 4c1a 1f3e
000003b0: f44e c73d 5028 dfbd e4c3 fd3d 4e4d 07be
000003c0: d153 053e 1220 553d 8980 6fbc 31bd 08be
000003d0: c338 5b3c d169 99bc 3f26 253e 23fa d53c
000003e0: ea15 dabc fc37 893d ca8f 883e 04a7 9a3c
000003f0: 1ff6 193e ac82 1e3d 35cf 82bd e57e 8e3c
-0.06917268 0.03563518 0.0034044317 0.030996608 -0.0265138 -0.009638886 -0.061843958 -0.072224244
0.05207101 0.015804604 -0.1214553 0.07418223 0.04872016 0.054020114 0.08474868 -0.11100315
0.057217278 -0.03308909 -0.13355553 0.09566579 -0.0065561607 -0.03127345 0.04142016 -0.12736553
-0.110648766 -0.017463455 0.022909904 0.028919403 0.115002654 -0.096887946 -0.07290679 -0.05511962
-0.047182098 0.015383397 -0.005825204 0.0115969 -0.027013121 0.019771507 0.037292555 0.017447704
0.07067361 -0.070320666 -0.096064895 0.060215514 0.0026905115 0.08847276 0.011597449 0.025656667
-0.0817407 -0.005926169 0.10219753 0.033323586 -0.037982833 -0.08482922 0.07721786 0.03428375
-0.081388265 -0.00033802004 0.011690528 0.10334553 0.07184572 0.051740754 0.0011694831 0.08028527
0.061065454 0.05596757 -0.08076685 -0.017524648 0.12867156 0.036028504 -0.07094785 -0.07295439
0.039111886 0.091864735 0.05716036 0.011255497 -0.17103106 -0.007044248 -0.042674903 0.0230291
0.005193461 0.100732274 0.09498719 -0.0146199 -0.10838332 0.0727271 -0.0022385991 0.03942206
0.08075336 -0.09704198 -0.0061125015 -0.09086138 -0.034006275 0.013368582 -0.020209052 -0.0051717698
0.07455903 -0.038460337 -0.14173093 0.013843722 0.11571386 0.1143379 -0.09837828 -0.07695678
-0.08233942 0.039838757 -0.053563833 -0.047937244 -0.016117876 0.13681358 0.026052194 0.082930095
-0.11930334 -0.004540746 -0.06687675 0.1357722 -0.06470504 0.11960619 0.022471381 -0.06547497
0.0028349082 0.030905224 0.037250794 0.015178383 -0.045955025 -0.09076375 -0.021219632 -0.034977898
-0.049751744 -0.008804704 -0.11023246 0.096098065 0.04277577 0.08786824 -0.053029757 -0.13127285
-0.03569737 -0.043043304 -0.0128098475 0.08091796 -0.051995937 0.079005495 0.032723486 -0.07391554
-0.051181924 0.028649027 0.08519881 -0.06789213 -0.12872119 0.09040794 -0.10468834 -0.0012730128
-0.099911936 -0.075288445 -0.038933888 0.096594505 -0.06997177 0.057736304 -0.07710764 -0.11520115
-0.054673746 -0.060850907 0.044042587 -0.11182479 0.023227505 0.04230067 -0.0117675755 0.079693824
0.05082927 0.013559362 0.095481426 0.056632817 -0.03342851 -0.03614826 0.010946074 -0.073285796
-0.03854688 -0.09798512 0.08117803 0.11721673 -0.020280859 0.06697908 -0.011891435 0.010718008
-0.06187453 -0.012403696 -0.10158312 -0.029063422 0.019168891 -0.007954869 -0.10306468 0.11203902
-0.0009915654 -0.04931901 0.106910534 0.10135509 -0.02478791 -0.022735558 0.086317584 0.06647129
0.10016547 -0.020791568 -0.0058468427 0.042665333 0.05407543 -0.044691432 0.0667536 -0.016882177
-0.06500587 0.06778949 -0.015205041 -0.14006414 0.18243332 -0.038132876 0.014076771 -0.19373022
0.05317063 0.095541224 0.03623394 0.014883001 0.19705819 -0.018522926 -0.09048774 0.19660945
0.0880816 -0.056057755 0.05025658 0.0065846536 -0.15768576 -0.060748346 0.0089059165 -0.1066604
0.19885197 0.06396811 -0.03265191 0.15537375 0.09731856 -0.10896361 0.12390879 -0.13213083
0.13020255 0.052032538 -0.0146180475 -0.13353421 0.013380232 -0.018727215 0.16127871 0.026120251
-0.026621778 0.06700131 0.26672202 0.018878467 0.15035294 0.038698837 -0.06387178 0.017394492

sage.2.lin_root.weight f4 [64, 64]
00000000: 8f51 6dbd 393d c33c f083 61bc a138 88bd
00000010: 8b03 2bbe d157 993b 7997 7bbd d644 37bd
00000020: 9674 54bd 1538 c5bc 8559 b1bd df29 ab3d
00000030: 58af f93d b5c6 583d d794 21bd 5719 853d
00000040: 650f e2bd 689d 6f3d 8567 c0bd 36bb a0bd
00000050: cf74 adbb 1459 69bb f994 62bd dc96 45bd
00000060: 6ef2 ad3d bfb3 233d 536d 89bd cf25 523b
00000070: 08e5 49bd 3cfe d73c 1298 803d 4adf a93d
00000080: 63e6 1c3e e5f6 c43d 52ad 223e 536a 8d3d
00000090: 35f1 cf3d 153d 10be 9630 fdbc dc40 3f3d
000000a0: 4659 533d bc7a 983d 3a15 163d 6054 cabc
000000b0: 4132 afbb 88ac d63c fe93 fbbc d6ef 1f3c
000000c0: 21d0 babc 6a49 b63c 1dfa 19bd 3e8c 08ba
000000d0: a4d9 943d 8e4b 00be d781 68bd e52f c7bd
000000e0: a9c2 24bd 31a6 81bd a01a aa3d a3e2 1f3c
000000f0: fbc0 7fbb c05d 0abc 5e49 0bbe 57c0 e9bd
00000100: 2ae2 023e 35ac 3bbd edd2 343d 2a3b b3bd
00000110: d8e0 9e3d c679 343d fea2 d6bd 66db c53c
00000120: fe98 4ebd 79f9 65bd 07f4 dabc 2d5b 813c
00000130: 57dc 5b3d b3f0 cabd 1879 9c3d c91d 95bd
00000140: aadd 0b3e 58df c43d f847 7f3b 409f b9bd
00000150: 743c 353d 2f77 b83d 1aba f93c ac8c 753d
00000160: 8b9f 93bd 32c3 a0bd e5cb 82bd 5b7b e0bd
00000170: 69d1 943c b55b 16bc 87f6 913d ebff 9dbd
00000180: fe77 f1bd a274 e53d e863 86bb aa1c 463c
00000190: aa1e c13c af32 103e 91b2 fabc a0e6 10bc
000001a0: 69a6 9fbd b69c 3cbd 39aa e63d f8f5 07be
000001b0: fd1b f5bd 4c60 8b3d 9d17 e0bd fa61 a73d
000001c0: 23e3 4b3c dea2 0c3e 1b0a 0abd 6ac3 54bc
000001d0: 5755 bb3d add8 a9bd c47e 02be 7e74 373c
000001e0: 12c0 593d aaf7 a7bd 87cc 45be 8f9e 963d
000001f0: 60bd bbbb 8a22 4dbd 35dd 92bd bbe9 dabd
00000200: 4126 033e 1fc4 b03d b42c e0bd 6c52 013e
00000210: f075 eb3d aa05 753c 4ea4 babc f407 773d
00000220: 4b13 fbbc af58 bebd 5ef8 8abd ffe7 103d
00000230: 22af b5bd 1bda e7bc a594 9ebc 864d 823d
00000240: dfc7 a9bc 54b8 72bc bb4e 0b3d 66d1 c33d
00000250: a576 643d 8e58 d0bd 1236 17bd 3dfd d93d
00000260: 3076 d73d e7f2 95bd 79b2 6e3c 3621 b63d
00000270: 1c8c aa3c c5ed d73d ddd4 c8bc e0cb 263d
00000280: d44c f8bc c6db ff3d bfa9 10bc 6755 02bd
00000290: 4359 093e 1166 bdbd 070c df3d d823 5a3d
000002a0: 6a0e 92bd 8201 2d3d fefa cfbd 3be0 b33b
000002b0: 5d99 a53d 8d0b f33d b908 10be d2cd 9e3c
000002c0: 142f c2bc 40e4 61bd 0330 9d3d 3386 413d
000002d0: 2e8e 893b ce93 c43c 7f90 9cbd 38c9 c5bd
000002e0: 7f4a e63d a880 c3bd b2c9 aebd 65a2 a5bd
000002f0: 34f6 febc 24f0 16bc 8656 18bd 51f0 aabd
00000300: 0b86 acbd fa13 aa3c 88ca 85bd a783 03bb
00000310: 3c74 7b3c be21 153b 7791 823d 066f bd3d
00000320: bc3f e23d d26f 98bc 65c8 043d 9b9e c1bd
00000330: 904b 453e b861 afbd 5af7 9cbc f8f4 83bd
00000340: 6868 d1bc bb02 43bd 08cf fdbb 48d1 54be
00000350: 09d2 f8bc ba16 12be 57f1 98bd 3a8c febd
00000360: 3120 443d 1acc d33d fe19 00bd 3621 fc3d
00000370: 6626 dc3d c442 1abd 44a1 003d d414 5d3e
00000380: 7556 fa3c f1f2 c43c fae5 dabd 71a9 febb
00000390: dd0b 0bbe 14b8 9bbd 18b9 d63c 9419 0fbc
000003a0: d513 113e a768 0cba 71fb 5cbd 5ed1 e73d
000003b0: 67fc 163e 826a 5c3c ff65 763d c93c 1fbe
000003c0: a174 15bd 9270 36bd 024a 66bd b39b 67bd
000003d0: 9908 743d 79f9 d2bd 10fe 313d 42ef e43d
000003e0: ee17 60bd 7049 523d 2863 4a3e 48ba d13c
000003f0: 4d93 963d 042f fdbd 35da 303d b07a 3f3d
-0.05793911 0.023832904 -0.0137643665 -0.06651426 -0.1670057 0.004679658 -0.061423752 -0.04474338
-0.051868998 -0.024074594 -0.086596526 0.08357596 0.12191647 0.052923877 -0.039448585 0.06498974
-0.110380925 0.058499724 -0.09394745 -0.07848208 -0.0052934657 -0.0035606073 -0.055317853 -0.048239574
0.084935054 0.03996634 -0.06710305 0.0032065993 -0.049290687 0.026366346 0.06279005 0.08294542
0.1532226 0.09617404 0.15886429 0.06905045 0.101534285 -0.14085801 -0.030906957 0.046692714
0.05159881 0.07445285 0.036641337 -0.024698436 -0.005346567 0.026205316 -0.030710217 0.009761771
-0.022804322 0.022251803 -0.037592042 -0.0005208886 0.07268074 -0.12528822 -0.05676445 -0.09725932
-0.040224705 -0.063305266 0.083058596 0.009758624 -0.0039024937 -0.008445203 -0.13602206 -0.11413639
0.12781587 -0.045818526 0.044146467 -0.08751519 0.07757729 0.044061445 -0.10480307 0.024152469
-0.050438873 -0.05614612 -0.02672769 0.015790546 0.05367693 -0.09909191 0.07640284 -0.07281072
0.13658777 0.09612912 0.0038952809 -0.09063578 0.044247106 0.090071075 0.030484248 0.05994861
-0.07208165 -0.078497306 -0.06386546 -0.10961028 0.01816626 -0.009177138 0.071270995 -0.07714828
-0.11790465 0.112038866 -0.004101265 0.012091795 0.023574192 0.14081834 -0.030602725 -0.008844048
-0.07795412 -0.04604789 0.11262936 -0.13277423 -0.11968229 0.068054765 -0.10942004 0.081729844
0.01244429 0.13734004 -0.033701044 -0.0129860435 0.09147137 -0.08293281 -0.1274367 0.0111972075
0.05316169 -0.08201535 -0.19316302 0.073544614 -0.0057293624 -0.050081767 -0.07171098 -0.10689112
0.12807561 0.08631157 -0.109460264 0.12629098 0.11497104 0.014954964 -0.022783425 0.06031032
-0.030648848 -0.09294259 -0.067856535 0.0353775 -0.088712946 -0.028302243 -0.019357989 0.06362443
-0.020725189 -0.014814455 0.03401063 0.09561424 0.05577721 -0.101731405 -0.0369168 0.106440045
0.10520589 -0.073217206 0.014568918 0.08893053 0.020818762 0.10543398 -0.024515564 0.040721774
-0.030310072 0.1249309 -0.008829533 -0.031819727 0.13412957 -0.09247983 0.10890966 0.05325684
-0.071316555 0.042237766 -0.10155295 0.005489377 0.08085892 0.118674375 -0.14065827 0.019385252
-0.02370409 -0.055149317 0.07675173 0.047247123 0.0041978573 0.02399626 -0.07644748 -0.0965752
0.11244678 -0.095460236 -0.08534564 -0.08087615 -0.031123258 -0.009212527 -0.03719189 -0.08346618
-0.08424004 0.020761479 -0.065327704 -0.0020067485 0.015347537 0.0022755708 0.063754015 0.09249692
0.110473126 -0.018608008 0.032417674 -0.0945408 0.19267106 -0.0856356 -0.019160915 -0.064432085
-0.02556248 -0.047610026 -0.0077456273 -0.2078296 -0.03037359 -0.14266482 -0.07467907 -0.1242909
0.047882263 0.10341664 -0.031274788 0.12311022 0.107495114 -0.03766133 0.031403795 0.21589977
0.030558804 0.024041625 -0.10688396 -0.007771664 -0.13578744 -0.076034695 0.026211306 -0.008734126
0.14167722 -0.00053561706 -0.05395073 0.113192305 0.14744721 0.013453128 0.060155865 -0.15550531
-0.03648818 -0.04454095 -0.056222923 -0.05654497 0.059578512 -0.103014894 0.043455184 0.11178447
-0.05471032 0.051339567 0.19764388 0.025601521 0.07352314 -0.12362483 0.04317685 0.046747863

sage.2.lin_root.bias f4 [64]
00000000: b934 053c 05ac 423a 9a3b 4b3d c9e8 f03d
00000010: 8996 97bd 9ab8 01be 669b 6e3d 0c86 e4bc
00000020: c1ef 583a 2220 cfbd 74fc 983d 265f bc3c
00000030: 0151 37bd c517 e73d 7fbd f2bd 1fe4 09bb
00000040: 923f 5abd b81c 333e 23ca 3c3d 075e 14bd
00000050: 27c5 a8bc 2d08 8abd 6dfb 423a 9ec6 4fbc
00000060: 6e3f f03d b482 0cbd e948 b23d 9c1b 973d
00000070: 05ee 0c3d b526 1a3d f891 9c3c 304c 9d3d
00000080: 490e ebbd 7967 c93d 4e6e 93bb b59e 293e
00000090: 61f5 203e 5fa6 833d 59d3 22bd a75c 9fbd
000000a0: d553 813d 87b5 4abc d412 5b3d f8ae a63d
000000b0: f9ff 9ebd db7c ad3d f0c4 d13d d5c0 423c
000000c0: 6aed d6bd 131b cbbb ada8 1c3e 8362 403d
000000d0: e4c2 ffbd 4049 ccbd 6335 f4bd 2959 803c
000000e0: d3fd 01be 8ba8 c1bd 635f 943c 2a06 ffbb
000000f0: c343 95bd 60f1 a33b 7e04 9cbc f210 03be
0.008130246 0.00074261456 0.049617387 0.1176315 -0.07401759 -0.12668076 0.05825367 -0.02789595
0.0008275472 -0.10113551 0.074700266 0.022994589 -0.044754986 0.112838306 -0.1185255 -0.0021040512
-0.05328328 0.17491424 0.04609121 -0.036222484 -0.020601822 -0.06739841 0.0007437978 -0.012681631
0.11730848 -0.034304336 0.08705313 0.07378313 0.03440668 0.03763457 0.019112572 0.07680547
-0.11477334 0.09834189 -0.0044992333 0.16564448 0.15718605 0.06428217 -0.039752338 -0.07781344
0.06314818 -0.012372381 0.053484753 0.081388414 -0.07763667 0.0847108 0.10242641 0.011886795
-0.10494502 -0.006198296 0.1529872 0.046968948 -0.12488344 -0.09974909 -0.11924245 0.015667515
-0.12694483 -0.09455975 0.01811189 -0.0077827172 -0.07288315 0.0050031394 -0.01904511 -0.12799433

batch_norm.0.weight f4 [400]
00000000: 8a3e 0c40 4ef3 e53f b591 c83f 4b74 b83f
00000010: 8ffa ad3f 45bc a63f 2f61 a13f 522c 9d3f
00000020: ad67 9a3f 5ced 983f e344 963f b585 953f
00000030: 63e6 943f 2df7 923f feb2 913f 58dd 903f
00000040: fa45 903f abeb 8f3f 7dbd 8e3f 19d2 8e3f
00000050: 1879 8e3f d7f8 8d3f 4d43 8e3f 4385 8e3f
00000060: f6b6 8d3f f6be 8c3f a09c 8d3f e455 8d3f
00000070: 2514 8d3f b911 8d3f 1a5a 8c3f 2c73 8c3f
00000080: 1bef 8c3f a4b7 8d3f 1dc0 8c3f cc65 8c3f
00000090: 4a3d 8c3f b8e6 8c3f febf 8b3f 14e4 8c3f
000000a0: 6fd3 8c3f 4195 8c3f c9af 8c3f 089d 8c3f
000000b0: b222 8d3f c670 8c3f 82a5 8c3f 4000 8d3f
000000c0: 66f8 8c3f 3a23 8e3f a5a7 8c3f 85ae 8d3f
000000d0: 713b 8d3f a11b 8d3f db9d 8d3f ac2a 8e3f
000000e0: 0d82 8d3f 9a76 8e3f 720d 8e3f d132 8e3f
000000f0: cd5a 8e3f 8149 8f3f db15 8f3f d1c8 8e3f
00000100: c8c8 8f3f f2e5 8f3f f802 8f3f 7c2c 903f
00000110: 6da7 8f3f 68ca 8f3f 8215 903f 9532 903f
00000120: 9f61 903f dac7 903f 7886 903f f20d 913f
00000130: 7c10 913f ca33 913f f5ea 903f 7f31 913f
00000140: 305c 913f 1b46 913f 4c3d 913f dab1 903f
00000150: 0558 903f 6014 913f a53d 913f d8e8 903f
00000160: 6259 903f 4aeb 903f 7690 903f e138 913f
00000170: 3329 913f 86d5 903f c14c 903f 2fb6 903f
00000180: 02ef 903f 556b 903f 7629 903f 22b3 8f3f
00000190: cb0a 903f 3a9b 8f3f 7799 8f3f ac32 8f3f
000001a0: 2580 8f3f b336 8f3f f5b9 8e3f e1da 8e3f
000001b0: 7d8c 8e3f 894e 8e3f 50ee 8d3f 3ac5 8d3f
000001c0: 8838 8d3f ff77 8d3f be62 8d3f 9851 8d3f
000001d0: 9362 8c3f 0c8b 8c3f 263f 8c3f 538a 8c3f
000001e0: 365d 8b3f bb7f 8b3f a8e2 8a3f e1a4 8a3f
000001f0: f547 8a3f 163b 8a3f 0f7a 893f 0034 893f
00000200: c71a 893f eeba 883f 7097 883f ee97 883f
00000210: 3ff3 873f 65c1 873f 1b60 873f 078e 863f
00000220: 4dcb 863f 9e7d 863f 4189 853f 09d6 853f
00000230: 5965 853f 3a87 843f 6f6c 843f 85cb 833f
00000240: a136 833f 0a3d 833f 6c64 823f bdb7 813f
00000250: f340 813f 0f93 803f f177 803f c01e 803f
00000260: 8913 7e3f 5915 7e3f 5ad6 7c3f 0b0d 7b3f
00000270: d44d 793f b4fa 783f 9bbf 773f b983 763f
00000280: 8274 743f 8303 733f e9a4 723f adf6 703f
00000290: 2f76 6f3f 7388 6e3f 9acf 6d3f d600 6d3f
000002a0: 3a76 693f 1253 693f 9e4d 673f ef33 663f
000002b0: 732d 643f 95d2 623f 973d 613f e53e 603f
000002c0: 1c57 5e3f 3679 5c3f b66c 5b3f ec1b 593f
000002d0: c3ef 583f d2c1 563f e483 553f 67ee 533f
000002e0: bc4b 513f 8aef 4f3f fdea 4e3f a82c 4d3f
000002f0: 7e30 4c3f 5d6b 493f 22e9 473f d906 463f
00000300: 27e9 423f 02e7 423f 61d7 403f 529a 3f3f
00000310: 653d 3e3f d7f5 3b3f fae3 393f 3ca4 383f
00000320: 5df5 353f 374a 343f 985e 313f a758 313f
00000330: 9890 2f3f 8cab 2e3f 79e1 2b3f 090d 2b3f
00000340: dc3e 293f d0ae 263f be3b 253f 0973 233f
00000350: d05c 213f 2cf1 1f3f 09a2 1e3f 2808 1c3f
00000360: 985f 1a3f 2026 193f 387e 173f 5476 153f
00000370: bd6a 133f 0a1f 123f ea1c 113f 3695 0e3f
00000380: f8e5 0d3f 806d 0c3f be07 0a3f 386d 093f
00000390: acae 073f 7134 053f a73d 033f 448b 033f
000003a0: aef7 003f 2a9b fd3e 2fbd f93e f2bc f93e
000003b0: 4369 f53e 751e f43e edc4 ed3e d86b ec3e
000003c0: 2f57 e93e c18c e53e ee14 e33e dc89 e13e
000003d0: 45f5 dd3e 802b dc3e fb6c d93e add7 d53e
000003e0: d276 d23e 683e d03e 3924 ce3e c198 cc3e
000003f0: 0276 cb3e c810 c83e 864c c53e 8d01 c13e
2.191317 1.7964876 1.5669466 1.441049 1.359209 1.3026205 1.2607783 1.227915
1.2062889 1.1947436 1.1739773 1.1681429 1.1632808 1.1481682 1.1382749 1.1317549
1.1271355 1.1243795 1.1151577 1.1157867 1.1130705 1.1091565 1.1114289 1.1134418
1.107146 1.0995777 1.1063423 1.1041837 1.1021773 1.1021034 1.0964997 1.0972648
1.1010469 1.1071668 1.0996128 1.0968566 1.0956204 1.100791 1.0917966 1.1007104
1.1002024 1.0983049 1.0991145 1.0985422 1.1026213 1.0971916 1.0988009 1.1015701
1.1013305 1.11045 1.0988661 1.1068884 1.1033765 1.1024057 1.1063799 1.1106772
1.1055313 1.1129944 1.1097853 1.1109258 1.112146 1.1194307 1.1178545 1.1155034
1.1233149 1.1242049 1.1172781 1.1263576 1.1222969 1.1233644 1.1256564 1.1265436
1.1279792 1.131099 1.1291037 1.1332381 1.1333156 1.134393 1.1321703 1.134323
1.1356258 1.134952 1.1346831 1.1304276 1.1276861 1.1334343 1.1346937 1.1321058
1.1277277 1.1321805 1.1294086 1.1345483 1.1340698 1.1315162 1.1273423 1.1305598
1.1322939 1.1282755 1.1262653 1.1226542 1.1253294 1.1219246 1.1218709 1.1187339
1.1210982 1.1188568 1.11505 1.1160547 1.1136624 1.1117717 1.1088352 1.1075814
1.1032877 1.1052245 1.1045759 1.1040525 1.0967582 1.0979934 1.0956771 1.0979713
1.0887821 1.0898355 1.085042 1.0831567 1.080321 1.0799282 1.0740374 1.0718994
1.0711297 1.0682046 1.0671215 1.0671365 1.0621108 1.0605894 1.0576204 1.0512093
1.0530792 1.0507085 1.0432512 1.0455943 1.0421554 1.0353768 1.0345591 1.0296484
1.0251046 1.0253003 1.0186896 1.0134197 1.0097946 1.0044879 1.0036603 1.0009384
0.9924856 0.99251324 0.98764575 0.98066777 0.9738438 0.9725754 0.9677674 0.9629474
0.95490277 0.94927233 0.9478288 0.941264 0.9353971 0.93176955 0.928949 0.925794
0.91196024 0.9114238 0.9035281 0.89922994 0.8913185 0.8860257 0.87984604 0.8759597
0.8685167 0.86122453 0.85712755 0.8480823 0.8474085 0.83889496 0.83404374 0.8278565
0.81756186 0.8122488 0.80827314 0.80146265 0.79761493 0.7867945 0.7809011 0.773542
0.7613701 0.7613374 0.7532864 0.7484485 0.7431243 0.73421997 0.7261349 0.721256
0.7107752 0.7042574 0.69284964 0.692759 0.6858001 0.6823051 0.6714092 0.66816765
0.6611154 0.6511049 0.64544284 0.63847405 0.63032246 0.62477374 0.61965996 0.60949945
0.60302114 0.598238 0.5917697 0.5838368 0.57584745 0.5707861 0.56684744 0.5569643
0.5542903 0.54854584 0.53918064 0.5368228 0.53000903 0.52033144 0.5126595 0.5138438
0.5037793 0.49532443 0.48777148 0.48776966 0.4793187 0.47679487 0.46439305 0.46176028
0.45574328 0.4483395 0.44351906 0.4405049 0.43351188 0.43001938 0.42465958 0.4176611
0.41106278 0.40672612 0.4026201 0.39960292 0.3973847 0.39075303 0.38534945 0.37696496

batch_norm.0.bias f4 [400]
00000000: 115f 163e c3b6 0c3d 811d 59bc a5e0 35bd
00000010: b97c 72bd e04b 9fbd a6ed b0bd 9a59 c1bd
00000020: 3c03 d1bd e936 d4bd 18ce edbd 152f f7bd
00000030: a99b f6bd de3d fcbd 5c23 00be d19f 00be
00000040: adf1 05be 3603 06be 63a7 0bbe 8f51 0cbe
00000050: 1e15 0dbe 0f99 10be 8055 0dbe 9f82 11be
00000060: d9d4 11be de17 16be a626 1bbe 1ce9 16be
00000070: 7bf7 15be c04a 22be 3766 1fbe d0f2 23be
00000080: 9fad 21be 4800 26be 5233 2bbe 7795 2dbe
00000090: 7469 32be 87cd 37be 243c 39be dc4d 37be
000000a0: 5df4 3dbe dd8c 46be d227 4bbe 792f 4ebe
000000b0: 6f32 53be c73d 52be 2c4e 58be 4c90 5dbe
000000c0: 3bcd 65be 6ec1 6bbe 85dd 70be 3dbf 76be
000000d0: ba35 7cbe ed5e 82be 1fed 87be 02ae 8cbe
000000e0: 6f17 8fbe 930e 92be 318d 96be c9d5 9abe
000000f0: b997 a0be 6e79 a3be 982d a9be a748 aebe
00000100: 6df5 b1be 9063 b9be 64a2 b9be f040 c0be
00000110: 1b92 c6be b867 c8be 7e71 d2be fd64 d4be
00000120: 5c4b dbbe 12af debe 5eb7 e5be 16e4 ecbe
00000130: 537c f2be b284 f5be f799 fabe 3127 ffbe
00000140: ab3a 03bf 3696 05bf c7ea 07bf 28ff 0bbf
00000150: 41fb 0ebf 9bdd 10bf 1542 13bf ccb4 16bf
00000160: ac37 19bf a269 1bbf 5b3d 1dbf ffbb 20bf
00000170: ebb2 22bf 17a4 26bf 69e5 27bf c753 2abf
00000180: 1998 2cbf 4f9c 2ebf b96c 30bf 7709 33bf
00000190: 9900 35bf 8ba8 36bf 04d6 39bf d941 3dbf
000001a0: 3c3a 3ebf d33c 40bf 3542 42bf 5112 45bf
000001b0: 29dc 46bf 3a38 49bf 2fe1 4abf 497f 4dbf
000001c0: 77ff 4fbf 8c02 51bf 752e 54bf 2653 55bf
000001d0: 2fc8 57bf 61dd 58bf 2d95 5abf 1c7b 5ebf
000001e0: db4c 5fbf d85c 61bf 64ec 63bf c4da 64bf
000001f0: a060 67bf 5c99 68bf 03a9 6bbf be5e 6dbf
00000200: fc62 6fbf 5d54 71bf 7695 72bf 258f 75bf
00000210: e28e 77bf bea3 79bf 7821 7bbf 1713 7dbf
00000220: 6537 80bf 2bd9 80bf 542a 82bf d783 82bf
00000230: 6659 83bf e717 85bf 729a 85bf 51d3 86bf
00000240: 0c54 88bf 8b42 89bf 31e8 8abf 9339 8bbf
00000250: 6b74 8cbf 83a2 8dbf c8c5 8ebf e112 90bf
00000260: c104 91bf 7b9e 92bf a9a8 93bf 232a 94bf
00000270: 52e5 94bf 03a1 96bf f869 97bf 8a6c 98bf
00000280: 3f94 99bf bf64 9abf f02a 9cbf 41ef 9cbf
00000290: ebac 9dbf 70d5 9ebf 16d1 9fbf f3da a0bf
000002a0: cf2d a1bf 227f a2bf 24db a3bf e560 a5bf
000002b0: baa8 a5bf 3ca9 a6bf 7d20 a8bf 76b2 a8bf
000002c0: 741b aabf a289 aabf 044f abbf 2133 acbf
000002d0: 3647 adbf ad19 aebf 5d35 afbf 693a b0bf
000002e0: 790f b1bf 5a20 b1bf 37a8 b2bf 5b9d b3bf
000002f0: cb50 b4bf 491f b4bf c622 b6bf 2bf7 b5bf
00000300: 8d87 b7bf 9312 b8bf cd9c b8bf 9b18 babf
00000310: 4a8f babf 03a4 bbbf 28be bbbf 54ef bbbf
00000320: dc3d bdbf 8fcb bcbf e84a bdbf f5ae bebf
00000330: d93c bfbf 73eb c0bf d211 c0bf 95ba c0bf
00000340: 8aa6 c1bf e439 c2bf cf1a c2bf 44af c2bf
00000350: 36fb c2bf 3ad0 c3bf e62d c4bf 3d80 c4bf
00000360: e2fa c4bf 32ff c4bf 843b c6bf 5308 c6bf
00000370: a10c c7bf 3366 c8bf 1981 c7bf d1b2 c7bf
00000380: a8e8 c8bf 056a c8bf 0e1e c9bf ae15 cabf
00000390: 1b7d c9bf cfdb c9bf 775a c9bf 17fe c8bf
000003a0: 4638 cabf b62e c9bf d00c cabf 539b cabf
000003b0: 624b cbbf 17aa cbbf ef1e cabf 50c2 c9bf
000003c0: fd4c cabf 737c cabf de8b c9bf 00ca c9bf
000003d0: 217e cabf 096e c9bf 265c cabf c9a4 cabf
000003e0: 90f9 cabf 2bd4 cabf 758e cabf ba7b cbbf
000003f0: d902 ccbf a81e cbbf 77f5 cabf f1ed cabf
0.14684702 0.034353983 -0.013251663 -0.04440369 -0.059200976 -0.07778144 -0.08639078 -0.09440918
-0.10205695 -0.10362036 -0.11611575 -0.12069527 -0.120414086 -0.12316488 -0.12513489 -0.12560965
-0.13080473 -0.13087162 -0.13638072 -0.13702987 -0.13777587 -0.14120887 -0.13802147 -0.14209984
-0.14241351 -0.14657542 -0.15151462 -0.14737362 -0.14645188 -0.15848827 -0.15566336 -0.16010594
-0.15788887 -0.16211045 -0.16718796 -0.16951548 -0.1742304 -0.17949496 -0.18089348 -0.17900795
-0.18550248 -0.19389673 -0.19839409 -0.20135297 -0.20624708 -0.20531379 -0.2112357 -0.21637076
-0.2244157 -0.23023006 -0.23522003 -0.24096389 -0.2462987 -0.25463048 -0.26548097 -0.27476507
-0.27947566 -0.28526744 -0.29404595 -0.3024123 -0.31365755 -0.3192858 -0.33042598 -0.34039804
-0.34757558 -0.36208773 -0.36256707 -0.37549543 -0.38783345 -0.3914163 -0.41102213 -0.41483298
-0.42830932 -0.43492943 -0.4486646 -0.46267766 -0.47360477 -0.479528 -0.4894559 -0.49834588
-0.51261395 -0.5218233 -0.53092617 -0.5468621 -0.55852133 -0.56588143 -0.5752271 -0.58869624
-0.59850574 -0.6070806 -0.61421746 -0.6278686 -0.6355426 -0.6509413 -0.6558443 -0.66534084
-0.6741958 -0.6820726 -0.689159 -0.6993632 -0.70704037 -0.71350926 -0.72592187 -0.739286
-0.7430761 -0.7509281 -0.75882274 -0.76981074 -0.7767969 -0.7860142 -0.7924985 -0.80272347
-0.81249183 -0.8164451 -0.8288339 -0.8333 -0.8428983 -0.847128 -0.85383874 -0.869066
-0.8722665 -0.88032293 -0.8903258 -0.8939631 -0.90381813 -0.9085901 -0.92054766 -0.9272269
-0.93510413 -0.94269353 -0.9475931 -0.95921546 -0.96702397 -0.97515476 -0.98097944 -0.98857254
-1.0016905 -1.0066274 -1.0169168 -1.0196484 -1.0261657 -1.039792 -1.0437758 -1.0533239
-1.0650649 -1.0723432 -1.0852109 -1.0876945 -1.0973028 -1.106522 -1.1154108 -1.1255761
-1.1329576 -1.1454614 -1.1535846 -1.1575359 -1.1632483 -1.1767887 -1.1829214 -1.1908123
-1.1998366 -1.2061995 -1.2200603 -1.2260514 -1.2318395 -1.2408886 -1.2485683 -1.2566818
-1.2592105 -1.2695048 -1.2801251 -1.2920195 -1.2942116 -1.3020396 -1.3134915 -1.3179462
-1.3289628 -1.3323252 -1.3383489 -1.3453103 -1.3537357 -1.3601586 -1.368816 -1.3767825
-1.3832847 -1.3837998 -1.3957585 -1.4032396 -1.4087156 -1.4072047 -1.4229362 -1.4216055
-1.4338242 -1.4380668 -1.4422852 -1.4538759 -1.4574978 -1.4659427 -1.4667406 -1.4682412
-1.4784503 -1.4749621 -1.4788485 -1.4897143 -1.4940444 -1.5071853 -1.5005438 -1.505694
-1.5128949 -1.5173917 -1.5164431 -1.5209737 -1.5232913 -1.5297921 -1.5326507 -1.5351635
-1.5389063 -1.539038 -1.5486913 -1.547129 -1.5550729 -1.5656189 -1.5586272 -1.5601445
-1.5696001 -1.5657355 -1.5712297 -1.5787866 -1.5741304 -1.5770205 -1.5730733 -1.5702542
-1.5798423 -1.571738 -1.578516 -1.5828651 -1.588238 -1.5911282 -1.579069 -1.5762424
-1.5804745 -1.5819229 -1.5745809 -1.576477 -1.5819741 -1.5736705 -1.5809371 -1.5831538
-1.585741 -1.5845999 -1.5824724 -1.5897133 -1.5938369 -1.586873 -1.585616 -1.5853864
