Saves/L_50k_ep_15.pth (torch, 195076 bytes, 41 tensors)

sage.0.lin_rel.weight f4 [32, 3]
00000000: 38f1 09bf a4fc b53e 42dc b33e e05b 00bf
00000010: f93f 44bd 3aa0 343e 7f71 f63e f930 033e
00000020: c3bb 243d 98de 7dbe 698f adbe ccc6 ce3d
00000030: f2b0 873e 9612 a43e a6ce 3bbe 42d7 0dbf
00000040: b90b 46be 4fa8 b2be 4885 9abe 5bac 4abe
00000050: 6e6e d43e 9ee6 cd3d 8a60 23be b937 2f3e
00000060: 1b76 983e ccca 25bb cf3a 00bf 8617 46bd
00000070: 189f 3a3d 755a 9bbe 3d87 05bf 428a 8e3e
00000080: 9722 94bd 9159 463e a0eb dabe 5287 d7be
00000090: f069 0cbf ad7a abbe bb9f 10bf d9be f43e
000000a0: 11ba 033f 76e7 c1be 721e 10bf 80ba d9be
000000b0: 10dd e43d 53d8 60be 777e b1be cf87 93be
000000c0: 0662 a0be b462 cabe 37bc 993e 04a9 cd3d
000000d0: 6adb cc3e 81b5 98be 9c99 6e3e 4371 dcbe
000000e0: 1bfd d2be e013 ebbd 963a 633e 1688 66be
000000f0: 0a74 0c3d 7bee 383e 85c0 1d3f a4d4 c7be
00000100: acee fa3e 382f 02be 3977 963e b315 b4be
00000110: 1fae 92be afc0 9cbd 4426 d1be 9f0a ffbd
00000120: 2d82 44be 3d0e ac3e ca84 323e 8666 ff3e
00000130: dfe8 b73e e8f5 813e 8a3c 8ebe 1979 c03e
00000140: 9a91 d73e 680d 5f3c ad11 9ebe e593 09be
00000150: 0626 883e 5ae8 00bf 9075 3f3e 49b9 cd3e
00000160: 22a2 073f 6102 313e 5f13 91be 22d7 8c3e
00000170: bbe7 ab3e 1b50 503e acf2 003f df6e 8a3e
-0.53883696 0.35544312 0.3512898 -0.5014019 -0.04791257 0.17639247 0.48133466 0.1281165
0.040218126 -0.24791944 -0.33898476 0.10096511 0.26502186 0.3204543 -0.18340549 -0.5540658
-0.1934041 -0.34894034 -0.3017981 -0.19792311 0.414905 0.10053752 -0.15954795 0.171111
0.29777607 -0.0025297878 -0.50089735 -0.048362277 0.04556188 -0.3034245 -0.5215948 0.27839857
-0.0723316 0.19370104 -0.42757893 -0.4209543 -0.5484915 -0.33492032 -0.5649373 0.47801855
0.5145579 -0.37871903 -0.56296456 -0.425251 0.11174977 -0.21957521 -0.34666798 -0.2881455
-0.31324786 -0.3952843 0.3002641 0.10042003 0.4001115 -0.29825976 0.23300785 -0.43055162
-0.4120873 -0.114784 0.22190318 -0.2251285 0.03429035 0.18059723 0.61621886 -0.3902942
0.49010217 -0.12713325 0.29387835 -0.35172805 -0.2864847 -0.07653939 -0.40849507 -0.12453198
-0.19190283 0.33604613 0.17433468 0.49882907 0.35919854 0.25382924 -0.27780563 0.3759239
0.42103273 0.013614036 -0.3087286 -0.13435324 0.2659151 -0.5035454 0.1869719 0.40180424
0.5298177 0.17286064 -0.2833509 0.27507883 0.33575234 0.20343058 0.5037029 0.27037713

sage.0.lin_root.weight f4 [32, 3]
00000000: 752b 22bf c8de d7be 93fa fdbe eeb1 ffbe
00000010: 3ee3 5f3e 2dc3 c6be 5bd6 b23e 05e0 6c3e
00000020: a2c0 913e 5547 4d3e 745c 723e 8aa6 86be
00000030: 3510 f73e 36c4 36bc cb86 bd3d 18a5 7b3d
00000040: 2bf2 42be d76e 403e 1d1b ce3e 1fb7 06be
00000050: f61c 8fbe 2095 82be 7592 a0bd 81cf 16be
00000060: 6a7f 9a3e cbc7 9d3e ce11 a5be d250 ea3d
00000070: 72d1 92be 12ea 84bd a515 d0bd d92b 0d3f
00000080: 982a 90be cdba fe3e 06c4 0ebf 9188 9abe
00000090: f5f5 a1be 805a 34be 7e7a 7c3e f893 543e
000000a0: ec06 413e fb39 b73d d4b6 46be 013b c23d
000000b0: 18dd 91be 2d80 f73e c2d0 563d 0da7 79be
000000c0: 428a 433e 7da0 023f 6ac6 13bf 6a1a e0be
000000d0: cb71 223d c491 bc3e 821f 813e af0c 00bf
000000e0: fe72 5e3e 11d5 f3be 59db d53e 981d a63e
000000f0: 677e 053f 5478 fa3e d01c dd3e 44c2 863d
00000100: b545 57be 3d97 973e 2ca5 e9be c975 1e3b
00000110: b24f ffbe 4ae4 a1be 522c af3e bafc 3a3e
00000120: d53b a33c 3530 a1be 6654 3c3e b1c0 0f3f
00000130: 416f 063e f061 dc3e ebf0 27bb 73c7 ce3e
00000140: c26f 643d 8c0f f13d 8005 b0be 892b 7c3d
00000150: 4841 bebe dd88 9cbe acdb c7bd fbca 703e
00000160: f0d6 ccbc 0b81 e13c d745 083f 74e5 1fbe
00000170: cc3f e7be 80f7 a53e ca11 9abe ee27 acbe
-0.6334756 -0.42162156 -0.49605235 -0.49940437 0.2186403 -0.38820782 0.34929165 0.23132332
0.2846728 0.20046742 0.2366808 -0.26298934 0.48254552 -0.011155179 0.09254225 0.061436743
-0.19037692 0.18792282 0.4025506 -0.13155793 -0.27951783 -0.25504398 -0.078404345 -0.14727594
0.30175334 0.30816492 -0.32240146 0.114411965 -0.2867542 -0.06489958 -0.10160378 0.5514503
-0.28157496 0.49751893 -0.5576786 -0.30182317 -0.31632963 -0.17612648 0.24656102 0.2075957
0.18850297 0.08946606 -0.19405681 0.0948391 -0.28488994 0.48339978 0.05244518 -0.24380131
0.1909571 0.51026136 -0.5772463 -0.43770152 0.039659303 0.3682996 0.2521935 -0.50019354
0.21723554 -0.47623494 0.4176891 0.32444453 0.52146 0.48919928 0.43186045 0.06580022
-0.21022685 0.29607573 -0.4563383 0.0024179092 -0.4986549 -0.31619483 0.342135 0.1826047
0.019925991 -0.31482092 0.1839157 0.561534 0.13128377 0.4304347 -0.0025625776 0.40386543
0.055770643 0.117705435 -0.34379196 0.061564956 -0.3715918 -0.30573168 -0.09758696 0.23514931
-0.025004834 0.027527353 0.5323157 -0.15614873 -0.4516586 0.3241539 -0.30091697 -0.33624214

sage.0.lin_root.bias f4 [32]
00000000: 0c6b a9be 66ee 80bd 7e00 3c3e 6a23 113f
00000010: 2080 b9be 302c cd3c 5bd4 9abc 1ab2 cbbd
00000020: cb13 9a3e 584a a2bd b10d c8be e496 ecbe
00000030: 451b 8e3e 3cb4 ad3d 2d88 1fbe 93f1 d4be
00000040: 4bcf f13e 12f8 0cbf e76d 9cbe c91f 3a3e
00000050: c14f a73e c98c 103f 149d 68be c20c 18be
00000060: 17cd 0d3f af36 f33e b1f5 d7be df30 133f
00000070: 0a84 933d 3d73 773e 0e63 3a3e 7e76 d63e
-0.33089483 -0.06295471 0.18359563 0.5669466 -0.36230564 0.025045484 -0.018900087 -0.099460796
0.30093226 -0.07924336 -0.39072946 -0.4620887 0.2775518 0.084816426 -0.1557929 -0.41590557
0.47228464 -0.55066025 -0.305526 0.18176188 0.32678035 0.5646482 -0.2271617 -0.14848617
0.5539107 0.47502658 -0.42179635 0.57496446 0.07202919 0.24165054 0.18201849 0.41887277

sage.1.lin_rel.weight f4 [32, 32]
00000000: aae4 4a3d b61a 7fbc 8961 6ebd d1e4 fbbd
00000010: ec0e 363e 56f4 6ebc 1427 cfbd 50e7 f9bd
00000020: fb84 8fbd 8ec3 c93d aa51 c6bd bae7 c73d
00000030: 92fa ba3d a123 383d 874b e33d 8c0b 2b3b
00000040: 637b 2fbe c702 863d f4a3 d73d 73ae 1dbe
00000050: bf25 99bc 1f6d 9abd 5950 1f3d 2a10 9dbd
00000060: 0a0a d93d 982f c53d b7cf 5c3d 6606 273c
00000070: a491 073e 2a19 fabd 2f5a 3a3b c86d bb3d
00000080: d628 e73d 890f 033e 1871 babd 951a 98bc
00000090: 00fa 013d 6134 2fbe b220 3c3c e8c8 c73d
000000a0: ac1d 6e3d ec9d d43d 98e8 9c3d c1fb 933d
000000b0: 36a1 2e3d 1553 133e 9538 87bd a91f 273e
000000c0: 39a6 c0bd 5a94 19be 919d cbbb 47bc 97bd
000000d0: 4814 b53c 849f 633c d5f0 003e 1a96 dbbd
000000e0: 7df2 7b3d e9ba 11bd ca3c 123e d740 e1bc
000000f0: 1610 f4bd be9f 423d 6b4a 043e 220b 2dbe
00000100: ec2d 493d 5a9d 1bbe b23c 4abd 3444 803d
00000110: 04b3 61bd 3a08 9b3d 2f21 273e 4feb 03be
00000120: 8d19 aa3d 13cd 2d3e 83fe 15be 758f f2bd
00000130: 5843 57bd 5d08 5ebd 3359 073c 5e93 e63d
00000140: 020a 1d3e 1178 03be a75f f7bd 0ac5 a93c
00000150: 5165 0b3e 6edc 8cbd f06b 993d d1e1 93bd
00000160: 04af f0bc eaae 25be bdd4 bdbd 2379 6b3d
00000170: 4266 9bbc 4471 563d 9526 d03d 0b56 633d
00000180: 7fa6 56bd e03c b53d 82dc c43d 092b 063e
00000190: 53c3 bfbd 0185 2f3e ae09 133e 0216 9abd
000001a0: f6e2 733d 0673 1c3d d99d ca3d 9960 84bc
000001b0: 54c1 3cbd f4f5 363d 1065 c03d 5408 963d
000001c0: e760 883d 6700 673d bb90 e0bc f95c d33d
000001d0: f4c4 2fbe 7b9c de3d 13bc 21be c395 b43d
000001e0: 98ba 36be ad03 afbd af67 da3d 6e30 9bbc
000001f0: adf4 1d3e 2642 06be 8ba8 23bd c7f6 cf3d
00000200: 7aa3 9cbc 1f8d 0bbd ffd6 b43d 9f71 be3d
00000210: 53f5 debb bf28 09be dedf 143e d888 0abd
00000220: d8c7 33be 4be0 7dbc 4ef5 18be 52f9 ea3d
00000230: 2fce d93c 8076 d3bd d525 ca3d a97e 0abe
00000240: 37a7 a43d 0d01 01bd c55f a73d 032a 213d
00000250: 1c66 b33d d3d8 29be 52c7 0f3e c2ab d53d
00000260: d3ae a2bd 869e 38be c1c1 31be 30a7 f83d
00000270: 3f1c 5ebc 3b43 893c 5e56 e83c 443f ae3d
00000280: 59ff 6d3d 94a9 ef3d 0244 f5bc 3cbc 85bc
00000290: 6ac6 a43d b38b 1bbd d25e 6cbd 0728 fd3c
000002a0: 24ea b8bd 7eec 603d 159e c63d 80b0 10be
000002b0: 3068 003e 1405 f23d 853f 9e3d c89f e1bd
000002c0: c9b9 1abe 0d93 a0bd 14fe ae3d f306 d9bd
000002d0: 88e3 26bd 633a 8abd f254 afbd 42df 89bc
000002e0: e3d9 833d c13f a63d f8a3 1f3e 46b7 f73d
000002f0: c8d1 763c da10 96bd a37d dcbd fc1c 6dbd
00000300: 2ed1 443d cdcf 23be 3cf0 05be 703a 103e
00000310: 312d c03c 0506 c6bd 1344 203e b0aa e3bd
00000320: 3fcd cbbb 267e 1fbe 7175 c9bd 30d8 f7bb
00000330: 5a9a a53c f82c 413d 1176 d23d 88e0 a3bd
00000340: 1069 b4bc 859a 8b3d 0683 0bbe f936 e63d
00000350: af3c dfbd a60c 0abd 26cb cb3d ad53 01be
00000360: a8d7 0b3e 245c 253d 57a7 dd3d 0649 43be
00000370: 37e2 d53c 811d 1ebd c0a5 f5bd db3c a73d
00000380: 891d 123d 202b 353e 5d8d ec3c aae2 55bb
00000390: 1989 2f3e 6247 2b3d eab4 a8bd 924c 263d
000003a0: 2695 1a3e 9d9d 04be 5c4d 7c3c 30c6 66bd
000003b0: b38a 673d fdde 0bbe 52fb 97bc 16b8 5a3d
000003c0: fc29 873d 5bdb 87bc 4f10 d7bd f86f 20be
000003d0: 46be f33d 55da b03d 9bde 8f3b e303 853d
000003e0: ae29 c13c c415 fcbd 6a2d efbb 9aae 6e3d
000003f0: 84df 0fbd 90ae acbd 2444 a3bd 1bc8 e63d
0.049534477 -0.015570333 -0.058198486 -0.12299503 0.1777913 -0.014584621 -0.101148754 -0.122023225
-0.07007786 0.09851752 -0.09683545 0.09760995 0.09129824 0.044955853 0.1109839 0.0026099412
-0.17136912 0.065434985 0.105293185 -0.15398578 -0.018694757 -0.075403444 0.038894985 -0.07669099
0.10597618 0.096282184 0.05390903 0.010194397 0.13239151 -0.12211831 0.0028435101 0.091517985
0.11287086 0.12798895 -0.09103602 -0.018567363 0.03173256 -0.17109825 0.011482405 0.09755117
0.058133766 0.10381684 0.07661551 0.072257526 0.04263421 0.14387162 -0.06602589 0.16320671
-0.094067045 -0.14997998 -0.0062138517 -0.07408958 0.022104397 0.013893012 0.1259187 -0.10721989
0.06151055 -0.035578642 0.14281002 -0.027496738 -0.11917131 0.047515623 0.12919013 -0.16898778
0.04911606 -0.15196744 -0.04937429 0.06263009 -0.055102363 0.075699285 0.16321252 -0.12882732
0.08305655 0.16972761 -0.1464787 -0.118437685 -0.05255446 -0.054207195 0.008261013 0.11258577
0.15335849 -0.1283877 -0.12078791 0.020723838 0.13612868 -0.06877981 0.074912906 -0.072208054
-0.029380329 -0.16180006 -0.09269092 0.05748857 -0.018969659 0.052354112 0.10163609 0.05550198
-0.052404877 0.088495016 0.09612371 0.13102354 -0.09363427 0.1714058 0.14359161 -0.07523729
0.05954262 0.038195632 0.09893388 -0.016159343 -0.04608281 0.044668153 0.09394276 0.07325807
0.06659108 0.056396868 -0.027412763 0.103204675 -0.17164975 0.1086969 -0.15794401 0.08817627
-0.17844617 -0.08545623 0.10664307 -0.018943992 0.15425368 -0.13111171 -0.039955657 0.10154491
-0.01912092 -0.03407013 0.0883007 0.09299015 -0.0068041473 -0.1339445 0.14538524 -0.03382191
-0.17556703 -0.01549537 -0.14937326 0.11473335 0.026587574 -0.103253365 0.09870497 -0.1352488
0.08039706 -0.031495143 0.081725635 0.039346706 0.0875971 -0.16586618 0.14040878 0.10433151
-0.07943501 -0.18029222 -0.17359067 0.121412635 -0.013556539 0.01675569 0.028361496 0.08508161
0.058104847 0.11702266 -0.029939655 -0.016325109 0.08045657 -0.037975024 -0.057707615 0.030902876
-0.09029034 0.054913037 0.096981205 -0.1412983 0.12539744 0.11817375 0.07726959 -0.11016804
-0.15109934 -0.07840548 0.08544555 -0.105970286 -0.040744334 -0.06749418 -0.08561124 -0.01683009
0.06438043 0.08117629 0.15589893 0.120955035 0.015064664 -0.07327433 -0.10766151 -0.05788897
0.04805105 -0.15997238 -0.13079923 0.14084792 0.023459049 -0.09669117 0.15650968 -0.111165404
-0.0062195356 -0.15575466 -0.09836853 -0.0075636134 0.020215202 0.047162026 0.10276426 -0.0800181
-0.022022754 0.06816582 -0.136242 0.11240954 -0.10900246 -0.03370347 0.09950857 -0.12629576
0.13656485 0.040371075 0.10822933 -0.19070825 0.026108844 -0.038602356 -0.11994505 0.08165904
0.0356727 0.17692232 0.028876001 -0.0032636323 0.17142142 0.041816123 -0.082376316 0.040600367
0.15095958 -0.1295075 0.015399303 -0.05634135 0.05652876 -0.13659282 -0.018552456 0.053398214
0.06599805 -0.016584089 -0.105011575 -0.15667713 0.11901526 0.086353935 0.0043905503 0.06494882
0.023579445 -0.12308839 -0.007299115 0.05827198 -0.03512527 -0.08431733 -0.07971981 0.11268636

sage.1.lin_root.weight f4 [32, 32]
00000000: d338 643d 00e9 eb3d fce2 623d 2479 723d
00000010: 6ddd 75bc e990 bf3d f2dc ee3d 1a04 d1bd
00000020: 76af 2fbe 315e b9bc 7ce2 6a3d d195 583d
00000030: 7282 19be c509 2a3d 16a5 013e cb17 39bd
00000040: 5f63 f7b9 9e73 64bc ce86 ddbd c7cd aa3d
00000050: b83d ca3d 8068 2c3e aea3 873c 1f1f 2ebe
00000060: 5f58 97bc e656 b3bc 6dc5 d23d 7df8 02bc
00000070: 49fc 24be 9ded babd 10a4 0b3c deeb 0a3d
00000080: 3ee4 d93c eb61 973d 49d3 783d 8e94 17bd
00000090: 8941 163d dd7c 0dbc 1125 563d 332d 223c
000000a0: 0fce 83bc ae79 52bc 1050 d4bc bbec 5cbd
000000b0: bf39 4abd 6fa9 0a3e 15c5 593c a1f2 3f3c
000000c0: d6fa 16be c94c 33bd 0701 56bd 45a8 85bd
000000d0: a1e7 32bd ff7e d33d 6074 60bc 2c16 1e3e
000000e0: 968a e2bb e8c2 f53d a230 183e 6dcd 0bbe
000000f0: e020 163e d759 61bd 4b74 e13d 9073 323e
00000100: e2cd 05be 4ac6 23be 1df6 70bd 9fbb e73d
00000110: c3e2 01be ca10 1fbe 5aa2 e6bd d701 203e
00000120: 0396 79bd 3d6e 393d b1c6 ae3d ba83 943d
00000130: 5bc9 d7bd afb9 b53d 80be 63bd e14b 703c
00000140: 148d 383d 830f dd3c 1182 c93d 17f1 52bd
00000150: 6b34 80bd 76d5 e0bc 8582 c33d 9766 1ebe
00000160: a75a b6bd b9b7 e5bd dede 073e 1c0e f1bd
00000170: 8b27 3cbd 0db3 063e 6134 f53d 87b2 05be
00000180: 807d 103d 4786 a13d e65f 8cbd 4a0d 1cbe
00000190: f5a4 c43d 6081 263e 3882 f4bd 797b 86bd
000001a0: 3259 c9bd 7255 093e e900 da3b 6ae6 1abe
000001b0: bcd1 17be 1938 733d 9624 04be 1022 003e
000001c0: eea1 213e 2885 033e 61a6 94bd d5cf b73d
000001d0: d380 ef3d d8a8 f13d 4c76 20be 08c5 6fbd
000001e0: e5ef a03d c55f d63d aca0 a53d 3755 703d
000001f0: 202e 94bb afc8 ca3d b018 2fbe 0fa0 d23c
00000200: 3c69 d93d e9ea 923d 08ae a6bd 2fb9 41bd
00000210: eb77 263e 4627 0e3e 3302 b5bd 2181 ff3d
00000220: e6c4 0bbe ac07 d5bd 2f1c 633d f809 b73c
00000230: 3107 d2bd bc4d cdbd 6ea3 aebd a761 babd
00000240: 18f1 3bbd 03e3 0dbe 640e dcbd d268 68bd
00000250: d3e8 17be cfd0 0bbe 0068 69bd 137c ea3d
00000260: 2fac 9b3c 5e14 2e3e c2d8 07be dd12 28bd
00000270: 0d1b 803d 072f bd3d 8df0 5b3c 8650 0dbb
00000280: 7bcd 153d f50d 343e cb2e bb3d 79b1 1abe
00000290: 4285 febd 2b22 b3bd 0388 503b cc24 f9bd
000002a0: 463b 04be 3535 82bd bdd2 a83d 3de6 a0bd
000002b0: 93cd 263c 2935 53bd 864b 59bd 26a6 11be
000002c0: 7243 1e3e 8684 f53d bce0 543c 4162 cdbd
000002d0: d31a 2a3e e101 aa3b 76fd 9fbd 3c5a b53d
000002e0: b8f2 33be b418 88bc 97be 49bd 018c 69bd
000002f0: 16ae 4c3d 958e 793d 3ac3 21be 76c3 763d
00000300: c8f8 e83d 99b2 ae3d 9c9c 163d 60c9 fdbd
00000310: 4bc5 013e 606f c93b 5ccb 0f3e 5340 c5bc
00000320: 4eab 1f3e 72dd 0e3e 64e7 e73d 2bc6 ab3d
00000330: 5819 c4bd 981a f73d f3c5 0dbe 54be 22bd
00000340: 2857 61bd 159b a2bd 3852 02be b844 c63c
00000350: 2434 66bd c9a1 ff3d b10a 493d 06b9 2cbd
00000360: c80a de3c 63ad b63d cc9f 103d 7238 bd3d
00000370: e805 7fbd e7b7 39be 52e0 2f3d dad9 38be
00000380: 7c0f c5bd b779 8bbd 4c4b e4bd 950d bcbd
00000390: 7964 fa3d 7066 293e 1cfe 28be 9d8b c43d
000003a0: e64f dd3d 451d 7b3d e65d 99bc 17ed e0bd
000003b0: 5d7c 8d3d 76ad 193c 7cd6 af3d c9fd e4bd
000003c0: 0d8e 0fbe 4c6d 1e3c 3494 fc3d a3a7 ebbd
000003d0: 63b3 3b3d 3d98 273e 4620 aabc 2dbe 25bc
000003e0: 6201 dfbd 9143 e93c eb81 cc3d 2d04 253e
000003f0: 1539 a5bb 943b ec3d 8b80 0abd fc4b 04be
0.055718254 0.115190506 0.05539225 0.05919756 -0.015006405 0.09353811 0.11663236 -0.102058604
-0.17156777 -0.022627922 0.0573449 0.05287725 -0.14991167 0.041513223 0.12660632 -0.045188706
-0.00047185548 -0.013943581 -0.108167276 0.0834003 0.09875053 0.16836739 0.01655754 -0.1700406
-0.018474756 -0.021892022 0.10291562 -0.007993815 -0.16111864 -0.091273524 0.008523002 0.033916347
0.026598092 0.07391723 0.060748372 -0.037006907 0.036683593 -0.008635727 0.052281443 0.009898472
-0.016089467 -0.0128463935 -0.025917083 -0.0539367 -0.049371477 0.13541196 0.013291617 0.011715562
-0.14744124 -0.0437744 -0.052247074 -0.065262355 -0.04367793 0.10326957 -0.013699621 0.15438145
-0.0069134934 0.12000066 0.14862302 -0.13652582 0.14660978 -0.05501732 0.11008509 0.17426896
-0.1306682 -0.1599361 -0.058828462 0.11315083 -0.12684159 -0.15533748 -0.11261435 0.15625702
-0.060934078 0.045271147 0.08533991 0.07251687 -0.105364524 0.08873307 -0.055601597 0.014666528
0.045056418 0.026984936 0.09839261 -0.051499452 -0.06259998 -0.027445536 0.09546379 -0.15468822
-0.08904009 -0.11216683 0.13268611 -0.11770269 -0.04593615 0.1315424 0.11972881 -0.13056384
0.035275936 0.078869395 -0.06854229 -0.15239444 0.096017756 0.1626029 -0.119389 -0.06566519
-0.09831466 0.13411501 0.0066529405 -0.15126958 -0.14826101 0.05937967 -0.12904581 0.12512994
0.15784428 0.12843764 -0.07258297 0.08975188 0.11694493 0.117997825 -0.15670127 -0.058537513
0.07858256 0.10467485 0.08087286 0.058675017 -0.0045221 0.099015586 -0.17099261 0.025711088
0.10615775 0.07173712 -0.081386626 -0.047295745 0.16256683 0.13882169 -0.0883831 0.12475801
-0.1364933 -0.10401854 0.0554468 0.02234362 -0.10255278 -0.10024592 -0.085272655 -0.09100657
-0.04588422 -0.1385613 -0.10744932 -0.05674059 -0.14834909 -0.13653873 -0.056983948 0.114494465
0.019003002 0.16999957 -0.1326628 -0.041033614 0.062551595 0.092374854 0.013424051 -0.0021562888
0.036572915 0.17583449 0.091397844 -0.15106763 -0.12427761 -0.087467514 0.003181935 -0.121652216
-0.12913236 -0.06357805 0.0824332 -0.078564145 0.010180849 -0.05156437 -0.05305054 -0.14223537
0.15455416 0.119881675 0.012993034 -0.10028506 0.16611795 0.0051882123 -0.07812016 0.088551015
-0.17573059 -0.016613342 -0.049254026 -0.057018284 0.04997071 0.060926992 -0.1579713 0.060245
0.11375576 0.085301585 0.036770448 -0.12391925 0.12672918 0.00614731 0.14042419 -0.024078524
0.15592691 0.13951662 0.11323431 0.08387407 -0.095751464 0.12065619 -0.13845043 -0.039732292
-0.05501476 -0.07939736 -0.12726676 0.02420269 -0.05620207 0.1248203 0.04908246 -0.04216864
0.02710475 0.0891979 0.035308644 0.09239282 -0.062261492 -0.1813656 0.042938538 -0.18051854
-0.09622094 -0.06810325 -0.11147174 -0.09182278 0.12226195 0.16542983 -0.16503185 0.095969416
0.10806255 0.06130721 -0.018721532 -0.10982721 0.06908486 0.009379735 0.085858315 -0.11181218
-0.14019032 0.009669613 0.12332955 -0.115065835 0.045825373 0.16366668 -0.020767342 -0.010116142
-0.108889356 0.028474601 0.099857174 0.16114874 -0.005042205 0.11534801 -0.033813994 -0.1291961

sage.1.lin_root.bias f4 [32]
00000000: 47f3 12be 0f4e f13d c7b0 ddbd 2736 853d
00000010: dfa3 1abd 0869 923c 1b7f 58bc 9fa1 1dbd
00000020: cd0c 93bc 7559 093e d007 8ebd fc7c 15be
00000030: d617 2e3e 2747 a5bd 7943 173d 236d c6bd
00000040: 997d f23d 9eae 9cbd 93aa 5c3d 1a75 1d3d
00000050: d3d8 733d bfc2 2abd e573 893c cbd0 23bc
00000060: 0572 dfbd aac7 273e d67e bc3d 6b41 c83c
00000070: dbc6 b6bc 1c55 7d3d 9647 d43d ac71 cb3d
-0.14350615 0.117824666 -0.10824733 0.06504469 -0.037753936 0.017872348 -0.013213898 -0.038484212
-0.01795044 0.13413031 -0.06935084 -0.14598459 0.1700128 -0.08070212 0.03692958 -0.09688785
0.11840362 -0.07650493 0.05387361 0.038441755 0.05953295 -0.04168963 0.016778896 -0.009998511
-0.109104194 0.1638476 0.092038795 0.024445256 -0.022311619 0.061848745 0.103652164 0.099337906

sage.2.lin_rel.weight f4 [32, 32]
00000000: 430a 8bbd 5978 c3bd 5128 09be 2926 32bc
00000010: 5471 573d 41d0 703d 5156 083d 896d 1d3d
00000020: cc2c 063e 866b 0a3e 3f73 26be 6995 febd
00000030: dd82 dc3d dec0 df3d 31ac 153e 263f 073d
00000040: aff3 823d 7b9c b43d b97e 87bd 161f 143e
00000050: d0cb b43c c89c 1a3e f487 133e 88ea 203e
00000060: 3abb 0fbe 8f0d 46bc 8736 8e3d d9e9 9dbd
00000070: 4f6a 903c eda6 23be a70c 203d 1aa5 c7bc
00000080: 5039 0dbe 5a2b 283e f120 193d aa1b 1e3e
00000090: 19f4 16be 9563 efbd 577e 19be 8073 213e
000000a0: a9d8 94bd 25f1 993d 1832 073e 8747 813d
000000b0: 1a82 1bbe a3c5 2c3e 3918 f7bd 0e84 213e
000000c0: 92a7 24be 543f 13bd 6ecc 61bd d568 9abc
000000d0: ca6a 3dbc 31cd dfbd 4eef b33d 7fd3 883d
000000e0: 1cab 21be 1a12 eb3d 79b1 cdbd 0c46 ab3c
000000f0: 7b4d cebc 8123 e93d df78 10be ddbd 2e3e
00000100: 4957 f5bd cbc1 203e 3f89 363d a693 12be
00000110: eb8c e93c a19c 143e 30e9 013e 11ad d9bd
00000120: 2902 1fbe 9926 2ebe 5346 03bb ad6b 33bd
00000130: 1527 c3bd 680e ebbd 9959 73bc b858 183e
00000140: ac30 04be e106 ad3d 6b61 29be 3431 5bbd
00000150: cc24 2abe 8c38 ba3d 021b 013d 7e0a c73d
00000160: 80d8 be3d a1b9 923c 743a ce3d 0c19 a3bd
00000170: 7311 be3d ae95 ee3d 5d6b 89bd a54e 50bd
00000180: 5f38 02bd 1c24 163d 9910 27be 7c41 723d
00000190: 7ea9 ad3d 2575 30be 796c bf3c 2479 e33d
000001a0: 661a 1d3e fde4 b13d 5fb2 d23a 0fd9 c6bc
000001b0: be06 b83d d475 36bd 2955 343d 6f92 f73d
000001c0: 99d8 82bd 0260 f43d f35a 023d b690 5d3c
000001d0: 891e ad3d 650f 0bbe 364b a93d 3f5d 2c3d
000001e0: 3c7f c7bc 3c49 783d 2d29 b73b 0559 833d
000001f0: 3f31 853c 1ab9 05bd a24a 55bd 3c90 34be
00000200: aed5 3fbd 9b09 ed3d 58a4 f73d 9816 b8bc
00000210: 978c 32bd b723 aa3d 8b28 0dbe 116d c63d
00000220: 0d79 023e 2b10 d83d d185 343e 8483 893d
00000230: c7d5 b73d cb5a ca3d 109c ddbd 2533 853d
00000240: 507b 3f3d 6a2e e7bd 6e5b a13d 6ab0 b73d
00000250: 0ede 513d 8d07 f5bd beaf 2abd 710f 1d3e
00000260: 1d8c 2d3c 8ce9 ffbd 1e18 de3d 8196 88bd
00000270: 1315 e6bd 2ffc 123e 886d b6bd a50f 06be
00000280: e7a9 ec3b 3546 b13d cd6c e2bd cbb1 f5bd
00000290: f482 13be bdaf c4bd 7989 c1bc b7c9 4ebd
000002a0: 6150 3d3e 9abb a83d e054 28be fb27 1abe
000002b0: 38dc 943d eb73 bd3d 01a8 23bd 168c 243e
000002c0: ebe6 99bd 3ccb a1bd 35ed 893c 5bb0 623d
000002d0: de41 003e 0b6b b9bd 6eac c2bd d775 113e
000002e0: 0036 9cbd 5102 343d bc36 ddbd 407b 58bc
000002f0: 55f2 9abd c335 db3d 20f1 9d3d a63c bf3d
00000300: 4f3a 04be f52f 2e3d 0c90 cabd 83bc 0b3e
00000310: b416 013e 38d8 0fbe a0fa 16bd d108 443c
00000320: b302 f63c 037e dfbc 4163 1d3e 4495 283e
00000330: 3329 423c 3218 773d eb21 c53d 4fb1 143e
00000340: c6a5 0ebe da29 233e 1545 55bd 1391 103e
00000350: 15b4 143e f7aa cfbb 4f51 d53d d961 323e
00000360: df99 e0bd 338b 843d 780f 833c 3bf6 f5bd
00000370: 9784 08be b786 ebbd bd73 1b3d b318 033d
00000380: c300 293e 9a7d f0bd 9176 84bc 2f7c 8c3b
00000390: 584b 893d 1509 2e3d 9405 6fbb 54b7 053e
000003a0: f058 a43c fc88 f33d 0b27 593d 7dd5 1c3d
000003b0: f38c 243d 9b02 033e 6205 ff3d 99f1 553d
000003c0: 5f7e 12bd 71e0 e33d 4f66 f8bd 6bc2 e53d
000003d0: 161c 233e 4be0 30be bae8 9bbd e6c3 d6bb
000003e0: ca1a 9abd 150f 8bbd 3245 983c 4fb7 b1bd
000003f0: 420a e8bc 2c54 07be e359 0cbe 0dd2 993d
-0.06789067 -0.09544439 -0.13394286 -0.010873356 0.052598312 0.058792356 0.033285443 0.03843454
0.13103026 0.1351758 -0.162549 -0.124308415 0.10767148 0.10925458 0.14616467 0.033019207
0.06394135 0.08818909 -0.06615967 0.14464983 0.022069842 0.1509887 0.14407331 0.15714467
-0.14036265 -0.012088194 0.06943994 -0.077106185 0.017628817 -0.15981646 0.039074566 -0.024370719
-0.13791394 0.16422787 0.03738493 0.1544024 -0.14741553 -0.11688916 -0.14989601 0.15766716
-0.07267887 0.07516698 0.13202703 0.06312471 -0.15186349 0.16872267 -0.12065167 0.15773031
-0.16079548 -0.035949066 -0.0551266 -0.018848816 -0.011561105 -0.10927809 0.08785878 0.06680965
-0.1578793 0.11478062 -0.10043616 0.020907424 -0.02518343 0.11383725 -0.14108609 0.17064615
-0.11979539 0.15698926 0.04456448 -0.14314136 0.028509578 0.14512874 0.1268661 -0.10628713
-0.15528168 -0.17006911 -0.002003093 -0.04380386 -0.09528939 -0.11477357 -0.014852905 0.14877594
-0.12909192 0.08448578 -0.16541068 -0.05351372 -0.166156 0.09092817 0.031519897 0.09718798
0.09318638 0.01791078 0.10069743 -0.07963762 0.09280672 0.11649643 -0.06709931 -0.05085625
-0.03179204 0.03665553 -0.16314925 0.059144482 0.08479594 -0.17232187 0.023367153 0.1110709
0.15342101 0.08686254 0.0016074887 -0.024273423 0.08985661 -0.044545963 0.044026528 0.12088477
-0.06388969 0.119323745 0.031825017 0.013523271 0.0845309 -0.13580091 0.082662985 0.042081114
-0.024352662 0.060616717 0.0055896253 0.064134635 0.016258834 -0.03264723 -0.05207313 -0.17633146
-0.04683464 0.11574098 0.12091893 -0.022471711 -0.04359111 0.08307593 -0.13784997 0.096887715
0.1274149 0.10549959 0.17629172 0.06714538 0.08976322 0.09880599 -0.10820782 0.06503896
0.04674846 -0.1128815 0.07878767 0.08969195 0.05123716 -0.11964331 -0.041671507 0.15337922
0.010592488 -0.124957174 0.10844444 -0.06669331 -0.11234488 0.14354013 -0.0890761 -0.13091905
0.0072224024 0.08655969 -0.11055908 -0.11996802 -0.14405423 -0.09603832 -0.023625122 -0.05048534
0.18487693 0.08238907 -0.16438627 -0.15054314 0.07268566 0.09250625 -0.039955143 0.16069064
-0.07514747 -0.07900092 0.016836742 0.055343967 0.12525126 -0.0905362 -0.095055446 0.14205109
-0.07627487 0.04394752 -0.108014554 -0.013212979 -0.075657524 0.107036136 0.077120066 0.0933774
-0.12912868 0.042526204 -0.09890756 0.1364613 0.12606317 -0.14047325 -0.03686011 0.011964993
0.030030584 -0.027281767 0.15369894 0.1646319 0.011850643 0.06032581 0.0962561 0.14520763
-0.13930425 0.15933934 -0.052067835 0.14117841 0.14521821 -0.0063375193 0.10415899 0.17420138
-0.109668486 0.06471863 0.015998587 -0.12009855 -0.13331829 -0.11500304 0.037952174 0.032005977
0.16504197 -0.117427066 -0.016169818 0.004287265 0.06703824 0.04248913 -0.003647183 0.13058215
0.02006194 0.11891362 0.05301575 0.038289536 0.040173482 0.12793963 0.124521986 0.05223236
-0.035765048 0.11126793 -0.12128889 0.11218723 0.15928683 -0.17273061 -0.076127484 -0.0065541146
-0.07524641 -0.06789986 0.018587682 -0.086775415 -0.028325204 -0.13215703 -0.13706164 0.07510767

sage.2.lin_root.weight f4 [32, 32]
00000000: 982b e23d 39e0 033e ef10 f1bd 657a 2b3e
00000010: 9a15 92bd 8c91 163e e144 6bbd 40f0 c5bd
00000020: 798c 343e dfdc b93d 9786 b2bd 639e 8cbd
00000030: 07b9 35bd 5d36 e2bd 9213 89bd 0925 37be
00000040: 28b4 34be 90c4 16be 74c2 4dbd 43e3 b13d
00000050: 46a4 83bd ad4e 8abb 73dd 2cbe d298 26be
00000060: 68e2 133e bfc8 8dbd a411 ee3d 69dd bf3c
00000070: 74d3 b13d ebae ddbc b507 87bd 1b76 1e3e
00000080: 7c0d 5bbd 7e35 263e c79e 9939 0096 b23d
00000090: d224 7a3d be0d 96bd 9ffa 193e 4de8 41bd
000000a0: f48f 593c cd7b ec3d bb14 55bc f304 8dbd
000000b0: 9478 a93d c076 ccbd be88 0ebe d1e2 c1bd
000000c0: 2d3b d8bd 5575 c23d c1c6 3f3d 97bd d3bc
000000d0: 3571 9b3c da4d d7bd 720d a03d 6b93 a9bc
000000e0: 3dcb 87bc 1f36 2a3d bd99 8d3d 2c80 58bd
000000f0: dc62 68bd 9cdc aa3d 770b 8ebb 4e79 323e
00000100: 69cd 13be c65c 1cbe f251 213e b10f f3bc
00000110: 9df9 9bbc f278 a2bd ab73 663d aa3e 423d
00000120: 8166 cbbd 9db9 28be 0ed8 18be 3029 063e
00000130: 70b6 00bd 0f2a d2bd 330f 2e3d 45e2 23bd
00000140: c61b d1bd aeb5 003e 4ede 103c e532 d43d
00000150: 6576 a83d 0bff 1b3d 1f4e 87bd cf33 ec3d
00000160: 6369 6b3d 33b7 003e 8b5f 3abd fc05 a6ba
00000170: ec5c d03d 4d9e ca3d 0c88 933d a231 25be
00000180: f972 b0bd 2b96 8d3d 73d6 17be 9f39 8c3d
00000190: 9cec af3d 4fcc 8cbd b66e db3d 60e3 b6bd
000001a0: 0a69 bd3d 8f7a 1e3e 82ac b6bd 8839 51bd
000001b0: 9dce 2abe d7b9 cf3d ef50 bfbd 738c 043e
000001c0: fa48 d23d 9245 ec3d c6c3 5cbd 354c 343d
000001d0: 8760 87bd bd90 093e d8fa 223e 27ed e13d
000001e0: ac9a cd3d 33d2 0cbd 9c53 0a3e 1347 473d
000001f0: 5f9d cf3d b2cf fd3d d8f9 2d3e 0ed2 073d
00000200: ab2d 153d 699e db3c 603d 5fbd e690 8fbc
00000210: 9396 263d 9ea7 c5bd 1ce0 febc 4014 ec3d
00000220: 4de3 d33d a86d 0e3e 2e54 e9bd 0303 f33d
00000230: d843 31be 4b96 b3bd b25c 2a3e 9945 cc3d
00000240: 74f0 38bc f699 ed3c 2721 4dbd 8c5b ce3c
00000250: eb6a 30be 2f53 9bbd a7b8 4bbd 54f1 44bd
00000260: 2c54 113e 64da 95bc 5f93 793d a01d 23be
00000270: 6558 15be a1a7 34be 351e babd 33ba a7bd
00000280: 2bff 4ebd eb15 38be e340 2ebe d9b4 c6bd
00000290: cc1c 653d 76e9 183d f99b 24bd 7b34 87bd
000002a0: 5b07 24be 5785 243c 0380 0c3d 56ee c93d
000002b0: 58ec e13b c35e ecbd 0bc4 08bd b3f1 d7bd
000002c0: 9726 d73d 6f08 7dbd 5091 16bd aa51 e9bc
000002d0: 57b2 37bd 4680 053e 544a a8bc acf5 30be
000002e0: 39d1 cb3d 3c9d 0a3e 7698 063e 7eb2 30be
000002f0: eb78 a1bb 14e4 22be c268 cf3d ddff 0c3e
00000300: 765a 0d3d f0df c23c 3aad ba3d 0845 acbd
00000310: 7ff1 053e 3b3e 1f3e 5250 a9bd a0ee ccbd
00000320: d0e4 62bd 3ddc 303d 59d2 113e cf55 d9bd
00000330: 50d7 c93d 1022 09bc ed17 11be 0c19 a63d
00000340: 677f cabd 09ab 2fbd 783d 24be d382 3f3d
00000350: a1e5 9c3c 4ea3 09be d88c 10bd e114 a6bd
00000360: 2d96 51bd a582 b73d 8789 5cbc 982f a1bd
00000370: dfc0 c6bd 2943 a8bd f60f 0fbe 8e51 273e
00000380: 9bd5 ddbd 25a4 d8bd c57e bfbd 49ac 133d
00000390: 17b5 efbd b97b e83d 5f38 04be 4822 d93d
000003a0: 5be9 fc3d 76e7 b7bd 8140 0f3e 65c3 5b3d
000003b0: 41a2 223d 1af9 dc3d 0420 1dbe 6897 063d
000003c0: 3a59 00be 6408 debd ab9f 053e 3836 13bd
000003d0: 1d61 2bbe 0889 d53d 4273 71bc 55d3 a13d
000003e0: 2cb0 6bbd a69e 113d ea19 c23c 1b5d 30be
000003f0: 38a9 953d 529d be3c ae73 9cbd e878 663d
0.11043471 0.12878503 -0.11770808 0.16745909 -0.071330264 0.14703959 -0.057438735 -0.09664965
0.17631711 0.09075331 -0.08717077 -0.06866147 -0.04436591 -0.11045525 -0.06693186 -0.17885222
-0.17646849 -0.1472342 -0.050234273 0.08685925 -0.06427817 -0.0042208047 -0.16881351 -0.16269234
0.14441836 -0.06923055 0.116244584 0.023421006 0.086829096 -0.027060946 -0.06593267 0.15474741
-0.053479657 0.16231343 0.00029300732 0.087200165 0.06107027 -0.0732684 0.1503701 -0.04734068
0.01327895 0.115470506 -0.013005431 -0.068857096 0.082749516 -0.09983587 -0.1391935 -0.0946709
-0.10558162 0.094950356 0.046820406 -0.02584724 0.01897488 -0.10512896 0.078150645 -0.020700177
-0.016576404 0.04155552 0.06914089 -0.05285661 -0.056734905 0.08342859 -0.004334863 0.17429087
-0.14433827 -0.15269765 0.15753916 -0.029670568 -0.019039923 -0.07933225 0.056262653 0.047423042
-0.099316604 -0.16477056 -0.14926168 0.1310165 -0.031423986 -0.10261928 0.042494964 -0.04001071
-0.102103755 0.12569305 0.008842064 0.1036127 0.08225707 0.038085025 -0.06606697 0.11533319
0.05747355 0.12569885 -0.045501273 -0.0012666578 0.101739734 0.09893475 0.07203683 -0.16132215
-0.08615679 0.06913408 -0.148279 0.06846928 0.085900515 -0.06874906 0.10714476 -0.08930087
0.0924855 0.1547644 -0.08919622 -0.051080257 -0.16680379 0.10142868 -0.09341609 0.12944202
0.102678254 0.11536707 -0.05389764 0.04401799 -0.06610208 0.1343412 0.15916002 0.11031561
0.10039267 -0.03438015 0.13508457 0.048651766 0.10137438 0.1239313 0.16989839 0.033159308
0.036420505 0.026808934 -0.05450189 -0.017525148 0.040670943 -0.09651111 -0.031112723 0.115273
0.103460886 0.13909018 -0.11393009 0.11865809 -0.17311037 -0.087689005 0.16636923 0.09974212
-0.011287797 0.029004078 -0.050080445 0.025190137 -0.17228286 -0.075842254 -0.049736645 -0.04808171
0.14192265 -0.018292613 0.06093156 -0.1592927 -0.14584501 -0.1764207 -0.09087793 -0.081898116
-0.050536316 -0.17977111 -0.1701694 -0.09702463 0.055935666 0.03733202 -0.04018781 -0.06601807
-0.16018431 0.010041556 0.03430177 0.09859912 0.0068946294 -0.11541512 -0.033390086 -0.10544147
0.10505407 -0.06177562 -0.036759675 -0.028481323 -0.044847813 0.13037214 -0.020543255 -0.17281216
0.099520154 0.13536543 0.13144097 -0.1725559 -0.0049277446 -0.15907317 0.10127403 0.13769479
0.0345101 0.023788422 0.091150716 -0.08411604 0.13080405 0.15551083 -0.08267273 -0.100064516
-0.055393994 0.043178786 0.14240398 -0.1061207 0.09855521 -0.008369938 -0.14169283 0.08110246
-0.09887581 -0.04288772 -0.16039073 0.046755623 0.019152464 -0.13441202 -0.03529057 -0.08109451
-0.05116861 0.08960465 -0.013460523 -0.07870406 -0.09704756 -0.08215935 -0.13970932 0.16339704
-0.10831758 -0.10578183 -0.09350351 0.036052976 -0.11704462 0.11351723 -0.12912129 0.10602242
0.123491965 -0.089796945 0.1398945 0.05365314 0.03970552 0.107897 -0.15344244 0.032859236
-0.12534037 -0.10841444 0.1304919 -0.03594038 -0.16736265 0.10426527 -0.014736952 0.079016365
-0.057541057 0.03555169 0.023693997 -0.17223017 0.073076665 0.023268376 -0.07639252 0.05626765

sage.2.lin_root.bias f4 [32]
00000000: d96e 9dbc 5004 1cbd 2b47 0a3e d98b 27be
00000010: e725 383e a594 a8bd 185d 183e fb9a 03be
00000020: 979e 96bc 2c4b ccbd 77f8 94bd 37fd 3abe
00000030: c03c 7b3d df57 f6bc 6357 a4bc 1b0e 9cbc
00000040: 100f 1bbe 678d d63d d750 37be a93f 993d
00000050: 594d 47bb 77bf e2bd 7e72 943d bd06 d33c
00000060: 5046 b03c 8fae 173e 329b fcbd e5c1 1bbd
00000070: c2ef e8ba fdfc 233e d992 65bd c907 e3bd
-0.019217895 -0.03809005 0.13503711 -0.16361941 0.17983209 -0.08231477 0.14879262 -0.12852089
-0.018386168 -0.099752754 -0.072739534 -0.18260656 0.061337233 -0.030071197 -0.0200612 -0.019049695
-0.15142465 0.10476189 -0.17901932 0.07482845 -0.0030411093 -0.11071675 0.072484 0.025760049
0.021517903 0.14812683 -0.12334289 -0.03802671 -0.0017771649 0.16014476 -0.056048248 -0.11085469

batch_norm.0.weight f4 [1000]
00000000: afca 5b3f 199a 6e3f 12d6 663f 6f33 503f
00000010: 86c4 553f fdcf 4a3f e529 533f bddc 513f
00000020: dcd9 473f 82ea 5c3f 6311 583f 4699 4c3f
00000030: 96b1 613f f9b7 473f b6a5 4c3f ced4 533f
00000040: 4ce2 493f 065f 4f3f eb35 513f c5fe 483f
00000050: b059 573f 476a 533f adf8 4e3f 3f3a 4e3f
00000060: 52ea 553f bca5 533f c92a 4d3f 3f37 593f
00000070: 50cf 583f 3f45 4f3f 2f3c 573f 4bde 463f
00000080: 138b 533f 6d0a 4f3f 0863 4a3f 2434 463f
00000090: ffd3 483f 77e9 483f 952b 4e3f f6b6 543f
000000a0: 8752 5a3f 8ebc 473f 3129 4f3f 347c 483f
000000b0: a877 4b3f dc5c 553f 183a 493f 1cd7 4c3f
000000c0: 92cb 553f f218 523f ca9a 4d3f c2ff 503f
000000d0: 74ce 473f 71d6 463f e53c 493f 6752 513f
000000e0: 6315 463f 6c48 563f dbdd 4c3f 24fc 513f
000000f0: cd29 573f 0d02 523f 88ec 4c3f 579b 583f
00000100: 9185 563f 82ff 473f 3a87 513f 2595 4e3f
00000110: 90b5 583f 61a2 503f f337 473f 4ab9 493f
00000120: 0b31 603f e110 4b3f f3a5 4f3f 7f65 533f
00000130: 724d 483f 5f82 4b3f c1cc 4b3f 3c9b 5c3f
00000140: 4cc2 553f 04a6 563f b55a 473f 46e8 513f
00000150: 6f06 5e3f 0537 513f 4bc0 503f 2bfd 4c3f
00000160: 2479 4f3f a64e 463f 203b 523f 4f84 4d3f
00000170: 0d61 483f ff8d 523f 452e 463f 9f9e 503f
00000180: 646e 533f 2878 483f 843c 653f 7081 4c3f
00000190: d3b2 503f 0d1d 4d3f a760 463f e5c0 533f
000001a0: cc34 563f 8dde 533f 283b 473f 3b5c 493f
000001b0: 6f84 5a3f 051f 473f c790 623f e77d 4e3f
000001c0: b7b1 513f 600d 4f3f ff6f 4b3f 5bf7 523f
000001d0: d5ea 4f3f 680f 513f e419 4c3f b046 5a3f
000001e0: 272a 4a3f 49ad 4e3f 5f0d 5b3f 4f7f 503f
000001f0: 1748 523f 6a20 4c3f 77ab 5c3f 0698 5b3f
00000200: 6f87 693f 6619 583f 5584 513f 71ab 5c3f
00000210: d02e 5c3f 5d10 4a3f 445d 593f 1ab6 613f
00000220: 70c1 473f 1214 4d3f 020c 593f e157 5c3f
00000230: 79f4 5d3f 56f7 593f 7217 593f 237d 553f
00000240: f37f 693f f00e 543f fee0 5a3f 72ae 5a3f
00000250: bd7a 583f b1f3 663f 4e68 543f c47b 4a3f
00000260: 63a2 573f d61b 5a3f e2b0 4a3f 8a3c 4f3f
00000270: b32a 503f 6f84 643f 6577 5f3f 7465 4b3f
00000280: 22d9 553f f8a1 563f eea1 4b3f 4975 573f
00000290: f1c9 633f 42f0 513f 27f8 4e3f c57a 5b3f
000002a0: 6af1 4f3f 04ff 623f 35df 6f3f 97f1 5b3f
000002b0: 8de1 493f 3e7f 683f 8ca2 5d3f ac94 4e3f
000002c0: bfbf 5c3f 7eac 5f3f f20f 563f 45b0 593f
000002d0: 332e 633f 5fd0 613f c287 6a3f 1f32 573f
000002e0: 60e7 593f 13b9 673f 310e 5f3f ba40 593f
000002f0: 748e 4c3f d90a 4d3f f55c 613f 8d22 633f
00000300: 6fc1 523f 7f47 4e3f f5e9 543f fd0e 653f
00000310: cc43 673f 09ab 553f 4365 4e3f d7f4 5c3f
00000320: 8f65 5e3f ac5a 643f 9757 543f b0a3 533f
00000330: d567 5f3f b4f1 673f 6ca3 583f d8a2 683f
00000340: 6c9b 6e3f 31f9 593f bda6 4f3f 4842 633f
00000350: bfdc 6d3f 2792 513f be82 703f 235a 503f
00000360: 1db9 5f3f a16a 543f 461d 683f 0212 6f3f
00000370: fad4 653f dc02 6b3f 7994 5b3f 820d 633f
00000380: d7ca 613f 0877 5b3f 4cb1 533f 8ba3 6d3f
00000390: 7a8d 683f 228f 6a3f 008b 643f 3016 683f
000003a0: 0c96 633f 9c9f 6e3f ed23 523f 3ebb 6b3f
000003b0: 33cc 5f3f 02a5 603f fd5e 673f d62c 553f
000003c0: 00ed 673f 0a05 713f b2bf 603f 0cc4 613f
000003d0: 98a8 6c3f 92d7 6e3f 357a 703f ba52 613f
000003e0: e16b 5c3f 1439 6c3f 1e4e 723f 79dc 563f
000003f0: 2476 633f 80c2 703f 3799 6d3f f6d0 673f
0.85856146 0.93203884 0.90170395 0.8132848 0.83502996 0.79223615 0.824858 0.81977445
0.780668 0.8629533 0.8440153 0.79921377 0.881616 0.78015095 0.79940355 0.8274659
0.78860927 0.8100437 0.817229 0.7851375 0.8412123 0.8258404 0.808482 0.80557626
0.8356067 0.82674766 0.8014341 0.84849924 0.84691334 0.80965036 0.8407621 0.7768294
0.82634085 0.80875283 0.7905736 0.7742331 0.7844848 0.7848124 0.8053525 0.83091676
0.85282177 0.78022087 0.8092223 0.7831452 0.79479456 0.8334482 0.7860427 0.8001573
0.8351375 0.82069314 0.80314314 0.81640255 0.780494 0.7767096 0.7860854 0.8176636
0.77376384 0.83704257 0.80026025 0.8202536 0.8404816 0.8203438 0.8004842 0.8461203
0.83797556 0.7812425 0.81846964 0.80696326 0.8465204 0.8149777 0.77819747 0.78798354
0.87574834 0.7932263 0.81112593 0.82576746 0.7824317 0.79495806 0.79609305 0.8617437
0.834996 0.8384707 0.7787278 0.81995046 0.86728567 0.8172458 0.81543416 0.80073804
0.8104422 0.7746376 0.8212147 0.8028001 0.7827309 0.8224792 0.7741435 0.81492037
0.8259032 0.78308344 0.89545465 0.79885006 0.81522864 0.8012245 0.7749123 0.8271621
0.8367431 0.8276146 0.7782464 0.7865636 0.8535833 0.7778171 0.8850216 0.8066086
0.81911796 0.80879784 0.7946777 0.82408684 0.812177 0.81664133 0.79727006 0.8526411
0.7897057 0.8073316 0.8556728 0.8144426 0.8214125 0.7973696 0.86199135 0.85778844
0.9122228 0.84413755 0.8184255 0.861991 0.8600893 0.7893122 0.8490794 0.8816849
0.7802954 0.8010875 0.8478395 0.8607159 0.8670116 0.8514303 0.848014 0.8339407
0.9121086 0.8283529 0.8549956 0.8542243 0.84562284 0.90215594 0.82971656 0.790951
0.8423216 0.85198724 0.7917615 0.8095175 0.81315154 0.8926458 0.87291557 0.7945168
0.83534443 0.83840895 0.7954396 0.8416334 0.88980013 0.8200723 0.808474 0.85734206
0.81227744 0.8867037 0.9369996 0.8591551 0.7885979 0.90819156 0.8657615 0.80695605
0.8623008 0.8737258 0.8361808 0.8503459 0.8874237 0.88208574 0.916134 0.84060854
0.85118675 0.90516776 0.8713103 0.8486439 0.79904866 0.8009468 0.88032466 0.88724595
0.82326406 0.80577844 0.8316949 0.89475995 0.90337825 0.83464104 0.80623263 0.86311096
0.86873716 0.89200854 0.8294615 0.8267164 0.8726781 0.90603185 0.8462436 0.9087348
0.93205905 0.8514586 0.811138 0.8877301 0.92914957 0.81863636 0.93949497 0.8138754
0.87391835 0.829752 0.9066967 0.9338685 0.897781 0.9180124 0.85773426 0.88692486
0.88200134 0.857285 0.8269241 0.9282767 0.90840876 0.91624653 0.892746 0.90658855
0.8890083 0.93212295 0.8208607 0.92082584 0.8742096 0.8775178 0.90379316 0.8327154
0.9059601 0.94148314 0.87792504 0.8818977 0.92444754 0.93297684 0.93936473 0.88016856
0.8610211 0.92274594 0.9465045 0.83930165 0.88852143 0.94046783 0.9281191 0.90553224

batch_norm.0.bias f4 [1000]
00000000: 5ada 143b 4721 463c 6d8e 413c fd5b 1abb
00000010: 5b60 903b 1d9a f53a e766 083b dff3 2fba
00000020: ca92 7bbb 9b73 edba 8f71 8b3a b555 8839
00000030: b0c5 8e3c 53e0 c63b 1f4c f83b cde0 073c
00000040: 233b 23bb 67d4 013c 93a2 2f3c 2cea 61b8
00000050: 4356 9d3c 59b4 063c 6ab1 8b3c e325 463c
00000060: e44c 303c 1a71 693b 6ecb 1f3c f0ff 8a3c
00000070: d2da 993b b208 5b3c c354 583c 0577 1e3c
00000080: 43d1 7f3c 0c73 ab3b 6881 433c 3936 de3b
00000090: 5a4e b13b 8ceb 123c 6118 523a 64ae 3e3c
000000a0: ec8d 4c3c e7ec 09bb 9d92 133c b637 ee3a
000000b0: c6ba 523b 16d3 433c c471 0e3c 8598 683a
000000c0: 26da 683c 8797 993c 5911 7f3c eb4d 713c
000000d0: e196 033c 954f d43b 73ea 5c3b 60d4 e63b
000000e0: e473 823b 6088 473c ab71 153c 858e 883b
000000f0: e4cb 903c ac8d 083c 3d63 583c 3914 5d3c
00000100: 47fa b53a 9764 953b 4fed 123c 5f77 373c
00000110: 7a9f 393c 2b24 343b ee0a 773b 9030 17ba
00000120: 3f82 963c dd42 533b 77dd 323c 4172 c33b
00000130: be0c f3ba 7a40 8b3b dccf 51ba b33e ed3b
00000140: 89b9 5f3c 846e 493c ce4e 173b 70a0 e43b
00000150: 2b50 0d3c 0898 243c 281f 273c 0e75 0d3c
00000160: dbc6 e33a c334 63bb f68d 523c fd5b 8b3b
00000170: 68c5 3a3a 2334 9c3b 0507 ceba 2cc4 15bb
00000180: 675d 933b 62c7 65bb f3ac 343c c467 f938
00000190: cd6b adb9 8563 1b39 bce2 a8bb ce30 543b
000001a0: bdc7 4a3b 2d78 7eba 8c1c 22bb 1eff 0ebb
000001b0: 4eb1 433c 6a54 ecbb 6293 3a3c e455 4ebb
000001c0: 0955 8cba a7e8 87bb 17a7 77bb 32d1 cdbb
000001d0: 315c f539 ce81 82bb 2ae6 0dbc 7594 a5b9
000001e0: a3d5 22bc a6a6 c7bb 2a97 41bb 3000 09bb
000001f0: 52b9 10bc 9c6c 1bbc 5859 d9ba 2ece 07bc
00000200: a46f 7e3b e884 1abc 1ab5 36bc b15f 11bc
00000210: 4ae3 a0bb 2b82 53bc 7600 2abc bf97 14bc
00000220: ded0 92bc d422 71bc dffe d9bb 6141 2ebc
00000230: 1e2f 4ebc 4ef6 16bc e68d 2cbc 85ee 25bc
00000240: 2e13 2abc 7a02 06bc 9c0f 56bc df88 a339
00000250: a82c 63bc d708 4dbc 84ea acbc 3c43 d3bc
00000260: c3f6 bbbc 9c5f 93bc 5e18 6fbc 87f1 dcbc
00000270: 627b d3bc 9151 8abc fc9b 95bc c376 e5bc
00000280: 3583 a1bc b35f a1bc 46e2 0bbd 3916 edbc
00000290: 4896 b0bc 2e10 93bc 1906 10bd e917 9cbc
000002a0: d665 b9bc 67f6 b3bc db71 32bc 1c59 cfbc
000002b0: d3e2 dbbc 2f7e 7abc f4b9 99bc 1438 5dbc
000002c0: 994c e7bc 0569 07bd e4d3 2dbd be95 c4bc
000002d0: 066b 8bbc 6bce 82bc 69fc 91bc d58b 07bd
000002e0: 1911 34bd fe93 97bc 49f3 adbc fc10 35bd
000002f0: 2586 92bc 2d07 9cbc 6cc1 b5bc 88a6 04bd
00000300: a6b8 a8bc 7800 65bd 15f3 97bc 9a9b a8bc
00000310: 38ba febc 8c3d 1abd 3ed7 5bbd 95a9 1dbd
00000320: 011f 9abc dde7 23bd 2672 20bd 82ed 6dbd
00000330: f398 afbc 0a0c 82bc 80c3 83bd 38b7 6abd
00000340: feb1 04bd dd32 ecbc 12eb 16bd a6a6 98bc
00000350: 6d6a c7bc 2824 44bd 458b 2ebd 93bf 00bd
00000360: 265f cbbc 2cee a7bb 5a44 80bd 9ce3 44bd
00000370: 5411 53bd e7d7 8dbc f500 61bd a6fe a9bc
00000380: a1e1 7fbd 2b1d 9fbd 6235 a7bc 8c83 dabc
00000390: 14dc dabc 45ed e7bc 7996 f8bc a101 36bd
000003a0: 7d23 4dbd c20d 91bd b472 a3bd 14db 0bbd
000003b0: 8c2d 87bd b92c 0dbd 3be5 01bd 22af d8bc
000003c0: a710 a0bc 5291 25bd d54f 04bd c59d d4bc
000003d0: 34af 5dbd 0a84 d1bc 8fc6 31bd ac2b 92bd
000003e0: 268f 29bd 773a a7bd d23e 4cbd 19fe 25bd
000003f0: e336 aebc 366a 09bd 0de0 26bd 6f97 0ebd
0.0022713155 0.012092895 0.011813742 -0.0023553364 0.0044060177 0.0018737946 0.0020813288 -0.000671206
-0.0038387054 -0.0018116118 0.0010638701 0.00026003798 0.01742825 0.006069222 0.0075774337 0.008293343
-0.0024907074 0.007924176 0.010719913 -5.386227e-05 0.019206172 0.008221709 0.017052371 0.012093994
0.01076052 0.0035620392 0.009753091 0.016967744 0.004695275 0.013368772 0.0132038025 0.009671931
0.015613857 0.0052322205 0.011932708 0.006781366 0.0054109516 0.008967292 0.0008014497 0.011638258
0.012485009 -0.0021045746 0.009007123 0.0018174562 0.0032154783 0.011952182 0.008694116 0.0008872825
0.014212167 0.018749012 0.015568101 0.01472805 0.008031578 0.0064792135 0.0033709079 0.00704436
0.0039811004 0.01217851 0.009121339 0.0041673803 0.017675348 0.008334558 0.013207254 0.013493591
0.0013883793 0.0045591104 0.008967712 0.011197894 0.011329526 0.0027487378 0.0037695724 -0.0005767429
0.018372653 0.0032235899 0.010917059 0.005964548 -0.0018543226 0.0042496296 -0.0008003691 0.0072401403
0.013655075 0.012294415 0.0023087743 0.0069771335 0.008625071 0.010046013 0.010200299 0.008633865
0.0017377989 -0.00346689 0.012851229 0.004252909 0.0007124753 0.0047669574 -0.0015718645 -0.0022852523
0.0044972184 -0.0035061468 0.011027562 0.00011892573 -0.0003307745 0.00014819026 -0.005153982 0.0032377723
0.0030941807 -0.00097072386 -0.0024736254 -0.0021819542 0.011944128 -0.0072122114 0.011387678 -0.00314843
-0.0010706495 -0.0041476074 -0.0037788802 -0.0062810415 0.0004679873 -0.003982759 -0.008660832 -0.00031581862
-0.00993863 -0.006092864 -0.0029539564 -0.0020904653 -0.008833246 -0.009486344 -0.0016582413 -0.008288903
0.0038823867 -0.009431101 -0.011151576 -0.008872912 -0.0049099075 -0.012909452 -0.010376086 -0.009069382
-0.017921861 -0.014717776 -0.0066526975 -0.010635705 -0.012584476 -0.009213997 -0.010531878 -0.010127668
-0.010380549 -0.008179301 -0.013065245 0.0003119176 -0.013865627 -0.012514315 -0.02110792 -0.025788896
-0.022944814 -0.017989926 -0.014593212 -0.026970638 -0.02581567 -0.016884597 -0.018262856 -0.028010732
-0.019715885 -0.019698953 -0.034151338 -0.02894126 -0.021556035 -0.017952051 -0.035162065 -0.01905437
-0.022631567 -0.02196808 -0.010891403 -0.025311045 -0.026841557 -0.015288874 -0.018765427 -0.01350214
-0.028234767 -0.03305914 -0.042438403 -0.023997184 -0.017018806 -0.015967568 -0.017820554 -0.03309234
-0.043961618 -0.018503185 -0.021234171 -0.04420565 -0.01788623 -0.01904639 -0.022186957 -0.03238538
-0.02059586 -0.05590865 -0.018548528 -0.02058201 -0.031094655 -0.037656352 -0.053672068 -0.038491804
-0.018813612 -0.040016044 -0.03917136 -0.058087833 -0.021435237 -0.015874881 -0.06433773 -0.057303637
-0.03239631 -0.028832847 -0.036845274 -0.018634152 -0.02434274 -0.047886044 -0.042613287 -0.0314327
-0.024825644 -0.005124828 -0.06263037 -0.048068628 -0.051530197 -0.017314864 -0.054932553 -0.020751309
-0.062471036 -0.07769235 -0.020411197 -0.026674055 -0.02671627 -0.028311381 -0.030345188 -0.044435147
-0.050082672 -0.07082702 -0.07980862 -0.034144476 -0.06600484 -0.03446648 -0.03171275 -0.026450697
-0.01953919 -0.04042179 -0.032302696 -0.025954137 -0.054122165 -0.025575656 -0.04340225 -0.07137236
-0.041396283 -0.08165448 -0.049864598 -0.04052553 -0.021266406 -0.033548556 -0.040741015 -0.034812387

batch_norm.0.running_mean f4 [1000]
00000000: 9966 2d3f fc88 fe3e 8b79 dd3e 50b6 cf3e
00000010: 076f c33e db33 bc3e 36aa b63e 5677 b23e
00000020: 6c59 ad3e 4387 aa3e 4bb3 a63e 1198 a43e
00000030: 029c a23e 24e1 a13e 7369 9f3e 6169 9e3e
00000040: 0770 9e3e 84c3 9c3e 4a44 9c3e 496e 9b3e
00000050: 8d9a 9a3e 0c24 9a3e 2fcd 993e 034d 993e
00000060: 99d7 983e f04a 983e 531b 983e d6f9 973e
00000070: ccd4 973e 856f 973e 922f 973e 708a 963e
00000080: e704 973e 18e2 963e 53a6 963e a9be 963e
00000090: 543f 963e 712b 963e d604 963e 7d67 963e
000000a0: ee7f 953e 4e96 953e aa58 953e 4b51 953e
000000b0: e095 953e ed6c 953e a052 953e d449 953e
000000c0: 26e8 943e 37da 943e 6b07 953e 9b1c 953e
000000d0: 1f2d 953e 6d0d 953e 03a6 943e 8ba0 943e
000000e0: e52e 943e 501d 943e 9295 943e 6d7a 943e
000000f0: 4e91 943e 4d51 943e c72e 943e f111 943e
00000100: f22d 943e f345 943e f127 943e e2e4 933e
00000110: a7b0 933e 3da0 933e b694 933e 6196 933e
00000120: 9cd2 933e b78b 933e 06ed 933e bacb 933e
00000130: c9c4 933e 2fb0 933e 1789 933e 274a 933e
00000140: 1e22 933e 3f42 933e 3a1b 933e 5c0a 933e
00000150: cbba 923e c8fb 923e 01ff 923e ceda 923e
00000160: 04eb 923e 7ccc 923e f7f5 923e e71d 933e
00000170: bdb5 923e 7b63 923e 266d 923e a09a 923e
00000180: ce49 923e b22d 923e defb 913e d036 923e
00000190: 84fd 913e 43df 913e 09d4 913e bf07 923e
000001a0: b0c5 913e 9380 913e 8e99 913e 56f1 903e
000001b0: b812 913e b9e7 903e dffa 903e 26e6 903e
000001c0: a2d9 903e 3075 903e 0576 903e cf88 903e
000001d0: b2ff 8f3e e617 903e f211 903e d901 903e
000001e0: efd0 8f3e abf8 8f3e 447c 8f3e 90d1 8f3e
000001f0: 143e 8f3e 6a41 8f3e d43b 8f3e 77f9 8e3e
00000200: 6a05 8f3e 7cce 8e3e e0c4 8e3e 939e 8e3e
00000210: 326b 8e3e 5268 8e3e 0ee6 8d3e e20b 8e3e
00000220: b604 8e3e efc7 8d3e 80ae 8d3e 56b1 8d3e
00000230: 2b27 8d3e 42e5 8c3e a8d1 8c3e e8c9 8c3e
00000240: a0e8 8c3e f99c 8c3e 5156 8c3e 1018 8c3e
00000250: 05f5 8b3e 16a0 8b3e ec9a 8b3e 232d 8b3e
00000260: 63fd 8a3e 0b9d 8a3e 8479 8a3e 5958 8a3e
00000270: c622 8a3e a406 8a3e 6cf4 893e 6ce2 893e
00000280: 4f90 893e 2852 893e 51d6 883e 86e3 883e
00000290: 6853 883e 1352 883e 8c1e 883e e4fe 873e
000002a0: 2cda 873e 7387 873e a143 873e 604c 873e
000002b0: 5961 873e 13ef 863e 90db 863e efa0 863e
000002c0: 484b 863e 9140 863e 123a 863e bb01 863e
000002d0: 66fe 853e 8b83 853e 775b 853e f016 853e
000002e0: f7c6 843e 7399 843e b9ad 843e 5766 843e
000002f0: 4742 843e ffea 833e 80b5 833e eb72 833e
00000300: 1957 833e 5e32 833e 5125 833e 8de7 823e
00000310: 4bac 823e 038e 823e 6250 823e 1ef5 813e
00000320: e815 823e 9fa0 813e 3573 813e 5e46 813e
00000330: b7e0 803e 8f9a 803e b075 803e b730 803e
00000340: 0f48 803e 5e1e 803e 20a9 7f3e 7269 7f3e
00000350: 8cc4 7e3e ee73 7e3e bfb8 7d3e 8877 7d3e
00000360: f9f7 7c3e 9957 7c3e 2a1c 7c3e eec5 7b3e
00000370: 20b8 7b3e 4106 7b3e 9b27 7b3e 24f7 7a3e
00000380: cc40 7a3e 19de 793e 607b 793e d6b0 783e
00000390: 4361 783e f5e1 773e 7d4f 773e fe60 773e
000003a0: d0f8 763e a6e5 763e 7828 763e c85e 753e
000003b0: 20e3 743e 56ae 743e 5e41 743e bd07 743e
000003c0: f6a5 733e fc54 733e 6113 733e 0010 733e
000003d0: 158f 723e ead9 713e b983 713e e4e4 703e
000003e0: 757e 703e 12df 6f3e ae0f 6f3e d5b6 6e3e
000003f0: 6ca1 6e3e 6546 6e3e d369 6d3e 037f 6d3e
0.67734677 0.49713886 0.43256792 0.4056878 0.38170645 0.36758313 0.35676736 0.3485667
0.33857286 0.33306322 0.32558665 0.32147267 0.3175965 0.3161708 0.3113514 0.30939773
0.30944845 0.30617917 0.3052085 0.30357578 0.30196038 0.30105627 0.30039355 0.29941568
0.29851988 0.29744673 0.29708347 0.29682797 0.2965454 0.2957727 0.2952848 0.29402494
0.29495928 0.2946937 0.2942377 0.29442337 0.2934519 0.29330018 0.29300565 0.2937583
0.29199165 0.29216236 0.29169208 0.29163584 0.29215908 0.29184666 0.291646 0.2915789
0.29083365 0.29072735 0.29107222 0.29123387 0.29135987 0.29111806 0.29032907 0.29028735
0.28942028 0.28928614 0.29020363 0.28999653 0.2901711 0.28968278 0.28941938 0.28919938
0.28941303 0.28959617 0.28936723 0.2888556 0.28845713 0.2883319 0.28824395 0.28825668
0.2887162 0.2881753 0.28891772 0.2886637 0.28861073 0.28845355 0.2881553 0.2876751
0.28736967 0.2876148 0.2873171 0.2871884 0.28658137 0.2870772 0.28710178 0.2868256
0.28694928 0.28671634 0.2870328 0.2873375 0.2865428 0.28591523 0.285989 0.28633595
0.28571934 0.28550488 0.28512472 0.28557444 0.2851373 0.28490648 0.28482082 0.28521535
0.28471136 0.28418407 0.28437465 0.28309125 0.28334594 0.2830179 0.283164 0.2830059
0.2829104 0.28214407 0.28215042 0.28229377 0.28124768 0.28143233 0.2813869 0.2812641
0.2808909 0.28119406 0.28024495 0.2808957 0.2797705 0.27979594 0.27975333 0.27924702
0.27933818 0.2789191 0.2788458 0.27855358 0.2781616 0.27813965 0.2771458 0.2774344
0.2773797 0.276916 0.27672195 0.2767436 0.27568945 0.2751866 0.27503705 0.27497792
0.2752123 0.2746351 0.27409604 0.27362108 0.27335373 0.27270573 0.27266634 0.27182874
0.27146444 0.2707294 0.27045834 0.2702053 0.26979655 0.2695819 0.26944292 0.2693056
0.2686791 0.26820493 0.2672601 0.26736087 0.26626134 0.26625118 0.26585805 0.26561654
0.2653364 0.26470527 0.26418784 0.26425457 0.26441458 0.26354274 0.26339388 0.26294658
0.2622931 0.26221135 0.2621618 0.26173195 0.26170653 0.26076922 0.26046345 0.25994062
0.25933048 0.25898322 0.2591379 0.2585933 0.25831816 0.25765225 0.2572441 0.25673613
0.25652388 0.25624365 0.25614408 0.25567284 0.25522074 0.2549897 0.25451952 0.25382322
0.25407338 0.25317857 0.25283208 0.25248998 0.25171444 0.2511792 0.25089788 0.25037166
0.25054976 0.25023168 0.2496686 0.24942568 0.24879664 0.24848911 0.24777506 0.24752629
0.24703969 0.24642791 0.24620119 0.24587223 0.24581957 0.24514104 0.24526827 0.24508339
0.2443878 0.2440113 0.2436347 0.24286208 0.24255852 0.2420729 0.24151416 0.24158093
0.24118352 0.24111041 0.24038875 0.23961937 0.23914766 0.23894629 0.2385306 0.23831077
0.23793778 0.23762888 0.23737861 0.23736572 0.23687394 0.23618284 0.23585404 0.23524815
0.2348574 0.23424938 0.23345825 0.23311932 0.23303765 0.23269041 0.231849 0.23192982
