Saves/L_50k_2.pth (torch, 164437 bytes, 40 tensors)

sage.0.lin_rel.weight f4 [32, 3]
0	0x3eaf0a9a	0.34187776
1	0xbd6615ff	-0.05617332
2	0x3e286210	0.16443658
3	0x3f0e3563	0.5555021
4	0x3f048c39	0.5177646
5	0xbe661f8c	-0.22472972
6	0x3e348684	0.17629439
7	0xbeaf8adf	-0.34285638
8	0x3e2d6385	0.16932495
9	0xbe3feccf	-0.18742679
10	0x3f0b6fca	0.5446745
11	0x3d88307c	0.06649873
12	0x3ed09a54	0.40742743
13	0x3ed133cd	0.40859833
14	0xbe7035f9	-0.23458089
15	0x3e280a48	0.16410172
16	0xbec0b21b	-0.37635884
17	0xbddc4d38	-0.10756916
18	0xbceb2e4a	-0.028708596
19	0x3e346810	0.17617822
20	0x3e0bdb3b	0.13657849
21	0x3f02b50d	0.5105751
22	0xbe67f59f	-0.22652291
23	0xbe93ce5b	-0.28868374
24	0xbebb65b1	-0.36601022
25	0xbef8cd59	-0.48594168
26	0xbeda667d	-0.42656317
27	0xbe06291b	-0.13101618
28	0x3e8ca66e	0.27470726
29	0xbde942c4	-0.11389688
30	0xbe423423	-0.18965201
31	0x3e85cc68	0.26132512
32	0x3c491fcf	0.01227565
33	0xbdd8f8b4	-0.10594311
34	0x3e53fe0a	0.20702377
35	0x3f00dc4f	0.50336164
36	0xbea742db	-0.32668194
37	0xbf12eabe	-0.5738944
38	0x3b32c8dd	0.0027280368
39	0x3ddf64b7	0.10907882
40	0xbcbcda91	-0.02305344
41	0x3e7e8aa5	0.24857576
42	0xbeaaa26f	-0.33327052
43	0x3e63524c	0.22199363
44	0xbe999360	-0.2999525
45	0xbcd0a146	-0.025467526
46	0x3eba3391	0.36367467
47	0xbed4c5fd	-0.41557303
48	0x3d77a32b	0.060458343
49	0xbe4d374a	-0.20040622
50	0x3ef7386d	0.48285237
51	0x3ef05d3b	0.4694613
52	0x3ee4c505	0.44681564
53	0x3ee82336	0.45339364
54	0xbdd866f6	-0.10566513
55	0xbd9146d2	-0.07093586
56	0x3d9fb490	0.077981114
57	0x3e88f629	0.26750305
58	0xbe1c0ccd	-0.15239258
59	0x3e9edc5f	0.31027505
60	0xbe5e75a4	-0.21724564
61	0x3dd4e170	0.10394561
62	0xbe613088	-0.2199117
63	0x3d0318c1	0.03200603
64	0xbf11d4ca	-0.56965315
65	0xbedc59e9	-0.43037346
66	0x3d622bae	0.055217437
67	0xbf0322cf	-0.5122499
68	0xbf004cbe	-0.501171
69	0x3ec95970	0.39326048
70	0x3d36adb3	0.044599246
71	0x3e87147e	0.26382822
72	0x3e4d6f4e	0.2006199
73	0x3e2d74a8	0.16939032
74	0x3d288145	0.041138906
75	0xbdd7e7f3	-0.10542288
76	0xbe68a205	-0.22718056
77	0xbe9c6d67	-0.30552217
78	0x3d973e98	0.07384986
79	0x3cf0502b	0.029335102
80	0xbed7baa9	-0.42134598
81	0xbd80c7ac	-0.062880844
82	0xbea90eb1	-0.3301902
83	0x3e6ed4d8	0.23323381
84	0x3e8ab61c	0.27092063
85	0x3d4d3731	0.050101463
86	0x3c7aa011	0.015296952
87	0x3bae276c	0.005314758
88	0x3eb115ec	0.34587038
89	0xbd96dcb3	-0.07366314
90	0x3e9ee6ed	0.31035557
91	0x3e38e8ab	0.18057506
92	0xbed1b4a9	-0.40958145
93	0x3f01ca9f	0.506998
94	0xbd00c1de	-0.031434886
95	0x3ea5105f	0.32239053

sage.0.lin_root.weight f4 [32, 3]
0	0x3ef95bca	0.48702842
1	0x3e034cbb	0.12822239
2	0xbe241f18	-0.16027486
3	0x3f1725c4	0.59042
4	0x3e23d76f	0.1600015
5	0x3eba03ca	0.36331016
6	0xbea3a029	-0.3195813
7	0xbc51357c	-0.012769099
8	0xbd61c826	-0.055122517
9	0x3eb0385c	0.34418
10	0xbe9a3588	-0.30118966
11	0xbef16e29	-0.47154358
12	0xbb8ae867	-0.0042391303
13	0xbe0a7970	-0.13522887
14	0x3e48220c	0.19544238
15	0x3cb20757	0.021732016
16	0x3f0a48f6	0.5401758
17	0x3eeb545e	0.45962805
18	0xbd82676f	-0.06367385
19	0x3f0a3b74	0.5399697
20	0x3dc42415	0.095771946
21	0x3dcc1cc0	0.09966421
22	0x3ee00fc6	0.43762034
23	0xbe15a579	-0.14613904
24	0xbe343473	-0.17598133
25	0x3eaf963a	0.342943
26	0xbe6acae7	-0.22928964
27	0xbe6a74da	-0.22896138
28	0x3e96fe43	0.2949086
29	0x3df21dca	0.11822088
30	0x3ca43d88	0.020048872
31	0x3ce05294	0.027383126
32	0xbe973d66	-0.2953903
33	0x3ee32e5b	0.44371304
34	0x3ec88d00	0.39170074
35	0xbefe89ff	-0.49714658
36	0xbee2acbc	-0.4427241
37	0x3f064eaa	0.5246378
38	0xbd395198	-0.04524383
39	0x3e70edfb	0.23528282
40	0xbe82fd0a	-0.25583678
41	0x3ee6ec18	0.45102
42	0x3e249077	0.16070734
43	0xbd256c2a	-0.040386356
44	0x3f02a1b4	0.5102799
45	0x3ec45b08	0.383507
46	0xbd0bd8c7	-0.03414228
47	0xbc7568f6	-0.014978638
48	0xbe861d09	-0.26194027
49	0x3df78da6	0.12087564
50	0x3dc6609a	0.09686394
51	0x3ef8819c	0.48536384
52	0xbf04ac49	-0.51825386
53	0x3f0a48ef	0.5401754
54	0x3e51e7b0	0.20498538
55	0xbd861e59	-0.06548757
56	0xbefe333f	-0.49648473
57	0x3d9f5214	0.07779327
58	0x3e65b7ea	0.22433439
59	0x3c7d1af5	0.015448322
60	0xbe32247a	-0.17396727
61	0x3e0baeca	0.13640895
62	0x3f0ae288	0.5425191
63	0xbcffbf5b	-0.031219175
64	0xbe2c46f1	-0.16823937
65	0x3e8ec5c6	0.27885264
66	0xbaef0d2f	-0.0018238182
67	0xbe934543	-0.2876378
68	0x3edbf6ae	0.4296164
69	0xbf09e65b	-0.5386712
70	0x3ea0408e	0.3129925
71	0xbd19639c	-0.03744851
72	0x3e92098c	0.2852291
73	0x3e01d3a9	0.12678398
74	0xbf0fdbc3	-0.56194705
75	0x3e62386b	0.22091834
76	0xbeb21a45	-0.34785667
77	0x3d8acedc	0.067777365
78	0x3d3e6f5f	0.04649293
79	0xbeff69ff	-0.49885556
80	0x3e5ea3e8	0.21742213
81	0x3ec0328e	0.3753857
82	0xbd40e950	-0.047097504
83	0x3ed8033a	0.42189962
84	0xbee67248	-0.45009065
85	0x3d1dafc1	0.03849769
86	0xbe9de256	-0.30836743
87	0x3e920906	0.2852251
88	0xbf10feb0	-0.5663862
89	0x3ec46a78	0.3836248
90	0x3dcb409b	0.09924432
91	0xbe4e22d9	-0.20130481
92	0x3ec56e25	0.38560596
93	0x3eca88d6	0.39557523
94	0xbe803d41	-0.25046733
95	0xbe95b3c8	-0.29238725

sage.0.lin_root.bias f4 [32]
0	0x3e923287	0.28554174
1	0x3dff74a5	0.1247342
2	0x3f15fe93	0.58591574
3	0xbf021898	-0.5081878
4	0xbecc1086	-0.39856356
5	0xbe48793e	-0.195775
6	0xbeb4fa4d	-0.35347214
7	0x3ec16e37	0.377794
8	0x3edd68ab	0.43243918
9	0xbea20438	-0.31643844
10	0xbf0a4410	-0.54010105
11	0xbe6f7eec	-0.2338826
12	0xbedf69d0	-0.43635416
13	0x3eb8250a	0.3596576
14	0xbe7ad13a	-0.24493876
15	0x3ec86daa	0.39146167
16	0xbe7bd8e5	-0.24594457
17	0x3ea0514e	0.3131203
18	0x3ee676ec	0.45012605
19	0x3ee3ee8d	0.44517937
20	0xbcd8750c	-0.026423
21	0xbe9fa2ba	-0.31178838
22	0x3d3ce735	0.046118934
23	0xbedd3c6f	-0.4321017
24	0xbf0810d5	-0.53150684
25	0x3e623a45	0.2209254
26	0x3d7ade83	0.06124736
27	0x3c6b59cc	0.014364671
28	0xbf02cf42	-0.510975
29	0x3dad6187	0.084658675
30	0xbd05211d	-0.032502282
31	0x3e502dd1	0.20329978

sage.1.lin_rel.weight f4 [32, 32]
0	0x3cc8ac4b	0.024496218
1	0xbc9749cf	-0.018467812
2	0x3df41a2c	0.119190544
3	0xbddb6ec8	-0.10714489
4	0xbe120b71	-0.14262177
5	0x3d894b16	0.06703775
6	0xbda02139	-0.07818837
7	0x3e32937a	0.1743907
8	0xbde8d5d1	-0.11368907
9	0xbd9a8197	-0.075442486
10	0xbe0d4116	-0.1379436
11	0xbc848085	-0.016174564
12	0xbd91653d	-0.07099388
13	0x3e2c1971	0.1680658
14	0x3dfb999f	0.1228516
15	0xbdbe594f	-0.09294378
16	0x3c8373b0	0.016046375
17	0x3dbc74cf	0.09201967
18	0x3d831b24	0.06401661
19	0xbda0e97a	-0.07857032
20	0xbc9e7e3c	-0.019347303
21	0x3c6eb843	0.014570299
22	0x3d08563f	0.033285376
23	0xbe08ccd0	-0.1335938
24	0xbe103fc9	-0.14086832
25	0x3dc4cdb0	0.09609544
26	0xbdaa6713	-0.08320441
27	0xbe1288e4	-0.14310032
28	0xbe10bf23	-0.14135413
29	0xbe1e6f35	-0.1547211
30	0xbe28b9e2	-0.16477159
31	0x3da995f7	0.08280557
32	0xbe02444c	-0.12721366
33	0x3cdc8bd3	0.026922142
34	0xbe33e9ac	-0.17569607
35	0xbd969797	-0.07353132
36	0x3e21c01a	0.15795937
37	0xbdd65251	-0.10464919
38	0x3d1fcf7a	0.039016224
39	0xbda11537	-0.078653745
40	0xbe31dbeb	-0.17369048
41	0x3e0ec039	0.13940515
42	0xbdb438ea	-0.08799918
43	0xbe24705d	-0.16058488
44	0xbd6d6b45	-0.05796363
45	0x3bcd7c84	0.006270947
46	0xbdebf264	-0.11520842
47	0x3e027c93	0.12742834
48	0x3df826d3	0.1211678
49	0xbdaf9b49	-0.0857454
50	0x3dfb994c	0.122850984
51	0x3e204063	0.15649562
52	0xbdbc8861	-0.092057
53	0x3e0caedf	0.13738583
54	0xbdf48462	-0.119393125
55	0xbde629bf	-0.11238431
56	0x3e2ab099	0.16668929
57	0x3cdc8367	0.026918126
58	0xbe045df8	-0.12926471
59	0x3dfa9e7d	0.122372605
60	0xbdc7ad4d	-0.097498514
61	0xbd002719	-0.031287286
62	0xbdc7276f	-0.09724318
63	0x3d4d8af7	0.050181355
64	0xbd87afd6	-0.06625335
65	0x3d331e52	0.043730088
66	0xbcdb08e5	-0.02673764
67	0xbd0b5caf	-0.034023937
68	0xbe0e8d10	-0.13920999
69	0xbe188abb	-0.14896671
70	0x3e0b4de1	0.13603927
71	0x3de25f6a	0.11053355
72	0xbe1ff2cf	-0.15619968
73	0xbde7ffef	-0.11328112
74	0xbe12a332	-0.14320067
75	0x3e18088c	0.1484701
76	0x3dadd3a2	0.084876314
77	0x3e01f3e2	0.1269069
78	0x3d6ea05f	0.05825841
79	0xbd07076f	-0.032966074
80	0xbd3dfdbd	-0.04638456
81	0xbcb0edb9	-0.02159773
82	0x3e0492ab	0.12946574
83	0x3d64f589	0.055898223
84	0xbb61f147	-0.0034476088
85	0xbd35bd94	-0.04437025
86	0xbd75eebf	-0.06004214
87	0x3da39b45	0.079886
88	0xbe327468	-0.17427218
89	0xbe187db6	-0.14891705
90	0xbe16c40b	-0.14723222
91	0x3c80769b	0.015681555
92	0x3d37bc9c	0.044857606
93	0xbd8f5aed	-0.069997646
94	0x3dcad0d7	0.09903114
95	0x3d22ed3f	0.039777037
96	0x3da0a9ef	0.07844912
97	0x3d1aff40	0.03784108
98	0xbdbce9d3	-0.09224286
99	0xbe06f3e0	-0.13178968
100	0xbe10b12d	-0.14130087
101	0xbcc3ddfc	-0.023909561
102	0x3e05e689	0.13076223
103	0xbc6f5d7c	-0.014609691
104	0x3e20878b	0.15676706
105	0x3e0cf206	0.137642
106	0xbc93aac7	-0.018025769
107	0x3e39501f	0.1809697
108	0x3e050f09	0.12994017
109	0xbce35a9f	-0.027753172
110	0x3be9af7c	0.007131515
111	0x3e1f56b0	0.15560412
112	0x3b47de73	0.003049758
113	0xbdee0e4b	-0.1162382
114	0xbe264a5b	-0.16239302
115	0xbdc6ab97	-0.09700697
116	0x3d822f73	0.063567065
117	0xbe3ebcb9	-0.1862668
118	0x3daada61	0.08342434
119	0xb9e76580	-0.00044135377
120	0x3e05af3b	0.13055126
121	0xbe2c6e9c	-0.16839069
122	0x3dd77ea3	0.10522201
123	0x3d520fa7	0.05128446
124	0xbda5f2be	-0.0810294
125	0x3e013757	0.12618767
126	0x3e03b8b0	0.12863421
127	0x3e071914	0.1319316
128	0x3e14f1f8	0.14545429
129	0x3de9fe81	0.11425496
130	0x3e2567c3	0.16152863
131	0xbdcc508e	-0.09976302
132	0xbd8e7128	-0.069551766
133	0x3d94ae8f	0.07259857
134	0xbd876d22	-0.06612612
135	0x3c6ea7c8	0.014566369
136	0xbe040c4b	-0.12895314
137	0xbcf25c27	-0.029584957
138	0xbc9483c0	-0.01812923
139	0x3dd7ef5d	0.10543702
140	0xbdc15307	-0.09439664
141	0x3d8722cc	0.06598434
142	0xbc0f1290	-0.008732453
143	0x3d7dae8c	0.06193404
144	0xbbd24851	-0.006417312
145	0x3e0a8149	0.13525881
146	0x3d54e3dd	0.05197512
147	0x3cf32605	0.029681215
148	0x3dffe0a3	0.12494018
149	0x3e0fbcd2	0.14036873
150	0xbc211cc0	-0.009833515
151	0xbd1d0f1b	-0.038344484
152	0x3d7d2b80	0.061809063
153	0x3d575038	0.052566737
154	0x3b3d8be9	0.0028922504
155	0x3d8e58ed	0.06950555
156	0xbe245dd0	-0.16051412
157	0xbbb277a6	-0.005446392
158	0x3cd18239	0.02557479
159	0x3e4002e0	0.18751097
160	0xbdc24fc2	-0.09487869
161	0x3e161ced	0.14659472
162	0x3de385bf	0.111094944
163	0x3e3daf74	0.18523961
164	0x3c6d9d5a	0.014502848
165	0x3db226eb	0.08698829
166	0x3c2d2f75	0.010570397
167	0xbd947930	-0.07249677
168	0xbc239de3	-0.009986374
169	0xbe0b8358	-0.13624322
170	0xbde83ca6	-0.11339693
171	0x3c1d9fc7	0.009620613
172	0x3e0e13b0	0.13874698
173	0xbcdecebf	-0.027198194
174	0xbdc6ac51	-0.097008355
175	0x3d51cb31	0.05121917
176	0xbd7b8595	-0.06140669
177	0x3d0ab41a	0.033863164
178	0xbe050739	-0.12991036
179	0x3deaee78	0.114712656
180	0x3e1a4f96	0.15069422
181	0xbd830e89	-0.06399257
182	0xbdc0784c	-0.09397945
183	0x3d94c11a	0.07263394
184	0x3dd71f6a	0.10504039
185	0x3c1590de	0.009128777
186	0x3e3137f6	0.17306504
187	0x3ccfeafb	0.025380602
188	0xbdb6eac6	-0.08931498
189	0x3d5e22bb	0.05423234
190	0x3dba932a	0.091101006
191	0x3e1a500b	0.15069596
192	0x3e2c738b	0.16840951
193	0x3d647a41	0.055780653
194	0x3e22fd70	0.15916991
195	0x3d9fe798	0.07807845
196	0x3d910653	0.070812844
197	0xbe21e18f	-0.158087
198	0xbdf862bd	-0.12128208
199	0xbd11a1fe	-0.03555488
200	0x3e14ab09	0.1451837
201	0x3cfad1f5	0.030617693
202	0xbc809ae4	-0.015698858
203	0x3d657072	0.05601544
204	0x3c58b1ba	0.013225967
205	0x3cdc5fcc	0.026901148
206	0x3c624650	0.013810709
207	0xbe26a0ad	-0.1627223
208	0xbd40b1b6	-0.04704448
209	0x3e2266d5	0.1585954
210	0x3a9fdee1	0.001219716
211	0x3d117295	0.035509665
212	0x3e1548ea	0.14578596
213	0x3c61a909	0.013773211
214	0xbe0a983f	-0.1353464
215	0x3ba5cf61	0.005060122
216	0x3e1bf873	0.15231495
217	0x3dadcaee	0.084859714
218	0xbe25468e	-0.16140196
219	0x3e27ca7f	0.1638584
220	0xbe22030f	-0.1582148
221	0xbdb2efcd	-0.087371446
222	0xbceea9b7	-0.02913366
223	0xbe01d60a	-0.12679306
224	0x3d358300	0.044314384
225	0x3e2b59fd	0.16733547
226	0x3e2818a4	0.1641565
227	0xbdfcc9e1	-0.12343193
228	0xbbed6899	-0.007245135
229	0xbe18450a	-0.14870086
230	0xbd7a7703	-0.061148655
231	0x3e222870	0.15835738
232	0xbd157e8b	-0.036497634
233	0x3bd02980	0.0063526034
234	0x3e14564d	0.14486046
235	0xbd1b5c59	-0.037929866
236	0xbdea3170	-0.11435211
237	0x3e422f75	0.18963416
238	0x3da5a1de	0.08087514
239	0xbc5dfc82	-0.013548972
240	0x3bd4dc4c	0.006495988
241	0x3e11d555	0.14241536
242	0x3e0f09ae	0.13968536
243	0xbd99070d	-0.07472048
244	0x3d229bb7	0.039699282
245	0xbcdb208d	-0.02674892
246	0xbe3f401c	-0.186768
247	0x3d6de422	0.058078893
248	0xbc4595fc	-0.012059685
249	0x3df2126d	0.11819921
250	0xbe0de742	-0.13857749
251	0x3d93be96	0.07214086
252	0x3dd73d76	0.105097696
253	0xbe235b86	-0.15952882
254	0xbcfb4017	-0.030670209
255	0xbdd7c9e2	-0.10536553

sage.1.lin_root.weight f4 [32, 32]
0	0x3e348166	0.17627487
1	0x3e1d56b9	0.15365113
2	0x3e0cb532	0.13740996
3	0x3ded1d8c	0.11577901
4	0x3bc3fe6f	0.0059812586
5	0x3e209dc3	0.15685181
6	0xbd4cc37d	-0.04999112
7	0x3d31470b	0.043280642
8	0xbdd97244	-0.106174976
9	0x3dc18283	0.09448721
10	0x3dfaeecd	0.12252579
11	0x3da05f65	0.07830695
12	0xbca57904	-0.020199306
13	0x3e3d9628	0.18514311
14	0x3e0d4940	0.13797474
15	0xbe2048a3	-0.15652709
16	0xbe328b7f	-0.17436026
17	0x3e0bcba9	0.13651909
18	0x3da6b56a	0.08140071
19	0x3e43d171	0.19122864
20	0x3dee507b	0.11636444
21	0xbda18684	-0.07886985
22	0xbdaa5f50	-0.08318961
23	0xbe2ee0f1	-0.17077996
24	0xbcd62472	-0.026140425
25	0x3cdbcc11	0.026830705
26	0x3da99053	0.08279481
27	0x3e006639	0.12538995
28	0x3cc556a1	0.02408916
29	0xbd7b18ee	-0.06130307
30	0x3e21e523	0.15810065
31	0xbc978581	-0.018496277
32	0x3db86245	0.090031184
33	0xbd3df058	-0.046371788
34	0x3de56bd4	0.11202207
35	0x3cc6fdf5	0.024291018
36	0x3aeb3101	0.0017943681
37	0xbc195e95	-0.009360929
38	0xbd8c16d2	-0.0684029
39	0x3dd3ed3c	0.10347983
40	0xbca5f9e4	-0.020260759
41	0xbd9009f0	-0.070331454
42	0x3dfd88fe	0.12379645
43	0x3e0d725c	0.13813156
44	0xbe062df8	-0.13103473
45	0x3e02cae2	0.12772706
46	0x3dd121b2	0.10211505
47	0x3dc29cf6	0.09502594
48	0xbe1f6acb	-0.15568082
49	0xbdcf40fc	-0.10119817
50	0xbdfb6c5d	-0.12276528
51	0xbdfb50e0	-0.12271285
52	0xbe1d833a	-0.1538209
53	0x3d6ffd77	0.058591332
54	0xbdd6b430	-0.10483587
55	0x3e337074	0.17523366
56	0xbd8f52af	-0.069981925
57	0xbbf51ee1	-0.0074804877
58	0x3df98495	0.12183491
59	0xbe0d994a	-0.13828006
60	0x3dcb7a26	0.09935407
61	0x3e23b6e0	0.1598773
62	0xbdbb1d4b	-0.091364466
63	0x3d17d3e2	0.0370673
64	0x3dca97cc	0.09892234
65	0xbe16820c	-0.14698046
66	0x3dba2445	0.09088949
67	0x3d37d407	0.04487994
68	0xbd75efc1	-0.0600431
69	0xbe317736	-0.17330632
70	0xbe12eb49	-0.14347567
71	0xbdfa0d37	-0.12209552
72	0x3d883da4	0.06652382
73	0x3e077c26	0.13230953
74	0xbd402110	-0.04690653
75	0x3e17bac5	0.1481734
76	0xbdd60f97	-0.10452192
77	0x3e0c76c7	0.13717185
78	0xbd5bded4	-0.053679302
79	0xbd773863	-0.06035651
80	0xbe34453c	-0.17604536
81	0x3df40229	0.119144745
82	0x3dae1c83	0.08501532
83	0xbda65d22	-0.081232324
84	0x3dc3cf02	0.09560968
85	0xbe4454c3	-0.19172959
86	0xbd928f39	-0.07156224
87	0xbe449c1e	-0.19200179
88	0xbdb49da9	-0.08819134
89	0x3d4f1ebd	0.050566424
90	0xbd198c13	-0.0374871
91	0xbe19eb2d	-0.15031119
92	0xbda61c8b	-0.08110913
93	0xbe04cfa6	-0.12969837
94	0xbdaa1a60	-0.08305812
95	0x3c998f65	0.018745134
96	0x3de63c73	0.112419985
97	0x3d35d3e5	0.04439153
98	0x3d81732e	0.06320797
99	0xbe349f91	-0.17638995
100	0x3c474ad3	0.012163836
101	0x3e14c37d	0.14527698
102	0x3e249429	0.16072144
103	0xbd511397	-0.051044073
104	0x3da06e90	0.07833588
105	0x3e164fb5	0.14678843
106	0x3e2b1ba1	0.16709758
107	0x3d9d6f32	0.076872244
108	0x3d8d51cb	0.069003664
109	0xbdcd1657	-0.100140266
110	0xbe30dd27	-0.17271863
111	0xbc8c5aa2	-0.01713306
112	0x3d2f8c5c	0.042858467
113	0xbdd74485	-0.10511116
114	0xbdebf11d	-0.11520598
115	0x3dacfacc	0.08446273
116	0xbe234021	-0.15942432
117	0x3de27497	0.11057394
118	0xbe366cb1	-0.178149
119	0x3cc6aa31	0.024251075
120	0x3d36d9ad	0.044641186
121	0x3d2c9679	0.04213569
122	0xbcf51487	-0.029917015
123	0x3d6b3439	0.05742285
124	0x3ce016a4	0.027354546
125	0xbaa5022e	-0.001258915
126	0x3ca36cbb	0.019949308
127	0x3d6b3b07	0.05742934
128	0x3d8f4db2	0.06997241
129	0x3dc9dcd6	0.09856574
130	0x3e309fbd	0.17248435
131	0xbe3bae20	-0.18328142
132	0xbb496008	-0.0030727405
133	0x3e14cc56	0.14531073
134	0xbdcde631	-0.10053671
135	0x3e10fcf3	0.14158992
136	0xbd3ea317	-0.046542253
137	0x3d0a2da8	0.033734947
138	0xbc1b458e	-0.009477032
139	0x3e0bf953	0.13669328
140	0x3e184df5	0.14873488
141	0xbdfeecd2	-0.12447514
142	0x3ca2a6b1	0.019854875
143	0x3da18fb1	0.07888735
144	0x3e1d722e	0.15375587
145	0x3d32a675	0.043615777
146	0x3e1cce88	0.1531316
147	0x3cab63be	0.020921584
148	0x3e1fc85f	0.1560378
149	0x3e1b31b8	0.15155685
150	0xbda0d959	-0.07853956
151	0xbd847c67	-0.0646904
152	0x3c9910b4	0.018684722
153	0xbe2ad51c	-0.16682857
154	0xbe1e3eda	-0.15453663
155	0x3dfc3726	0.12315206
156	0xbd760242	-0.060060747
157	0x3d431252	0.047624893
158	0xbd9e8268	-0.07739717
159	0xbc99bb95	-0.018766204
160	0x3d95aed9	0.0730874
161	0xbdf7a44a	-0.120918825
162	0xbe10072a	-0.14065233
163	0xbc25bf74	-0.010116447
164	0x3dd6785f	0.10472178
165	0xbdabf4d6	-0.08396308
166	0xbda1bfcd	-0.07897911
167	0x3dc6689c	0.096879214
168	0x3dab13d6	0.08353393
169	0xbe2a3bd2	-0.16624382
170	0x3db16720	0.08662248
171	0x3e02c0d1	0.12768866
172	0xb9756d26	-0.00023405682
173	0x3e10191e	0.14072081
174	0x3dcfb75f	0.10142397
175	0xbdb944ca	-0.090463236
176	0x3d015788	0.031577617
177	0xbe1cafb2	-0.15301397
178	0x3c92eefd	0.017936224
179	0x3dfe88c5	0.124284305
180	0xbe210966	-0.15726241
181	0x3d84b379	0.06479544
182	0xbe28bd84	-0.16478544
183	0xbda51ff0	-0.08062732
184	0x3e096602	0.13417819
185	0xbe13033d	-0.14356704
186	0xbe0f9bca	-0.14024273
187	0x3d787d62	0.06066645
188	0x3e2ce9cc	0.16886061
189	0x3bce44b3	0.0062948107
190	0xbe29d3d1	-0.16584708
191	0x3dea6152	0.114443436
192	0x3e2053af	0.15656923
193	0x3b84fed0	0.0040586963
194	0x3da6280f	0.08113109
195	0xbde48064	-0.11157301
196	0x3e26feca	0.16308132
197	0xbc5ed970	-0.013601646
198	0xbdbd6e86	-0.09249596
199	0xbc3884f1	-0.011262164
200	0xbd1b0261	-0.037844066
201	0x3d46cb07	0.048533466
202	0xbe0f660f	-0.14003776
203	0xbde3d517	-0.11124628
204	0xbe25f967	-0.1620842
205	0xbd65a729	-0.05606762
206	0xbdaadcec	-0.08342919
207	0x3d8b4339	0.06799931
208	0xbe1475fd	-0.14498134
209	0xbe11c377	-0.1423472
210	0xbdbfcd63	-0.09365346
211	0x3e2b9bec	0.16758698
212	0xbd0d9db5	-0.03457423
213	0x3b85f9ac	0.004088601
214	0xbdcae57b	-0.09907051
215	0xbe284b20	-0.16434908
216	0x3e2212bc	0.15827459
217	0x3d0c2c26	0.03422179
218	0x3db7d0e1	0.08975387
219	0xbaac5f37	-0.0013150935
220	0x3cb2ce2c	0.021826826
221	0xbdd07168	-0.101778805
222	0xbca8608a	-0.020553846
223	0x3db095f7	0.086223535
224	0x3db3d720	0.08781266
225	0x3d928209	0.071537085
226	0x3e36c027	0.17846738
227	0x3d35da6a	0.04439775
228	0xbe104109	-0.14087309
229	0xbd2490e9	-0.04017726
230	0x3dc798a4	0.09745911
231	0x3df2da4c	0.11858043
232	0x3e301ea0	0.17199183
233	0x3e0ec58e	0.13942549
234	0xbd97a747	-0.074049525
235	0x3d486af8	0.04893014
236	0x3cc6a929	0.024250584
237	0xbdf8fcf1	-0.1215762
238	0x3e260277	0.16211878
239	0xbde2e09c	-0.11077997
240	0x3ddb94f8	0.10721773
241	0x3d7efc1c	0.06225215
242	0x3c553747	0.013013667
243	0x3e01a5b2	0.12660864
244	0x3dc81d8f	0.09771263
245	0x3c979bfe	0.018507
246	0x3df8a034	0.12139931
247	0x3c9c3577	0.019068463
248	0xbdee55ed	-0.11637483
249	0xbe0c44ec	-0.13698167
250	0x3dab336c	0.08359417
251	0x3e36e0bd	0.17859168
252	0x3e0fe533	0.14052276
253	0x3d8afdd6	0.067866966
254	0xba946de8	-0.0011324259
255	0xbcc5ab59	-0.024129556

sage.1.lin_root.bias f4 [32]
0	0xbd74d0c1	-0.059769396
1	0x3d705d0d	0.05868249
2	0xbd9b8d20	-0.07595277
3	0x3cf2804a	0.029602189
4	0x3de2be8f	0.110715024
5	0xbe018eda	-0.1265215
6	0x3d413009	0.04716495
7	0xbe0b30b9	-0.13592805
8	0xbdc785ea	-0.09742339
9	0xbc388649	-0.011262485
10	0xbd616aba	-0.055033423
11	0xbaa34ff2	-0.0012459739
12	0xbd5ee53c	-0.054417834
13	0x3e25c5c4	0.16188723
14	0xbe08f2ed	-0.13373919
15	0x3e1d0030	0.15332103
16	0xbde2b954	-0.11070505
17	0xbe1594b6	-0.1460751
18	0xbce53ed2	-0.027984057
19	0xbe0f9d0e	-0.14024755
20	0x3e060e13	0.13091306
21	0xbc119647	-0.008885927
22	0xbd21834c	-0.039431855
23	0x3d230875	0.039802987
24	0x3deb4673	0.114880465
25	0x3dcbe8ee	0.09956537
26	0x3d95baed	0.07311044
27	0xbc5ec81e	-0.013597516
28	0x3de72ab9	0.112874456
29	0xbdefd907	-0.117113166
30	0x3e2909b7	0.16507612
31	0x3e263108	0.16229641

sage.2.lin_rel.weight f4 [8, 32]
0	0xbdb82587	-0.08991533
1	0x3da18588	0.07886797
2	0xbc1fe168	-0.009758331
3	0xbe227a43	-0.15866952
4	0xbd1bbb0e	-0.038020186
5	0xbe2eac18	-0.17057836
6	0x3dc41fb7	0.095763616
7	0x3d9e59bf	0.077319615
8	0x3d70e67b	0.058813553
9	0x3d3e80db	0.046509605
10	0x3e27bc4a	0.1638042
11	0x3e09d158	0.13458765
12	0xbdf1f92c	-0.11815104
13	0xbe2ede0f	-0.17076896
14	0xbdb92f6c	-0.09042248
15	0xbd9adacf	-0.07561266
16	0xbdd03352	-0.101660386
17	0x3e01227a	0.12610808
18	0x3e08ad0d	0.13347264
19	0xbd4d789f	-0.05016386
20	0xbd522a0e	-0.051309638
21	0xbdd6a190	-0.10480034
22	0x3d2db91c	0.042412862
23	0xbe313ac0	-0.17307568
24	0x3dc7e8d4	0.09761205
25	0x3e230d06	0.15922937
26	0xbe249ea4	-0.16076142
27	0xbdda7e1a	-0.10668583
28	0x3d45ddfe	0.04830741
29	0x3e111441	0.14167883
30	0x3e0477d6	0.12936339
31	0xbccff423	-0.025384968
32	0xbdf25e26	-0.11834364
33	0xbdeb5a40	-0.11491823
34	0x3d8ef924	0.069811136
35	0xbd7a17e8	-0.061057955
36	0xbe11b192	-0.14227894
37	0x3e132461	0.14369346
38	0xbd325022	-0.04353345
39	0xbd7e1dc0	-0.06204009
40	0xbcce9361	-0.02521676
41	0x3d0b0d68	0.033948332
42	0x3d35bf60	0.044371963
43	0x3d81eb56	0.06343715
44	0xbe0b6376	-0.1361216
45	0xbd6b06ab	-0.057379406
46	0xbde67853	-0.11253419
47	0xbe0a4643	-0.13503365
48	0xbdc734b2	-0.09726848
49	0xbb7c9319	-0.0038539825
50	0x3db6701f	0.08908104
51	0xbdd4e352	-0.103949204
52	0x3e0bd130	0.13654017
53	0x3d1b7fd3	0.0379637
54	0x3df6f86d	0.12059102
55	0xbc510488	-0.012757428
56	0x3d0855a7	0.03328481
57	0xbcc0a399	-0.02351551
58	0x3e200581	0.156271
59	0xbe285945	-0.16440304
60	0x3dd99d61	0.10625721
61	0xbdfb4d77	-0.122706346
62	0x3d10752e	0.035268
63	0xbda156d6	-0.07877891
64	0x3dc8dd68	0.09807855
65	0x3cd3654a	0.025805134
66	0x3c45290f	0.012033715
67	0x3d14b413	0.036304545
68	0xbe20353a	-0.15645304
69	0xbe39d966	-0.18149337
70	0x3d56bf2c	0.05242841
71	0x3d850e90	0.06496918
72	0x3e1c94bb	0.15291111
73	0xbe1e64d7	-0.15468155
74	0xbe067d0b	-0.13133638
75	0x3e11cf2d	0.14239188
76	0x3e30e1ab	0.17273585
77	0xbd8b1cfb	-0.06792637
78	0x3bb90b1f	0.0056470777
79	0xb9d5758b	-0.00040714102
80	0xbd9ae716	-0.075636074
81	0x3d0e551a	0.034749128
82	0x3db62c60	0.088951826
83	0xbe07e9c2	-0.13272765
84	0xbd2e55f8	-0.042562455
85	0xbdcffd6c	-0.10155758
86	0x3e12fa97	0.14353405
87	0x3d3da2e6	0.04629793
88	0xbe01c2d2	-0.12671974
89	0xbe1404a6	-0.14454898
90	0x3e0267b3	0.1273487
91	0xbdd2f576	-0.10300724
92	0x3d4772f0	0.048693597
93	0x3d8699f5	0.06572334
94	0x3d20698f	0.03916317
95	0x3d961b29	0.07329399
96	0x3d9d9a9a	0.076955035
97	0x3ce3b190	0.02779463
98	0x3e16b4f2	0.14717463
99	0xbe3593bd	-0.17732139
100	0xbdc58f33	-0.09646454
101	0xbe256901	-0.16153337
102	0x3df77163	0.12082174
103	0x3c517e6f	0.012786492
104	0xbc5c4679	-0.013444536
105	0xbcbad5ff	-0.02280712
106	0xbd9539a5	-0.072863854
107	0xbb9f5deb	-0.004863491
108	0xbe100a31	-0.14066388
109	0xbd89fab8	-0.06737274
110	0xbda734fe	-0.08164404
111	0xbdf132a5	-0.11777238
112	0x3e00b0c5	0.12567432
113	0x3dcaebff	0.09908294
114	0xbcf9f51d	-0.030512387
115	0x3de26162	0.110537305
116	0x3db4c9cf	0.088275544
117	0x3dc743e3	0.09729745
118	0x3e1663a7	0.14686452
119	0x3e190d0c	0.14946383
120	0x3d817dc6	0.063228175
121	0xbda97f22	-0.08276202
122	0x3be8cf9f	0.0071048285
123	0xbd23a4ca	-0.039952077
124	0x3c451a2d	0.012030167
125	0xbe1c8ece	-0.1528885
126	0xbd1fa49b	-0.03897534
127	0xbdebfeef	-0.11523234
128	0xbd8bc7ad	-0.068251945
129	0x3d6b75e7	0.057485487
130	0xbce73beb	-0.028226813
131	0x3de9ab51	0.11409629
132	0xbd99ab2b	-0.07503351
133	0xbd320167	-0.04345837
134	0x3d895022	0.06704737
135	0x3b5716f8	0.0032820087
136	0xbd8b1c9e	-0.06792568
137	0x3d0b562f	0.034017738
138	0x3d9910aa	0.074738815
139	0x3e197ecd	0.14989777
140	0x3cf4cace	0.029881861
141	0xbdb32b84	-0.08748534
142	0x3d5fbf67	0.054625895
143	0x3d56ad99	0.05241165
144	0x3d73c885	0.059517402
145	0xba8ed524	-0.0010897261
146	0x3d7e752c	0.062123463
147	0x3dee6a06	0.11641316
148	0x3daec305	0.08533291
149	0xbcc3cf11	-0.023902448
150	0xbe02d4d2	-0.12776497
151	0x3d5fa468	0.05460015
152	0x3c87d99a	0.016583253
153	0x3d56a986	0.052407764
154	0xbc47e0d8	-0.012199603
155	0x3dec75f4	0.11545935
156	0xbd9d0851	-0.07667602
157	0x3e1ac451	0.15113951
158	0x3d8872c5	0.066625156
159	0xbe1e3912	-0.15451458
160	0xbdd0441b	-0.1016924
161	0x3dc98960	0.09840655
162	0xbcf3399d	-0.029690558
163	0xbc9038c8	-0.0176052
164	0x3e019467	0.12654267
165	0xbdd49a67	-0.103810124
166	0xbad544e5	-0.0016271143
167	0x3d6dedeb	0.058088224
168	0x3e14d6dc	0.14535087
169	0x3db2d96f	0.087328784
170	0xbc47eff4	-0.012203205
171	0x3e241452	0.16023377
172	0xbdcb4868	-0.0992592
173	0xbd16ee61	-0.03684843
174	0xbd640576	-0.05566927
175	0x3cf32e06	0.029685032
176	0xbda1ca4c	-0.07899913
177	0xbceed391	-0.029153617
178	0x3e315fbd	0.17321678
179	0x3e14fa72	0.14548662
180	0xbe2dd60b	-0.16976182
181	0xbddff737	-0.10935824
182	0xbcbc478a	-0.022983331
183	0x3e2df18e	0.16986677
184	0xbdb592f6	-0.08865921
185	0xbd701023	-0.05860914
186	0x3d259a9a	0.040430643
187	0x3d3915e6	0.0451869
188	0x3d14f54e	0.036366753
189	0xbdc0aff1	-0.09408558
190	0x3dd2ff3d	0.10302589
191	0xbd6df944	-0.058099046
192	0x3e231dab	0.15929286
193	0x3d1f3a0a	0.03887371
194	0x3e036299	0.12830581
195	0xbddfed8d	-0.10933981
196	0xbe0becea	-0.13664594
197	0x3d866265	0.06561736
198	0x3d9b255a	0.075754836
199	0xbd845e99	-0.064633556
200	0x3cb0c1fa	0.02157687
201	0xbe2a6f8e	-0.16644117
202	0xbdb20501	-0.08692361
203	0x3db0f3a5	0.086402215
204	0xbdadd868	-0.08488542
205	0x3d2a3ffe	0.041564934
206	0xbe050625	-0.12990625
207	0x3d0b0efe	0.033949845
208	0x3c0c77c2	0.008573474
209	0x3e24bdf9	0.16088094
210	0xbdd2909d	-0.10281489
211	0xbc900852	-0.017582092
212	0xbe336f0a	-0.17522827
213	0xbb8743ed	-0.0041279704
214	0x3e27194e	0.16318247
215	0xbdca4e98	-0.09878272
216	0x3e0eead1	0.13956763
217	0x3dab8da0	0.08376622
218	0xbae7eb08	-0.0017693946
219	0x3e3060ea	0.1722447
220	0xbd53f0e2	-0.051743396
221	0x3b953787	0.0045537385
222	0xba43e63e	-0.00074729684
223	0x3e146894	0.14493018
224	0x3da3af2d	0.079923965
225	0xbddff283	-0.10934927
226	0xbe25652b	-0.16151874
227	0x3e0f6ed4	0.14007121
228	0x3d852733	0.06501617
229	0xbe0ff1f1	-0.14057137
230	0x3da0c914	0.078508526
231	0xbc71efcc	-0.014766645
232	0x3cdcf19b	0.026970675
233	0xbd3f7ccb	-0.04674987
234	0x3de196a9	0.11015064
235	0x3dc3468b	0.095349394
236	0xbd9bbc98	-0.07604331
237	0x3bd5c95f	0.0065242494
238	0xbddb1650	-0.10697615
239	0xbc81ba19	-0.015835809
240	0x3dd24cb5	0.10268537
241	0xbe143c04	-0.14476019
242	0x3e2c9b72	0.16856173
243	0x3d7fce7c	0.06245278
244	0x3e23080f	0.15921043
245	0xbe0c534f	-0.13703655
246	0x3d444581	0.047917847
247	0xbe182dbf	-0.14861201
248	0x3c373d81	0.011184097
249	0x3bed0941	0.007233769
250	0xbc97bb7a	-0.018522013
251	0x3b4b6817	0.0031037384
252	0xbe1ac196	-0.1511291
253	0xbd184e12	-0.03718383
254	0x3d477483	0.0486951
255	0x3c94e094	0.018173493

sage.2.lin_root.weight f4 [8, 32]
0	0x3aec47ea	0.0018026803
1	0x3df152f2	0.11783399
2	0x3dfccfff	0.123443596
3	0xbe1e5994	-0.15463859
4	0xbcfe9190	-0.031075269
5	0x3cbd7451	0.023126753
6	0xbd80b560	-0.062845945
7	0x3deb81ba	0.11499353
8	0x3b179e76	0.0023135222
9	0x3d8bc287	0.068242125
10	0xbe221f34	-0.15832216
11	0x3df4213b	0.11920401
12	0xbdc47e6a	-0.09594424
13	0x3df40ed9	0.119168945
14	0x3cc76a61	0.024342718
15	0x3abf9f2e	0.0014619583
16	0xbdab75b0	-0.083720565
17	0xbd5f5429	-0.05452362
18	0x3c1f3a04	0.009718422
19	0xbcdd956c	-0.027048789
20	0xbd39d564	-0.04536952
21	0x3d9e7d93	0.07738795
22	0x3dcb999b	0.09941407
23	0x3df0bd07	0.11754804
24	0xbe0dd4f6	-0.1385077
25	0x3ddb1f8a	0.10699375
26	0xbdc2a02e	-0.09503208
27	0x3dc56099	0.09637565
28	0xbe2566d8	-0.16152513
29	0x3b9d507c	0.0048008543
30	0xbc96793a	-0.018368352
31	0xbdea3514	-0.11435905
32	0x3e0a9d8f	0.13536666
33	0xbe305d28	-0.17223036
34	0x3e23eab9	0.16007508
35	0x3e107d93	0.14110403
36	0x3d9f5aae	0.07780968
37	0xbdf8def1	-0.12151898
38	0xbd11e916	-0.03562268
39	0x3d52351f	0.05132019
40	0xbd0a65bc	-0.033788428
41	0x3e21e7d5	0.15811093
42	0x3da6b68e	0.08140288
43	0xbdee69d7	-0.11641281
44	0xbdcf5445	-0.10123495
45	0x3de04de6	0.10952358
46	0xbc3912e3	-0.011296007
47	0xbe2a4460	-0.16627645
48	0xbe24154a	-0.16023746
49	0x3e14b442	0.14521888
50	0xbdc7c568	-0.09754449
51	0xbe0a8279	-0.13526334
52	0xbd4b2def	-0.049604353
53	0xbdf7f7d6	-0.12107818
54	0xbe1b5136	-0.15167698
55	0x3e3a1381	0.18171503
56	0xbe0df691	-0.13863589
57	0xbd752411	-0.05984885
58	0xbe06ccfe	-0.13164136
59	0xbd967f34	-0.07348481
60	0xbdce7634	-0.10081139
61	0xbd1bc0cd	-0.038025666
62	0xbc1301c0	-0.008972585
63	0x3e09f331	0.13471676
64	0xbe006a55	-0.12540562
65	0xbdbe16e6	-0.09281711
66	0x3d770740	0.06030965
67	0x3d9dc235	0.07703058
68	0xbd51c9a5	-0.051217694
69	0x3df34fb2	0.11880435
70	0x3c5fc578	0.01365792
71	0xbe3f7c2f	-0.18699716
72	0x3dcbcc7d	0.099511124
73	0x3c2b07de	0.010438887
74	0x3df61869	0.120163746
75	0x3c1c15ae	0.009526653
76	0x3d5ebf83	0.05438186
77	0xbde71858	-0.1128394
78	0xbdc1045c	-0.094246596
79	0xbd93ae57	-0.07210987
80	0x3ac8d99e	0.0015323644
81	0xbd1ba841	-0.038002256
82	0x3dca42ba	0.09876008
83	0xbd997f8a	-0.07495029
84	0x3e183853	0.14865236
85	0x3ca16255	0.019700209
86	0x3e3dabc8	0.1852256
87	0xbdc3a66b	-0.09553226
88	0x3ce72d4c	0.028219841
89	0x3d70fe7c	0.058836445
90	0xb97cb7fe	-0.00024101135
91	0x3e22d439	0.15901269
92	0x3de628a7	0.112382226
93	0x3e144719	0.14480247
94	0xbdfe5031	-0.12417639
95	0xbdb143a2	-0.08655478
96	0x3e03b538	0.12862098
97	0xbdc58bdf	-0.09645819
98	0x3e1fe8e4	0.15616184
99	0x3c80c821	0.015720429
100	0xbd40215b	-0.04690681
101	0x3db48c2d	0.08815799
102	0x3e30f37c	0.17280382
103	0xbe351600	-0.17684174
104	0x3e1165e4	0.14199024
105	0x3e010c44	0.12602335
106	0xbdbc03c3	-0.09180405
107	0xbe0e1c13	-0.13877897
108	0x3df0f273	0.117649935
109	0x3dca5f5c	0.098814696
110	0x3c52978c	0.012853514
111	0x3db90488	0.090340674
112	0x3e2164b5	0.15761073
113	0xbe217b9d	-0.15769811
114	0xbd095009	-0.033523593
115	0x3e0d5ff5	0.13806136
116	0x3e3a1383	0.18171506
117	0x3c8c5a8a	0.017133016
118	0xbe21de2a	-0.15807405
119	0xbc227d79	-0.00991761
120	0x3dc4c3fb	0.09607693
121	0x3dd14091	0.10217393
122	0x3d8e04ab	0.06934484
123	0xbe21312f	-0.15741418
124	0xbe107af2	-0.141094
125	0x3e0a5c30	0.13511729
126	0xbe0e71a2	-0.13910535
127	0xbdc16575	-0.094431795
128	0xbd0a796b	-0.0338072
129	0x3dbf650e	0.093454465
130	0xbe29f4de	-0.16597316
131	0xbe28a70d	-0.16469975
132	0xbdc8513d	-0.0978112
133	0x3da9ec52	0.08297028
134	0x3d9990ad	0.07498298
135	0xbe23babb	-0.15989201
136	0x3e251066	0.16119537
137	0x3e03cbf5	0.12870772
138	0x3ddec1bb	0.10876795
139	0xbe1f84d1	-0.15578009
140	0xbd876e73	-0.066128634
141	0xbe2876ae	-0.16451523
142	0x3d40c02d	0.047058273
143	0xbc99655b	-0.018725088
144	0x3e1c7cce	0.15281984
145	0x3c80ae97	0.01570825
146	0xbcceebf5	-0.025258997
147	0xbda3c629	-0.079967804
148	0xbe192adf	-0.1495776
149	0x3d94bddc	0.07262775
150	0x3d654c66	0.055981062
151	0x3e0061c7	0.12537299
152	0x3e0c7f34	0.13720399
153	0xbe420e8c	-0.18950862
154	0xbe1c0180	-0.15234947
155	0xbe25581f	-0.16146897
156	0x3d8a6032	0.06756629
157	0x3e250f41	0.161191
158	0xbe28486a	-0.16433874
159	0xbdff1ed0	-0.12457049
160	0x3de44faf	0.11148011
161	0x3d8687c7	0.06568866
162	0xbe1d373d	-0.15353103
163	0xbd696e96	-0.05699023
164	0x3d8acf7d	0.067778565
165	0x3de639ef	0.11241519
166	0x3ce6c7d4	0.028171457
167	0x3e02974d	0.12753029
168	0x3dddcdf7	0.108303
169	0xbce6cb60	-0.028173149
170	0xbdaef522	-0.08542849
171	0x3caa871a	0.020816375
172	0xbd948e24	-0.07253674
173	0xbd9d7e8f	-0.07690155
174	0x3e0e1c78	0.13878047
175	0x3deecf6c	0.11660656
176	0x3ddf7b07	0.109121375
177	0x3e23bb8f	0.15989517
178	0xbb80f245	-0.003935131
179	0xbd787700	-0.060660362
180	0x3e027c80	0.12742805
181	0xbdc5dfde	-0.0966184
182	0x3d3950b0	0.045242965
183	0x3db6b394	0.089209706
184	0x3e03c1c4	0.12866884
185	0xbe0c0b95	-0.13676293
186	0xbb289910	-0.0025725998
187	0xbd6a82f9	-0.05725381
188	0x3dd7c393	0.1053535
189	0xbd69fb7b	-0.057124596
190	0xbe2154cd	-0.15755005
191	0x3bbf62d5	0.005840639
192	0xbe2455e5	-0.16048391
193	0xbdc7d750	-0.097578645
194	0xbdbfd518	-0.09366816
195	0xbcec3234	-0.028832532
196	0xbd3c6564	-0.04599513
197	0x3d955f29	0.07293541
198	0xbdafde12	-0.085872784
199	0x3d8dfffc	0.06933591
200	0x3db31827	0.08744841
201	0xba39ef5e	-0.00070928584
202	0x3dc821c0	0.09772062
203	0xbd935b18	-0.07195109
204	0x3e2c1c15	0.16807587
205	0xbaacc70c	-0.0013181879
206	0x3c4da0ef	0.012550577
207	0xbe1dacfa	-0.15398017
208	0xbd81d067	-0.06338578
209	0x3e28ebaf	0.16496156
210	0xbd7f74fe	-0.06236743
211	0xbe2a33bf	-0.16621302
212	0xbd58e180	-0.05294943
213	0x3e228808	0.15872204
214	0xbd77ba9b	-0.060480695
215	0xbd4c329b	-0.04985295
216	0x3d5da4c8	0.054112226
217	0x3d440922	0.047860272
218	0xbd050605	-0.032476444
219	0x3d15c68b	0.0365663
220	0xbdf618e8	-0.12016469
221	0x3e2f9ae6	0.17148933
222	0x3d22d0ca	0.039749898
223	0x3e183772	0.148649
224	0x3cb47585	0.022028694
225	0xbdfeaff0	-0.12435901
226	0xbdf47688	-0.119366705
227	0x3e2410ef	0.16022085
228	0x3e2e5233	0.17023544
229	0xbc35f892	-0.011106627
230	0x3dad5c33	0.08464851
231	0xbbffb846	-0.0078039495
232	0x3e39299c	0.18082279
233	0xbe0d099b	-0.13773195
234	0xbe05fd09	-0.13084807
235	0x3d8450a5	0.06460694
236	0xbdbdd72c	-0.092695564
237	0x3e34178f	0.17587112
238	0x3d4249c5	0.047433633
239	0xbdae35d3	-0.0850636
240	0x3da7aa24	0.081867486
241	0xbde2348a	-0.11045177
242	0x3e32db97	0.1746658
243	0x3d98911a	0.07449551
244	0xbe11db7f	-0.14243887
245	0xbcff81fb	-0.03118991
246	0xbe1bb73d	-0.15206619
247	0xbde188f8	-0.11012453
248	0x3d887fe4	0.06665018
249	0xbdc56f1c	-0.09640333
250	0xbdf7bb75	-0.120963015
251	0xbd039b99	-0.03213081
252	0x3d58c702	0.052924164
253	0x3da0e3ae	0.078559265
254	0x3df3ee2a	0.119106606
255	0xbe25f7a9	-0.16207756

sage.2.lin_root.bias f4 [8]
0	0x3d811614	0.06303039
1	0x3e407533	0.18794708
2	0x3da97773	0.08274736
3	0xbdb8bbcf	-0.09020197
4	0x3d7d0743	0.061774503
5	0x3de994ce	0.11405335
6	0x3d635548	0.055501252
7	0x3dfea1f0	0.12433231

batch_norm.0.weight f4 [1000]
0	0x3f7e92bc	0.9944265
1	0x3f800719	1.0002166
2	0x3f7d4866	0.98938596
3	0x3f7dd196	0.9914793
4	0x3f7e9cc3	0.9945795
5	0x3f800b08	1.0003366
6	0x3f7dead8	0.9918647
7	0x3f7e410e	0.99318016
8	0x3f819818	1.012454
9	0x3f81d168	1.0142031
10	0x3f7efbcb	0.99602956
11	0x3f803555	1.0016276
12	0x3f806644	1.0031209
13	0x3f7f81af	0.99807256
14	0x3f7cbd45	0.987263
15	0x3f805005	1.002442
16	0x3f7f6689	0.9976583
17	0x3f800d7d	1.0004116
18	0x3f7cf8f2	0.9881736
19	0x3f805cab	1.002828
20	0x3f7e88d2	0.9942752
21	0x3f7fe94a	0.99965346
22	0x3f81316e	1.009321
23	0x3f7d3c89	0.98920494
24	0x3f81a88e	1.0129564
25	0x3f7eacd7	0.9948248
26	0x3f8046c6	1.0021598
27	0x3f7fce83	0.99924487
28	0x3f81432c	1.0098624
29	0x3f7ee7a7	0.99572223
30	0x3f800241	1.0000688
31	0x3f800b18	1.0003386
32	0x3f806159	1.0029708
33	0x3f80ab33	1.0052246
34	0x3f7e4050	0.99316883
35	0x3f7e6ee7	0.99387974
36	0x3f7f1076	0.9963449
37	0x3f7c822d	0.9863613
38	0x3f7fb9be	0.99892795
39	0x3f7e1b24	0.99260163
40	0x3f7d3f4e	0.9892472
41	0x3f810e4e	1.008249
42	0x3f807737	1.0036381
43	0x3f7cf944	0.9881785
44	0x3f7d24d9	0.9888435
45	0x3f7ee432	0.9956695
46	0x3f7cfccb	0.9882323
47	0x3f800d23	1.0004009
48	0x3f7ce6e2	0.987898
49	0x3f7fcbd3	0.99920386
50	0x3f7e8c8a	0.99433196
51	0x3f7e802a	0.9941431
52	0x3f8179e7	1.0115327
53	0x3f80adb4	1.005301
54	0x3f815a51	1.0105687
55	0x3f7d124a	0.9885603
56	0x3f7e255c	0.99275756
57	0x3f7ce31e	0.98784053
58	0x3f8028d7	1.0012463
59	0x3f8006dd	1.0002095
60	0x3f80225d	1.0010487
61	0x3f7fb8d4	0.998914
62	0x3f808006	1.003907
63	0x3f7e0d8f	0.9923944
64	0x3f809509	1.0045482
65	0x3f7e2b8d	0.99285203
66	0x3f813ce2	1.0096705
67	0x3f7f64f2	0.99763405
68	0x3f8033b1	1.0015775
69	0x3f808ccc	1.0042968
70	0x3f7d017e	0.988304
71	0x3f7e02c0	0.99222946
72	0x3f803f1e	1.0019262
73	0x3f7e8fb7	0.9943804
74	0x3f7ebe50	0.99509144
75	0x3f80f29b	1.0074037
76	0x3f808f21	1.004368
77	0x3f80bd4d	1.005777
78	0x3f804cbf	1.0023421
79	0x3f806895	1.0031916
80	0x3f805203	1.0025028
81	0x3f815a12	1.0105612
82	0x3f7fd449	0.99933296
83	0x3f7ee86c	0.995734
84	0x3f7f1c7d	0.99652845
85	0x3f803adf	1.0017966
86	0x3f810467	1.0079468
87	0x3f81adca	1.0131161
88	0x3f7e4002	0.9931642
89	0x3f8177d3	1.0114692
90	0x3f7dc85d	0.99133855
91	0x3f80b205	1.0054327
92	0x3f7e63ed	0.99371225
93	0x3f7eacf3	0.9948265
94	0x3f807acb	1.0037473
95	0x3f81937e	1.0123136
96	0x3f80994c	1.0046782
97	0x3f807ce5	1.0038115
98	0x3f805653	1.0026344
99	0x3f7e5572	0.9934913
100	0x3f8169b9	1.0110389
101	0x3f806967	1.0032166
102	0x3f80621a	1.0029938
103	0x3f80916c	1.0044379
104	0x3f820c20	1.015995
105	0x3f807cac	1.0038047
106	0x3f80b283	1.0054477
107	0x3f7f303f	0.9968299
108	0x3f814f9c	1.010242
109	0x3f7f82c2	0.99808896
110	0x3f7f5dd8	0.9975257
111	0x3f80ee96	1.0072811
112	0x3f805150	1.0024815
113	0x3f7fd637	0.9993624
114	0x3f81684a	1.0109951
115	0x3f8057d5	1.0026804
116	0x3f7ea5c0	0.99471664
117	0x3f7cda39	0.9877048
118	0x3f80035c	1.0001025
119	0x3f808c0d	1.004274
120	0x3f818bc9	1.0120784
121	0x3f81cf4d	1.0141388
122	0x3f816ccf	1.0111331
123	0x3f7ed01c	0.995363
124	0x3f809247	1.004464
125	0x3f807b4a	1.0037625
126	0x3f80a202	1.0049441
127	0x3f7b1b44	0.9808848
128	0x3f7dff90	0.9921808
129	0x3f7fc86a	0.9991518
130	0x3f7f614a	0.99757826
131	0x3f806912	1.0032065
132	0x3f807540	1.0035782
133	0x3f80eefb	1.0072931
134	0x3f7d4e02	0.98947155
135	0x3f7d8ef4	0.99046254
136	0x3f806f99	1.0034057
137	0x3f815572	1.0104201
138	0x3f7eb812	0.9949962
139	0x3f7eaa44	0.99478555
140	0x3f805467	1.0025758
141	0x3f80dc4e	1.0067232
142	0x3f8197fd	1.0124508
143	0x3f7d5af4	0.9896691
144	0x3f806366	1.0030334
145	0x3f80a59a	1.0050538
146	0x3f802c34	1.001349
147	0x3f80c5ad	1.0060326
148	0x3f804ac9	1.0022823
149	0x3f7d1318	0.9885726
150	0x3f7f7a57	0.9979605
151	0x3f800053	1.0000099
152	0x3f7e1e7a	0.99265254
153	0x3f7fd823	0.99939173
154	0x3f7d5828	0.9896264
155	0x3f81c61a	1.0138581
156	0x3f7d742a	0.9900538
157	0x3f7c84c1	0.98640066
158	0x3f7ea797	0.9947447
159	0x3f802dca	1.0013974
160	0x3f7fc351	0.99907404
161	0x3f7eb963	0.9950163
162	0x3f7fecec	0.9997089
163	0x3f803b98	1.0018187
164	0x3f80708a	1.0034344
165	0x3f803231	1.0015317
166	0x3f7eaf42	0.9948617
167	0x3f8049e2	1.0022547
168	0x3f814058	1.0097761
169	0x3f80a752	1.0051062
170	0x3f7e4b5b	0.99333733
171	0x3f7f0091	0.9961024
172	0x3f7be9fe	0.9840392
173	0x3f7d21b2	0.9887954
174	0x3f7f79e2	0.99795353
175	0x3f7f537b	0.99736756
176	0x3f807d0b	1.003816
177	0x3f826a3f	1.0188674
178	0x3f7cf7f2	0.98815835
179	0x3f7fc7c0	0.9991417
180	0x3f804ab0	1.0022793
181	0x3f81499d	1.010059
182	0x3f81bcd9	1.0135757
183	0x3f820f96	1.0161006
184	0x3f7cc7cd	0.9874237
185	0x3f7f96b8	0.99839354
186	0x3f80b1fa	1.0054314
187	0x3f7fe47f	0.9995803
188	0x3f80864b	1.0040983
189	0x3f80572d	1.0026604
190	0x3f816820	1.0109901
191	0x3f7e55bb	0.99349564
192	0x3f7b7d8e	0.98238456
193	0x3f80af55	1.0053507
194	0x3f7f732b	0.9978511
195	0x3f7cce67	0.98752445
196	0x3f7ffb44	0.99992776
197	0x3f80b083	1.0053867
198	0x3f807048	1.0034266
199	0x3f7e68e2	0.9937879
200	0x3f8070ff	1.0034484
201	0x3f80453f	1.0021132
202	0x3f7ed462	0.9954282
203	0x3f7f2ea2	0.9968053
204	0x3f8023b2	1.0010893
205	0x3f811a1b	1.0086092
206	0x3f7eefe9	0.99584824
207	0x3f7cca7f	0.98746485
208	0x3f7eb9b8	0.99502134
209	0x3f807409	1.0035411
210	0x3f827b37	1.0193852
211	0x3f7f034b	0.996144
212	0x3f815055	1.010264
213	0x3f7fb750	0.9988909
214	0x3f809c9b	1.0047792
215	0x3f807bd8	1.0037794
216	0x3f7e90b7	0.9943957
217	0x3f80ef22	1.0072978
218	0x3f7e0c19	0.9923721
219	0x3f7ff17f	0.9997787
220	0x3f8093db	1.0045122
221	0x3f7e4dbe	0.99337375
222	0x3f811943	1.0085834
223	0x3f7f132e	0.9963864
224	0x3f7d6150	0.9897661
225	0x3f7e2281	0.992714
226	0x3f80ff71	1.0077955
227	0x3f81d54f	1.0143222
228	0x3f81d1cb	1.0142149
229	0x3f7ebbc4	0.9950526
230	0x3f806c89	1.0033122
231	0x3f81527c	1.0103297
232	0x3f7ecff0	0.9953604
233	0x3f7f5991	0.9974604
234	0x3f7f6cb7	0.9977526
235	0x3f802eaf	1.0014247
236	0x3f7c7e3d	0.98630124
237	0x3f7fe425	0.99957496
238	0x3f7f524f	0.9973497
239	0x3f7c88be	0.9864615
240	0x3f7e8498	0.9942107
241	0x3f7dcd6b	0.9914157
242	0x3f80841d	1.0040318
243	0x3f7e0c4a	0.992375
244	0x3f80c5bf	1.0060347
245	0x3f7e3314	0.9929669
246	0x3f7e62f3	0.99369735
247	0x3f80d1d7	1.0064038
248	0x3f810009	1.0078136
249	0x3f7e46c4	0.9932673
250	0x3f7e796d	0.9940403
251	0x3f8021ed	1.0010353
252	0x3f80dea0	1.006794
253	0x3f80597b	1.0027307
254	0x3f7f50fa	0.99732935
255	0x3f7eb66f	0.9949712

batch_norm.0.bias f4 [1000]
0	0x3b056975	0.0020357047
1	0x3bab802a	0.005233784
2	0x3ca45f25	0.0200649
3	0x3bc224e0	0.005924806
4	0x3b057661	0.0020364749
5	0x3ca40402	0.020021442
6	0x3ba5e9d2	0.005063274
7	0x3bb06eaf	0.0053842883
8	0x3c5c4ac1	0.013445557
9	0x3c40360e	0.011731638
10	0xbc5a469b	-0.013322498
11	0x3c6ed9cd	0.014578295
12	0x3c35b18f	0.011089697
13	0xba1dbc02	-0.000601709
14	0xbbbedb80	-0.0058245063
15	0x39c5e6e6	0.000377468
16	0x3aa1ccae	0.0012344324
17	0x3c33ff04	0.010986093
18	0x3b80366f	0.003912739
19	0x3c81319e	0.01577073
20	0xbc27621f	-0.010216265
21	0xbbafbe6b	-0.0053632758
22	0x3c524f63	0.01283631
23	0xbb01c486	-0.0019800975
24	0x3c913d25	0.017729351
25	0x3c30ae76	0.010783782
26	0xbb5d9bb2	-0.0033814725
27	0x3c3822bc	0.01123875
28	0x3c3178bb	0.010832007
29	0x3bc27a12	0.005934962
30	0x3cf7312d	0.030174816
31	0x3c44cc0c	0.012011539
32	0x3b8dd026	0.0043277917
33	0x3af7c28e	0.0018902586
34	0x3c9b1a95	0.018933574
35	0x3ca40f3a	0.020026792
36	0xbb6787d5	-0.0035328765
37	0x3bf9c6b5	0.0076225647
38	0x3b88231b	0.0041545755
39	0x3ba8778c	0.005141204
40	0x3c7e5b25	0.01552466
41	0x3bccbff0	0.0062484667
42	0x3b5292e7	0.0032131018
43	0x3c397aed	0.011320812
44	0x3c0d77c1	0.008634509
45	0x3b88eb1a	0.004178417
46	0x3b9889d4	0.0046551023
47	0x39c17813	0.0003690129
48	0xbb1f283e	-0.002428546
49	0x3c2b6500	0.010461092
50	0x3be05828	0.0068464465
51	0x3c438d13	0.01193549
52	0x3c951e90	0.01820305
53	0x3c816816	0.015796702
54	0x3c20a309	0.009804496
55	0x3c44751b	0.011990811
56	0x3b394efa	0.0028275833
57	0x3b4f1085	0.003159554
58	0x3bdc09d2	0.006715038
59	0x3c4d023e	0.012512742
60	0x3c4221d2	0.011848884
61	0x3a91e4f6	0.0011130858
62	0x3c20c4e2	0.0098125655
63	0xbae3f7bd	-0.0017392557
64	0x3b5c9bec	0.0033662273
65	0x3b97159e	0.0046107313
66	0x3c6e0923	0.014528546
67	0x3906a153	0.00012839334
68	0x3c18c426	0.009324109
69	0x3c962e7e	0.018332716
70	0x3c681627	0.014165438
71	0xbc91cad1	-0.017796906
72	0x3b6989ba	0.003563507
73	0x3ba5557b	0.0050455905
74	0x3c07d384	0.008290175
75	0x3c14b154	0.009075481
76	0x3c18ee0d	0.0093340995
77	0xbb00c6a9	-0.001964966
78	0x3b86444a	0.004097496
79	0x3c52a4e3	0.012856695
80	0x3b2cf752	0.0026392532
81	0x3c4de0a4	0.0125657655
82	0x3c4c2977	0.012461058
83	0xbb6d9a53	-0.0036255314
84	0x3b148933	0.0022664785
85	0x3c5b9c21	0.013403923
86	0x3c2eaf35	0.01066189
87	0x3c0fe185	0.008781795
88	0xbb3ee0a9	-0.0029125607
89	0x3c96bba1	0.018400015
90	0x3c01903a	0.007907921
91	0x3c0f6f8e	0.008754624
92	0x3c58d33b	0.013233955
93	0xbae2c140	-0.0017300025
94	0xbb2e05ff	-0.0026553867
95	0x3adc7358	0.0016819043
96	0x3c4b38af	0.012403651
97	0x3bb421d9	0.005497199
98	0x3c7f1f82	0.015571477
99	0xbb5ad59b	-0.003339148
100	0x3c20a2db	0.009804453
101	0x3c7255bf	0.014790951
102	0x3cba74aa	0.022760708
103	0x3cbc62f8	0.02299641
104	0x3ca0fa9c	0.01965075
105	0x3c438ca0	0.011935383
106	0x3c6ddcef	0.014518007
107	0x3bae8ec7	0.005327079
108	0x3bc27213	0.005934009
109	0x3c9c496d	0.01907798
110	0x3c04782c	0.008085292
111	0x3ca84b72	0.020543788
112	0x3b33aba6	0.0027415543
113	0x3bb565f2	0.0055358345
114	0x3c8cab99	0.017171668
115	0xb7b2a65e	-2.1296724e-05
116	0xbb925a95	-0.0044663646
117	0x3c86f0e6	0.016472291
118	0xbbf8c048	-0.007591281
119	0x3c26d5ae	0.010182781
120	0xbb54ef66	-0.0032491325
121	0x3c2e6172	0.01064335
122	0x3c87db95	0.016584197
123	0xb99fad2c	-0.00030455866
124	0x3af0e3be	0.0018378419
125	0x3c5e45c7	0.013566441
126	0x3c32710b	0.010891209
127	0x3c977d4f	0.018492369
128	0x3c9185da	0.01776402
129	0x3bd9ec6b	0.0066504977
130	0x3b5bf8c1	0.0033565017
131	0x3c3c35a8	0.011487402
132	0x3c287dd9	0.010283911
133	0x3ad35d98	0.0016125916
134	0x3bfb410d	0.0076676668
135	0x3c01abb7	0.007914475
136	0x3c1d25d6	0.00959154
137	0x3c277a8f	0.010222091
138	0xbaf51558	-0.0018698378
139	0x3c21a82d	0.009866756
140	0x3b494dbb	0.0030716497
141	0x3ca6fb8d	0.02038362
142	0x3c11c14f	0.008896186
143	0x3bf0fece	0.007354594
144	0x3b913a98	0.0044320337
145	0x3c283cbc	0.010268386
146	0xb8e519c8	-0.00010924373
147	0x3b5f149b	0.0034039381
148	0x3c3873a3	0.011258039
149	0x3c27cc92	0.010241644
150	0x3bf46ca1	0.0074592386
151	0x3b8b08a5	0.004242974
152	0xbbf423a0	-0.007450536
153	0x3c389f45	0.011268442
154	0xbb5f6d81	-0.003409237
155	0x3b0bfb0c	0.0021359352
156	0x3a5e79ad	0.0008486759
157	0x3bd28aa2	0.0064252177
158	0xbc3296b9	-0.010900193
159	0x3c312d76	0.010814061
160	0x3c87a62d	0.016558731
161	0x3c61cdde	0.013781993
162	0xbb605047	-0.0034227537
163	0x3c1cded8	0.009574614
164	0x3c0c74d7	0.008572779
165	0x3c3aaef0	0.011394247
166	0x3c553043	0.013011995
167	0x3c905ad5	0.017621437
168	0x3bb98637	0.0056617516
169	0x3b11617f	0.0022183356
170	0xbabbe834	-0.001433617
171	0x3c8b035b	0.016969373
172	0x3c940bd9	0.018072056
173	0x3bb1610e	0.005413181
174	0x3c0aa494	0.00846209
175	0x3bdd065e	0.006745144
176	0x3c1abb42	0.00944406
177	0x3c407125	0.011745726
178	0xbab818d5	-0.0014045486
179	0x3c6399ae	0.013891621
180	0x3c03d4c7	0.008046336
181	0x3c8f5ed2	0.017501269
182	0x3c0920b1	0.008369611
183	0x3c4abdbc	0.012374338
184	0x3bb16104	0.0054131765
185	0x3b87dd35	0.004146243
186	0x3b1c577a	0.002385585
187	0x3c6f6e62	0.01461372
188	0xbbd77314	-0.0065749977
189	0x3ae62e43	0.0017561394
190	0x3c5d1e63	0.013496014
191	0x3c63555c	0.013875332
192	0x3bd299ec	0.0064270403
193	0x3b8c964e	0.0042903787
194	0x3b8ef055	0.004362146
195	0xbce2f480	-0.027704477
196	0x3b8e2074	0.004337365
197	0x3c45eb0f	0.012079968
198	0x3bddd6b5	0.00676998
199	0x3c4cdb6b	0.012503485
200	0x3a53ce1d	0.00080797245
201	0x3b8938e7	0.0041876915
202	0xbc1f5100	-0.009723902
203	0x3b5840cc	0.0032997606
204	0x3b989d8e	0.004657454
205	0xbb76646e	-0.0037596482
206	0x3b13a8d8	0.0022531059
207	0xbc3a29d5	-0.011362513
208	0xbb3413e1	-0.002747767
209	0x3c587658	0.013211809
210	0x3bed02a7	0.007232982
211	0x3c5ff2e3	0.013668749
212	0x3b9f462a	0.004860659
213	0x3ac6d61c	0.0015170011
214	0x3c14f77c	0.009092208
215	0xba599c27	-0.00083011616
216	0x3b388bea	0.0028159567
217	0x3a8385c7	0.0010034376
218	0x3c841f67	0.016128255
219	0x3c8892cd	0.016671563
220	0x3c2fad0b	0.010722409
221	0x3b89bd06	0.0042034416
222	0x3c5be351	0.013420896
223	0xbca1c90d	-0.019749189
224	0xbb392e2d	-0.0028256283
225	0xba2a606a	-0.0006499352
226	0xbb4d72b4	-0.0031348886
227	0x3c111f46	0.008857554
228	0x3b93b264	0.00450735
229	0x3c85938f	0.016305713
230	0x3c34b7ea	0.011030177
231	0x3c12fd16	0.008971473
232	0x3b96303b	0.0045833862
233	0x3c9665d6	0.018359106
234	0x3b81a69d	0.0039566294
235	0x39f94621	0.0004754523
236	0xbbd195e4	-0.006396042
237	0x3bc8699b	0.006116105
238	0xbb44f3a6	-0.0030052452
239	0x3b2362de	0.0024930756
240	0x3ab34438	0.0013676947
241	0x3c1a42cc	0.00941534
242	0xbc595c5c	-0.013266649
243	0x3b2580ef	0.0025253852
244	0x3c3f8b14	0.011690874
245	0xbb9814fe	-0.0046411743
246	0xbb5fe73f	-0.0034164933
247	0x3b64bf6e	0.003490414
248	0xbac835e8	-0.0015274854
249	0x3c14372a	0.009046355
250	0x3bb7e6dd	0.005612238
251	0x3c097d20	0.0083916485
252	0x3be6755c	0.0070330333
253	0x3b57332d	0.00328369
254	0x3c402f29	0.011729994
255	0xbb9568ce	-0.004559613
