Saves/L_50k_2.pth (torch, 164437 bytes, 40 tensors)

sage.0.lin_rel.weight f4 [32, 3]
00000000: 147a 0fbf d3bb d9be 8d5f 0cbf b6e7 733e
00000010: d728 ad3e 2ed7 383e 57a5 07bf 9e15 82be
00000020: 91fa eabe b6c4 f83e 5d19 023f cf3b 45be
00000030: 25de bfbe ec27 d93e b90d 093f ed20 bb3d
00000040: 7c79 033f 204a 923e cf8e 8a3d 6905 fc3d
00000050: fa95 813e 5d14 c43e 265a b63d cbba 9abe
00000060: d846 c83d 4eb9 f03d 30fa 6d3e 3179 c0be
00000070: 8948 343d 5897 0d3e f8c8 ce3d dfac cc3c
00000080: ac59 e9be 3eb5 563e 17eb fbbe 3b2e aabe
00000090: ef5a ff3e 4e66 b8bd 6c6c b6bc 262f efbc
000000a0: 2bcc 69be 525b bf3e 6067 b63e 70b6 433e
000000b0: c08b c6be 88d1 17be dea1 cebe cb4a 82be
000000c0: a762 0b3f 47dc 04bf 057e cabe 40c0 1dbd
000000d0: 1992 e23e c0cb 06bf 7d5a b43e a52d 113f
000000e0: c104 bfbe 68af edbe b1bc 9dbd 8763 5dbe
000000f0: ac87 813e 67b6 113f 5da5 b5bd ee2f 093e
00000100: 7f75 00bd 3e57 3abb 8a60 52bd b969 3cbe
00000110: fd51 533e e425 debc 8790 0bbf 8057 ca3e
00000120: 69d6 0b3f f23f 56be c4c7 09bf 20fa 0fbf
00000130: 2957 ccbd b3aa d0be cb73 0d3e 4436 b9be
00000140: 504c c43e 12f3 2f3e 6469 bf3c a7c9 42be
00000150: 4aa2 f8bc 3be6 103f 7a21 dfbe 9aed ac3e
00000160: 9df2 ce3d 8a9c 9a3e 3888 3a3e 2d18 98bd
00000170: 7221 b73e 2340 bd3e 96cb 273e fce2 67be
-0.5604565 -0.4252611 -0.548333 0.2381886 0.3382022 0.18050835 -0.52986664 -0.25407118
-0.45894292 0.4858758 0.5081995 -0.19261096 -0.3747417 0.4241327 0.53536564 0.091371395
0.51357245 0.28572178 0.0676552 0.123057194 0.25309736 0.38296786 0.08903913 -0.30220637
0.097791374 0.11754094 0.2323997 -0.37592462 0.044014487 0.13827264 0.100969255 0.024984775
-0.45576227 0.20967576 -0.49202797 -0.33238396 0.49874064 -0.09003888 -0.022268496 -0.029197287
-0.2283179 0.3737436 0.35625744 0.19112563 -0.38778496 -0.14826024 -0.4035787 -0.25447688
0.54447407 -0.51898617 -0.3954927 -0.038513422 0.4425209 -0.5265465 0.35225287 0.56710273
-0.37308314 -0.46422887 -0.07702006 -0.21619998 0.25298822 0.5691895 -0.08869431 0.1339719
-0.031362053 -0.0028433348 -0.051361598 -0.18399705 0.20636745 -0.027117677 -0.54517406 0.39519882
0.5462404 -0.2092283 -0.53820443 -0.56241035 -0.09977562 -0.40755233 0.13813703 -0.36174214
0.38339472 0.17182568 0.023365684 -0.19022237 -0.030350823 0.56601304 -0.43580228 0.33775026
0.101048686 0.30197555 0.18216026 -0.07426486 0.35767704 0.36962995 0.16386256 -0.22645181

sage.0.lin_root.weight f4 [32, 3]
00000000: ec25 92bd 1d33 083f b134 55bd 6bb2 57be
00000010: 3e2c 443e e8db 1b3d a359 81be 98ae fe3e
00000020: 2521 01be b5bc 82be 9a22 adbd 6693 e83e
00000030: 64ba 203e 6811 e0be 078d 4a3e 6761 a9be
00000040: 66d2 7ebd 3c44 10be f0a7 9d3e 16d1 09be
00000050: aae4 dd3e eaa1 06be bdb3 ed3d 341c 6bbe
00000060: 3313 08bf 5d24 053f 4f73 8dbd b31f 94be
00000070: 62b6 aebe 70d9 dc3e 902f ac3e 0c74 ea3e
00000080: 89d0 86bd 0d52 023f 1d97 123e 809c acbd
00000090: d350 abbe 437f b43e 30ae 933e e7b2 963e
000000a0: b317 b8be 3abf 26be 439f 69be 0a2b 55be
000000b0: 2fe8 46be 88f3 db3d 215f a13e f92b 9ebe
000000c0: 5a9d 353e 51f8 7b3e 618e 1fbd a220 8c3e
000000d0: 7f2d f53e 3b17 ad3c 7ac5 0c3f 6726 d63e
000000e0: b083 033f 89c0 c33c ed5b 0e3f 34d1 81be
000000f0: 24a2 d6be 7e5b f8bd 4106 9bbe 8a6f 0a3f
00000100: c6a3 913e 06b3 8fbe 08d5 9fbd d92a 0f3e
00000110: 5219 b1bc aab2 f8be f23e bdbe 2287 c93e
00000120: 1b8a 4a3b 6d13 033f 7872 203e af06 53be
00000130: 3588 fe3e eb09 a0be 18ff 583e 7088 b63e
00000140: 1591 43be 6fcc d73b d8e7 dcbe 623e c7bd
00000150: e82e 5fbd b069 773e 464e 6dbe 2d9a acbe
00000160: a4c9 60be 32b6 db3d 6f9a b0be 36ef d1be
00000170: b7da bbbe dab5 d0bd 1146 373e c38f 6a3e
-0.07136139 0.5320299 -0.052052204 -0.21064155 0.19157502 0.038051516 -0.252637 0.4974258
-0.126103 -0.25534597 -0.08453865 0.45424956 0.15696102 -0.4376328 0.1978036 -0.33082125
-0.06221237 -0.1408853 0.3079219 -0.13458666 0.4333852 -0.13147703 0.11606548 -0.22959977
-0.53154296 0.5200861 -0.06906759 -0.28930435 -0.34123522 0.43134642 0.33630037 0.45791662
-0.06582744 0.5090645 0.14315458 -0.084282875 -0.334601 0.35253343 0.28843832 0.29433367
-0.3595558 -0.16283885 -0.2281466 -0.208172 -0.19424509 0.10739809 0.3151789 -0.30892923
0.17735806 0.24606444 -0.038954142 0.27368647 0.47886273 0.021129241 0.54988825 0.41826174
0.51372814 0.023895519 0.5560902 -0.25354922 -0.41920578 -0.12126826 -0.3027821 0.54076445
0.28445262 -0.28066272 -0.07804304 0.13981189 -0.021618519 -0.4857381 -0.36962086 0.3936091
0.0030905071 0.51201516 0.15668666 -0.20608018 0.49713293 -0.31257567 0.2119106 0.3565097
-0.19098313 0.0065856497 -0.43145633 -0.097286955 -0.054488093 0.2416141 -0.2317439 -0.33711377
-0.2195192 0.107281104 -0.34492823 -0.41002816 -0.36690304 -0.101909354 0.17897822 0.22906403

sage.0.lin_root.bias f4 [32]
00000000: aab4 50be 0c9b d63c a85e f8be e92a c9be
00000010: 8ad6 d73e c0ea 67bd df68 103f c2fe b43e
00000020: bb10 8fbe 48be 603d 4102 0abe ee0a f53e
00000030: 16b5 d53e f6e7 02be 1d7e 13bf e7a2 0a3f
00000040: b380 133f c88b 50be c446 59bd 4fcd 533e
00000050: 9a51 d83e 83fb babc 8fd9 8f3d e4a1 263e
00000060: 7e17 92be 64e6 0f3f f2fa 83be d7c9 ce3e
00000070: 59b8 9a3e 4326 c73b f9bb 11bd f952 093f
-0.20381418 0.026196979 -0.48509717 -0.3929055 0.42155868 -0.05662036 0.5641002 0.35350615
-0.27942452 0.054868966 -0.13477422 0.478599 0.4173972 -0.12783799 -0.5761431 0.5415482
0.57618254 -0.20365822 -0.053046003 0.20683788 0.42249757 -0.022825008 0.07023918 0.16272694
-0.28533548 0.56210923 -0.25777394 0.40388367 0.3021877 0.006077559 -0.035579655 0.5364223

sage.1.lin_rel.weight f4 [32, 32]
00000000: b4af 82bd 45a3 28bd ba69 91bd 971c a23d
00000010: 485e d83d ecf7 12bb 59d8 d9bc 38e2 14be
00000020: e793 06be 326e febd 5bdd bcbc d49c f83d
00000030: 0959 22bd 505b e6bd 6604 cabc 040c 04be
00000040: 2524 a13d d194 86bd ab16 a13d 8f3e 153e
00000050: c0ca 733d 7f19 f63d 5310 c1bd 2b2e e93d
00000060: 0178 fa3b 4ded 88bb f9f1 ac3d 8ce5 0abe
00000070: 2f87 9a3d c052 163e 07f0 383c edea 353e
00000080: ea58 073e 9d62 b73d 40ab d03d 1103 183e
00000090: c509 7fbd d47e 713c 4fc1 903c 1430 5b3d
000000a0: f8d2 08bc f1dc eabd 798a d2bc 366c 153e
000000b0: 4da6 1c3e 536d 3c3d 37f9 c0bc b62a 283d
000000c0: 782e 6c3d 1158 d23d cca3 253e 20f4 11be
000000d0: 0ad6 583d a714 f9bd 9a2c 743d 5a0a a8bd
000000e0: 7967 893d 428f ddbd b526 193d ac44 62bd
000000f0: 6ba6 913d 6ef4 90bd 35e8 923c 6dc5 033e
00000100: 2721 1f3d a706 06be 9340 b33d 4ad3 f3bd
00000110: 462b 22be 9c58 b53d da17 3a3e c6e0 a13b
00000120: 5806 103d d729 183e 75c8 9fbd 24fe ca3d
00000130: bafc 50bd 4828 27bd b25b 13be c070 4f3d
00000140: 3b4e e3bd 6ca7 c7bd a2db 01be 610d 58bd
00000150: 1ab2 85bd 493d 2fbc 738f 1c3e 28e9 6d3d
00000160: 7068 4c3d 7fc7 b13d aceb 44bc 567c aebd
00000170: 712f aa3d 2b06 96bd c75e 9d3b 2dd5 25be
00000180: ce23 62bc 0a7e a63c 2907 d6bd 2f15 863c
00000190: 1173 85bd ea22 c13d add4 8fbd c424 143e
000001a0: 93fd b93c d603 9ebd cff7 e63d ac25 4b3d
000001b0: 667a 32be c8c4 e4bd 841f 953d 113e de3d
000001c0: 9c9b cfbd 691d 8e3c c09c df3d 8908 0abe
000001d0: f36c afbd 9d44 eabd 174b f0bd a70f da3c
000001e0: 5562 ba3c 45cd e3bd 3049 853d beef 36be
000001f0: dd85 23be 2958 113e b791 373e 0938 85bd
00000200: 11ea cebd 98bf 27be af1e e7bd 34f0 633d
00000210: 33ea 0ebe e869 0b3e 1aeb 41bc e376 043e
00000220: db72 8bbd 3b17 07be 9662 b6bc beb7 bd3a
00000230: 38a1 16bd 5e29 26be 99a5 f63c 854e b43d
00000240: d7fb 2f3e 5750 0b3e a287 163d 2971 633c
00000250: 10ab 0b3d 0cfc 073d 2990 863b 694b f7bd
00000260: 6d7a cfbd db17 e23d d181 9abd 46f2 e0bb
00000270: 7003 15be 51b7 d2bd 4cea 3abe 91d0 403d
00000280: c9c5 cf3c 692e 2dbe 229d 7e3d 33de f5bd
00000290: 2eb2 98bd 9807 6a3d 9597 243e 4995 a8bd
000002a0: 5756 1b3e cf93 373c 4d38 0e3e e4ce 2a3e
000002b0: d593 78bd c7f0 0bbd ae8a 133e f29a 7f3c
000002c0: c21c 3dbe 4fbe 393e dbc5 f8bd ad5f 293e
000002d0: e1d5 c6bd 3953 32bc a8e9 1dbe a1be bfbc
000002e0: 3429 b3bc 3d19 20bd b6a4 cdbc fb0f be3c
000002f0: eebb 12be 73b8 acbd ff10 13be aa2e f6bc
00000300: 25f7 3e3e e0ee ab3d c221 ce3d 8b99 9e3d
00000310: b224 a93d 4b66 4e3d ae57 cabd b5b7 1dbe
00000320: de2c 003d b8d9 053e 761f ecbd 8d81 92bd
00000330: b7c4 33be 33b9 06bd e77c 6e3d 5135 28bc
00000340: 7867 00be da8b 2e3e b0b6 ebbd 852f c83d
00000350: 8e1a 27be 05f4 b03d 4267 10be e5bf 3abe
00000360: 4089 53bd a767 2abe 1f41 13be 4948 6b3b
00000370: 2c8c 073e 6f87 a93d 0665 553d a4d2 ad3d
00000380: 9771 513d 02c7 99bd b37e b7bd 7d8b d2bc
00000390: f6d1 3f3d a49e bc3d cb4e 1e3b d449 debb
000003a0: 12d2 d73d e881 ec3c ec4c dcbd 79d7 3cbd
000003b0: 2716 2abd 1abb 59bd 2339 1dbe 5549 163e
000003c0: 4209 77bd e18c cf3b 6665 cfbd 983d 21be
000003d0: 71b2 083e 8b10 3dbc 1534 1e3e f9af c03d
000003e0: e26a 3ebd dcfa 00be 74d6 f93d 730f f83b
000003f0: d141 a7bd b30d 4ebd 4263 b5bc 09ac 273e
-0.06381169 -0.04117133 -0.07100244 0.07915609 0.10564858 -0.0022425605 -0.02659242 -0.1453942
-0.13142358 -0.12423362 -0.02305477 0.121392876 -0.03963569 -0.11247885 -0.0246603 -0.12895209
0.07868222 -0.06571353 0.07865652 0.14574645 0.05951953 0.12016582 -0.09426942 0.11385759
0.0076437 -0.004178679 0.0844459 -0.13564128 0.075453155 0.14680004 0.011287696 0.17765398
0.13217512 0.08954356 0.10188913 0.1484492 -0.062265176 0.014739711 0.017670302 0.053512648
-0.00835108 -0.114679225 -0.025700795 0.1459206 0.15297814 0.046002697 -0.023556335 0.041056357
0.057661504 0.102707036 0.16175765 -0.14253283 0.0529385 -0.12162142 0.059612848 -0.082050994
0.06709189 -0.1081834 0.03739043 -0.05524127 0.0711182 -0.07077871 0.01793299 0.1286828
0.038849976 -0.13088475 0.08752551 -0.119055346 -0.1583682 0.088547915 0.18173161 0.004940125
0.0351623 0.1485971 -0.07801906 0.09911755 -0.05102227 -0.0408099 -0.14390448 0.050644636
-0.11098906 -0.0974873 -0.1268144 -0.052747134 -0.06528111 -0.010695764 0.15289097 0.058083683
0.049904287 0.08680629 -0.012019079 -0.08519809 0.0830983 -0.07325395 0.004802558 -0.16194601
-0.013802482 0.020323772 -0.104505844 0.016367523 -0.06516088 0.094304875 -0.070229866 0.1446715
0.022703921 -0.077155754 0.112777345 0.049596474 -0.17429504 -0.111703455 0.07281402 0.10851682
-0.10137102 0.017348008 0.109185696 -0.13479818 -0.08565702 -0.11438868 -0.11733072 0.026618792
0.022751966 -0.111231364 0.065081 -0.17864892 -0.15969034 0.14193787 0.1792668 -0.065048285
-0.101032384 -0.16381681 -0.11285149 0.055648997 -0.13956527 0.13614619 -0.011835838 0.12935977
-0.06809016 -0.13192455 -0.022263806 0.0014474315 -0.036774844 -0.16226718 0.03010826 0.08804039
0.17185913 0.13604866 0.036750443 0.01388196 0.034098685 0.033199355 0.0041065407 -0.1207493
-0.10130773 0.11039706 -0.07544292 -0.0068648187 -0.14552093 -0.10288871 -0.1825344 0.047073904
0.025362866 -0.16912235 0.062161572 -0.12005272 -0.0745586 0.05713615 0.16073449 -0.08231599
0.15169655 0.011204674 0.13888665 0.16680485 -0.06068786 -0.03416517 0.14408371 0.015600907
-0.18468001 0.18139003 -0.12147113 0.16540404 -0.09708763 -0.0108841 -0.15421164 -0.023406329
-0.021870233 -0.03908657 -0.025102954 0.02320098 -0.14329502 -0.084336184 -0.14361952 -0.030051548
0.18648966 0.08395171 0.100650325 0.0774413 0.08258952 0.050390523 -0.09880005 -0.1540211
0.03129279 0.13071334 -0.11529438 -0.07153616 -0.1755551 -0.032891463 0.058224585 -0.010266618
-0.1253947 0.17045537 -0.11509454 0.09774689 -0.16318724 0.08640293 -0.1410189 -0.18237264
-0.051644564 -0.16641103 -0.1438031 0.003590124 0.13237065 0.08277785 0.052098297 0.08487442
0.05113372 -0.07508661 -0.08959713 -0.025701279 0.046831094 0.09209946 0.002415585 -0.0067837033
0.105381146 0.028870538 -0.10756859 -0.04610393 -0.041525032 -0.05315695 -0.15353827 0.14676411
-0.060311563 0.0063339327 -0.10126762 -0.15746152 0.1334932 -0.011539589 0.15449555 0.09408564
-0.04648865 -0.12595695 0.12199107 0.007570201 -0.0816685 -0.050306033 -0.022142056 0.1637422

sage.1.lin_root.weight f4 [32, 32]
00000000: 0f94 4dbd 3fe6 84bd 93b8 083e b348 9d3c
00000010: ae58 dbbd 673a 27be d3bf c93d a5b5 fe3d
00000020: 24ff 21be 6c4f 7d3c 5769 dfbd cb8a f23d
00000030: ee36 0cbc 313a 003e 239f 19be 4598 31bc
00000040: 8753 b83d 3351 6dbd 7112 adbd 80a5 c0bd
00000050: c39a bcbd f1dc c0bd 1ee3 cebd 8449 a6bd
00000060: 2595 c73d b8b5 2abe db25 933d 8531 b4bd
00000070: a9a6 2d3e 68c8 24be 7848 e33d df77 863d
00000080: 9630 edbd 7c76 7ebd 324e e73d c5e0 0b3e
00000090: bff1 38be 367e 0cbe 52e3 b83d c1d5 483d
000000a0: 47f6 f13c 7c38 f5bb 1759 143b 59af 96bd
000000b0: f23c bd3d 15db e73d b81a 553d 4dbf 07be
000000c0: 77b4 9abd f60d 253e 36f3 823c d304 383d
000000d0: 2032 cabc 786e 45bd 92ad dc3d d497 0fbe
000000e0: f3a8 0cbd ac4e 4f3c af09 f93b 6f99 4b3d
000000f0: 60c9 0b3e c28b 16be 771b 50bd 5fe8 d63d
00000100: 4d88 9ebd ae94 f3bd 4fbc 00be fdac 273c
00000110: 997b d23d 8568 fabd d2bd f5bd 3fd6 d33d
00000120: f15f 00be b111 39be bc28 3d3d 3540 313e
00000130: 40fa 7cbb aa60 753d 5147 38be 5d72 863d
00000140: ed08 fcbd 6b1b 4d3d 52ed ec3d e573 e8bd
00000150: 350f 8b3c fb0e 0b3e 73ae 783d 1a26 cdbd
00000160: 6f41 ebbd 1336 013e 350b e6bc 7661 bd3d
00000170: aae2 b5bd dcea 6dbd 8b15 a2bd 5051 c0bc
00000180: 65e0 14be 8494 c13d 0086 7f3d fc2b 893d
00000190: cc68 b43d fd79 163e 2ced d63b 034d 5f3d
000001a0: bd98 8c3d f5f4 be3d bc90 c23b 9f22 173e
000001b0: aabe f03d 0083 0e3e 4eb9 b33d 5022 823d
000001c0: 5b2e 213e 8ed9 0bbe 6967 f43c 4411 d3bd
000001d0: d804 233e 30be 6f3d 7808 f33c f5d9 9bbb
000001e0: c46a f3bc 2360 243e c582 28be cc61 183e
000001f0: a03c 04be a4ef 323c ce5a e2bd 44a0 173e
00000200: 273e 8cbd e351 8e3d d5ff c8bd d31c 2ebb
00000210: 57dd 563c b457 f0bd 136f ea3d 6f60 12bc
00000220: 9037 333d cc28 efbd 373d babd ea97 fe3d
00000230: c91b 21be 5a97 d0bc b09d 27be 2552 0a3e
00000240: d831 d23d 3df7 663d b64f 1ebd 6705 653c
00000250: 9bcb 433d 3333 21be 0dd4 b23d 94ac 943d
00000260: 1b1b 0f3e 1b4a 86bd a6fe 0b3e d55e 383e
00000270: 8d10 a73d edb8 e0bd c503 313d fdd6 103a
00000280: 3f50 16be fee4 07be 24a6 eabd a9d3 d4bd
00000290: 1c80 8d3d 7518 1fbb a60d 863c 2003 fcbd
000002a0: 5fb7 55bc 326a d33d 0762 853c 8f00 453d
000002b0: ade6 00bd f00f 8c3d 7861 f53c 66e7 53bd
000002c0: 6842 f53c d21b 8b3c 2e00 823d 0c1d 2b3e
000002d0: 3a16 03bd 2e33 0ebc 5707 12be a804 a43c
000002e0: 9edc ef3d 214d 0fbe 4d9a e0bb 2273 84bd
000002f0: 110b 1fbd 6916 ec3d 6724 fb3c ed18 293e
00000300: c696 b23d bef1 723d a2a3 893d b868 d53d
00000310: 1826 66bd 1357 e1bd 1bf2 37bd 38bc 053d
00000320: 4bc9 b6bd 2a0b 913c 3c75 0f3e 770d 19be
00000330: aef2 f7bd eb8a 05be 8280 203e 7659 07bd
00000340: 092d a4bd 87f4 f9bd a5ab ac3b 3096 bbbc
00000350: c65f 9a3d 03bf 23be bd61 273e 3005 273e
00000360: af34 d7bd ea2b 23be b2f4 d03d 7884 78bd
00000370: 7a16 813d 3d47 7c3d 8e61 b03d d5b3 08bd
00000380: db4a cc3c 6ac2 e7bb 3a8c 3d3c 8e09 48bd
00000390: f382 a2bd 5e2a debc 02f8 dcbd aa34 1c3d
000003a0: 4cdf fbbd fe0b 8fbd ce23 b5bc 3f1a 363d
000003b0: 427e 773d dbd4 14be 917e 033e 92f1 903d
000003c0: 890b 313e 68bc 31bd 752b ed3d 8e44 eebd
000003d0: 2ec0 e9bd 6264 76bd 10ef 3bbe 0cb8 683d
000003e0: bdd9 1d3e 6119 f43d 098f 193e 4f4b e63d
000003f0: 39d5 2abe b34b cc3d 8ec0 fabd e12a 343d
-0.050190028 -0.064892285 0.1335166 0.019199705 -0.10710274 -0.16330872 0.09851041 0.1243699
-0.15819985 0.01546083 -0.10908764 0.11842879 -0.008558018 0.12522198 -0.15002112 -0.010839527
0.090003066 -0.057938766 -0.08450783 -0.094065666 -0.09209206 -0.09417141 -0.10101913 -0.08119491
0.09745244 -0.16670883 0.07184955 -0.087985076 0.16958107 -0.16092074 0.11097807 0.06565832
-0.11581533 -0.062124714 0.112942114 0.13659962 -0.18060969 -0.1372002 0.09027733 0.049031977
0.02953638 -0.00748354 0.002263611 -0.07357664 0.0924014 0.113210835 0.052027434 -0.13256569
-0.07553952 0.16118607 0.015985113 0.044926476 -0.024682105 -0.048201054 0.107752934 -0.14022762
-0.03434081 0.012653034 0.0076000313 0.049706873 0.13651037 -0.14701751 -0.050807443 0.1049354
-0.07740841 -0.11893593 -0.12571834 0.010234115 0.10277481 -0.12226967 -0.11999096 0.103435986
-0.12536599 -0.18073155 0.046181425 0.1730965 -0.003860131 0.05990664 -0.17995955 0.06564782
-0.1230639 0.050074976 0.11568703 -0.1135023 0.016975025 0.13579933 0.060713243 -0.10017033
-0.1148709 0.12618284 -0.028081516 0.09247105 -0.08881123 -0.058085307 -0.07914265 -0.023476273
-0.14538725 0.09452155 0.06238365 0.066978425 0.08809051 0.14694972 0.006559035 0.054516803
0.0686507 0.093240656 0.005937664 0.147593 0.11755116 0.1391716 0.087755784 0.06354201
0.1574034 -0.1365721 0.029834466 -0.103060275 0.15919816 0.058530986 0.029667124 -0.004756207
-0.029713996 0.16052298 -0.16456135 0.14881057 -0.12913752 0.010921393 -0.11052476 0.1480723
-0.06847792 0.069492124 -0.09814421 -0.0026567474 0.013114295 -0.11735478 0.11446967 -0.008934124
0.04375416 -0.11677703 -0.09093707 0.12431319 -0.15733255 -0.025462795 -0.16368747 0.13507898
0.10263413 0.05638813 -0.038650237 0.013978339 0.047801595 -0.15742187 0.08731852 0.07259479
0.13975184 -0.06557103 0.1367136 0.18004926 0.08157454 -0.10972772 0.043216486 0.00055252
-0.14679049 -0.13270947 -0.1145747 -0.103919335 0.069092005 -0.0024276052 0.01636393 -0.123052835
-0.013044207 0.103229895 0.016282095 0.048096236 -0.03146999 0.06838977 0.029953703 -0.05173435
0.029938892 0.01698104 0.063476905 0.16710299 -0.03200362 -0.008679194 -0.14260612 0.020021752
0.11712001 -0.13994266 -0.0068543316 -0.06467272 -0.038828913 0.11527712 0.030657006 0.16513415
0.08720164 0.059312575 0.067206636 0.10420364 -0.056188673 -0.11002936 -0.044908624 0.032650203
-0.08925112 0.017705519 0.14009565 -0.14946543 -0.12106834 -0.13041274 0.15674022 -0.0330443
-0.08016402 -0.12204843 0.005269485 -0.022898763 0.075377986 -0.15990834 0.16345878 0.16310573
-0.105080955 -0.1593472 0.10202922 -0.060673207 0.06303115 0.061591376 0.08612357 -0.033374626
0.024938038 -0.0070727365 0.011569077 -0.048837237 -0.07935133 -0.027119812 -0.10789491 0.038136162
-0.1229845 -0.06984709 -0.0221118 0.044458624 0.060423143 -0.14534323 0.1284125 0.07077326
0.17289557 -0.04339257 0.115805544 -0.116341695 -0.114136085 -0.060154326 -0.18352914 0.056816146
0.15415092 0.11918903 0.1499597 0.11244833 -0.166829 0.09975376 -0.12243758 0.043986205

sage.1.lin_root.bias f4 [32]
00000000: cb3a f03d 00ee 0abe 6c63 3b3e cac2 123e
00000010: b895 013e 059d 0f3d 0fd5 e13d 74c4 6fbd
00000020: e279 173e 7c7c 0cbd 5bcd 84bd 21a2 7fbc
00000030: 6f68 0bbe 6f40 203e e8e0 f6bd 6e8a 033d
00000040: 1f81 bebd 4764 c6bd e548 6a3b 8a9e cebd
00000050: 1560 943d 357e 78bd 0cc3 883d 55da 82bd
00000060: 082b 123e d2b8 41bd 9854 403c edaa 1fbe
00000070: 8761 46bd 488f 7d38 7539 90bd da4f 013d
0.11729964 -0.13567352 0.18299645 0.14332119 0.1265477 0.035061855 0.11026966 -0.05853696
0.14792588 -0.034298405 -0.06484481 -0.015602619 -0.13614057 0.1564958 -0.12054616 0.03211444
-0.09301972 -0.09687095 0.0035749015 -0.10088833 0.07244889 -0.060667235 0.06677827 -0.063893
0.14274228 -0.0472954 0.011738919 -0.15592547 -0.048432853 6.045334e-05 -0.07042209 0.031570293

sage.2.lin_rel.weight f4 [8, 32]
00000000: 3fc4 86bd 6b70 d93d 90b5 17be beb0 183e
00000010: 16b0 c9bd 51cb a6bd f352 033e d0da ab3d
00000020: ad90 1fbe a2ed cbbd 65eb 3bbd 51fe 573c
00000030: 07fb b93b 7ab3 4b3d 0a5b f73d e0b7 18bd
00000040: a765 d5bd a014 ba3c 0255 9f3d 74e6 e63c
00000050: bcbf 5fbd eb40 34bd a59b 8bbc e7d1 ad3d
00000060: 35f5 2ebe 9047 a0bd b0e8 003e 5f8b cf3d
00000070: a75f 6f3c 8ef8 143d 6184 99bd 51e7 373d
00000080: 5dfa 79bc ae10 073e 6067 25be 8fbf 843d
00000090: 6860 fabb 4cf5 a6bd ca87 313e 8be2 fcbd
000000a0: 7460 2bbe 80bb 19bd 8053 2cbd 84c1 0d3e
000000b0: 2b1c a0bc 9087 0cbe 7824 a93d 05a3 e23d
000000c0: 5950 b43c 8c8c da3b f983 2b3e 036b debd
000000d0: de48 b03d 8f74 163d 6e66 103e bc5f 0d3d
000000e0: 4c7d 573d f230 0bbe 4b70 e03d 31a7 0ebe
000000f0: 01a5 10be 6f77 b1bd 88f0 313e c45d 5d3b
00000100: 6fd5 013d 5561 c83d 8776 3e3d 1298 e43d
00000110: a120 1b3e 8ba4 2ebe 3fca 6ebd 90a7 b6bd
00000120: c6b1 e33d 76ed 31be 2378 a43b b56d 87bd
00000130: f021 793d 93a6 853d 90e4 513d 5884 9e3d
00000140: 6b8e 043d 6543 f2bc abb1 993d 090b 0bbe
00000150: fe40 2dbc e872 0a3d d23f 78bd 024d 063e
00000160: 4b56 2a3d cec4 b83d 2f0a 15bd 532e 683d
00000170: 6803 29bc 387b 043d 9d90 223d 2e73 1cbe
00000180: df54 24be 3a27 bbbb 968f f83d ea0b edbd
00000190: 3790 41bd 1c18 b03d 8005 b5bd e3f9 643d
000001a0: 76f8 e4bd eef7 47bd 3beb a7bd 83bf e1bc
000001b0: fad0 17be 1aa9 0cbe 97f9 213e 7565 393e
000001c0: 8a3a 8ebc d7c6 883d 03f4 b63d faf4 053e
000001d0: 4ac9 233e 02dd 1b3e f3bf cbbd acbb d13d
000001e0: c26b bcbd a6a1 073d 9538 1a3e cb57 1f3e
000001f0: 6bf4 1a3c f64e 29be 603a 2d3e 6eff 313e
00000200: 09ab 29be d84d c33d af65 903b 58f3 543c
00000210: 65d2 fcbb 2a3f c63d 1242 2f3e 1948 adbb
00000220: 79f2 453b 830d c53d 6365 cc3d 2021 d2bd
00000230: c77f 11be 83c6 283e 30cb 5dbd 6f99 f9bd
00000240: 62ad 603d 0852 1bbe 65ad 913d 95e7 043e
00000250: 18a8 20bc 5e87 7a3d c302 16be 3f97 ba3d
00000260: 5b12 163d f180 2b3e 0a15 a53d 91c1 6abd
00000270: ec2b d83c ba0d ce3d 985b 98bd d224 febd
00000280: 9074 213e 87a3 9f3d 2348 0fbe 4721 23be
00000290: 8fbc 803d 2e86 debd 2996 113e 9bc2 cebd
000002a0: 74e6 783d 6716 8dbd 1b66 d43c b2d0 85bd
000002b0: 1288 ebbd 3b4b fcbd 9476 933c fe36 a53d
000002c0: d7c8 dabc 747b 27be fd1c 06be 9f85 1cbd
000002d0: cc8c 2f3e db6a b6bc 3f62 f9bd 8f83 773c
000002e0: 7506 533d 08de 3a3e 0608 ba3d de87 0d3e
000002f0: 20e1 17be 3c98 94bd 2704 5f3c 3629 83bc
00000300: 4d90 033e 986e ff3c 430a ca3d 0a5e a13c
00000310: b08a 093e b10c 31be 59d0 b73d f070 56bd
00000320: a78f a8bd 6c64 29be dbc4 94bd 5a77 673c
00000330: 01ba 34be 2fba fa3d 538b d63c 71ca adbd
00000340: 08cb 013e dace a53d 5f58 d23d 50f8 c2bc
00000350: 59f4 eb3d b5c2 cd3d f2a2 913d e972 3dbe
00000360: 90a5 d7bd 00c1 4b3d 01b6 e03d 1f93 d03d
00000370: 0ae8 983d 0099 1b3e 5049 243e 9492 263c
00000380: 229d 1cbe 1f6d 863d 8e09 8abd 2acf f93c
00000390: ead7 d43c 7a86 c03c 7a56 10bc 4198 f7bd
000003a0: c0a1 b3bc 9c62 0a3e d28c 193d 15d4 f73c
000003b0: 461e 243e b5f9 423d d734 adbd ee64 1f3e
000003c0: 4c95 c63c 22fa 16be b4d1 9e3d e120 cfbd
000003d0: 9c03 57bb ffc3 20bd ec39 c53c 1fc7 28be
000003e0: 0dec 2e3e 02ba db3b e7f0 f63c e718 03be
000003f0: d87b 0d3e c886 b8bd 8fb3 6a3d 027c 9abd
-0.065804 0.10617145 -0.14815354 0.14911172 -0.09848039 -0.08144248 0.12824611 0.083913445
-0.15582533 -0.09957434 -0.045878787 0.013183192 0.0056756767 0.04973171 0.12077911 -0.037284732
-0.10419779 0.022714913 0.07779886 0.02818606 -0.05462621 -0.044007223 -0.01704199 0.08487301
-0.17085727 -0.078261495 0.12588763 0.10134005 0.014610208 0.036369853 -0.074959524 0.044898335
-0.015257445 0.13189957 -0.16152716 0.064818494 -0.007640887 -0.081522554 0.17336956 -0.12347897
-0.16736013 -0.03753233 -0.04207182 0.13843352 -0.019544682 -0.13723588 0.08258909 0.1106625
0.022010969 0.0066695865 0.16749562 -0.108602546 0.08607648 0.036732253 0.14101574 0.034515128
0.052609727 -0.1359289 0.10958918 -0.13930966 -0.14125444 -0.08665358 0.17376912 0.0033777812
0.031697687 0.097841896 0.046499755 0.111618176 0.15149166 -0.17054956 -0.058298346 -0.08918679
0.11117892 -0.1737574 0.005019204 -0.06612722 0.06082338 0.06525912 0.051243365 0.07740086
0.032362383 -0.029573152 0.075045906 -0.13578428 -0.010574577 0.03380099 -0.06060774 0.13115314
0.0415862 0.090219125 -0.036386665 0.056684803 -0.0103157535 0.032344073 0.039688695 -0.15278313
-0.16048001 -0.0057114633 0.12136762 -0.11574538 -0.047256675 0.085983485 -0.0883894 0.055902373
-0.11180203 -0.04882043 -0.081991635 -0.02755714 -0.14825812 -0.13736382 0.15817867 0.18105109
-0.017361898 0.06678551 0.0893326 0.13081732 0.15994754 0.15221027 -0.09948721 0.10240874
-0.09200241 0.033113144 0.15060647 0.15560834 0.009457688 -0.16534027 0.169168 0.17382595
-0.16569151 0.09536332 0.004406653 0.012997471 -0.0077155107 0.09680016 0.17115048 -0.0052881357
0.003020434 0.09621718 0.099802755 -0.10260224 -0.142089 0.16481976 -0.054148853 -0.12187468
0.05485285 -0.15168011 0.071131505 0.12978967 -0.009805702 0.061164252 -0.14649491 0.09110879
0.0366386 0.16748406 0.080606535 -0.057313506 0.026388131 0.10061212 -0.07439345 -0.12409367
0.15767121 0.07794862 -0.13992362 -0.15930663 0.06285965 -0.108654365 0.14217438 -0.10095712
0.060766652 -0.068890385 0.025927594 -0.06533946 -0.11500563 -0.123190366 0.018000878 0.080671296
-0.026707096 -0.16355687 -0.13096996 -0.03821337 0.17143553 -0.02226775 -0.12176942 0.01510705
0.05151983 0.1824876 0.090835616 0.1382136 -0.14831972 -0.07255599 0.01361183 -0.016010862
0.12848015 0.031180665 0.098652385 0.019698162 0.13431811 -0.17289998 0.08975286 -0.0523538
-0.082305245 -0.16542214 -0.0726411 0.014127577 -0.1764908 0.12242543 0.026189482 -0.08485878
0.12675107 0.080960944 0.10270762 -0.023800045 0.11521215 0.10046903 0.071111575 -0.18500866
-0.105296254 0.049744606 0.109722145 0.10184311 0.07466133 0.15195084 0.16043591 0.010166783
-0.15294316 0.06563782 -0.06740104 0.030494291 0.025981862 0.023501623 -0.00880968 -0.12089587
-0.021927714 0.13514179 0.037487812 0.030252496 0.16027173 0.04760142 -0.08457344 0.15565845
0.024241112 -0.14743856 0.077548414 -0.10113693 -0.0032808548 -0.039249416 0.02407547 -0.16482209
0.17082234 0.0067055235 0.030144168 -0.12802468 0.13816774 -0.090100825 0.057300147 -0.07543184

sage.2.lin_root.weight f4 [8, 32]
00000000: 6311 6abc f049 f13d 70a4 9bbd 0445 093e
00000010: 98e6 903c 7f7f 15bd 40cb 66bb 486e 86bd
00000020: 4ac8 2ebe 1b1a e1bd c6c5 983d c5a8 1e3e
00000030: 1b3d e43c 6678 e2bd 699f c5bd 2178 293e
00000040: 2920 833d eeb0 413d 694d bc3c 029b cbbd
00000050: 3ee8 42bc a5fc d23d 235a 8c3d 7642 89bc
00000060: e1c3 80bd 8411 203e 06cb 1e3e b549 0f3e
00000070: 0cd4 293e 74e6 663d b988 03be e143 4e3d
00000080: f212 adbc b3e6 cdbd d0a6 59bd 7e9e 1ebe
00000090: d2f0 c33c 2fea f4bd c381 1dbe 1f7f 97bc
000000a0: b541 e0bc 395f d0bd abe3 ae3b 0d11 4b3d
000000b0: e4a8 d23d 71a4 653d b750 983d b8a6 cf3d
000000c0: 88cc 383e 733f 223e bed6 16bd d3bc 23be
000000d0: 543a f73d b85d 5f3c 1e40 9ebd 03de 22be
000000e0: 8bed 743d f41f 6dbd 0dfc 2b3e e066 46bd
000000f0: 35eb 3f3d 48a8 99bc 80ce 9c3d 3a3d f93d
00000100: 1463 e03c f94f f8bd 8de0 573d bb9b 9f3d
00000110: 6301 f33c d2c0 c0bc 65cd 383d 4787 ca3d
00000120: a63c 53bd 8f84 38be 8086 a23d 35ff 99bd
00000130: d5c4 14be 145e d83d 80b2 d43d 5666 ea3d
00000140: e587 8fbc 1d3a 223e 4c20 dcbd 525f 7d3d
00000150: 0bac ebbd 44b9 003e 2093 143e 2a3d 9bbd
00000160: a6b2 8ebd 2ab3 32be 68be 183e df2e 01be
00000170: 502f bfbd a0dc f33d 48ee 263e ba84 3abe
00000180: d8ab 78bd f46d cdbd 3133 f53d 1de2 bbbd
00000190: 1ca6 7abd eb5b 103e 8b52 183e aa25 fbbd
000001a0: 7ea5 24be d5d5 adbd 3eec e2bc 8df5 25be
000001b0: 8bfb 01be fb62 553b 388d 8f3c 4db2 d0bd
000001c0: 421e 103e b8ef 08be ffbc cebc 007a db3d
000001d0: 2748 c33d 3599 05be c19e 83bd e35b c43d
000001e0: 3875 82bd ec5f 2b3e 4289 b23d 4559 e33d
000001f0: 383f e9bc 0a22 bf3d 500a cabd 4017 173e
00000200: 5c6f 63bc 66d5 763c d9a2 bbbc c6bd abbb
00000210: 8916 4abc 8744 0c3e 1299 9f3d a553 2bbe
00000220: de33 443d 87bc efbc 089e 69bd 6c00 01be
00000230: 239b 95bd 130b 13bd d0f3 633c 4d5d b5bd
00000240: 92ea 07be 367e 1ebe 0005 f0bd c51e 2fbe
00000250: b66c a63d 82ab 2cbe 12ac 82bd 7db7 0fbe
00000260: 6fab 333e d683 843d 7475 c73c 9553 bd3d
00000270: cff8 8cbd a84f f03d 2c0d 47bd aaa4 6abd
00000280: f1c2 37be fe78 813d 3eca 263e 1762 6c3d
00000290: 17bd c53d d611 c8bd 2596 0d3e 8f50 00bd
000002a0: 8e8f 803b c34e 08be b734 ae3d 64f2 fabd
000002b0: 778e 07be 1343 7bbc 963a 353e 38e3 ba3c
000002c0: 887e 903d ae7f 39bd 0889 0abb a865 24be
000002d0: e4e1 1a3e 61a3 c53d 8152 e43d 2ac2 d73d
000002e0: 8ef8 7b3d 2981 11be 51f9 d43d 45c5 17be
000002f0: c493 153e 87ad a8bd b8a0 0abe a954 0d3e
00000300: a6ea 243e aa8d 6dbd d907 9fbd 7912 acbd
00000310: c511 bebc a498 033e 8678 c7bd 554c 24bc
00000320: a887 13be 92f7 f73d c7a3 ea3d 8c3e a03d
00000330: 86a6 bbbc 7e19 0fbe 778e 8a3d 605f d0bd
00000340: e433 ecbd a081 1bbd 6369 3b3d d777 df3d
00000350: 6c5e ccbd cf16 c43d 9508 47bc 2969 76ba
00000360: b4ef 1dbe d0ac 9f3c 9aff 90bd 8de0 2c3e
00000370: e399 d23b 5b3e 28be 85dd 163d 4eb8 2fbe
00000380: 3916 b6bd ca2c 2ebe f8e6 bebd d332 ac3d
00000390: b8b2 d13d 94bc abbd 8189 e83d 9b5d a53d
000003a0: 46ba 3a3b 500f 173e b1f0 ab3c 2f03 cd3d
000003b0: 5ece d93d 966f ab3c 5719 7cbd 7a1f 0d39
000003c0: 188c 83bd 1701 16be 6fa7 b63c fc23 77bc
000003d0: 6823 2abe a1d1 17be 87ec 2bbe efef 20bd
000003e0: efee 8abd 57c0 9fbd f615 61bc 117b 803d
000003f0: df41 2abe 22e3 09be 752b dd3d 9420 44bd
-0.014286372 0.117816806 -0.07599723 0.13405234 0.01768808 -0.036498543 -0.0035216361 -0.06564003
-0.17068592 -0.10991307 0.07459597 0.15494068 0.027861169 -0.110581204 -0.09649546 0.16549732
0.064026184 0.047287874 0.02298613 -0.09941675 -0.011896191 0.10302094 0.0685313 -0.016755324
-0.06287361 0.15631682 0.15507135 0.13992961 0.16584796 0.05637212 -0.12845124 0.050357703
-0.021127198 -0.10053768 -0.0531376 -0.15490147 0.023918543 -0.119587295 -0.15381531 -0.018493233
-0.027375082 -0.10174412 0.0053371987 0.049576808 0.102861196 0.056065027 0.0743727 0.10139221
0.18046772 0.15844516 -0.036825888 -0.1599 0.12071672 0.013633184 -0.07727073 -0.15905003
0.05979685 -0.0578918 0.16795368 -0.048437953 0.04685517 -0.018757 0.07656574 0.12169881
0.027390994 -0.121246286 0.052704383 0.07793375 0.029663747 -0.023529444 0.045117754 0.09889083
-0.05157151 -0.18019317 0.0793581 -0.0751938 -0.1452821 0.10564819 0.10385609 0.114453
-0.017520854 0.15842481 -0.10748348 0.061858483 -0.11507424 0.12570673 0.14509249 -0.075800255
-0.06967668 -0.17451158 0.14916384 -0.12615536 -0.09335196 0.11907315 0.16301835 -0.18214694
-0.060710758 -0.100307375 0.119726546 -0.09173987 -0.06119357 0.14097564 0.14875238 -0.12263043
-0.16078755 -0.08488051 -0.02770054 -0.16206951 -0.12693612 0.0032560218 0.017523393 -0.10190258
0.14074042 -0.13372695 -0.025236605 0.10716629 0.09535246 -0.13046725 -0.06426764 0.095878385
-0.06370014 0.1673581 0.08717586 0.11101011 -0.028472528 0.09332664 -0.09865248 0.14754963
-0.013881531 0.015065527 -0.0229048 -0.0052411286 -0.012334474 0.13698016 0.07792868 -0.16731127
0.047901027 -0.029264702 -0.057035476 -0.12597817 -0.073049806 -0.035899233 0.01391311 -0.08855686
-0.13273075 -0.15477833 -0.11719704 -0.17101581 0.08126204 -0.168623 -0.06380476 -0.14034839
0.17545865 0.06470458 0.024347998 0.09244458 -0.06883394 0.11733943 -0.048596546 -0.057285942
-0.17945458 0.063219056 0.16288087 0.057710733 0.09655207 -0.09769027 0.13826807 -0.031326827
0.003923363 -0.13311295 0.08506148 -0.122532636 -0.1323794 -0.015335816 0.1769813 0.022813424
0.07055384 -0.04528778 -0.0021138806 -0.16054404 0.15125233 0.09650303 0.11148549 0.10535081
0.061516337 -0.14209427 0.10399116 -0.14821346 0.1460715 -0.08236223 -0.13537872 0.13801827
0.16105136 -0.05799643 -0.07765169 -0.08401961 -0.023201833 0.12851197 -0.09739785 -0.010027965
-0.14407218 0.12107767 0.11457019 0.0782443 -0.022906553 -0.13974568 0.06765454 -0.10174441
-0.11533335 -0.037965417 0.0457548 0.109115295 -0.09978947 0.09574663 -0.012148042 -0.00093998254
-0.1542347 0.019491583 -0.07080002 0.16882534 0.006427036 -0.16430037 0.03683235 -0.1716015
-0.088909574 -0.17009273 -0.093213975 0.084081315 0.10239166 -0.08385578 0.11354352 0.080744945
0.0028492375 0.14751935 0.020988794 0.10010373 0.106350645 0.020927232 -0.061547603 0.00013458534
-0.06423205 -0.14648853 0.022296635 -0.015084263 -0.16615069 -0.14826061 -0.16789447 -0.03929132
-0.06783854 -0.07800358 -0.013738146 0.06273473 -0.1662669 -0.1346555 0.107993044 -0.04788263

sage.2.lin_root.bias f4 [8]
00000000: 17ec 2dbe d54f 14be a295 163e 9207 363b
00000010: 1a30 f5bb fd08 09bd 021f 413d 9615 cc3d
-0.16984592 -0.14483579 0.14705518 0.0027775508 -0.007482541 -0.033455838 0.047148712 0.09965055

batch_norm.0.weight f4 [1000]
00000000: d714 803f 688e 7d3f 6af9 7b3f 944f 7d3f
00000010: eac2 7b3f 7d78 7c3f 265f 7f3f b2a1 7d3f
00000020: 77bb 7e3f 537d 7d3f 719e 7e3f b123 7e3f
00000030: 9144 7d3f 3da7 7e3f 6bd7 7e3f 2800 7e3f
00000040: c5d5 7f3f ce00 7f3f ac70 7c3f 5007 803f
00000050: bfbc 7e3f e00d 803f 93d9 7a3f 8498 7e3f
00000060: 73fa 7f3f 7d4f 7e3f 22c7 7b3f b0aa 7f3f
00000070: 91a9 7e3f edf6 7d3f 11dc 7b3f 8d00 7e3f
00000080: 1eec 7f3f 723f 7f3f 91f9 7e3f 9255 7b3f
00000090: 618a 7b3f 29c1 7a3f 3f5a 7b3f 13c6 7c3f
000000a0: 2320 7f3f d332 7d3f 1307 7d3f 3231 7e3f
000000b0: 8625 7a3f 3f1b 7f3f 5b27 7d3f 5d10 7a3f
000000c0: adb8 783f 6395 7b3f ca2b 7c3f e917 773f
000000d0: 0945 7c3f 51f2 7c3f be6f 7d3f 4005 793f
000000e0: 9127 7e3f eebf 7f3f 284f 7c3f 47d2 7f3f
000000f0: 73c0 7a3f 46d6 7c3f 6367 7b3f 514c 7a3f
00000100: 3faa 7b3f 6602 7b3f ec75 7c3f e00c 7e3f
00000110: b403 7f3f c147 7d3f fad1 7d3f e083 7d3f
00000120: cb55 7b3f 6bd2 7f3f d038 7f3f 9426 7c3f
00000130: ece9 783f 6a09 783f ab0f 793f 92fc 7a3f
00000140: 90da 7b3f 3b48 7e3f 378a 7b3f 6298 7c3f
00000150: c00a 7d3f 9128 7f3f dab9 7b3f ad56 7b3f
00000160: 3965 793f 63af 7a3f b2c1 7c3f 982e 7b3f
00000170: ad72 7b3f bd0c 7d3f cbd7 7d3f d529 7b3f
00000180: 238b 7b3f 5e0f 7b3f f4ea 7f3f 93d1 7e3f
00000190: 8a2e 803f 709e 7b3f efc7 7b3f 9fe5 7c3f
000001a0: d74a 7c3f 772f 803f 04e6 783f 49d6 7c3f
000001b0: 8a4e 793f c1b4 7f3f 957c 7d3f 1297 7e3f
000001c0: 29f3 7f3f cfe3 7b3f db86 7f3f ffeb 7a3f
000001d0: 96f2 7c3f ba55 7d3f 644f 7c3f c6fe 7d3f
000001e0: ec4e 803f 9721 7d3f e6cf 7b3f 55a1 7c3f
000001f0: 90c1 7b3f 7f29 7e3f 5fe6 7b3f b4cb 7d3f
00000200: 2d06 803f e06f 7b3f 2586 7c3f 29b0 7b3f
00000210: 01c5 7f3f 5013 7d3f cfcd 7a3f a2bb 7c3f
00000220: 68e1 7d3f eb8c 7f3f 939f 7b3f 9233 7e3f
00000230: 7244 7f3f 187b 7c3f 757c 7d3f ffde 7e3f
00000240: c861 7e3f 8797 7c3f 6aa0 7f3f 9108 7c3f
00000250: ee41 7c3f 3f60 7b3f 3556 7a3f 4117 7d3f
00000260: 091f 7c3f feca 7b3f 0e2d 7e3f 7300 7b3f
00000270: 582c 7b3f 3c86 813f d852 7b3f 6f70 7c3f
00000280: 990a 7e3f 3d8c 7f3f 96c3 7c3f 4c90 7b3f
00000290: 8fb5 7c3f f6af 7d3f a2a6 7b3f c520 7d3f
000002a0: 7bb2 7b3f c855 7c3f 9e11 7d3f 4d92 7d3f
000002b0: b85e 7c3f a9a4 7d3f 75d8 7d3f d4b2 7a3f
000002c0: 5076 7d3f 2dd7 7c3f 5c99 7c3f 3d80 7b3f
000002d0: afb6 7d3f d1f3 7c3f 8aac 7c3f d0f7 7b3f
000002e0: dd0b 7d3f df6a 7a3f 87d0 7c3f 11ad 7f3f
000002f0: ab99 7d3f 22c5 7d3f 1ee0 7e3f c241 7c3f
00000300: 5259 7b3f 9fd3 7e3f 5dcd 7b3f 4416 7d3f
00000310: 4011 7d3f 06cb 7c3f c6a2 7c3f e45f 7b3f
00000320: 3fc7 7d3f 11d6 7d3f 62a3 7d3f 5659 7e3f
00000330: d3a9 7f3f eeae 7c3f ca96 7c3f df31 7d3f
00000340: 8955 7d3f c977 7d3f 7435 7e3f eb90 7b3f
00000350: 3dfe 7c3f 5001 7d3f b7b7 7c3f 7672 7d3f
00000360: e5ba 7c3f fefb 7e3f b4d1 7f3f 2496 7d3f
00000370: 42c1 7c3f 370b 7d3f 906d 7c3f f912 7e3f
00000380: b838 7e3f 455e 7e3f 72b1 7c3f f5c4 7d3f
00000390: c87a 7d3f 14bb 7b3f 774b 7c3f 4d2e 7d3f
000003a0: 978b 7c3f 5f85 7e3f 329b 7b3f ab7d 7d3f
000003b0: 9000 7c3f a8c3 7b3f bc57 7e3f 605b 7d3f
000003c0: 2579 7d3f 4d48 7c3f cc99 7d3f ae94 7d3f
000003d0: 608a 7c3f cb8a 7d3f ed01 7e3f 44e8 7b3f
000003e0: f7b5 7b3f 0388 7d3f 87d1 7d3f b210 7c3f
000003f0: 2090 7d3f 2377 7e3f 285e 7c3f 28db 7c3f
1.000636 0.9904542 0.9842745 0.9894955 0.9834429 0.9862135 0.9975456 0.9907485
0.995048 0.99019355 0.9946051 0.9927321 0.9893275 0.99473935 0.9954745 0.9921899
0.9993556 0.996106 0.98609424 1.0002232 0.99506754 1.0004234 0.9798824 0.9945147
0.9999153 0.9934004 0.9835073 0.99869823 0.9947749 0.99204904 0.9838267 0.9921959
0.9996966 0.99706185 0.9959956 0.98177445 0.98258024 0.9795099 0.9818458 0.9873974
0.9965841 0.98905677 0.9883892 0.99293816 0.97713506 0.9965095 0.98888177 0.9768122
0.9715679 0.9827482 0.98504317 0.9652086 0.9854284 0.98807245 0.9899863 0.97273636
0.99279124 0.99902236 0.9855828 0.9993023 0.97949904 0.98764455 0.9820463 0.977727
0.9830665 0.98050535 0.98617435 0.99238396 0.99615026 0.9893761 0.99148524 0.9902935
0.98177785 0.9993045 0.99696064 0.98496366 0.97231936 0.96889365 0.9728953 0.9804164
0.98380375 0.99328965 0.98257774 0.9867002 0.9884453 0.99671274 0.9833046 0.9817913
0.9742008 0.9792387 0.98733056 0.9811797 0.98221856 0.9884756 0.991574 0.98110706
0.9825918 0.98070323 0.99967885 0.99538535 1.0014203 0.9828863 0.9835195 0.98787874
0.98551697 1.0014485 0.97225976 0.98764473 0.97385466 0.99885184 0.9901822 0.99449265
0.9998041 0.98394483 0.9981515 0.9801635 0.98807657 0.98958933 0.9855864 0.9921688
1.0024085 0.9887938 0.983641 0.98683673 0.9834223 0.9928207 0.98398393 0.9913895
1.0001885 0.9821758 0.9864219 0.98315674 0.9990998 0.98857594 0.9797029 0.98723805
0.9917207 0.998244 0.98290366 0.9929744 0.99713814 0.98625326 0.9901803 0.99559015
0.9936795 0.9866871 0.9985415 0.9845057 0.985381 0.98193735 0.9778779 0.9886361
0.98484856 0.98356616 0.992875 0.9804756 0.9811454 1.011909 0.98173285 0.9860906
0.9923492 0.9982336 0.9873594 0.98267055 0.98714536 0.9909662 0.98301136 0.9887813
0.98319215 0.9856839 0.98855007 0.9905136 0.9858203 0.99079376 0.9915841 0.9792912
0.99008656 0.9876583 0.9867151 0.9824255 0.9910688 0.98809534 0.98700774 0.98425007
0.98846227 0.9781932 0.9875569 0.99873453 0.99062604 0.99128926 0.99560726 0.9853784
0.98183167 0.9954166 0.98360234 0.988621 0.98854446 0.9874729 0.9868587 0.9819319
0.9913215 0.99154764 0.9907743 0.99355066 0.99868506 0.9870442 0.98667586 0.9890422
0.9895864 0.990109 0.99300313 0.98268 0.98825437 0.9883013 0.98717827 0.9900278
0.9872268 0.9960326 0.99929357 0.9905722 0.9873239 0.9884524 0.9860468 0.992477
0.99305296 0.99362594 0.9870826 0.9912866 0.99015474 0.98332334 0.9855265 0.98898774
0.986505 0.9942226 0.98283684 0.9901988 0.9843836 0.9834542 0.9935262 0.9896755
0.99012977 0.9854782 0.990628 0.9905499 0.98648643 0.99039906 0.9922169 0.98401284
0.9832453 0.9903566 0.9914784 0.98462975 0.9904804 0.9940054 0.9858117 0.98771906

batch_norm.0.bias f4 [1000]
00000000: 62d2 04bc ab62 acbb 3238 45bb 0687 2fbb
00000010: 67d3 03bc b6fd 8abb df0e c3bb fae3 cbbb
00000020: ef5e 8a3b 7f1c f4ba 1017 b5bb ad08 20bb
00000030: 9666 5dbb d61d 7fbb 4ba9 8cbb c75b 0abc
00000040: 69cd 82bb 89a9 cdbb 4c7a 1fbb 8ce4 c3bb
00000050: f939 18bc 43aa 5dbb 39d4 a5bb 76dd abbb
00000060: 8a3a ec39 b2cb 0d3c 103c 1abc 9770 7ebc
00000070: a8b6 afbb 5861 3fbb 24f6 ddbb 9209 36bb
00000080: 7d79 a8bb 80c0 8bbb efa2 edbb edb7 ecbb
00000090: fe65 5bbc 3420 14bc 3030 03bc 4d11 fabb
000000a0: 5b4f 063c 522e 6dbb c692 b7bb f3c9 05bc
000000b0: 0dde 41bb 3502 393b 7091 71bb 8444 b2bb
000000c0: 3f4a debb fc5c 36bc 9639 b6bb a06b a93b
000000d0: 6df4 54bb a256 36bc e777 0ebb 66cc 4a38
000000e0: d824 f53a f159 85bb 9dad e3bb 234f b3bb
000000f0: d883 91bb ee4c c0bb 61ff 55bb 024d efbb
00000100: 9392 15bc a532 acbb f91a b9bb 02f6 653a
00000110: 32ec 743b b9f5 8abb 4894 97ba 2477 46bb
00000120: 407b debb e76a c4bb 36fe 1a3c 031c cbbb
00000130: e698 05bc 5969 abbb aaee edbb 24fc b1bb
00000140: 96be 00bc 2a10 83bb 9c24 94bb dce4 bfbb
00000150: 43bb 24bc 8116 1e3b 24f6 dabb e021 01bc
00000160: 40f5 59bb 0a74 babb 0ad7 b6bb 0f0a c5bb
00000170: 5b0f b9bb 7505 aebb 1051 933b 6fac c7bb
00000180: 38ef ddbb e5f7 8fbb 3014 9b3b ff48 9ebb
00000190: f66c a8bb b29c 52bb 5772 3fbb 7614 6dbb
000001a0: 8021 29bc 0dc2 0dbc c5ed babb d4d3 ffbb
000001b0: e331 5fbc 3154 a0bb 0de7 c7bb 7034 c1bb
000001c0: cb26 12bc 7076 dbbb 94ec a2bb fef8 113b
000001d0: fe9e df3b d59e e5bb 60a0 f7bb 6ff9 1dbc
000001e0: 6426 a2bb 0f8e 00bc 0190 68bc 3436 9fbb
000001f0: 39d9 d1ba 091a d9bb b0ac babb e16d d3bb
00000200: 4afb b6bb beae 21bc 0779 28bc 3d84 9bbb
00000210: 2aa4 3b3b 6167 9dbb bb3c 01bc e70c 97bb
00000220: 8027 10bb 5b3b 1abc 4d9d e23b aadd a9bb
00000230: 0de0 b4bb ee8d efbb 3793 f4bb 7b3c 07bc
00000240: d292 9eba 3d5d b6bb d528 44bb 4d64 77bb
00000250: a489 afbb a356 cfbb 82cd bebb f971 bd3b
00000260: 9c65 95bb b80b a8bb cc08 d9bb 2aff 03bc
00000270: f550 8039 eca8 05bb 90c0 1cbc 2ae2 debb
00000280: 91be 12bb e9d9 bebb 3f34 14bc 319e 12bc
00000290: 9fcc dbbb 2466 cbbb e3e4 10bc eb74 eabb
000002a0: 0de6 5dbb be64 50bb a1c2 cfbb 119a debb
000002b0: 844a ebbb f0a8 94bb d6ea 18bc 8e04 f4ba
000002c0: 6416 f03b 7fc3 a8bb 263c b7bb 67d5 00bb
000002d0: 296c 4ebb 3c87 8ebb 62bb e8bb 14cb a3bb
000002e0: 56c8 bcbb 6c66 1abc 4c17 afbb f35d 5dbc
000002f0: 1e3e cfbb e9ce ccbb f7bc 9abb faa5 22bc
00000300: cac8 99bb e430 bebb 629b 02bc 266c 7fbb
00000310: f5c4 c23b f4dd efbb 2720 e0bb b7a4 bbbb
00000320: 08c7 0cbc 927d dbbb 12ad dab8 f712 aebb
00000330: e358 91bb 7f06 70ba 0c76 b2ba 21dd 20bb
00000340: 7d2f e3bb 100b cfbb 72fb 0bbc 0b83 e5bb
00000350: a03b f83b 9847 e6bb 8bbb b6bb b689 febb
00000360: 11a0 e9bb 4157 17bc 55e2 ad3a 70b8 5fbb
00000370: 8644 9fbb 7efe c5bb aa8e f2bb 02fe 81bb
00000380: 3255 4439 a60a c8bb 40bd 03bc 1f0a d0bb
00000390: 27d5 ca3b 537e 02bc 1951 65ba 5d63 70bb
000003a0: 747d f4bb 7600 86bb 16d3 1fbc 8e36 cabb
000003b0: 309b d9bb cc15 26bc 968f 7fbc e84f 00bc
000003c0: e430 bfbb b8c3 f5bb c3da 6abb 8137 893a
000003d0: cd84 e0bb cf13 73bb 530a 9fbb 7481 a7bb
000003e0: 4be7 95bb 058c c0bb b757 cfbb f112 afba
000003f0: f360 d3bb da8e c7bb 7035 5cbc b70b 0abc
-0.0081068 -0.0052607856 -0.003009331 -0.002678336 -0.008046008 -0.0042416705 -0.0059527005 -0.0062222453
0.0042227427 -0.0018624215 -0.005526431 -0.0024419234 -0.003378307 -0.0038927696 -0.004292642 -0.008444733
-0.003991772 -0.0062763137 -0.002433437 -0.0059781726 -0.0092911655 -0.0033823408 -0.0050606993 -0.005244906
0.00045057043 0.008654522 -0.009413734 -0.015529773 -0.0053623505 -0.0029202309 -0.006773727 -0.00277767
-0.0051414357 -0.004264891 -0.007252089 -0.007224074 -0.013391016 -0.009040881 -0.008007094 -0.007631457
0.008197631 -0.003619094 -0.0056022136 -0.008165824 -0.0029581815 0.0028230075 -0.003686037 -0.0054402966
-0.006783753 -0.011130568 -0.005561064 0.0051703006 -0.0032494322 -0.011129053 -0.0021738948 4.8350914e-05
0.0018702997 -0.0040695597 -0.0069481866 -0.0054720803 -0.004440766 -0.0058685457 -0.0032653438 -0.007302881
-0.009129184 -0.0052550607 -0.0056489673 0.0008772315 0.0037372229 -0.004240718 -0.0011564577 -0.0030283416
-0.006789595 -0.005994189 0.009460023 -0.0061984076 -0.00815413 -0.0052310643 -0.007261117 -0.005431669
-0.007857939 -0.0039997296 -0.0045209657 -0.0058561396 -0.010054412 0.00241223 -0.0066821743 -0.007881612
-0.0033257753 -0.0056901025 -0.005579834 -0.006013162 -0.0056475825 -0.005310709 0.0044957474 -0.0060935537
-0.006772902 -0.004393565 0.004732631 -0.004830479 -0.0051399423 -0.0032136855 -0.002921244 -0.0036175526
-0.010322928 -0.008652222 -0.005704614 -0.0078072343 -0.013622734 -0.004892849 -0.0061005414 -0.0058961436
-0.008920382 -0.0066974685 -0.00497205 0.0022273655 0.0068243733 -0.0070074596 -0.00755696 -0.009641989
-0.004948424 -0.007846369 -0.014194489 -0.0048587564 -0.0016010172 -0.006625418 -0.0056968555 -0.0064523076
-0.005584155 -0.009868322 -0.010282761 -0.0047459886 0.0028631785 -0.0048035835 -0.007888014 -0.0046096924
-0.00219962 -0.0094135655 0.0069157244 -0.005183895 -0.005519873 -0.0073106205 -0.0074638384 -0.008254166
-0.0012098199 -0.005565314 -0.0029931564 -0.0037748993 -0.005356984 -0.0063274666 -0.0058228383 0.005781409
-0.004559232 -0.00512835 -0.006623363 -0.008056441 0.0002447438 -0.0020394875 -0.009567395 -0.006801863
-0.0022391418 -0.0058243168 -0.00904566 -0.008948849 -0.0067077423 -0.0062072445 -0.008843633 -0.007155051
-0.0033859045 -0.0031798328 -0.0063403402 -0.0067932685 -0.007180514 -0.0045367405 -0.009333333 -0.001861708
0.007326888 -0.005150258 -0.005591887 -0.0019658448 -0.0031497574 -0.0043496173 -0.007102416 -0.004998574
-0.0057611866 -0.009423833 -0.0053433534 -0.013511169 -0.0063245436 -0.0062502516 -0.0047222334 -0.009927267
-0.0046931254 -0.005804168 -0.007971616 -0.0038974374 0.0059438893 -0.00732016 -0.0068397704 -0.0057264226
-0.008592375 -0.0066983188 -0.00010427287 -0.0053123194 -0.004435645 -0.00091562414 -0.0013615503 -0.0024545866
-0.0069331513 -0.0063184574 -0.008543836 -0.007004147 0.007575467 -0.0070275776 -0.005576556 -0.0077678813
-0.007129677 -0.009237112 0.0013266305 -0.0034137033 -0.0048604636 -0.0060423007 -0.007402261 -0.0039670477
0.00018723754 -0.006104785 -0.008040726 -0.006348863 0.0061899605 -0.007964688 -0.0008747741 -0.003668032
-0.0074612442 -0.0040894104 -0.009754917 -0.006171054 -0.0066408142 -0.010137033 -0.015598198 -0.007831551
-0.0058346856 -0.007500138 -0.0035835959 0.0010468812 -0.0068517686 -0.0037090664 -0.0048535257 -0.0051118676
-0.0045746914 -0.0058760666 -0.006327595 -0.0013357085 -0.006450766 -0.0060900273 -0.013440475 -0.008425645

batch_norm.0.running_mean f4 [1000]
00000000: 1682 7c3e 78b4 803e ecdb 833e dbbb 843e
00000010: 1f6e 843e 2bb7 843e d0fe 853e a7ea 863e
00000020: 09ef 853e 1c52 873e 6a8c 883e 5c3d 893e
00000030: 3701 883e 16e7 883e 315a 8a3e e3bb 8a3e
00000040: 6e1b 893e 1505 8a3e 8c78 8b3e 369a 8b3e
00000050: 8a23 8b3e 26ad 8b3e 146f 8c3e efd0 8c3e
00000060: a8ae 8b3e ba41 8c3e e808 8d3e f4db 8c3e
00000070: 8ee9 8c3e 13c9 8d3e ec34 8e3e 12e3 8e3e
00000080: 0093 8d3e 4dd9 8d3e 5af1 8e3e 86de 8e3e
00000090: 9605 8e3e 9c5a 8e3e d0f9 8e3e 8875 8f3e
000000a0: 3ac3 8e3e 500e 8f3e 54ac 8f3e 9e24 903e
000000b0: e050 8f3e 641d 8f3e 23a5 8f3e bdce 8f3e
000000c0: d831 903e 9ce8 8f3e 049c 903e eb5c 903e
000000d0: 48ee 8f3e 8deb 903e 9660 913e eb2e 913e
000000e0: 4db9 903e d784 913e 4b5e 913e 302d 923e
000000f0: 8253 913e 5995 913e 62c4 913e 1112 923e
00000100: 6b06 913e b788 913e d005 923e 9b95 923e
00000110: 9aff 913e 06f3 913e b466 923e 94c4 923e
00000120: 4a45 933e 4ae5 913e d0bc 923e a1fb 923e
00000130: 57fd 923e 1bde 923e 8ede 933e 2ac8 953e
00000140: 120f 943e 0648 933e 9b59 933e 9f91 933e
00000150: 31a1 933e ae7c 933e 16ce 923e 818c 933e
00000160: a020 933e dcfe 923e 61d8 923e ee8c 933e
00000170: c2f1 923e 80c6 933e d7b8 943e 5506 953e
00000180: 2101 953e 8ea1 943e 88dc 943e 1a4c 943e
00000190: bf58 933e f5a2 923e 44cf 923e 1bbf 933e
000001a0: 2028 933e fcad 923e 7fed 933e 1055 943e
000001b0: 1c13 933e ab03 933e 79e4 923e d512 933e
000001c0: de02 943e 7c4f 943e 9d87 933e eeb0 933e
000001d0: 06a5 933e 52ab 933e edff 933e 1c9d 933e
000001e0: 41fa 923e 9cda 923e dea7 923e 82fc 923e
000001f0: d4ec 923e f7db 923e 6a9c 933e e0e0 923e
00000200: bf1e 933e e8f1 923e d394 923e 58cb 933e
00000210: 4eea 923e e876 923e 50b6 923e 938a 933e
00000220: 9dc8 923e cff5 923e 2781 923e 5cbb 923e
00000230: 34c9 923e 65c1 913e b3f9 913e 8d62 923e
00000240: f74b 913e fd76 913e 4f7a 913e ad32 913e
00000250: 049b 913e 59e9 913e fe53 913e b096 913e
00000260: ad85 903e 8757 903e fd05 903e e171 903e
00000270: 53c9 903e 4874 8f3e ee11 903e 0add 903e
00000280: 411c 903e 4f8a 8f3e 1d83 8f3e f4b6 8f3e
00000290: 35b5 8e3e faa2 8e3e 6660 8e3e 8acd 8e3e
000002a0: bec1 8e3e bce4 8d3e e575 8e3e 57f0 8d3e
000002b0: f8e6 8c3e a517 8d3e 8e94 8d3e 5cba 8d3e
000002c0: 2a62 8d3e 258c 8d3e 17d2 8c3e bb45 8d3e
000002d0: ca55 8d3e 66ff 8c3e 938e 8c3e 5150 8c3e
000002e0: 4380 8b3e 9b96 8b3e 1be1 8b3e 14c9 8b3e
000002f0: cc07 8b3e 91cb 8a3e 9214 8b3e 3e48 8b3e
00000300: d0e9 8a3e e73a 8b3e 0012 8b3e 0e44 8b3e
00000310: b06f 8a3e 8d63 8a3e fa44 8a3e 2519 8a3e
00000320: acf8 893e 864c 893e 6ba5 893e 8616 893e
00000330: b763 893e 9ae9 883e 3e04 893e 9e00 893e
00000340: c73e 883e aa45 883e 704c 883e 507e 883e
00000350: 3034 883e 57eb 873e 5878 873e 125c 873e
00000360: 2144 873e b2b1 873e 7650 873e 9af2 863e
00000370: 16e5 863e f14f 863e 1b32 863e 238a 863e
00000380: 4a7d 863e 53eb 853e 3410 863e bcf3 853e
00000390: 1370 853e 6def 843e fc20 853e 250d 853e
000003a0: 9496 843e 5b8d 843e f9a8 843e 7d11 843e
000003b0: 8a84 843e f933 843e 9473 833e a370 833e
000003c0: d159 833e 246b 833e 49d5 833e 6e4c 833e
000003d0: 72da 823e 96a3 823e 5ff1 823e ad62 823e
000003e0: 65de 813e 2de4 813e 41b1 813e 9502 813e
000003f0: 36e6 803e f0ed 803e ae71 803e 38a9 803e
0.24658999 0.25137687 0.25753725 0.25924572 0.25865266 0.25920996 0.2617097 0.263509
0.26158932 0.26429832 0.26669627 0.26804626 0.26563427 0.26738805 0.27021936 0.2709647
0.2677874 0.26957002 0.27240407 0.2726609 0.27175552 0.2728054 0.27428496 0.27503154
0.2728169 0.27393895 0.27545857 0.2751156 0.27521938 0.2769247 0.2777475 0.27907616
0.27651215 0.2770485 0.27918512 0.27904147 0.27738637 0.27803504 0.27924967 0.28019357
0.2788332 0.27940607 0.28061163 0.28152937 0.2799139 0.2795211 0.28055677 0.28087416
0.28163028 0.28107154 0.2824403 0.2819589 0.28111482 0.2830471 0.28394002 0.28356108
0.28266373 0.2842166 0.28392252 0.285501 0.28384024 0.28434256 0.2847014 0.2852941
0.2832521 0.28424618 0.2852006 0.28629765 0.2851532 0.28505725 0.2859398 0.28665602
0.287638 0.28495246 0.28659678 0.28707603 0.28708908 0.28685078 0.28880733 0.29254276
0.28917748 0.28765887 0.287793 0.28822038 0.28833917 0.2880606 0.28672856 0.28818133
0.28735828 0.28710067 0.2868071 0.28818458 0.28700072 0.2886238 0.29047272 0.29106393
0.29102424 0.29029506 0.29074502 0.2896431 0.28778645 0.2863995 0.28673756 0.2885674
0.2874155 0.28648365 0.28892133 0.28971148 0.28725517 0.28713736 0.28689936 0.28725305
0.28908437 0.28966892 0.28814402 0.28845924 0.2883684 0.28841645 0.28906193 0.28830802
0.28706554 0.2868241 0.28643698 0.28708273 0.2869631 0.28683445 0.28830272 0.2868719
0.28734395 0.28700185 0.2862917 0.28866076 0.28694385 0.28606343 0.28654718 0.2881666
0.2866868 0.28703162 0.2861416 0.2865857 0.2866913 0.2846786 0.28510818 0.28590813
0.2837827 0.28411093 0.28413627 0.28358975 0.2843858 0.28498343 0.28384393 0.28435278
0.28226987 0.28191778 0.2812957 0.28211883 0.28278598 0.28018403 0.2813868 0.2829364
0.28146556 0.2803521 0.2802972 0.2806927 0.27872625 0.27858716 0.2780792 0.2789119
0.2788219 0.27713573 0.2782432 0.27722427 0.27519965 0.27557102 0.276524 0.27681243
0.27613956 0.27645984 0.27504036 0.27592263 0.27604514 0.27538604 0.27452525 0.27405027
0.27246293 0.2726334 0.2732018 0.27301848 0.27154386 0.27108434 0.2716413 0.27203554
0.2713151 0.27193376 0.2716217 0.2720036 0.27038336 0.27029076 0.2700575 0.2697231
0.26947534 0.26816195 0.26884016 0.26774997 0.2683389 0.26740724 0.2676105 0.26758283
0.26610395 0.2661565 0.26620817 0.2665887 0.26602316 0.26546738 0.26459002 0.26437432
0.26419166 0.26502758 0.26428574 0.26356965 0.26346654 0.26232865 0.26210102 0.26277265
0.26267463 0.261561 0.26184237 0.26162517 0.26062068 0.25963917 0.26001728 0.2598659
0.25896132 0.25889096 0.25910166 0.25794592 0.2588237 0.25820902 0.25674117 0.25671872
0.25654462 0.2566768 0.2574866 0.2564425 0.25557286 0.2551543 0.25574777 0.2546591
0.25364986 0.25369397 0.25330546 0.25197282 0.25175637 0.25181532 0.2508673 0.25129104
