Saves/L_50k.pth (torch, 163319 bytes, 40 tensors)

sage.0.lin_rel.weight f4 [32, 3]
-0.086236104 0.21765631 -0.48533267 -0.2922329 -0.1806552 -0.36475345 -0.21402732 -0.30740947
0.2596403 0.18822 0.20699058 0.0075847106 -0.40329295 -0.25808966 -0.22677802 -0.19506682
0.22329992 -0.2867929 0.05242369 -0.120121956 0.41752592 0.14179651 0.11845184 -0.50062793
0.041038413 -0.4711766 -0.1416434 0.4411744 0.35628143 0.016325874 -0.2750691 0.21015504
-0.46289104 0.07943273 -0.27484113 -0.3893919 -0.41452453 -0.089282654 0.24567324 0.06263722
0.4339701 0.015555056 0.28997168 0.32937944 0.16359857 -0.16291602 -0.53162014 0.14611073
0.06263389 -0.46637908 -0.11851273 -0.4083418 0.17453408 -0.34743762 -0.33278918 -0.0661277
0.20828575 -0.4480271 0.29085177 0.20355694 -0.41249993 -0.2217504 0.2947564 0.3181883
0.07940127 0.07446045 0.24456578 -0.22571516 0.14708838 -0.4989056 0.43072355 0.45778188
-0.037950758 0.44148293 0.15934636 -0.26195323 -0.509043 0.5466625 0.19369002 0.10127804
0.4448998 -0.21424091 0.20363727 0.13289659 -0.39545935 -0.43250456 0.049415167 -0.019285116
-0.42055053 -0.17613612 -0.36690417 -0.5851403 0.5433607 -0.5252366 0.47032264 -0.18384935
00000000: 8e9c b0bd 4ce1 5e3e 867d f8be 8d9f 95be
00000010: adfd 38be f7c0 babe fa29 5bbe c664 9dbe
00000020: 93ef 843e bebc 403e 57f5 533e 2a89 f83b
00000030: 6a7c cebe 5424 84be 7f38 68be 99bf 47be
00000040: bca8 643e 85d6 92be 39ba 563d 8002 f6bd
00000050: f5c5 d53e 1b33 113e e196 f23d 2729 00bf
00000060: e517 283d 0f3e f1be f80a 11be 9ce1 e13e
00000070: 856a b63e d7bd 853c dbd5 8cbe e232 573e
00000080: 0e00 edbe a1ad a23d fab7 8cbe 605e c7be
00000090: 8f3c d4be d3d9 b6bd c491 7b3e f147 803d
000000a0: 5431 de3e a2da 7e3c 2b77 943e 6ca4 a83e
000000b0: 6286 273e 75d3 26be 4218 08bf 0d9e 153e
000000c0: 3246 803d 3dc9 eebe cdb6 f2bd 2d12 d1be
000000d0: 10b9 323e 58e3 b1be 5863 aabe f66d 87bd
000000e0: dc48 553e cf63 e5be 86ea 943e 3b71 503e
000000f0: 3133 d3be 8912 63be 50ea 963e 94e9 a23e
00000100: 229d a23d b87e 983d 746f 7a3e e021 67be
00000110: 569e 163e 8e70 ffbe cc87 dc3e 6362 ea3e
00000120: 4172 1bbd 0d0a e23e b12b 233e bc1e 86be
00000130: a450 02bf 13f2 0b3f ad56 463e dc6a cf3d
00000140: e8c9 e33e f861 5bbe 4a86 503e 0b16 083e
00000150: a679 cabe 3d71 ddbe 8f67 4a3d d2fb 9dbc
00000160: 6652 d7be 075d 34be ddda bbbe c1cb 15bf
00000170: b019 0b3f e875 06bf 21ce f03e 0143 3cbe

sage.0.lin_root.weight f4 [32, 3]
0.58323485 0.1742112 0.2467597 0.2015688 0.080656655 -0.51177675 0.36930534 0.13381945
-0.2588094 -0.24881572 0.481449 0.54003793 -0.09000331 0.4368349 -0.061472464 -0.56971484
-0.40258223 0.54880583 -0.33391535 0.2178902 0.027763916 0.07738694 0.35090467 0.1584311
0.071522854 -0.35995716 0.4391107 -0.10408414 0.2622081 -0.020359283 0.23747683 -0.25682247
0.25091818 -0.433984 0.28289682 0.4077831 -0.37730336 0.5030713 0.49063307 0.015263554
-0.2648841 -0.10449656 0.4605918 0.25871924 -0.31183845 0.26686758 -0.13392574 0.10887035
0.030821204 0.5965387 -0.21641782 -0.36446193 0.49799684 -0.19491254 0.5033353 0.539307
-0.45999682 0.363199 0.16499032 -0.27815452 -0.16457984 0.0014281606 0.21150737 -0.05728767
0.5035693 0.060538117 -0.07289954 -0.20150602 -0.1410973 -0.58787876 0.15424992 0.06221602
0.19483355 0.38490096 -0.26736715 -0.53046817 0.5015907 0.46816486 -0.5435717 -0.4085716
0.5035712 -0.4035619 0.2840831 -0.44936016 0.16520797 0.1885798 -0.09502194 -0.13771683
-0.54392785 0.16521186 0.30502695 -0.070446126 0.17858832 0.110476814 -0.2726607 0.52276504
00000000: e14e 153f 6c64 323e 93ae 7c3e 0d68 4e3e
00000010: 512f a53d cd03 03bf 9715 bd3e f707 093e
00000020: aa82 84be 8cc9 7ebe 7c80 f63e ed3f 0a3f
00000030: a853 b8bd d3a8 df3e 8dca 7bbd d5d8 11bf
00000040: 421f cebe 8a7e 0c3f f4f6 aabe 9c1e 5f3e
00000050: 2771 e33c 0b7d 9e3d c7a9 b33e c33b 223e
00000060: 937a 923d 4e4c b8be 1ed3 e03e 112a d5bd
00000070: 2440 863e 83c8 a6bc 202d 733e 3c7e 83be
00000080: 5978 803e 2733 debe dad7 903e f2c8 d03e
00000090: e82d c1be 48c9 003f 4234 fb3e fc13 7a3c
000000a0: e49e 87be 4b02 d6bd b0d2 eb3e d976 843e
000000b0: 4aa9 9fbe dea2 883e d423 09be 6bf7 de3d
000000c0: c07c fc3c c3b6 183f a29c 5dbe c19a babe
000000d0: 71f9 fe3e 2797 47be 95da 003f 0610 0a3f
000000e0: b484 ebbe 38f5 b93e 39f3 283e 456a 8ebe
000000f0: 9e87 28be 1e31 bb3a 6395 583e 7aa6 6abd
00000100: ebe9 003f d1f6 773d 5b4c 95bd 9857 4ebe
00000110: d07b 10be 397f 16bf b1f3 1d3e 3ad6 7e3d
00000120: 7282 473e bd11 c53e 59e4 88be c3cc 07bf
00000130: 4068 003f 4eb3 ef3e 8427 0bbf 4c30 d1be
00000140: 0bea 003f aa9f cebe 5773 913e 8912 e6be
00000150: 472c 293e 101b 413e dd9a c2bd a405 0dbe
00000160: db3e 0bbf 4c2d 293e 7e2c 9c3e 0f46 90bd
00000170: dbdf 363e ab41 e23d 2f9a 8bbe eed3 053f

sage.0.lin_root.bias f4 [32]
0.20692354 0.23008679 0.45642555 -0.4492786 -0.097836696 -0.030361995 0.5610395 0.27069727
0.41052198 0.4011453 0.18886569 0.11747407 0.37469816 0.37583044 -0.47579983 -0.16047214
-0.47722805 -0.03586307 -0.10894086 -0.3697157 -0.09088652 -0.2876581 0.5332121 -0.2289916
-0.3641111 0.38634267 0.5336992 -0.2956154 -0.17573658 -0.35280785 -0.48741844 0.2826244
00000000: c4e3 533e df9b 6b3e 9cb0 e93e d807 e6be
00000010: 9b5e c8bd b8b9 f8bc 49a0 0f3f d598 8a3e
00000020: f02f d23e eb62 cd3e 0266 413e 3f96 f03d
00000030: 70d8 bf3e d96c c03e 099c f3be cf52 24be
00000040: 3c57 f4be 28e5 12bd 631c dfbd 604b bdbe
00000050: b622 babd ec47 93be 9780 083f c67c 6abe
00000060: c56c babe b5ce c53e 83a0 083f e75a 97be
00000070: 4af4 33be 3ba3 b4be e98e f9be 25b4 903e

sage.1.lin_rel.weight f4 [32, 32]
0.0200789 -0.14816234 0.08309875 -0.13804184 -0.14658205 0.05020476 0.15094757 0.098873004
0.068019845 0.14088571 -0.10812347 -0.049038846 -0.17779066 -0.08246764 -0.13980874 0.1390904
0.07594013 0.09476663 0.12624878 0.08346917 -0.040239453 -0.15083744 -0.098276064 0.1732578
0.049290482 -0.18102136 -0.041321374 -0.0667387 0.039169088 0.1368229 -0.14555708 -0.050261218
0.15288034 -0.1804818 -0.12998682 0.15227528 -0.17433871 0.094065405 -0.12673622 0.1813992
0.020345047 0.057646014 -0.15387945 0.081328616 -0.06964602 0.05198357 0.15624289 0.014357526
0.12933627 0.07024632 -0.06361637 0.06202508 -0.040510662 -0.13271685 -0.019934325 0.037524156
-0.023641868 0.14671665 -0.026260901 -0.14079136 0.12152107 0.1579654 -0.11906788 -0.15393864
0.06482193 -0.05402494 0.11028739 -0.111398764 -0.040240474 -0.11042244 -0.14006998 -0.027566202
0.047634713 -0.04363397 0.020591512 -0.14700349 0.1641958 -0.09131841 -0.050264586 -0.08404916
0.1819156 0.063227095 -0.14695784 0.077058695 0.04358917 -0.035007212 0.032503545 -0.1401255
0.100902796 -0.064557955 0.036088992 0.14398141 -0.029588947 -0.15812764 -0.0870328 0.11525377
-0.041622397 0.14101493 -0.05429533 -0.08243298 0.04450428 0.056345046 0.011330347 -0.043105558
0.074526966 0.09958459 0.033412375 -0.1198217 -0.10717044 -0.011806324 -0.04868006 0.03208314
-0.084459685 -0.04654964 0.013524008 0.090774775 -0.037740875 0.02254703 0.14087728 -0.107376695
0.034596007 0.015941828 -0.052162465 -0.14178489 0.036145356 0.07248042 0.12493685 0.03915557
-0.08036445 0.104669064 0.08986483 -0.05594264 0.16675489 0.05858225 0.08716514 0.07960412
0.066780835 0.056355648 0.06799806 0.07458988 0.100202546 0.14222433 0.11756005 0.1656725
0.16706254 -0.15969278 -0.09070778 -0.09391349 -0.048287123 -0.05872882 -0.116582945 -0.1286067
-0.11657242 -0.05041165 0.13315935 0.16303612 0.16164483 -0.06040384 -0.020113062 0.16023856
-0.106801175 0.124507785 0.14060196 0.05346701 0.17296016 0.116435036 0.11884963 -0.14090408
-0.074248694 -0.06893548 0.12721257 0.14129682 -0.075493224 0.060239516 -0.027955953 -0.11627522
0.02565511 0.16533016 -0.043012273 -0.06390892 0.035005473 0.09338738 0.1402472 0.014717905
-0.124000944 0.09028903 -0.015280919 -0.053026117 0.03614537 0.06608421 0.038352918 -0.01855055
0.0111407535 0.14857239 0.15204422 0.0079352325 0.12056003 0.13600266 0.1590949 0.035344698
0.12978907 -0.05373519 -0.06438422 0.11911014 0.020924823 -0.026983107 0.13106796 0.09752073
0.14454016 -0.110619865 0.15746374 -0.100661464 -0.06100938 0.0943486 -0.08097503 0.00012355922
-0.09876651 0.09021853 0.025110906 0.0055030305 -0.12689666 -0.15280372 0.16116251 -0.057521626
-0.03298451 0.16363566 0.09727169 -0.06941383 0.08517088 -0.16228776 0.0216731 0.15730464
0.03139569 0.026472887 -0.11849856 0.03314905 0.15624756 -0.03682162 0.039176982 0.023374606
0.1646855 0.16327432 0.065691344 0.030026427 0.1260232 0.058177024 0.07305989 0.16535959
-0.056486264 0.16076194 -0.15843882 -0.024864772 -0.15832072 -0.076833665 0.11190591 0.11357185
00000000: 817c a43c deb7 17be ad2f aa3d d75a 0dbe
00000010: 9b19 16be 82a3 4d3d 0092 1a3e ee7d ca3d
00000020: fd4d 8b3d 5844 103e d66f ddbd f5dc 48bd
00000030: c10e 36be cbe4 a8bd 062a 0fbe b76d 0e3e
00000040: 8086 9b3d 0215 c23d 5c47 013e e2f1 aa3d
00000050: 20d2 24bd 2175 1abe f644 c9bd 7e6a 313e
00000060: d1e4 493d aa5d 39be 9a40 29bd 4dae 88bd
00000070: c46f 203d 4d1b 0c3e ea0c 15be b5de 4dbd
00000080: aa8c 1c3e 39d0 38be 441b 05be 0dee 1b3e
00000090: d985 32be 5da5 c03d 24c7 01be b6c0 393e
000000a0: a8aa a63c 3a1e 6c3d 9392 1dbe 9e8f a63d
000000b0: 93a2 8ebd b9ec 543d 23fe 1f3e d43b 6b3c
000000c0: ba70 043e 4ddd 8f3d 4d49 82bd 030e 7e3d
000000d0: 82ee 25bd ede6 07be 4f4d a3bc eeb2 193d
000000e0: 97ac c1bc e43c 163e 1a21 d7bc 9c2b 10be
000000f0: 0ae0 f83d afc1 213e dcd9 f3bd 17a2 1dbe
00000100: 5cc1 843d 4149 5dbd 5bde e13d 0925 e4bd
00000110: 32d3 24bd 2925 e2bd 816e 0fbe 84d2 e1bc
00000120: 9e1c 433d 89b9 32bd 88af a83c 1588 16be
00000130: f222 283e 2605 bbbd 3de2 4dbd f721 acbd
00000140: 1548 3a3e 357d 813d 1e7c 16be f3d0 9d3d
00000150: 8f8a 323d b963 0fbd 7022 053d 0f7d 0fbe
00000160: 20a6 ce3d f636 84bd 0dd2 133d dd6f 133e
00000170: 8564 f2bc 36ec 21be 413e b2bd 2b0a ec3d
00000180: 3f7c 2abd 3866 103e c864 5ebd 9fd2 a8bd
00000190: 1f4a 363d 10ca 663d eba2 393c 748f 30bd
000001a0: 98a1 983d 01f3 cb3d 6adb 083d 1465 f5bd
000001b0: 2d7c dbbd 506f 41bc be64 47bd 9c69 033d
000001c0: 33f9 acbd d6aa 3ebd cd93 5d3c 20e8 b93d
000001d0: 2d96 1abd 8db4 b83c 2242 103e 50e8 dbbd
000001e0: 8bb4 0d3d 7098 823c 4fa8 55bd 0f30 11be
000001f0: 270d 143d 9d70 943d e4de ff3d 9761 203d
00000200: 1e96 a4bd bc5c d63d 0d0b b83d 1c24 65bd
00000210: cbc1 2a3e f1f3 6f3d a383 b23d 7c07 a33d
00000220: 64c4 883d 2ed5 663d 9142 8b3d 94c2 983d
00000230: fe36 cd3d 41a3 113e 53c3 f03d 0da6 293e
00000240: 7112 2b3e 8186 23be 00c5 b9bd b755 c0bd
00000250: b8c8 45bd a28d 70bd 0ac3 eebd 7ab1 03be
00000260: 85bd eebd 727c 4ebd ed5a 083e f1f2 263e
00000270: 3986 253e 046a 77bd 26c4 a4bc 9415 243e
00000280: 93ba dabd f0fd fe3d f6f9 0f3e 3900 5b3d
00000290: 781c 313e 7e75 ee3d 6f67 f33d 2949 10be
000002a0: b30f 98bd 0c2e 8dbd 0344 023e 1db0 103e
000002b0: 319c 9abd b6bd 763d e203 e5bc b421 eebd
000002c0: aa2a d23c 4f4c 293e a32d 30bd aee2 82bd
000002d0: e661 0f3d e241 bf3d f69c 0f3e 5e23 713c
000002e0: 35f4 fdbd 74e9 b83d d25c 7abc ea31 59bd
000002f0: 2b0d 143d 2957 873d f317 1d3d 53f7 97bc
00000300: b587 363c 5c23 183e 7bb1 1b3e c702 023c
00000310: 2de8 f63d 4844 0b3e c6e9 223e 9ac5 103d
00000320: 6de7 043e 6e19 5cbd e0db 83bd 04f0 f33d
00000330: 896a ab3c ad0b ddbc ae36 063e f3b8 c73d
00000340: 5602 143e ab8c e2bd 2d3e 213e 9927 cebd
00000350: f9e4 79bd d739 c13d 3dd6 a5bd ad8f 0139
00000360: 1946 cabd 7ec4 b83d 63b5 cd3c c452 b43b
00000370: 33f1 01be 9478 1cbe c907 253e cc9b 6bbd
00000380: c41a 07bd 1b90 273e 6136 c73d d728 8ebd
00000390: 126e ae3d c32e 26be c98b b13c 7814 213e
000003a0: c498 003d abdd d83c 5faf f2bd 4cc7 073d
000003b0: 5cff 1f3e 44d2 16bd 0b78 203d 1a7c bf3c
000003c0: 51a3 283e 6231 273e 2f89 863d fbf9 f53c
000003d0: 3a0c 013e 084b 6e3d 6ca0 953d 0654 293e
000003e0: 245e 67bd c79e 243e c93d 22be 35b1 cbbc
000003f0: d41e 22be f85a 9dbd ed2e e53d 5c98 e83d

sage.1.lin_root.weight f4 [32, 32]
-0.0354921 0.124245 0.0022487347 0.0018121658 -0.05582374 -0.006296284 -0.038356084 0.06852465
-0.17743249 0.051345333 -0.0021023 -0.02360808 0.008757065 -0.06742114 -0.07935912 -0.1421405
-0.010808028 0.16399515 0.06590422 0.18036795 -0.09135009 -0.13771683 0.083549544 -0.15880987
0.0070363185 -0.10748832 0.09618766 0.14543505 -0.10952962 0.06272925 -0.07645236 0.086792104
0.03805161 -0.09761765 -0.11202024 -0.16632657 -0.0118587855 0.14899144 0.015983738 0.11478665
0.0533999 -0.16308098 0.13302849 -0.10611076 0.06886576 0.053799544 0.035739843 0.070337236
0.064108856 -0.029201293 -0.09811097 -0.05430349 0.07591063 0.15278651 -0.06849495 -0.17920578
0.13630207 -0.06497252 -0.07186701 -0.18494849 -0.02121616 -0.10110671 -0.05363827 -0.16217676
-0.07809707 0.029424367 0.1153392 -0.15197916 0.017412204 0.15855749 0.13536972 0.04072295
-0.18216743 0.058466423 -0.08308017 0.05536227 -0.074139 0.060293168 -0.008948001 0.11111159
-0.11511712 0.15314494 0.126539 0.05951535 -0.080295116 0.033234574 0.12569648 0.08063683
0.018876262 0.10400728 0.021547964 -0.122861475 -0.11482688 0.17599146 0.17931022 -0.058162227
0.122558676 0.058291633 -0.06862313 -0.09583481 0.06085637 0.11219228 0.109240785 -0.057884533
0.15230237 -0.025229217 -0.020221056 -0.06379291 -0.0116023 0.09344435 -0.08361663 -0.06653898
-0.12265662 -0.1133555 0.10636447 -0.16812858 0.08490433 0.062440302 -0.05847578 0.09314446
0.18223535 -0.026218785 -0.0026035984 0.019858299 0.0027315621 0.019925129 0.040702626 -0.11729431
0.14679822 0.060171735 -0.15105787 0.03416604 -0.15959854 -0.0018949814 0.17589429 0.095619805
-0.048711304 -0.18096386 -0.058903955 -0.0058092386 -0.17161857 0.032327093 0.11174784 -0.16762576
-0.10241287 -0.12398754 0.15078731 -0.021902455 0.12762865 -0.1498975 0.039124675 -0.0033861846
-0.16783534 0.06359359 0.018099595 0.11298771 -0.045809466 0.115833394 0.098337874 0.010219869
-0.11823289 0.08234452 0.034512866 -0.0879383 0.17130208 0.14874253 0.10855462 -0.03498428
-0.04649926 0.054714967 0.11260018 -0.1160025 0.15020105 -0.059259236 -0.105874605 -0.15760304
0.0087660095 0.0644641 -0.13392945 0.09811059 -0.07194267 -0.0956783 -0.1041087 0.119114615
-0.116221 0.1633417 -0.11172691 0.018825904 -0.1116637 0.04070227 0.1764908 -0.02226898
0.12680344 0.03417897 0.1041643 0.00023757441 -0.096427776 0.08820974 -0.15853404 0.11708585
-0.034485184 -0.12090254 0.02687748 0.045951813 -0.10905224 0.15880606 -0.08948375 0.1475488
-0.15460382 0.034028582 0.082116194 -0.14579667 -0.050196625 -0.026661953 -0.056601625 0.113021895
0.14562519 0.013239156 0.12969051 -0.13255343 0.029824905 0.004431679 -0.0027200994 0.1431784
0.0699469 0.13209197 0.04611204 0.07399273 -0.08642921 -0.08001141 -0.03050194 -0.076580375
-0.110579066 -0.10677362 -0.11776555 0.028408036 0.15856932 0.10142268 0.013214366 -0.04296238
0.10043833 -0.1382994 -0.08753868 -0.121594675 -0.024301127 -0.0056244214 -0.0098831495 0.12572163
-0.04160623 -0.0056414483 -0.17796217 0.08427298 -0.14310493 -0.15071921 -0.09071722 -0.018583138
00000000: 2a60 11bd 2a74 fe3d 825f 133b 3286 ed3a
00000010: 6fa7 64bd 0f51 cebb 451b 1dbd a756 8c3d
00000020: ddb0 35be 7c4f 523d bec6 09bb bb65 c1bc
00000030: cb79 0f3c 1814 8abd 0987 a2bd 478d 11be
00000040: 2814 31bc 58ee 273e cbf8 863d 60b2 383e
00000050: c215 bbbd a405 0dbe 061c ab3d 0e9f 22be
00000060: eb90 e63b d622 dcbd 09fe c43d edec 143e
00000070: 1151 e0bd 3178 803d 0e93 9cbd 0fc0 b13d
00000080: 01dc 1b3d c3eb c7bd de6a e5bd 8351 2abe
00000090: 5a4b 42bc 3691 183e 54f0 823c 4315 eb3d
000000a0: dbb9 5a3d b3fe 26be 9f38 083e 9950 d9bd
000000b0: 7e09 8d3d e95c 5c3d f163 123d f80c 903d
000000c0: 814b 833d 8d37 efbc 67ee c8bd 566d 5ebd
000000d0: 0877 9b3d 1174 1c3e 1547 8cbd b881 37be
000000e0: c592 0b3e 5010 85bd 032f 93bd 2363 3dbe
000000f0: 83cd adbc 0911 cfbd cdb3 5bbd aa11 26be
00000100: 5bf1 9fbd 5f0b f13c f536 ec3d 6da0 1bbe
00000110: 0aa4 8e3c e55c 223e 5c9e 0a3e 1ccd 263d
00000120: 198a 3abe 7d7a 6f3d f025 aabd 8cc3 623d
00000130: 30d6 97bd f8f5 763d a39a 12bc 798e e33d
00000140: 86c2 ebbd 07d2 1c3e 7193 013e 5ec6 733d
00000150: c471 a4bd fa20 083d 94b6 003e ec24 a53d
00000160: 64a2 9a3c c501 d53d 5b85 b03c cc9e fbbd
00000170: 5b2a ebbd 1b37 343e 199d 373e 843b 6ebd
00000180: 0b00 fb3d 35c3 6e3d 498a 8cbd 0a45 c4bd
00000190: 8744 793d 11c5 e53d a2b9 df3d 5518 6dbd
000001a0: 27f5 1b3e 81ad cebc a1a6 a5bc dba5 82bd
000001b0: 9317 3ebc c05f bf3d 323f abbd 9745 88bd
000001c0: 6533 fbbd ee26 e8bd 9ed5 d93d e629 2cbe
000001d0: 52e2 ad3d 67c1 7f3d 4d84 6fbd 86c2 be3d
000001e0: e79b 3a3e c7c8 d6bc 22a1 2abb dfad a23c
000001f0: 0204 333b 063a a33c ccb7 263d 0038 f0bd
00000200: 4652 163e a376 763d eaae 1abe b1f1 0b3d
00000210: cd6d 23be 0661 f8ba a21d 343e 51d4 c33d
00000220: 8185 47bd 974e 39be 4645 71bd 6d5b bebb
00000230: c7bc 2fbe 6a69 043d 0ddc e43d 16a6 2bbe
00000240: d7bd d1bd 2eed fdbd fd67 1a3e c76c b3bc
00000250: 16b1 023e bb7e 19be 3241 203d c0ea 5dbb
00000260: 07dd 2bbe 5b3d 823d 9a45 943c 1a66 e73d
00000270: b5a2 3bbd 0f3a ed3d 5e65 c93d 3d71 273c
00000280: 1624 f2bd 3ea4 a83d 5d5d 0d3d ff18 b4bd
00000290: d069 2f3e f64f 183e e251 de3d ad4b 0fbd
000002a0: 0276 3ebd cd1c 603d ec9a e63d b892 edbd
000002b0: 4ece 193e d0b9 72bd c9d4 d8bd b162 21be
000002c0: 4f9f 0f3c c105 843d cd24 09be 34ee c83d
000002d0: ae56 93bd fcf2 c3bd f136 d5bd 5df2 f33d
000002e0: 4705 eebd 0c43 273e 14d1 e4bd c838 9a3c
000002f0: f0af e4bd 6cb7 263d 01ba 343e 706d b6bc
00000300: c3d8 013e 3fff 0b3d 1854 d53d 651d 7939
00000310: ed7b c5bd 4fa7 b43d bf56 22be b5ca ef3d
00000320: 5640 0dbd c09b f7bd 292e dc3c f837 3c3d
00000330: c856 dfbd 0e9e 223e 4243 b7bd 0817 173e
00000340: 7750 1ebe 8e61 0b3d 892c a83d b94b 15be
00000350: fa9a 4dbd 2b6a dabc 1bd7 67bd 0678 e73d
00000360: c51e 153e 0ce9 583c 97cd 043e 16bc 07be
00000370: 5c53 f43c 9e37 913b b243 32bb 5c9d 123e
00000380: 5240 8f3d 1e43 073e fadf 3c3d 8089 973d
00000390: cc01 b1bd 06dd a3bd 34df f9bc 2cd6 9cbd
000003a0: 4777 e2bd 21ac dabd 112f f1bd f8b7 e83c
000003b0: ff5f 223e b2b6 cf3d 1181 583c 52f9 2fbd
000003c0: 9cb2 cd3d 5c9e 0dbe 7b47 b3bd a106 f9bd
000003d0: 2813 c7bc 114d b8bb efec 21bc 2cbd 003e
000003e0: 4b6b 2abd e6db b8bb b73b 36be 5097 ac3d
000003f0: 198a 12be 2356 1abe f3c9 b9bd aa3b 98bc

sage.1.lin_root.bias f4 [32]
-0.01595646 -0.06943583 -0.18214549 0.06904973 -0.007887893 -0.067015745 0.099076726 0.0075263917
-0.11363901 0.090894125 0.0854456 0.12869269 0.06298929 -0.020002123 0.049324524 -0.1414316
0.039844975 -0.11442849 -0.15793997 0.0206045 0.11046304 0.13680103 -0.010999833 -0.046367127
0.11980814 0.067267455 0.12850752 0.16515361 -0.16841722 0.03688189 0.1435162 -0.08445061
00000000: 1fb7 82bc 5f34 8ebd 5984 3abe f269 8d3d
00000010: 393c 01bc 8d3f 89bd bde8 ca3d f39f f63b
00000020: 92bb e8bd b326 ba3d 1afe ae3d 04c8 033e
00000030: 8700 813d 7edb a3bc 8308 4a3d 72d3 10be
00000040: 7c34 233d 7c59 eabd 04bb 21be c5ca a83c
00000050: 723a e23d 9215 0c3e a538 34bc 75eb 3dbd
00000060: f85d f53d 85c3 893d 7a97 033e 071e 293e
00000070: 9075 2cbe 7711 173d e9f5 123e 71f4 acbd

sage.2.lin_rel.weight f4 [8, 32]
0.0011738451 0.06329928 0.007443972 0.06274772 0.072574615 0.082749404 -0.0062261387 -0.19570814
-0.17138828 -0.08848459 0.027808333 0.119647935 -0.11666103 -0.018843694 0.16927418 0.024003837
-0.1846554 -0.17449437 0.09656304 -0.13470739 -0.086968936 -0.034039658 0.054322597 -0.15111926
0.14335072 -0.14981633 0.05819516 -0.049587894 0.094450206 -0.1638469 0.0856093 0.032864574
-0.121850476 -0.15589282 -0.10921242 0.14927062 -0.15983057 -0.07367728 0.045707922 0.027539464
0.1646425 0.036574576 0.15928766 0.16008821 -0.06359567 0.14440149 0.14869544 -0.18401188
0.09566707 -0.08863282 0.15194693 0.14557941 -0.10075418 -0.08479277 -0.010868735 0.0059193443
-0.12980635 0.0982507 -0.12245088 0.100452825 -0.028161652 0.11873953 -0.027414646 -0.14855112
0.027720654 0.045392852 -0.0049509713 -0.07175242 0.00058423943 -0.1119998 -0.16925432 -0.14684772
-0.020735009 0.012063361 0.0095587075 -0.1537896 0.06795578 0.13607995 0.14346679 0.1636213
0.1175884 0.09697135 0.11213384 0.086031705 0.045657367 -0.098645285 -0.10610784 0.08801164
-0.07670757 -0.06621712 -0.1370352 -0.022655712 0.12941566 0.03686701 -0.07973527 0.11552228
0.05853068 -0.08111864 -0.1657901 0.15990902 0.050171718 -0.0026919984 0.050654713 -0.08704996
-0.042340446 0.18226598 -0.0501098 0.057522114 -0.10344624 -0.13926846 -0.08284692 0.04613716
-0.053489964 0.16892165 0.17863269 0.039154917 0.01673309 -0.0024001186 0.059935663 0.024350058
-0.12924108 -0.09070901 -0.1671681 0.17593355 0.16873898 -0.16146629 -0.019389734 0.13230325
-0.07719612 0.18439361 -0.16027765 -0.033026293 0.03654273 -0.10831836 -0.162628 -0.00034051604
-0.13568243 -0.08605928 0.022630887 -0.016572556 -0.108263955 -0.13608232 0.02469938 -0.04801391
-0.0005502734 -0.019238565 -0.176561 0.09605324 -0.07043546 -0.107173435 -0.095314845 -0.045760702
-0.0114724925 -0.13301288 0.16125484 0.12810686 0.085904464 0.018461457 0.085471936 -0.03600587
0.1598606 -0.11868079 -0.020789195 0.12064428 0.07380028 0.10425742 -0.078818396 0.14420283
-0.1478193 0.0076953713 0.11676683 0.12420274 -0.0061333035 0.12257255 0.09388664 -0.08446518
0.050280068 -0.0071108434 0.07378976 0.08105327 0.06903523 0.07602538 -0.06650887 0.028868472
-0.04524647 -0.03140816 0.01804705 0.15824752 0.07334727 -0.015688017 -0.050892483 -0.07776105
-0.11224499 0.010178613 -0.07342288 0.108652934 -0.083205424 -0.10817518 -0.04713034 -0.04454528
0.17957899 -0.152652 -0.041442722 -0.0038222813 0.032369975 -0.1366387 0.019689027 0.083720766
-0.0363523 0.10674784 -0.09049238 -0.106646225 -0.13559704 -0.16405334 -0.051383644 0.18101253
0.14732149 -0.0036605108 -0.08581523 0.09628803 -0.09542083 0.14865424 0.050741024 -0.17032234
0.033685047 -0.114040695 0.12778214 0.07948134 -0.1525819 -0.08062428 -0.13906376 -0.066024676
-0.11798132 0.11106473 -0.026614513 -0.052485548 -0.1601677 -0.11696081 0.044459913 -0.043015067
0.15516278 -0.018086946 -0.14628239 0.114771545 -0.11077413 0.15126584 0.06719611 0.14375922
0.16025765 0.1262273 -0.16998404 0.025842503 0.14482667 -0.046514537 -0.050124276 0.10204023
00000000: b5db 993a 0ea3 813d 90ec f33b e081 803d
00000010: 00a2 943d 8578 a93d a304 ccbb b767 48be
00000020: 6980 2fbe 6937 b5bd 4dce e33c fa09 f53d
00000030: faeb eebd 175e 9abc 3656 2d3e b2a3 c43c
00000040: 4e16 3dbe a7ae 32be d8c2 c53d bcf0 09be
00000050: c51c b2bd 2b6d 0bbd 5f81 5e3d 02bf 1abe
00000060: 88ca 123e 7469 19be 0c5e 6e3d ad1c 4bbd
00000070: 1c6f c13d 7bc7 27be ee53 af3d 019d 063d
00000080: be8c f9bd 5ea2 1fbe c3aa dfbd 66da 183e
00000090: a0aa 23be 1de4 96bd 3b38 3b3d 719a e13c
000000a0: 0b98 283e 39cf 153d 4e1c 233e 2aee 233e
000000b0: 723e 82bd fcdd 133e 9e43 183e 9c6d 3cbe
000000c0: 19ed c33d 2085 b5bd fa97 1b3e c512 153e
000000d0: 3558 cebd d5a7 adbd c712 32bc 0ff7 c13b
000000e0: f5eb 04be aa37 c93d 87c7 fabd 36ba cd3d
000000f0: 44b3 e6bc b62d f33d ae94 e0bc c91d 18be
00000100: 6d16 e33c dbed 393d c23b a2bb eff2 92bd
00000110: a527 193a 2760 e5bd 0151 2dbe 405f 16be
00000120: 77dc a9bc 67a5 453c 209c 1c3c 057b 1dbe
00000130: 662c 8b3d 8b58 0b3e f5e8 123e 588c 273e
00000140: 30d2 f03d ea98 c63d 6da6 e53d 6431 b03d
00000150: 3803 3b3d 8a06 cabd 114f d9bd 723f b43d
00000160: dc18 9dbd d79c 87bd f552 0cbe 7998 b9bc
00000170: 8a85 043e dd01 173d 3f4c a3bd f296 ec3d
00000180: debd 6f3d 8821 a6bd e1c4 29be 31bf 233e
00000190: dc80 4d3d 3d6c 30bb 517b 4f3d 4047 b2bd
000001a0: 2d6d 2dbd efa3 3a3e ef3f 4dbd 4f9c 6b3d
000001b0: 9fdb d3bd 649c 0ebe a5ab a9bd 52fa 3c3d
000001c0: 4b18 5bbd ccf9 2c3e 7deb 363e e860 203d
000001d0: d513 893c 4f4b 1dbb 197f 753d c679 c73c
000001e0: c657 04be a5c5 b9bd 1d2e 2bbe ed27 343e
000001f0: e9c9 2c3e 6b57 25be 38d7 9ebc 817a 073e
00000200: 0019 9ebd aed1 3c3e d31f 24be 9446 07bd
00000210: d4ad 153d 04d6 ddbd f487 26be 4a87 b2b9
00000220: 56f0 0abe d93f b0bd 6964 b93c 2bc3 87bc
00000230: 7eb9 ddbd 2a59 0bbe 5b56 ca3c 3caa 44bd
00000240: 3940 10ba 329a 9dbc 68cc 34be 90b7 c43d
00000250: 7740 90bd bf7d dbbd 6e34 c3bd 936f 3bbd
00000260: 1ff7 3bbc 8734 08be fd1f 253e 722e 033e
00000270: aeee af3d 7b3c 973c e90b af3d e47a 13bd
00000280: 7fb2 233e ea0e f3bd 1a4e aabc 5914 f73d
00000290: 9a24 973d ea84 d53d 8a6b a1bd e8a9 133e
000002a0: f15d 17be 7429 fc3b 7323 ef3d 025e fe3d
000002b0: e1f9 c8bb 5107 fb3d a447 c03d 15fc acbd
000002c0: 79f2 4d3d 1402 e9bb 161f 973d 42ff a53d
000002d0: 5862 8d3d 32b3 9b3d cd35 88bd 937d ec3c
000002e0: 5d54 39bd d8a5 00bd 68d7 933c a30b 223e
000002f0: 1837 963d 2884 80bc a374 50bd 2f41 9fbd
00000300: b4e0 e5bd 32c4 263c bc5e 96bd 6e85 de3d
00000310: 9b67 aabd f38a ddbd be0b 41bd 1d75 36bd
00000320: 8ee3 373e ce50 1cbe d8bf 29bd 3d7f 7abb
00000330: 6196 043d 04eb 0bbe e24a a13c cb75 ab3d
00000340: 26e6 14bd 9d9e da3d 1254 b9bd 5669 dabd
00000350: f3d9 0abe 99fd 27be a877 52bd 595b 393e
00000360: 72db 163e 2ee5 6fbb e5bf afbd a932 c53d
00000370: ff6b c3bd d138 183e d2d5 4f3d fb68 2ebe
00000380: 55f9 093d 2b8e e9bd 52d9 023e 1dc7 a23d
00000390: 6e3e 1cbe 581e a5bd bb66 0ebe f237 87bd
000003a0: 31a0 f1bd e875 e33d ae06 dabc 16fb 56bd
000003b0: 0003 24be 2689 efbd 991b 363d 9130 30bd
000003c0: fee2 1e3e 132b 94bc 0dcb 15be 580d eb3d
000003d0: 8cdd e2bd 6fe5 1a3e 1d9e 893d 9e35 133e
000003e0: 951a 243e bb41 013e 4c10 2ebe a8b3 d33c
000003f0: 714d 143e 0786 3ebd 1d4f 4dbd 78fa d03d

sage.2.lin_root.weight f4 [8, 32]
0.027654627 0.107548214 0.05166872 0.00876793 0.010413477 0.015856901 -0.08637091 -0.10184309
0.13883545 0.049630936 0.07840984 0.0030523578 0.005162068 0.058588255 0.10130391 -0.056693908
0.14113003 -0.029766314 0.025795773 -0.12892374 -0.009152259 -0.06471847 -0.11200686 -0.17355889
0.06406062 0.14009626 -0.019330123 -0.028221548 -0.028659683 0.02326046 -0.022493556 -0.10269429
0.16043998 0.03897405 0.07258121 0.09432298 0.056466818 0.05013756 0.18701899 0.11582749
0.090406574 -0.07481848 0.1025728 -0.0064303195 -0.16254 0.09445604 -0.046972588 -0.07200712
-0.12528704 -0.13932247 0.008512386 -0.043956462 0.1386685 -0.13139188 -0.021698246 -0.095912814
0.15728672 -0.095136106 -0.14273575 0.10278473 0.06950402 -0.008903405 -0.010683202 0.16581929
-0.009235832 0.08087098 -0.13371034 0.11636978 -0.050489984 0.10836764 -0.14459062 0.02412282
-0.18412651 0.14481136 0.0390327 0.124053426 0.10736599 -0.06985262 -0.18770616 -0.12690139
-0.089553595 0.15735935 0.09344261 0.07360839 -0.091507606 -0.13755882 0.1434879 -0.068237476
0.16168617 -0.17117307 -0.014055686 -0.15637523 0.12750712 -0.03342027 0.18135022 0.052908383
-0.14734474 0.03503549 0.107369594 0.10152908 0.068894215 -0.05476134 -0.057832114 0.026513085
0.16266297 -0.12247213 -0.07631303 -0.118065335 -0.050666034 -0.0125189405 -0.025471717 -0.083582096
-0.12174945 -0.10645256 0.06608805 -0.07427814 -0.070528224 -0.07999865 -0.16538526 0.042722553
-0.02710575 -0.014686796 -0.14261995 0.10145377 0.0059569417 -0.14096886 0.034444906 0.12049388
0.024250485 0.052234113 -0.070195325 0.0022371898 0.14368838 -0.10483649 -0.14606752 -0.016392056
0.16584729 0.12851384 -0.032038927 0.118882574 0.11491843 0.17204325 -0.0778635 -0.1644555
-0.050769877 -0.001071833 -0.12348728 0.15374228 0.13905635 -0.12763524 0.049926747 0.11421523
0.010464284 0.13363716 0.09347769 0.08863507 0.14223415 0.13645948 -0.10051122 0.10765955
-0.06353361 -0.14359294 0.06677781 0.00080641574 -0.12845059 0.1595346 -0.16346431 -0.13259907
0.109978214 -0.09199313 -0.03330299 -0.010850752 -0.034154188 -0.11570022 -0.18245547 -0.016329193
0.03484222 0.16006115 0.0708041 0.13310821 -0.03316005 0.09243932 -0.04851045 -0.08294318
-0.11293908 -0.16363439 -0.15857522 0.033619057 -0.057355236 -0.11348914 0.041016594 -0.084295616
0.10373798 0.08805383 0.030043585 0.07078202 -0.033023708 0.059828512 0.0674066 0.18721128
-0.039281704 -0.1709631 -0.1268171 -0.15981296 -0.16254194 0.066145815 -0.03465517 -0.123614505
0.13643298 0.177517 0.085104614 -0.031635605 0.10661353 0.024952883 -0.08727447 0.01553611
0.018910598 -0.1377678 -0.1621964 -0.093471006 0.17226732 -0.14051144 0.098526865 -0.05977997
0.11485908 -0.10796041 -0.08511634 -0.14189376 -0.16379932 -0.005536823 -0.056417573 -0.12055691
-0.16380514 -0.052499738 -0.057121944 -0.07142774 -0.11243668 -0.01860705 -0.068888165 -0.10617817
-0.1289123 0.027384397 0.085737675 -0.09180856 -0.17158155 -0.15677649 0.13888614 0.020113774
0.13951655 -0.1341717 0.06919126 -0.013444587 -0.07736277 0.08634905 0.11059486 -0.0421749
00000000: f58b e23c 3d42 dc3d 94a2 533d 5da7 0f3c
00000010: 4a9d 2a3c 55e6 813c 3be3 b0bd 1c93 d0bd
00000020: e12a 0e3e cf49 4b3d 5795 a03d 110a 483b
00000030: 9126 a93b 3dfa 6f3d 6d78 cf3d df37 68bd
00000040: 6484 103e 7cd8 f3bc a851 d33c 9604 04be
00000050: 5bf3 15bc 1e8b 84bd da63 e5bd 6cb9 31be
00000060: 3732 833d 6575 0f3e 355a 9ebc e030 e7bc
00000070: b6c7 eabc b88c be3c 6844 b8bc 6251 d2bd
00000080: 614a 243e 41a3 1f3d 75a5 943d 682c c13d
00000090: c049 673d 0b5d 4d3d e881 3f3e f736 ed3d
000000a0: 1527 b93d 6e3a 99bd b011 d23d 6eb5 d2bb
000000b0: e370 26be 2b72 c13d 5466 40bd 7878 93bd
000000c0: 3f4b 00be 8daa 0ebe 8977 0b3c b10b 34bd
000000d0: 1eff 0d3e 988b 06be 85c0 b1bc f06d c4bd
000000e0: c50f 213e b8d6 c2bd 5229 12be cd80 d23d
000000f0: 2058 8e3d 96df 11bc 9908 2fbc 88cc 293e
00000100: e351 17bc af9f a53d 5deb 08be 4753 ee3d
00000110: 96ce 4ebd daef dd3d 900f 14be 389d c53c
00000120: a98b 3cbe 6e49 143e c1e0 1f3d b90f fe3d
00000130: b3e2 db3d e40e 8fbd 0b36 40be 70f2 01be
00000140: e067 b7bd cf22 213e d75e bf3d ffbf 963d
00000150: 5768 bbbd 38dc 0cbe 7eee 123e 17c0 8bbd
00000160: 0f91 253e fe47 2fbe d249 66bc d420 20be
00000170: 3a91 023e b1e3 08bd dfb3 393e 76b6 583d
00000180: 8ae1 16be 6081 0f3d 97e4 db3d 7aee cf3d
00000190: 6918 8d3d 6d4d 60bd 5ee1 6cbd f831 d93c
000001a0: 1f91 263e abd2 fabd 024a 9cbd 3dcc f1bd
000001b0: 3087 4fbd 3e1c 4dbc 10aa d0bc 172d abbd
000001c0: c757 f9bd cd03 dabd 2c59 873d 231f 98bd
000001d0: 1a71 90bd 55d6 a3bd c15a 29be d8fd 2e3d
000001e0: e10c debc e3a0 70bc f70a 12be ffc6 cf3d
000001f0: 7332 c33b 245a 10be 1a16 0d3d 7fc5 f63d
00000200: f4a8 c63c 70f3 553d 91c2 8fbd d19d 123b
00000210: 0c23 133e 83b4 d6bd b992 15be a248 86bc
00000220: dfd3 293e 2299 033e 403b 03bd b578 f33d
00000230: 5b5a eb3d 1b2c 303e e676 9fbd 0667 28be
00000240: 13f4 4fbd bf7c 8cba e6e6 fcbd 9e6e 1d3e
00000250: ca64 0e3e d0b2 02be fd7f 4c3d ade9 e93d
00000260: 6372 2b3c 2ed8 083e 3b71 bf3d 4e86 b53d
00000270: d4a5 113e 09bc 0b3e d4d8 cdbd 9c7c dc3d
00000280: e91d 82bd 070a 13be cec2 883d a565 533a
00000290: 8d88 03be 0a5d 233e 3063 27be 0dc8 07be
000002a0: 423c e13d e566 bcbd b768 08bd 5ac7 31bc
000002b0: 43e5 0bbd 3df4 ecbd 9bd5 3abe cdc4 85bc
000002c0: b7b6 0e3d 12e7 233e bd01 913d 854d 083e
000002d0: d5d2 07bd d450 bd3d e5b2 46bd 1dde a9bd
000002e0: 9b4c e7bd c68f 27be 8b61 22be 23b4 093d
000002f0: 53ed 6abd ff6c e8bd 0401 283d 2ea3 acbd
00000300: 9474 d43d 9155 b43d f71d f63c 2af6 903d
00000310: de43 07bd be0e 753d 790c 8a3d 50b4 3f3e
00000320: dae5 20bd f310 2fbe 58dc 01be 02a6 23be
00000330: 6571 26be 7577 873d 94f2 0dbd 9a29 fdbd
00000340: 16b5 0b3e 04c7 353e 544b ae3d 5694 01bd
00000350: 3258 da3d fd69 cc3c f5bc b2bd 2b8b 7e3c
00000360: 66ea 9a3c 0113 0dbe d016 26be ba6d bfbd
00000370: d866 303e 3be2 0fbe 74c8 c93d d8db 74bd
00000380: 3d3b eb3d 591a ddbd 7a51 aebd 994c 11be
00000390: 02bb 27be 3d6e b5bb 1d16 67bd 8be6 f6bd
000003a0: 89bc 27be f709 57bd b3f8 69bd b548 92bd
000003b0: 3445 e6bd d06d 98bc 3d15 8dbd f173 d9bd
000003c0: 9601 04be 3e55 e03c 3c97 af3d 2006 bcbd
000003d0: 13b3 2fbe 048a 20be 2b38 0e3e a4c5 a43c
000003e0: 6ddd 0e3e 4e64 09be 26b4 8d3d af46 5cbc
000003f0: 5f70 9ebd c5d7 b03d 8f7f e23d 97bf 2cbd

sage.2.lin_root.bias f4 [8]
-0.09007961 -0.017192835 0.11066103 -0.16774537 -0.10110243 -0.09162024 -0.12397469 -0.063801266
00000000: a97b b8bd fdd7 8cbc 40a2 e23d 71c5 2bbe
00000010: ca0e cfbd 64a3 bbbd 71e6 fdbd 3daa 82bd

batch_norm.0.weight f4 [1000]
0.88369054 0.9685014 0.96714693 0.9600975 0.9667163 0.97571135 0.94870406 0.9724985
0.9733479 0.9737596 0.98233545 0.9804349 0.98031276 0.9840608 0.9922715 0.9973637
0.98543096 0.9935546 0.9935343 0.9993259 0.9855761 0.9913642 1.0027003 1.004644
0.99072254 0.9961947 1.0013753 1.0093567 1.005553 1.0055329 1.0029836 1.0113554
1.0066307 1.0082431 1.0114061 1.0142887 1.0140156 1.0169243 1.0188634 1.0184711
1.0156653 1.0182668 1.0230231 1.0154128 1.0235257 1.0183226 1.0272754 1.0245926
1.0221725 1.0207233 1.0319921 1.0153278 1.0190994 1.0321513 1.0258145 1.036918
1.0252732 1.033429 1.0335493 1.024913 1.0356991 1.0298696 1.0369979 1.0297544
1.0349083 1.032511 1.04701 1.0342263 1.0272464 1.0338368 1.0509694 1.0425832
1.0423431 1.0512105 1.0431643 1.0399872 1.0359701 1.0287126 1.047292 1.0401033
1.0354068 1.0423286 1.0462714 1.0567639 1.0494256 1.0545428 1.0578833 1.0558314
1.0376393 1.0470036 1.0346962 1.0684432 1.0594658 1.0463134 1.0596691 1.0572534
1.0660996 1.0400015 1.0560558 1.060794 1.0450509 1.0553762 1.0444555 1.0625669
1.0427804 1.0499519 1.0433234 1.04724 1.0556425 1.0604571 1.0725068 1.0625144
1.0532044 1.0761647 1.0580267 1.051193 1.0594898 1.0626744 1.047821 1.0451196
1.0600834 1.0785885 1.0554398 1.0742593 1.0540707 1.0405669 1.0773623 1.0400146
1.0708491 1.0704325 1.0473547 1.0481039 1.0779953 1.0538074 1.043352 1.0633613
1.0585248 1.0416944 1.0974419 1.0424256 1.0582793 1.0683453 1.0685356 1.0678501
1.0433512 1.0432334 1.0644186 1.0558321 1.0559617 1.110159 1.0617818 1.053002
1.0638658 1.0615044 1.078551 1.0833279 1.0590478 1.0680652 1.0574695 1.0616804
1.062914 1.0421091 1.0554183 1.0680391 1.0743331 1.0750071 1.0716773 1.1220162
1.0846729 1.0808693 1.0770717 1.0478092 1.0495216 1.0533656 1.0689907 1.0597924
1.0574263 1.0736094 1.1115168 1.0490463 1.0760618 1.0647442 1.081671 1.0574638
1.0717552 1.0559897 1.0331256 1.0779557 1.0681098 1.0556933 1.0542716 1.0560672
1.047412 1.0580604 1.0418123 1.0660113 1.0471351 1.061388 1.0538282 1.0449172
1.0497662 1.0588621 1.0587487 1.0435126 1.0794863 1.0428697 1.0587314 1.0510192
1.056588 1.0489537 1.0397674 1.0441314 1.0552396 1.029286 1.0440958 1.0466354
1.0598344 1.0298809 1.050934 1.0469459 1.0511425 1.0314182 1.0354621 1.0588638
1.0560982 1.031335 1.0278503 1.0260919 1.0416185 1.0310925 1.0337194 1.0243863
1.0465329 1.0520688 1.0336187 1.033913 1.0360472 1.0287617 1.0398337 1.0439658
1.0369805 1.050633 1.0446057 1.0236274 1.0319571 1.0559305 1.0454036 1.0374707
1.0431488 1.0363835 1.0258919 1.0479939 1.024787 1.028398 1.0222343 1.040163
00000000: 8b39 623f b5ef 773f f196 773f f3c8 753f
00000010: b87a 773f 38c8 793f 45de 723f a9f5 783f
00000020: 542d 793f 4f48 793f 567a 7b3f c8fd 7a3f
00000030: c7f5 7a3f 69eb 7b3f 8105 7e3f 3a53 7f3f
00000040: 3445 7c3f 9859 7e3f 4458 7e3f d2d3 7f3f
00000050: b74e 7c3f 0bca 7d3f 7c58 803f 2d98 803f
00000060: fe9f 7d3f 9e06 7f3f 112d 803f 9a32 813f
00000070: f6b5 803f 4db5 803f c461 803f 1874 813f
00000080: 46d9 803f 1c0e 813f c175 813f 36d4 813f
00000090: 43cb 813f 932a 823f 1e6a 823f 435d 823f
000000a0: 5201 823f 9156 823f 6cf2 823f 0cf9 813f
000000b0: e402 833f 6558 823f c37d 833f da25 833f
000000c0: 8cd6 823f 10a7 823f 5118 843f 43f6 813f
000000d0: d971 823f 891d 843f e44d 833f bbb9 843f
000000e0: 273c 833f 6747 843f 584b 843f 5930 833f
000000f0: ca91 843f c4d2 833f 59bc 843f fece 833f
00000100: e077 843f 5229 843f 6c04 863f 8761 843f
00000110: cf7c 833f c454 843f 2a86 863f 5e73 853f
00000120: 806b 853f 118e 863f 6886 853f 4d1e 853f
00000130: ab9a 843f dbac 833f aa0d 863f 1b22 853f
00000140: 3688 843f 066b 853f 39ec 853f 0a44 873f
00000150: 9453 863f 42fb 863f b868 873f 7c25 873f
00000160: 5dd1 843f 3704 863f ed70 843f bfc2 883f
00000170: 939c 873f 99ed 853f 3da3 873f 1454 873f
00000180: f475 883f c51e 853f d62c 873f 19c8 873f
00000190: 3ac4 853f 9116 873f b8b0 853f 3102 883f
000001a0: d479 853f d364 863f 9f8b 853f f60b 863f
000001b0: 4b1f 873f 0fbd 873f e747 893f 7900 883f
000001c0: 67cf 863f c4bf 893f 6b6d 873f 7e8d 863f
000001d0: 5d9d 873f b705 883f 001f 863f 7bc6 853f
000001e0: d0b0 873f 300f 8a3f a718 873f 5481 893f
000001f0: caeb 863f 4c31 853f 02e7 893f 331f 853f
00000200: 9511 893f ef03 893f b80f 863f 4528 863f
00000210: c0fb 893f 29e3 863f 8f8c 853f 391c 883f
00000220: be7d 873f 3e56 853f fa78 8c3f 346e 853f
00000230: b275 873f 8abf 883f c6c5 883f 50af 883f
00000240: 888c 853f ac88 853f de3e 883f 8225 873f
00000250: c129 873f b119 8e3f 77e8 873f c5c8 863f
00000260: c12c 883f 60df 873f f60d 8a3f 7daa 8a3f
00000270: e18e 873f 5cb6 883f 295b 873f 25e5 873f
00000280: 910d 883f d563 853f f217 873f 81b5 883f
00000290: bf83 893f d599 893f b92c 893f 3a9e 8f3f
000002a0: 90d6 8a3f ed59 8a3f 7cdd 893f 9d1e 863f
000002b0: b956 863f afd4 863f b0d4 883f 47a7 873f
000002c0: bf59 873f 086c 893f 2f46 8e3f 2647 863f
000002d0: 65bc 893f 8a49 883f 3274 8a3f f95a 873f
000002e0: 462f 893f ac2a 873f 763d 843f 74fa 893f
000002f0: d2b7 883f f520 873f 5ff2 863f 362d 873f
00000300: 9911 863f 866e 873f 1b5a 853f 0f73 883f
00000310: 8608 863f 90db 873f d8e3 863f d9bf 853f
00000320: bd5e 863f cb88 873f 1485 873f d291 853f
00000330: 9b2c 8a3f c17c 853f 8384 873f cc87 863f
00000340: 473e 873f 1d44 863f 1917 853f 19a6 853f
00000350: 1712 873f a5bf 833f eea4 853f 26f8 853f
00000360: a7a8 873f 23d3 833f 0185 863f 5302 863f
00000370: d68b 863f 8305 843f 068a 843f d988 873f
00000380: 3a2e 873f c902 843f 9990 833f fb56 833f
00000390: c153 853f d7fa 833f eb50 843f 171f 833f
000003a0: caf4 853f 31aa 863f 9e4d 843f 4357 843f
000003b0: 329d 843f 77ae 833f 4519 853f aca0 853f
000003c0: c7bb 843f 247b 863f a4b5 853f 3906 833f
000003d0: 2c17 843f bb28 873f c9cf 853f d7cb 843f
000003e0: e685 853f 37a8 843f 6d50 833f aa24 863f
000003f0: 382c 833f 8ca2 833f 93d8 823f 1024 853f

batch_norm.0.bias f4 [1000]
0.026384821 0.027433993 0.02316245 0.035011474 0.033073768 0.018804437 0.026280845 0.03098467
0.031027136 0.017277613 0.01620834 0.014308178 0.014258931 0.012829195 0.010100546 0.009221449
0.012739418 0.015736075 0.00096759084 0.0074799955 0.008061649 0.0010641174 0.0062137465 0.005727588
-0.0033505785 0.0048034983 -0.0071462607 0.0033247722 0.0017809465 6.139815e-05 -0.012076178 -0.0017719289
1.0450272e-05 -0.0061461297 -0.020033183 -0.008470761 -0.002588325 0.0010661959 -0.016007237 -0.0066590295
-0.00973884 -0.013935828 -0.0070024435 -0.019959358 -0.008952809 -0.027579177 -0.0052345847 -0.008263048
-0.0028266748 -0.0076620234 -0.013045419 -0.03979972 -0.023689574 -0.0076344376 -0.014252808 -0.02294559
-0.021495821 -0.028657876 -0.0029258446 -0.04128683 -0.01365121 -0.007152449 -0.020673193 -0.028288992
-0.016547322 -0.019292431 -0.02735687 -0.039891925 -0.017422687 -0.009646402 -0.0039831037 -0.025856571
-0.026736962 -0.012786375 -0.014530349 -0.028660413 -0.053163223 -0.0105412025 -0.047994435 -0.050228935
-0.014620993 -0.021715375 -0.018290145 -0.031010672 -0.040747646 -0.037940294 -0.011478301 -0.04036993
-0.015974106 -0.03308892 -0.040954582 -0.03818307 -0.033040892 -0.028543914 -0.05293059 -0.043804597
-0.040601503 -0.015098312 -0.026195472 -0.011376975 -0.018069152 -0.039964058 -0.025410889 -0.059345838
-0.049482968 -0.013358337 -0.018461375 -0.018787783 -0.011578191 -0.034864306 -0.055280533 -0.022972671
-0.0074581397 -0.026385233 -0.048341118 -0.03348969 -0.044557184 -0.019814914 -0.017538296 -0.06613757
-0.028870277 -0.062870845 -0.037444524 -0.024744773 -0.040276196 -0.047532283 -0.040576223 -0.016576117
-0.013544176 -0.011618678 -0.014520967 -0.014634547 -0.0198306 -0.03945739 -0.025708783 -0.04635282
-0.017221227 -0.011932527 -0.019093066 -0.018411793 -0.06099378 -0.07478379 -0.026550092 -0.016434526
-0.017010307 -0.014908771 -0.013505251 -0.042836532 -0.011898393 -0.024816267 -0.015680252 -0.015688663
-0.039859805 -0.059015196 -0.023801181 -0.024420837 -0.1155174 -0.063324384 -0.012832018 -0.02633377
-0.019097412 -0.009973589 -0.02222263 -0.019939885 -0.014628888 -0.032683957 -0.022595799 -0.0055844863
-0.042582285 -0.02212781 -0.0073303464 -0.0643826 -0.023851382 -0.019611856 -0.02457474 -0.10415388
-0.024250466 -0.015349925 -0.016139805 -0.014442951 -0.026682721 -0.023340229 -0.031272203 -0.0063525937
-0.028288279 -0.030051554 -0.0027516007 -0.02654963 -0.01082203 -0.019153252 -0.03230876 -0.0033049453
-0.019024337 -0.025723545 -0.028031817 -0.019131128 -0.0051408103 -0.0206915 -0.031533748 -0.01459968
-0.02007657 -0.036527053 -0.008868885 -0.04511195 -0.006873735 -0.016516892 -0.0020942267 -0.012606249
-0.02799839 -0.008681339 -0.022730818 -0.0052179345 -0.004385433 -0.0049404083 -0.008950301 -0.015920281
-0.004814442 -0.003949254 -0.010732609 -0.018687965 -0.011506516 -0.004798916 -0.0021764322 -0.0020720786
-0.014476215 -0.007977422 -0.0018214463 -0.0012620768 -0.021936871 -0.0033146373 -0.002056058 0.0035038819
-0.0126404 -0.008103974 -0.008587824 -0.01132877 -0.0068927477 0.001735567 -0.00018535898 0.0013493251
-0.0038359507 -0.008739219 -0.0019379564 0.00094636274 -0.016865877 0.0044534537 0.0030079174 0.0028550914
0.004057025 -0.004828305 0.0057920334 0.0020963114 0.0014728984 0.007776961 0.004350581 0.008752652
00000000: fb24 d83c 41bd e03c 2ebf bd3c 3168 0f3d
00000010: 5c78 073d c30b 9a3c ed4a d73c 90d3 fd3c
00000020: 9f2c fe3c c889 8d3c 5ac7 843c d96c 6a3c
00000030: 4b9e 693c 8b31 523c c37c 253c 8f15 173c
00000040: feb8 503c f1e8 803c eca5 7d3a c01a f53b
00000050: 0215 043c db79 8b3a af9c cb3b 7eae bb3b
00000060: 6195 5bbb aa66 9d3b 2e2b eabb 6ce4 593b
00000070: a66e e93a e1c2 8038 29db 45bc 1140 e8ba
00000080: 9453 2f37 7965 c9bb a11c a4bc f2c8 0abc
00000090: e3a0 29bb 99bf 8b3a 9c21 83bc fd33 dabb
000000a0: a88f 1fbc 1953 64bc c174 e5bb cf81 a3bc
000000b0: cdae 12bc baed e1bc e186 abbb bc61 07bc
000000c0: bc3f 39bb b611 fbbb 74bc 55bc 0805 23bd
000000d0: a310 c2bc 4e2a fabb 9c84 69bc 64f8 bbbc
000000e0: 0118 b0bc ecc3 eabc 87bf 3fbb 611c 29bd
000000f0: 53a9 5fbc 175f eabb d45a a9bc 51be e7bc
00000100: 408e 87bc 290b 9ebc 841b e0bc b765 23bd
00000110: 06ba 8ebc f10b 1ebc b284 82bb 29d1 d3bc
00000120: 7907 dbbc f27d 51bc b310 6ebc 3ec9 eabc
00000130: aec1 59bd 02b5 2cbc d095 44bd dbbc 4dbd
00000140: e48c 6fbc 71e4 b1bc 37d5 95bc 180a febc
00000150: 01e7 26bd 4867 1bbd 7c0f 3cbc f15a 25bd
00000160: 21dc 82bc 3f88 07bd febf 27bd da65 1cbd
00000170: e355 07bd edd4 e9bc bfcd 58bd 736c 33bd
00000180: c34d 26bd e95e 77bc e397 d6bc 7e66 3abc
00000190: c205 94bc 5ab1 23bd 7f2a d0bc 9f14 73bd
000001a0: a7ae 4abd eddc 5abc 4f3c 97bc d6e8 99bc
000001b0: 74b2 3dbc e0cd 0ebd d76d 62bd 2f31 bcbc
000001c0: 6963 f4bb d825 d8bc 5601 46bd 7c2c 09bd
000001d0: 9881 36bd e352 a2bc 79ac 8fbc 2273 87bd
000001e0: 5c81 ecbc 6ec2 80bd 6e5f 19bd 8db5 cabc
000001f0: a7f8 24bd 36b1 42bd 4133 26bd a3ca 87bc
00000200: 64e8 5dbc 455c 3ebc 5ae9 6dbc bdc5 6fbc
00000210: c873 a2bc 129e 21bd 3a9b d2bc 74dc 3dbd
00000220: 8813 8dbc a580 43bc 1069 9cbc 54d4 96bc
00000230: 9dd4 79bd 3e28 99bd 947f d9bc b3a1 86bc
00000240: 3359 8bbc eb43 74bc 2145 5dbc 5c75 2fbd
00000250: 7af1 42bc 7c4b cbbc df73 80bc 8385 80bc
00000260: 0944 23bd ebb9 71bd b2fa c2bc 350e c8bc
00000270: 6394 ecbd 37b0 81bd 623d 52bc ebb9 d7bc
00000280: 2d72 9cbc 4468 23bc 3c0c b6bc f858 a3bc
00000290: 01ae 6fbc 9ddf 05bd d31a b9bc 11fe b6bb
000002a0: c36a 2ebd 6245 b5bc 6733 f0bb 06db 83bd
000002b0: f963 c3bc 0ba9 a0bc f750 c9bc a14e d5bd
000002c0: eaa8 c6bc 407e 7bbc a037 84bc 21a2 6cbc
000002d0: b995 dabc 0234 bfbc 4817 00bd 6b29 d0bb
000002e0: d2bc e7bc ad2e f6bc 3354 34bb 9c7e d9bc
000002f0: e24e 31bc 48e7 9cbc 3156 04bd c897 58bb
00000300: edd8 9bbc 2fba d2bc fba2 e5bc e2b8 9cbc
00000310: 3e74 a8bb 3881 a9bc 8829 01bd 7f33 6fbc
00000320: 9e77 a4bc 649d 15bd cd4e 11bc 4fc7 38bd
00000330: 123d e1bb 6f4e 87bc 4b3f 09bb 718a 4ebc
00000340: e15c e5bc 2d3c 0ebc fb35 babc 35fb aabb
00000350: aeb3 8fbb 26e3 a1bb 49a4 12bc 406b 82bc
00000360: 77c2 9dbb be68 81bb d3d7 2fbc 8117 99bc
00000370: d385 3cbc 3a40 9dbb 79a2 0ebb b6cb 07bb
00000380: a52d 6dbc bcb3 02bc 99bd eeba 456c a5ba
00000390: f4b4 b3bc 633a 59bb eebe 06bb 62a1 653b
000003a0: ae19 4fbc 88c6 04bc f2b3 0cbc 4e9c 39bc
000003b0: 8fdc e1bb f77b e33a ec5c 42b9 d6db b03a
000003c0: 9364 7bbb f12e 0fbc 0703 feba 5415 783a
000003d0: 4f2a 8abc 47ee 913b 7b20 453b 7c1c 3b3b
000003e0: cbf0 843b c236 9ebb 19cb bd3b 4562 093b
000003f0: 450e c13a e1d5 fe3b 528f 8e3b 4967 0f3c

batch_norm.0.running_mean f4 [1000]
13.504974 14.09086 15.05209 15.080477 14.79722 14.588257 14.929799 14.927344
14.26616 14.694788 14.871678 14.966275 14.370862 14.450117 14.929922 14.949184
14.145677 14.416542 14.8784275 14.826342 14.480185 14.71846 14.865399 14.976206
14.372883 14.561541 14.597596 14.513167 14.547577 14.79375 14.850546 14.822841
14.427081 14.504606 14.875551 14.901353 14.442886 14.575576 14.725226 14.831195
14.410488 14.627321 14.703702 14.769243 14.381406 14.461655 14.591745 14.601088
14.672594 14.605971 14.847001 14.764301 14.533367 14.664315 14.768119 14.835014
14.567959 14.589577 14.68888 14.778072 14.678308 14.740694 14.912486 14.953249
14.555037 14.631372 14.729179 14.789391 14.691498 14.742411 14.765533 14.754498
14.7104025 14.686379 14.689523 14.713984 14.640377 14.7723255 14.802335 14.973504
14.823632 14.806919 14.833694 14.815694 14.605496 14.74881 14.672813 14.830554
14.697305 14.661284 14.775842 14.764186 14.667287 14.679321 14.670773 14.837435
14.7616005 14.760944 14.7870655 14.7719555 14.803511 14.667437 14.681461 14.730428
14.672687 14.60133 14.68274 14.734137 14.554177 14.570424 14.523343 14.544002
14.500559 14.562686 14.591764 14.552404 14.445662 14.35004 14.465251 14.471464
14.418946 14.465263 14.500277 14.455416 14.322049 14.284415 14.296175 14.290327
14.263278 14.251563 14.232245 14.342309 14.221025 14.189434 14.210553 14.119687
14.117249 14.192712 14.144615 14.150314 14.1074 14.002888 13.926967 13.907867
13.832927 13.78672 13.76235 13.824741 13.686243 13.625741 13.590806 13.565399
13.519985 13.442633 13.4162655 13.421458 13.343461 13.279018 13.341358 13.345517
13.095342 13.134287 13.107863 13.057626 12.858693 12.890235 12.784409 12.775284
12.644995 12.60849 12.732112 12.717419 12.496685 12.469898 12.470038 12.411478
12.481501 12.47855 12.39964 12.478573 12.403428 12.283546 12.154908 12.11661
11.988392 11.95366 11.879486 11.870834 11.7824545 11.771196 11.805945 11.7504225
11.627979 11.646754 11.626271 11.649993 11.544693 11.46065 11.529146 11.4116745
11.306574 11.242355 11.176501 11.139218 11.185997 11.029846 10.943108 11.000861
10.839588 10.8957405 10.852374 10.816331 10.725151 10.708913 10.564314 10.617421
10.470163 10.495144 10.436121 10.438681 10.297651 10.210616 10.18869 10.198277
10.173017 10.105352 10.059403 10.129378 9.959873 9.801309 9.82079 9.768275
9.802123 9.639744 9.690938 9.597315 9.5943775 9.512202 9.382218 9.382389
9.386568 9.3331995 9.283155 9.294976 9.162395 9.160711 9.112863 9.002
8.886887 8.952588 8.766656 8.704496 8.636025 8.546858 8.455733 8.453664
00000000: 6014 5841 2a74 6141 5cd5 7041 a249 7141
00000010: 6ac1 6c41 8069 6941 75e0 6e41 67d6 6e41
00000020: 3142 6441 da1d 6b41 65f2 6d41 dd75 6f41
00000030: 0def 6541 ae33 6741 f6e0 6e41 dc2f 6f41
00000040: b154 6241 28aa 6641 0a0e 6e41 b238 6d41
00000050: d6ae 6741 d07e 6b41 add8 6d41 8a9e 6f41
00000060: 54f7 6541 12fc 6841 c18f 6941 ef35 6841
00000070: e0c2 6841 33b3 6c41 d69b 6d41 5b2a 6d41
00000080: 53d5 6641 de12 6841 4202 6e41 f16b 6e41
00000090: 1016 6741 8f35 6941 879a 6b41 934c 6d41
000000a0: 5c91 6641 8209 6a41 5d42 6b41 d24e 6c41
000000b0: 3d1a 6641 f062 6741 ca77 6941 0e9e 6941
000000c0: f2c2 6a41 0fb2 6941 518d 6d41 943a 6c41
000000d0: ac88 6841 09a1 6a41 374a 6c41 385c 6d41
000000e0: 5c16 6941 e86e 6941 a705 6b41 fc72 6c41
000000f0: 59da 6a41 e2d9 6b41 8b99 6e41 8240 6f41
00000100: 6ee1 6841 1a1a 6a41 b8aa 6b41 58a1 6c41
00000110: 6010 6b41 eae0 6b41 a03f 6c41 6c12 6c41
00000120: cf5d 6b41 69fb 6a41 4908 6b41 7a6c 6b41
00000130: fc3e 6a41 725b 6c41 5dd6 6c41 7993 6f41
00000140: 992d 6d41 24e9 6c41 d056 6d41 150d 6d41
00000150: 1db0 6941 20fb 6b41 d8c3 6a41 f349 6d41
00000160: 2928 6b41 9f94 6a41 d969 6c41 1b3a 6c41
00000170: 35ad 6a41 80de 6a41 7cbb 6a41 2266 6d41
00000180: 842f 6c41 d42c 6c41 d297 6c41 ee59 6c41
00000190: 2edb 6c41 d2ad 6a41 44e7 6a41 d5af 6b41
000001a0: 53c3 6a41 0c9f 6941 81ec 6a41 06bf 6b41
000001b0: e9dd 6841 7520 6941 9d5f 6841 3bb4 6841
000001c0: 4a02 6841 c300 6941 de77 6941 a6d6 6841
000001d0: 6e21 6741 c499 6541 ab71 6741 1e8b 6741
000001e0: 01b4 6641 b871 6741 2201 6841 6249 6741
000001f0: 1d27 6541 f78c 6441 22bd 6441 2ea5 6441
00000200: 6336 6441 6706 6441 47b7 6341 197a 6541
00000210: 5289 6341 ec07 6341 6d5e 6341 3dea 6141
00000220: 40e0 6141 5915 6341 5850 6241 b067 6241
00000230: e9b7 6141 d40b 6041 dbd4 5e41 a086 5e41
00000240: ab53 5d41 6896 5c41 9632 5c41 2432 5d41
00000250: dafa 5a41 0903 5a41 f173 5941 e00b 5941
00000260: dc51 5841 0615 5741 06a9 5641 4bbe 5641
00000270: d17e 5541 dc76 5441 3476 5541 3d87 5541
00000280: 8586 5141 0a26 5241 cfb9 5141 09ec 5041
00000290: 35bd 4d41 673e 4e41 f08c 4c41 9067 4c41
000002a0: e651 4a41 60bc 4941 bbb6 4b41 8c7a 4b41
000002b0: 6cf2 4741 b484 4741 4785 4741 6a95 4641
000002c0: 3ab4 4741 24a8 4741 ed64 4641 3ca8 4741
000002d0: 7174 4641 6889 4441 817a 4241 a2dd 4141
000002e0: 74d0 3f41 3142 3f41 6012 3e41 f0ee 3d41
000002f0: ef84 3c41 d256 3c41 27e5 3c41 bb01 3c41
00000300: 340c 3a41 1b59 3a41 3505 3a41 5f66 3a41
00000310: 10b7 3841 d35e 3741 6277 3841 3896 3641
00000320: bae7 3441 b0e0 3341 f3d2 3241 3d3a 3241
00000330: d8f9 3241 407a 3041 f816 2f41 8703 3041
00000340: f46e 2d41 f454 2e41 53a3 2d41 b10f 2d41
00000350: 389a 2b41 b557 2b41 6e07 2941 f5e0 2941
00000360: ca85 2741 1cec 2741 5afa 2641 d604 2741
00000370: 2ec3 2441 af5e 2341 e004 2341 252c 2341
00000380: adc4 2241 86af 2141 51f3 2041 ef11 2241
00000390: a45b 1f41 29d2 1c41 f521 1d41 db4a 1c41
000003a0: 7fd5 1c41 643c 1a41 150e 1b41 9a8e 1941
000003b0: 9282 1941 fb31 1841 911d 1641 441e 1641
000003c0: 622f 1641 c954 1541 ce87 1441 39b8 1441
000003d0: 2b99 1241 4692 1241 49ce 1141 3108 1041
000003e0: b030 0e41 cd3d 0f41 3944 0c41 9e45 0b41
000003f0: 292d 0a41 eebf 0841 af4a 0741 3542 0741
